diff --ruN a/stablehlo/BUILD.bazel b/stablehlo/BUILD.bazel
--- stablehlo/BUILD.bazel
+++ stablehlo/BUILD.bazel
@@ -649,6 +649,7 @@
         ":reference_token",
         ":reference_types",
         ":reference_value",
+        ":replica_group_utils",
         ":stablehlo_ops",
         ":stablehlo_type_inference",
         "@llvm-project//llvm:Support",
@@ -1183,6 +1184,7 @@
         ":broadcast_utils",
         ":chlo_ops",
         ":chlo_rewriters_inc_gen",
+        ":replica_group_utils",
         ":stablehlo_aggressive_simplification_inc_gen",
         ":stablehlo_broadcast_lowering",
         ":stablehlo_create_compatibility_expander_inc_gen",
@@ -1354,6 +1356,23 @@
         "@llvm-project//mlir:IR",
         "@llvm-project//mlir:InferTypeOpInterface",
         "@llvm-project//mlir:QuantOps",
+        "@llvm-project//mlir:Support",
+    ],
+)
+
+cc_library(
+    name = "replica_group_utils",
+    srcs = [
+        "stablehlo/dialect/ReplicaGroupUtils.cpp",
+    ],
+    hdrs = [
+        "stablehlo/dialect/ReplicaGroupUtils.h",
+    ],
+    strip_include_prefix = ".",
+    deps = [
+        ":stablehlo_ops",
+        "@llvm-project//llvm:Support",
+        "@llvm-project//mlir:IR",
         "@llvm-project//mlir:Support",
     ],
 )
diff --ruN a/stablehlo/docs/spec.md b/stablehlo/docs/spec.md
--- stablehlo/docs/spec.md
+++ stablehlo/docs/spec.md
@@ -736,13 +736,13 @@
 
 #### Inputs
 
-| Label | Name                    | Type                                                        | Constraints |
-|-------|-------------------------|-------------------------------------------------------------|-------------|
-| (I1)  | `operands`              | variadic number of tensors or per-tensor quantized tensors  | (C1), (C6)  |
-| (I2)  | `all_gather_dim`        | constant of type `si64`                                     | (C1), (C6)  |
-| (I3)  | `replica_groups`        | 2-dimensional tensor constant of type `si64`                | (C2-C4)     |
-| (I4)  | `channel_id`            | constant of type `si64`                                     | (C5)        |
-| (I5)  | `use_global_device_ids` | constant of type `i1`                                       | (C5)        |
+| Label | Name                    | Type                                                                                    | Constraints |
+|-------|-------------------------|-----------------------------------------------------------------------------------------|-------------|
+| (I1)  | `operands`              | variadic number of tensors or per-tensor quantized tensors                              | (C1), (C6)  |
+| (I2)  | `all_gather_dim`        | constant of type `si64`                                                                 | (C1), (C6)  |
+| (I3)  | `replica_groups`        | 2-dimensional tensor constant of type `si64` or `ReplicaGroupMeshAxes`             | (C2-C4)     |
+| (I4)  | `channel_id`            | constant of type `si64`                                                                 | (C5)        |
+| (I5)  | `use_global_device_ids` | constant of type `i1`                                                                   | (C5)        |
 
 #### Outputs
 
@@ -818,13 +818,13 @@
 
 #### Inputs
 
-| Label | Name                    | Type                                                             | Constraints |
-|-------|-------------------------|------------------------------------------------------------------|-------------|
-| (I1)  | `operands`              | variadic number of tensors or per-tensor quantized tensors       | (C5), (C6)  |
-| (I2)  | `replica_groups`        | variadic number of 1-dimensional tensor constants of type `si64` | (C1-C3)     |
-| (I3)  | `channel_id`            | constant of type `si64`                                          | (C4)        |
-| (I4)  | `use_global_device_ids` | constant of type `i1`                                            | (C4)        |
-| (I5)  | `computation`           | function                                                         | (C5)        |
+| Label | Name                    | Type                                                                                                        | Constraints |
+|-------|-------------------------|-------------------------------------------------------------------------------------------------------------|-------------|
+| (I1)  | `operands`              | variadic number of tensors or per-tensor quantized tensors                                                  | (C5), (C6)  |
+| (I2)  | `replica_groups`        | variadic number of 1-dimensional tensor constants of type `si64` or `ReplicaGroupMeshAxes`             | (C1-C3)     |
+| (I3)  | `channel_id`            | constant of type `si64`                                                                                     | (C4)        |
+| (I4)  | `use_global_device_ids` | constant of type `i1`                                                                                       | (C4)        |
+| (I5)  | `computation`           | function                                                                                                    | (C5)        |
 
 #### Outputs
 
@@ -900,14 +900,14 @@
 
 #### Inputs
 
-| Label | Name               | Type                                                         | Constraints            |
-|-------|--------------------|--------------------------------------------------------------|------------------------|
-| (I1)  | `operands`         |  variadic number of tensors or per-tensor quantized tensors  | (C1-C3), (C9)          |
-| (I2)  | `split_dimension`  | constant of type `si64`                                      | (C1), (C2), (C9)       |
-| (I3)  | `concat_dimension` | constant of type `si64`                                      | (C3), (C9)             |
-| (I4)  | `split_count`      | constant of type `si64`                                      | (C2), (C4), (C8), (C9) |
-| (I5)  | `replica_groups`   | 2-dimensional tensor constant of type `si64`                 | (C5-C8)                |
-| (I6)  | `channel_id`       | constant of type `si64`                                      |                        |
+| Label | Name               | Type                                                                                    | Constraints            |
+|-------|--------------------|-----------------------------------------------------------------------------------------|------------------------|
+| (I1)  | `operands`         |  variadic number of tensors or per-tensor quantized tensors                             | (C1-C3), (C9)          |
+| (I2)  | `split_dimension`  | constant of type `si64`                                                                 | (C1), (C2), (C9)       |
+| (I3)  | `concat_dimension` | constant of type `si64`                                                                 | (C3), (C9)             |
+| (I4)  | `split_count`      | constant of type `si64`                                                                 | (C2), (C4), (C8), (C9) |
+| (I5)  | `replica_groups`   | 2-dimensional tensor constant of type `si64` or `ReplicaGroupMeshAxes`             | (C5-C8)                |
+| (I6)  | `channel_id`       | constant of type `si64`                                                                 |                        |
 
 #### Outputs
 
@@ -1811,11 +1811,11 @@
 
 #### Inputs
 
-| Label | Name             | Type                                                             | Constraints |
-|-------|------------------|------------------------------------------------------------------|-------------|
-| (I1)  | `operand`        | tensor or per-tensor quantized tensor                            | (C3)        |
-| (I2)  | `replica_groups` | variadic number of 1-dimensional tensor constants of type `si64` | (C1), (C2)  |
-| (I3)  | `channel_id`     | constant of type `si64`                                          |             |
+| Label | Name             | Type                                                                                                        | Constraints |
+|-------|------------------|-------------------------------------------------------------------------------------------------------------|-------------|
+| (I1)  | `operand`        | tensor or per-tensor quantized tensor                                                                       | (C3)        |
+| (I2)  | `replica_groups` | variadic number of 1-dimensional tensor constants of type `si64` or `ReplicaGroupMeshAxes`             | (C1), (C2)  |
+| (I3)  | `channel_id`     | constant of type `si64`                                                                                     |             |
 
 #### Outputs
 
@@ -5124,14 +5124,14 @@
 
 #### Inputs
 
-| Label | Name                    | Type                                         | Constraints            |
-|-------|-------------------------|----------------------------------------------|------------------------|
-| (I1)  | `operand`               | tensor or per-tensor quantized tensor        | (C1), (C2), (C7), (C8) |
-| (I2)  | `scatter_dimension`     | constant of type `si64`                      | (C1), (C2), (C8)       |
-| (I3)  | `replica_groups`        | 2-dimensional tensor constant of type `si64` | (C3-C5)                |
-| (I4)  | `channel_id`            | constant of type `si64`                      | (C6)                   |
-| (I5)  | `use_global_device_ids` | constant of type `i1`                        | (C6)                   |
-| (I6)  | `computation`           | function                                     | (C7)                   |
+| Label | Name                    | Type                                                                                    | Constraints            |
+|-------|-------------------------|-----------------------------------------------------------------------------------------|------------------------|
+| (I1)  | `operand`               | tensor or per-tensor quantized tensor                                                   | (C1), (C2), (C7), (C8) |
+| (I2)  | `scatter_dimension`     | constant of type `si64`                                                                 | (C1), (C2), (C8)       |
+| (I3)  | `replica_groups`        | 2-dimensional tensor constant of type `si64` or `ReplicaGroupMeshAxes`             | (C3-C5)                |
+| (I4)  | `channel_id`            | constant of type `si64`                                                                 | (C6)                   |
+| (I5)  | `use_global_device_ids` | constant of type `i1`                                                                   | (C6)                   |
+| (I6)  | `computation`           | function                                                                                | (C7)                   |
 
 #### Outputs
 
@@ -7144,11 +7144,65 @@
 and are described in this section. More formally, StableHLO supports the
 following four strategies.
 
+#### Replica groups
+
+Collective operations use `replica_groups` to define the groups of devices the
+computation will be executed on. The `replica_groups` can be either a tensor
+constant of type `si64` (representing a list of lists of ids) or a
+`ReplicaGroupMeshAxes` object.
+
+```mlir
+// Standard replica groups constant (list of lists of ids)
+dense<[[0, 1], [2, 3]]> : tensor<2x2xi64>
+
+// Symbol reference mesh (Post-lifting)
+#stablehlo.replica_group_mesh_axes<
+  mesh = @mesh,
+  axes = [
+    #stablehlo.axis_ref<name = "x">,
+    #stablehlo.axis_ref<name = "y">
+  ]
+>
+
+// Inlined mesh (Prior to lifting)
+#stablehlo.replica_group_mesh_axes<
+  mesh = #stablehlo.mesh<
+    axes = [
+      #stablehlo.mesh_axis<name = "x", size = 2>,
+      #stablehlo.mesh_axis<name = "y", size = 2>
+    ]
+  >,
+  axes = [
+    #stablehlo.axis_ref<name = "x", sub_axis_info = (1)2>,
+    #stablehlo.axis_ref<name = "y">
+  ]
+>
+```
+
+A `ReplicaGroupMeshAxes` defines the replica groups based on a Shardy mesh
+representation. `ReplicaGroupMeshAxes` fields include:
+
+* `mesh`, an `attribute` representing the Shardy mesh to be used (either an
+  inlined `#stablehlo.mesh` or a symbol reference to a mesh definition).
+* `axes`, a 1-dimensional tensor constant of `AxisRef` elements.
+
+An `AxisRef` defines a reference to either a full axis or a split sub-axis.
+`AxisRef` fields include:
+
+* `name`, a constant of type `string` representing the name of this axis.
+* `sub_axis_info`, an optional `SubAxisInfo` object that provides additional
+  information if this is a sub axis.
+
+A `SubAxisInfo` defines how this sub-axis is derived from the full axis.
+`SubAxisInfo` fields include:
+
+* `pre_size`, a constant of type `si64`.
+* `size`, a constant of type `si64`.
+
 #### cross_replica
 
 Only cross-replica communications happen within each process group. This
-strategy takes `replica_groups` - a list of lists of replica ids - and computes
-a Cartesian product of `replica_groups` by `partition_ids`. `replica_groups`
+strategy takes `replica_groups` and computes a Cartesian product of `replica_groups` by `partition_ids`. `replica_groups`
 must have unique elements and cover all `replica_ids`. More formally, using
 Python syntax:
 
@@ -7169,7 +7223,7 @@
 #### cross_partition
 
 Only cross-partition communications happen within each process group. This
-strategy takes `partition_groups` - a list of lists of partition ids - and
+strategy takes `partition_groups` and
 computes a Cartesian product of `partition_groups` by `replica_ids`.
 `partition_groups` must have unique elements and cover all `partition_ids`.
 More formally, using Python syntax:
@@ -7191,8 +7245,7 @@
 #### cross_replica_and_partition
 
 Both cross-replica and cross-partition communications may happen within each
-process group. This strategy takes `replica_groups` - a list of lists of
-replica ids - and computes Cartesian products of each `replica_group` by
+process group. This strategy takes `replica_groups` and computes Cartesian products of each `replica_group` by
 `partition_ids`. `replica_groups` must have unique elements and cover all
 `replica_ids`. More formally, using Python syntax:
 
diff --ruN a/stablehlo/stablehlo/dialect/ReplicaGroupUtils.cpp b/stablehlo/stablehlo/dialect/ReplicaGroupUtils.cpp
--- stablehlo/stablehlo/dialect/ReplicaGroupUtils.cpp
+++ stablehlo/stablehlo/dialect/ReplicaGroupUtils.cpp
@@ -0,0 +1,150 @@
+#include "stablehlo/dialect/ReplicaGroupUtils.h"
+
+#include <cstddef>
+#include <cstdint>
+#include <utility>
+
+#include "llvm/ADT/DenseSet.h"
+#include "llvm/ADT/SmallVector.h"
+#include "llvm/ADT/StringRef.h"
+#include "mlir/IR/Attributes.h"
+#include "mlir/IR/BuiltinAttributes.h"
+#include "mlir/IR/Diagnostics.h"
+#include "mlir/Support/LLVM.h"
+#include "stablehlo/dialect/StablehloOps.h"
+
+namespace mlir {
+namespace stablehlo {
+
+static SmallVector<SmallVector<int64_t>>
+flattenedReplicaGroupsFromTransposePermutation(
+    const SmallVector<StringRef>& meshAxisNames,
+    const SmallVector<StringRef>& commAxisNames,
+    const llvm::DenseSet<StringRef>& commAxisSet,
+    const SmallVector<int64_t>& axisSizes,
+    const SmallVector<int64_t>& deviceIds, int64_t totalDevices) {
+  // Reshape and Transpose equivalence bridging XLA TileAssignment behavior.
+  SmallVector<int> transposeAxes;
+  // Non-grouped axes first
+  for (size_t i = 0; i < meshAxisNames.size(); ++i) {
+    if (!commAxisSet.count(meshAxisNames[i])) {
+      transposeAxes.push_back(i);
+    }
+  }
+  // Grouped axes
+  for (const auto& name : commAxisNames) {
+    for (size_t i = 0; i < meshAxisNames.size(); ++i) {
+      if (meshAxisNames[i] == name) {
+        transposeAxes.push_back(i);
+        break;
+      }
+    }
+  }
+
+  SmallVector<int64_t> transposedSizes(meshAxisNames.size());
+  for (size_t i = 0; i < meshAxisNames.size(); ++i) {
+    transposedSizes[i] = axisSizes[transposeAxes[i]];
+  }
+
+  // Compute strides for original shape
+  SmallVector<int64_t> originalStrides(meshAxisNames.size(), 1);
+  for (int i = static_cast<int>(meshAxisNames.size()) - 2; i >= 0; --i) {
+    originalStrides[i] = originalStrides[i + 1] * axisSizes[i + 1];
+  }
+
+  // Compute strides for transposed shape
+  SmallVector<int64_t> transposedStrides(meshAxisNames.size(), 1);
+  for (int i = static_cast<int>(meshAxisNames.size()) - 2; i >= 0; --i) {
+    transposedStrides[i] = transposedStrides[i + 1] * transposedSizes[i + 1];
+  }
+
+  // Generate chunks
+  int64_t numDevicesPerGroup = 1;
+  for (auto name : commAxisNames) {
+    for (size_t i = 0; i < meshAxisNames.size(); ++i) {
+      if (meshAxisNames[i] == name) {
+        numDevicesPerGroup *= axisSizes[i];
+        break;
+      }
+    }
+  }
+  int64_t numGroups = totalDevices / numDevicesPerGroup;
+
+  SmallVector<SmallVector<int64_t>> groups;
+  groups.reserve(numGroups);
+  for (int64_t i = 0; i < numGroups; ++i) {
+    SmallVector<int64_t> group;
+    group.reserve(numDevicesPerGroup);
+    for (int64_t j = 0; j < numDevicesPerGroup; ++j) {
+      int64_t linearTransposeIdx = i * numDevicesPerGroup + j;
+      int64_t originalIndex = 0;
+      for (size_t k = 0; k < meshAxisNames.size(); ++k) {
+        int64_t coord =
+            (linearTransposeIdx / transposedStrides[k]) % transposedSizes[k];
+        originalIndex += coord * originalStrides[transposeAxes[k]];
+      }
+      group.push_back(deviceIds[originalIndex]);
+    }
+    groups.push_back(std::move(group));
+  }
+
+  return groups;
+}
+
+FailureOr<SmallVector<SmallVector<int64_t>>> flattenReplicaGroupMeshAxes(
+    Attribute meshAttr, ArrayAttr commAxes, Location loc) {
+  // Reference implementation for flattening a mesh-axes based replica group
+  // to the list of lists implementation.
+  //
+  // Note, that this function is only intended for reference implementation
+  // purposes or when a fallback is required in VHLO legalization if the current
+  // version doesn't support mesh-axes based replica groups. In all other cases
+  // we don't flatten mesh-axes based replica groups, since we intend to persist
+  // them throughout the pipeline.
+  auto mesh = dyn_cast<stablehlo::MeshAttr>(meshAttr);
+  if (!mesh)
+    return emitOptionalError(loc, "expected stablehlo.mesh for mesh attribute");
+
+  auto axesInMesh = mesh.getAxes();
+
+  // Identify which axes are communication axes.
+  llvm::SmallVector<StringRef> commAxisNames;
+  llvm::DenseSet<StringRef> commAxisSet;
+  for (auto attr : commAxes) {
+    auto shloAxisRef = llvm::cast<AxisRefAttr>(attr);
+    if (shloAxisRef.getSubAxisInfo()) {
+      return emitError(loc) << "Subaxes are not supported in "
+                               "flattenReplicaGroupMeshAxes";
+    }
+    commAxisNames.push_back(shloAxisRef.getName());
+    commAxisSet.insert(shloAxisRef.getName());
+  }
+
+  // Calculate total devices and axis sizes
+
+  int64_t totalDevices = 1;
+  SmallVector<int64_t> axisSizes;
+  SmallVector<StringRef> meshAxisNames;
+  for (auto meshAxis : axesInMesh) {
+    auto typedMeshAxis = llvm::cast<stablehlo::MeshAxisAttr>(meshAxis);
+    axisSizes.push_back(typedMeshAxis.getSize());
+    meshAxisNames.push_back(typedMeshAxis.getName());
+    totalDevices *= typedMeshAxis.getSize();
+  }
+
+  SmallVector<int64_t> deviceIds;
+  if (!mesh.getDeviceIds() || mesh.getDeviceIds().empty()) {
+    for (int64_t i = 0; i < totalDevices; ++i) deviceIds.push_back(i);
+  } else {
+    for (auto id : mesh.getDeviceIds().getValues<int64_t>()) {
+      deviceIds.push_back(id);
+    }
+  }
+
+  return flattenedReplicaGroupsFromTransposePermutation(
+      meshAxisNames, commAxisNames, commAxisSet, axisSizes, deviceIds,
+      totalDevices);
+}
+
+}  // namespace stablehlo
+}  // namespace mlir
diff --ruN a/stablehlo/stablehlo/dialect/ReplicaGroupUtils.h b/stablehlo/stablehlo/dialect/ReplicaGroupUtils.h
--- stablehlo/stablehlo/dialect/ReplicaGroupUtils.h
+++ stablehlo/stablehlo/dialect/ReplicaGroupUtils.h
@@ -0,0 +1,26 @@
+#ifndef STABLEHLO_TRANSFORMS_REPLICA_GROUP_UTILS_H
+#define STABLEHLO_TRANSFORMS_REPLICA_GROUP_UTILS_H
+
+#include <cstdint>
+
+#include "mlir/IR/Attributes.h"
+#include "mlir/IR/BuiltinAttributes.h"
+#include "mlir/IR/Location.h"
+#include "mlir/Support/LLVM.h"
+#include "mlir/Support/LogicalResult.h"
+#include "stablehlo/dialect/StablehloOps.h"
+
+namespace mlir {
+namespace stablehlo {
+
+// Flattens replica groups represented by a mesh and a list of communication
+// axes into a flat list of replica groups.
+// Returns a 2D array of device IDs representing the flattened replica
+// groups, or failure if the conversion fails.
+FailureOr<SmallVector<SmallVector<int64_t>>> flattenReplicaGroupMeshAxes(
+    Attribute meshAttr, ArrayAttr commAxes, Location loc);
+
+}  // namespace stablehlo
+}  // namespace mlir
+
+#endif  // STABLEHLO_TRANSFORMS_REPLICA_GROUP_UTILS_H
diff --ruN a/stablehlo/stablehlo/dialect/StablehloAttrs.td b/stablehlo/stablehlo/dialect/StablehloAttrs.td
--- stablehlo/stablehlo/dialect/StablehloAttrs.td
+++ stablehlo/stablehlo/dialect/StablehloAttrs.td
@@ -233,4 +233,58 @@
   ];
 }
 
+def StableHLO_SubAxisInfo : AttrDef<StableHLO_Dialect, "SubAxisInfo"> {
+  let mnemonic = "sub_axis_info";
+  let summary = "Info about how this sub-axis is derived from the full axis";
+  let parameters = (ins
+      "int64_t":$pre_size,
+      "int64_t":$size
+  );
+  let assemblyFormat = "`(` $pre_size `)` `` $size";
+}
+
+def StableHLO_AxisRef : AttrDef<StableHLO_Dialect, "AxisRef"> {
+  let mnemonic = "axis_ref";
+  let summary = "Reference to either a full axis or a split sub-axis";
+  let parameters = (ins
+      StringRefParameter<"name of this axis">:$name,
+      OptionalParameter<"SubAxisInfoAttr", "additional info if this is a sub axis">:$sub_axis_info
+  );
+  let assemblyFormat = "`<` struct(params) `>`";
+}
+
+def StableHLO_MeshAxis : AttrDef<StableHLO_Dialect, "MeshAxis"> {
+  let mnemonic = "mesh_axis";
+  let summary = "A single axis of a mesh";
+  let parameters = (ins
+    StringRefParameter<"name">:$name,
+    "int64_t":$size
+  );
+  let assemblyFormat = "`<` struct(params) `>`";
+}
+
+def StableHLO_Mesh : AttrDef<StableHLO_Dialect, "Mesh"> {
+  let mnemonic = "mesh";
+  let summary = "A named mesh definition with device IDs";
+  let parameters = (ins
+    ArrayRefParameter<"stablehlo::MeshAxisAttr">:$axes,
+    OptionalParameter<"DenseIntElementsAttr">:$device_ids
+  );
+  let assemblyFormat = [{
+    `<` `axes` `` `=` `` `[` $axes `]` (`,` `device_ids` `` `=` `` $device_ids^)? `>`
+  }];
+}
+
+def StableHLO_ReplicaGroupMeshAxes : AttrDef<StableHLO_Dialect, "ReplicaGroupMeshAxes"> {
+  let mnemonic = "replica_group_mesh_axes";
+  let summary = "mesh and axes based replica groups representation.";
+  let parameters = (ins
+    "Attribute":$mesh,
+    "ArrayAttr":$axes
+  );
+  let assemblyFormat = "`<` struct(params) `>`";
+}
+
+
+
 #endif // STABLEHLO_DIALECT_STABLEHLO_ATTRS
diff --ruN a/stablehlo/stablehlo/dialect/StablehloBytecode.cpp b/stablehlo/stablehlo/dialect/StablehloBytecode.cpp
--- stablehlo/stablehlo/dialect/StablehloBytecode.cpp
+++ stablehlo/stablehlo/dialect/StablehloBytecode.cpp
@@ -193,6 +193,36 @@
   //   ulps: svarint
   // }
   kResultAccuracyAttr = 17,
+
+  // ReplicaGroupMeshAxesAttr {
+  //   mesh: Attribute
+  //   axes: Attribute[]
+  // }
+  kReplicaGroupMeshAxesAttr = 18,
+
+  // SubAxisInfoAttr {
+  //   preSize: svarint
+  //   size: svarint
+  // }
+  kSubAxisInfoAttr = 19,
+
+  // AxisRefAttr {
+  //   name: string
+  //   subAxisInfo: Attribute (optional)
+  // }
+  kAxisRefAttr = 20,
+
+  // MeshAxisAttr {
+  //   name: string
+  //   size: svarint
+  // }
+  kMeshAxisAttr = 21,
+
+  // MeshAttr {
+  //   axes: Attribute[]
+  //   device_ids: DenseIntElementsAttr (optional)
+  // }
+  kMeshAttr = 22,
 };
 
 /// This enum contains marker codes used to indicate which type is
@@ -271,6 +301,12 @@
   TransposeAttr readTransposeAttr(DialectBytecodeReader& reader) const;
   TypeExtensionsAttr readTypeExtensionsAttr(
       DialectBytecodeReader& reader) const;
+  ReplicaGroupMeshAxesAttr readReplicaGroupMeshAxesAttr(
+      DialectBytecodeReader& reader) const;
+  SubAxisInfoAttr readSubAxisInfoAttr(DialectBytecodeReader& reader) const;
+  AxisRefAttr readAxisRefAttr(DialectBytecodeReader& reader) const;
+  MeshAxisAttr readMeshAxisAttr(DialectBytecodeReader& reader) const;
+  MeshAttr readMeshAttr(DialectBytecodeReader& reader) const;
 
   // TO ADD ATTRIBUTE: Include a write method for each attribute in StableHLO
   // Ex: void write(SomeAttr attr, DialectBytecodeWriter &writer) const;
@@ -294,6 +330,12 @@
              DialectBytecodeWriter& writer) const;
   void write(TransposeAttr attr, DialectBytecodeWriter& writer) const;
   void write(TypeExtensionsAttr attr, DialectBytecodeWriter& writer) const;
+  void write(ReplicaGroupMeshAxesAttr attr,
+             DialectBytecodeWriter& writer) const;
+  void write(SubAxisInfoAttr attr, DialectBytecodeWriter& writer) const;
+  void write(AxisRefAttr attr, DialectBytecodeWriter& writer) const;
+  void write(MeshAxisAttr attr, DialectBytecodeWriter& writer) const;
+  void write(MeshAttr attr, DialectBytecodeWriter& writer) const;
 
   //===--------------------------------------------------------------------===//
   // Types
@@ -367,6 +409,16 @@
       return readTransposeAttr(reader);
     case stablehlo_encoding::kTypeExtensionsAttr:
       return readTypeExtensionsAttr(reader);
+    case stablehlo_encoding::kReplicaGroupMeshAxesAttr:
+      return readReplicaGroupMeshAxesAttr(reader);
+    case stablehlo_encoding::kSubAxisInfoAttr:
+      return readSubAxisInfoAttr(reader);
+    case stablehlo_encoding::kAxisRefAttr:
+      return readAxisRefAttr(reader);
+    case stablehlo_encoding::kMeshAxisAttr:
+      return readMeshAxisAttr(reader);
+    case stablehlo_encoding::kMeshAttr:
+      return readMeshAttr(reader);
     default:
       reader.emitError() << "unknown stablehlo attribute code: " << code;
       return Attribute();
@@ -384,11 +436,13 @@
             FftTypeAttr, GatherDimensionNumbersAttr, OutputOperandAliasAttr,
             PrecisionAttr, ResultAccuracyAttr, ResultAccuracyModeAttr,
             RngAlgorithmAttr, RngDistributionAttr, ScatterDimensionNumbersAttr,
-            TransposeAttr, TypeExtensionsAttr>([&](auto attr) {
-        LOG_WRITE_CALL;
-        write(attr, writer);
-        return success();
-      })
+            TransposeAttr, TypeExtensionsAttr, ReplicaGroupMeshAxesAttr,
+            SubAxisInfoAttr, AxisRefAttr, MeshAxisAttr, MeshAttr>(
+          [&](auto attr) {
+            LOG_WRITE_CALL;
+            write(attr, writer);
+            return success();
+          })
       .Default([&](Attribute) {
         LOG_NOT_IMPLEMENTED;
         return failure();
@@ -758,6 +812,162 @@
                                        DialectBytecodeWriter& writer) const {
   writer.writeVarInt(stablehlo_encoding::kTypeExtensionsAttr);
   writer.writeSignedVarInts(attr.getBounds());
+}
+
+//===----------------------------------------------------------------------===//
+// ReplicaGroupMeshAxesAttr
+
+//===----------------------------------------------------------------------===//
+// SubAxisInfoAttr
+
+SubAxisInfoAttr StablehloBytecodeInterface::readSubAxisInfoAttr(
+    DialectBytecodeReader& reader) const {
+  LOG_READ_CALL;
+  int64_t preSize, size;
+  if (failed(reader.readSignedVarInt(preSize)) ||
+      failed(reader.readSignedVarInt(size)))
+    return SubAxisInfoAttr();
+  return SubAxisInfoAttr::get(getContext(), preSize, size);
+}
+
+void StablehloBytecodeInterface::write(SubAxisInfoAttr attr,
+                                       DialectBytecodeWriter& writer) const {
+  writer.writeVarInt(stablehlo_encoding::kSubAxisInfoAttr);
+  writer.writeSignedVarInt(attr.getPreSize());
+  writer.writeSignedVarInt(attr.getSize());
+}
+
+//===----------------------------------------------------------------------===//
+// AxisRefAttr
+
+AxisRefAttr StablehloBytecodeInterface::readAxisRefAttr(
+    DialectBytecodeReader& reader) const {
+  LOG_READ_CALL;
+  StringRef name;
+  if (failed(reader.readString(name))) return AxisRefAttr();
+  bool hasSubAxisInfo;
+  if (failed(reader.readBool(hasSubAxisInfo))) return AxisRefAttr();
+  SubAxisInfoAttr subAxisInfo;
+  if (hasSubAxisInfo) {
+    Attribute attr;
+    if (failed(reader.readAttribute(attr))) return AxisRefAttr();
+    subAxisInfo = llvm::dyn_cast<SubAxisInfoAttr>(attr);
+    if (!subAxisInfo) return AxisRefAttr();
+  }
+  return AxisRefAttr::get(getContext(), name, subAxisInfo);
+}
+
+void StablehloBytecodeInterface::write(AxisRefAttr attr,
+                                       DialectBytecodeWriter& writer) const {
+  writer.writeVarInt(stablehlo_encoding::kAxisRefAttr);
+  writer.writeOwnedString(attr.getName());
+  bool hasSubAxisInfo = (bool)attr.getSubAxisInfo();
+  writer.writeOwnedBool(hasSubAxisInfo);
+  if (hasSubAxisInfo) {
+    writer.writeAttribute(attr.getSubAxisInfo());
+  }
+}
+
+//===----------------------------------------------------------------------===//
+// ReplicaGroupMeshAxesAttr
+
+ReplicaGroupMeshAxesAttr
+StablehloBytecodeInterface::readReplicaGroupMeshAxesAttr(
+    DialectBytecodeReader& reader) const {
+  LOG_READ_CALL;
+  Attribute meshAttr;
+  if (failed(reader.readAttribute(meshAttr))) return ReplicaGroupMeshAxesAttr();
+
+  uint64_t axesSize;
+  if (failed(reader.readVarInt(axesSize))) return ReplicaGroupMeshAxesAttr();
+
+  SmallVector<Attribute> axes;
+  axes.reserve(axesSize);
+  for (uint64_t i = 0; i < axesSize; ++i) {
+    Attribute axis;
+    if (failed(reader.readAttribute(axis))) return ReplicaGroupMeshAxesAttr();
+    axes.push_back(axis);
+  }
+
+  return ReplicaGroupMeshAxesAttr::get(getContext(), meshAttr,
+                                       ArrayAttr::get(getContext(), axes));
+}
+
+void StablehloBytecodeInterface::write(ReplicaGroupMeshAxesAttr attr,
+                                       DialectBytecodeWriter& writer) const {
+  writer.writeVarInt(stablehlo_encoding::kReplicaGroupMeshAxesAttr);
+  writer.writeAttribute(attr.getMesh());
+
+  auto axes = attr.getAxes();
+  writer.writeVarInt(axes.size());
+  for (auto axis : axes) {
+    writer.writeAttribute(axis);
+  }
+}
+
+//===----------------------------------------------------------------------===//
+// MeshAxisAttr
+
+MeshAxisAttr StablehloBytecodeInterface::readMeshAxisAttr(
+    DialectBytecodeReader& reader) const {
+  LOG_READ_CALL;
+  StringRef name;
+  int64_t size;
+  if (failed(reader.readString(name)) || failed(reader.readSignedVarInt(size)))
+    return MeshAxisAttr();
+  return MeshAxisAttr::get(getContext(), name, size);
+}
+
+void StablehloBytecodeInterface::write(MeshAxisAttr attr,
+                                       DialectBytecodeWriter& writer) const {
+  writer.writeVarInt(stablehlo_encoding::kMeshAxisAttr);
+  writer.writeOwnedString(attr.getName());
+  writer.writeSignedVarInt(attr.getSize());
+}
+
+//===----------------------------------------------------------------------===//
+// MeshAttr
+
+MeshAttr StablehloBytecodeInterface::readMeshAttr(
+    DialectBytecodeReader& reader) const {
+  LOG_READ_CALL;
+  Attribute axesAttr;
+  if (failed(reader.readAttribute(axesAttr))) return MeshAttr();
+  auto axesArrayAttr = llvm::dyn_cast<ArrayAttr>(axesAttr);
+  if (!axesArrayAttr) return MeshAttr();
+
+  SmallVector<stablehlo::MeshAxisAttr> axes;
+  for (auto attr : axesArrayAttr) {
+    auto axisAttr = llvm::dyn_cast<stablehlo::MeshAxisAttr>(attr);
+    if (!axisAttr) return MeshAttr();
+    axes.push_back(axisAttr);
+  }
+
+  bool hasDeviceIds;
+  if (failed(reader.readBool(hasDeviceIds))) return MeshAttr();
+  DenseIntElementsAttr deviceIds;
+  if (hasDeviceIds) {
+    Attribute deviceIdsAttr;
+    if (failed(reader.readAttribute(deviceIdsAttr))) return MeshAttr();
+    deviceIds = llvm::dyn_cast<DenseIntElementsAttr>(deviceIdsAttr);
+    if (!deviceIds) return MeshAttr();
+  }
+
+  return MeshAttr::get(getContext(), axes, deviceIds);
+}
+
+void StablehloBytecodeInterface::write(MeshAttr attr,
+                                       DialectBytecodeWriter& writer) const {
+  writer.writeVarInt(stablehlo_encoding::kMeshAttr);
+  SmallVector<Attribute> axesAttrs;
+  for (auto axis : attr.getAxes()) axesAttrs.push_back(axis);
+  writer.writeAttribute(ArrayAttr::get(getContext(), axesAttrs));
+
+  bool hasDeviceIds = (bool)attr.getDeviceIds();
+  writer.writeOwnedBool(hasDeviceIds);
+  if (hasDeviceIds) {
+    writer.writeAttribute(attr.getDeviceIds());
+  }
 }
 
 //===----------------------------------------------------------------------===//
diff --ruN a/stablehlo/stablehlo/dialect/StablehloOps.cpp b/stablehlo/stablehlo/dialect/StablehloOps.cpp
--- stablehlo/stablehlo/dialect/StablehloOps.cpp
+++ stablehlo/stablehlo/dialect/StablehloOps.cpp
@@ -1462,8 +1462,7 @@
 
 void CollectiveBroadcastOp::build(OpBuilder& odsBuilder,
                                   OperationState& odsState, Type resultType,
-                                  Value operand,
-                                  DenseIntElementsAttr replica_groups) {
+                                  Value operand, Attribute replica_groups) {
   CollectiveBroadcastOp::build(odsBuilder, odsState, resultType, operand,
                                replica_groups, /*channel_handle=*/nullptr);
 }
@@ -1646,8 +1645,7 @@
 void AllToAllOp::build(OpBuilder& odsBuilder, OperationState& odsState,
                        Type resultType, Value operand,
                        IntegerAttr splitDimension, IntegerAttr concatDimension,
-                       IntegerAttr splitCount,
-                       DenseIntElementsAttr replicaGroups) {
+                       IntegerAttr splitCount, Attribute replicaGroups) {
   AllToAllOp::build(odsBuilder, odsState, resultType, operand, splitDimension,
                     concatDimension, splitCount, replicaGroups,
                     /*channel_handle=*/nullptr);
@@ -1716,8 +1714,7 @@
 //===----------------------------------------------------------------------===//
 
 void AllReduceOp::build(OpBuilder& odsBuilder, OperationState& odsState,
-                        Type resultType, Value operand,
-                        DenseIntElementsAttr replicaGroups,
+                        Type resultType, Value operand, Attribute replicaGroups,
                         ChannelHandleAttr channelHandle,
                         bool useGlobalDeviceIds) {
   build(odsBuilder, odsState, resultType, ValueRange(operand), replicaGroups,
diff --ruN a/stablehlo/stablehlo/dialect/StablehloOps.td b/stablehlo/stablehlo/dialect/StablehloOps.td
--- stablehlo/stablehlo/dialect/StablehloOps.td
+++ stablehlo/stablehlo/dialect/StablehloOps.td
@@ -1479,6 +1479,10 @@
   let hasCustomAssemblyFormat = 1;
 }
 
+def StableHLO_ReplicaGroups : AnyAttrOf<[I64ElementsAttr, StableHLO_ReplicaGroupMeshAxes]> {
+  let description = "Attribute that models the replica groups (either tensor or ReplicaGroupMeshAxes)";
+}
+
 def StableHLO_AllGatherOp : StableHLO_Op<"all_gather",
     [ConditionallySpeculatable,
      HLO_PairwiseSameOperandAndResultElementType, /*all_gather_c6*/]> {
@@ -1495,7 +1499,9 @@
     ```mlir
     %result:2 = "stablehlo.all_gather"(%operand0, %operand1) {
       all_gather_dim = 1 : i64,
-      replica_groups = dense<[[0, 1]]> : tensor<1x2xi64>,
+      replica_groups = #stablehlo.replica_group_mesh_axes<
+        mesh = #stablehlo.mesh<axes = [#stablehlo.mesh_axis<name = "foo", size = 2>]>, axes = ["foo"]
+      >,
       channel_handle = #stablehlo.channel_handle<handle = 0, type = 0>
     } : (tensor<2x2xi64>, tensor<2x2xi64>) -> (tensor<2x4xi64>, tensor<2x4xi64>)
     ```
@@ -1504,7 +1510,8 @@
   let arguments = (ins
     Variadic<HLO_Tensor>:$operands, /*all_gather_i1*/
     ConfinedAttr<I64Attr, [IntNonNegative]>:$all_gather_dim, /*all_gather_c1, all_gather_i2*/
-    I64ElementsAttr:$replica_groups, /*all_gather_i3*/
+    StableHLO_ReplicaGroups:$replica_groups, /*all_gather_i3*/
+
     OptionalAttr<StableHLO_ChannelHandle>:$channel_handle, /*all_gather_i4*/
     UnitAttr:$use_global_device_ids /*all_gather_i5*/
   );
@@ -1537,7 +1544,9 @@
       %0 = "stablehlo.add"(%arg0, %arg1) : (tensor<i64>, tensor<i64>) -> tensor<i64>
       "stablehlo.return"(%0) : (tensor<i64>) -> ()
     }) {
-      replica_groups = dense<[[0, 1]]> : tensor<1x2xi64>,
+      replica_groups = #stablehlo.replica_group_mesh_axes<
+        mesh = #stablehlo.mesh<axes = [#stablehlo.mesh_axis<name = "foo", size = 2>]>, axes = ["foo"]
+      >,
       channel_handle = #stablehlo.channel_handle<handle = 0, type = 0>
     } : (tensor<4xi64>, tensor<4xi64>) -> (tensor<4xi64>, tensor<4xi64>)
     ```
@@ -1545,7 +1554,8 @@
 
   let arguments = (ins
     Variadic<HLO_Tensor>:$operands, /*all_reduce_i1*/
-    I64ElementsAttr:$replica_groups, /*all_reduce_i2*/
+    StableHLO_ReplicaGroups:$replica_groups, /*all_reduce_i2*/
+
     OptionalAttr<StableHLO_ChannelHandle>:$channel_handle, /*all_reduce_i3*/
     UnitAttr:$use_global_device_ids /*all_reduce_i4*/
   );
@@ -1555,7 +1565,7 @@
   let builders = [
     OpBuilder<(ins
       "::mlir::Type":$result_type, "::mlir::Value":$operand,
-      "::mlir::DenseIntElementsAttr":$replica_groups,
+      "::mlir::Attribute":$replica_groups,
       "::mlir::stablehlo::ChannelHandleAttr":$channel_handle,
       CArg<"bool", "false">:$use_global_device_ids)>,
  ];
@@ -1580,7 +1590,9 @@
       stablehlo.return %0 : tensor<i64>
     }) {
       scatter_dimension = 1 : i64,
-      replica_groups = dense<[[0, 1]]> : tensor<1x2xi64>,
+      replica_groups = #stablehlo.replica_group_mesh_axes<
+        mesh = #stablehlo.mesh<axes = [#stablehlo.mesh_axis<name = "foo", size = 2>]>, axes = ["foo"]
+      >,
       channel_handle = #stablehlo.channel_handle<handle = 0, type = 0>
     } : (tensor<2x4xi64>) -> tensor<2x2xi64>
     ```
@@ -1589,7 +1601,8 @@
   let arguments = (ins
     HLO_Tensor:$operand, /*reduce_scatter_i1*/
     ConfinedAttr<I64Attr, [IntNonNegative]>:$scatter_dimension, /*reduce_scatter_c2, reduce_scatter_i2*/
-    I64ElementsAttr:$replica_groups, /*reduce_scatter_i3*/
+    StableHLO_ReplicaGroups:$replica_groups, /*reduce_scatter_i3*/
+
     OptionalAttr<StableHLO_ChannelHandle>:$channel_handle, /*reduce_scatter_i4*/
     UnitAttr:$use_global_device_ids /*reduce_scatter_i5*/
   );
@@ -1623,7 +1636,9 @@
       split_dimension = 1 : i64,
       concat_dimension = 0 : i64,
       split_count = 2 : i64,
-      replica_groups = dense<[[0, 1]]> : tensor<1x2xi64>
+      replica_groups = #stablehlo.replica_group_mesh_axes<
+        mesh = #stablehlo.mesh<axes = [#stablehlo.mesh_axis<name = "foo", size = 2>]>, axes = ["foo"]
+      >
     } : (tensor<2x4xi64>, tensor<2x4xi64>) -> (tensor<4x2xi64>, tensor<4x2xi64>)
     ```
   }];
@@ -1633,7 +1648,8 @@
     ConfinedAttr<I64Attr, [IntNonNegative]>:$split_dimension, /*all_to_all_c1, all_to_all_i2*/
     ConfinedAttr<I64Attr, [IntNonNegative]>:$concat_dimension, /*all_to_all_c3, all_to_all_i3*/
     ConfinedAttr<I64Attr, [IntPositive]>:$split_count, /*all_to_all_c4, all_to_all_i4*/
-    I64ElementsAttr:$replica_groups, /*all_to_all_i5*/
+    StableHLO_ReplicaGroups:$replica_groups, /*all_to_all_i5*/
+
     OptionalAttr<StableHLO_ChannelHandle>:$channel_handle /*all_to_all_i6*/
   );
   let results = (outs Variadic<HLO_Tensor>);
@@ -1646,7 +1662,7 @@
       "::mlir::IntegerAttr": $split_dimension,
       "::mlir::IntegerAttr": $concat_dimension,
       "::mlir::IntegerAttr": $split_count,
-      "::mlir::DenseIntElementsAttr": $replica_groups)>];
+      "::mlir::Attribute": $replica_groups)>];
 
   let extraClassDeclaration = commonClassDeclaration # [{
     /// Interface method for ConditionallySpeculatable.
@@ -2353,7 +2369,9 @@
     Example:
     ```mlir
     %result = "stablehlo.collective_broadcast"(%operand) {
-      replica_groups = dense<[[0, 1]]> : tensor<1x2xi64>,
+      replica_groups = #stablehlo.replica_group_mesh_axes<
+        mesh = #stablehlo.mesh<axes = [#stablehlo.mesh_axis<name = "foo", size = 2>]>, axes = ["foo"]
+      >,
       channel_handle = #stablehlo.channel_handle<handle = 0, type = 0>
     } : (tensor<1x2xi64>) -> tensor<1x2xi64>
     ```
@@ -2361,7 +2379,7 @@
 
   let arguments = (ins
     HLO_Tensor:$operand, /*collective_broadcast_i1*/
-    I64ElementsAttr:$replica_groups, /*collective_broadcast_i2*/
+    StableHLO_ReplicaGroups:$replica_groups, /*collective_broadcast_i2*/
     OptionalAttr<StableHLO_ChannelHandle>:$channel_handle /*collective_broadcast_i3*/
   );
   let results = (outs HLO_Tensor);
@@ -2371,7 +2389,7 @@
   let builders = [
     OpBuilder<(ins
       "::mlir::Type":$result_type, "::mlir::Value":$operand,
-      "::mlir::DenseIntElementsAttr":$replica_groups)>];
+      "::mlir::Attribute":$replica_groups)>];
 }
 
 def StableHLO_CollectivePermuteOp: StableHLO_Op<"collective_permute",
diff --ruN a/stablehlo/stablehlo/dialect/TypeInference.cpp b/stablehlo/stablehlo/dialect/TypeInference.cpp
--- stablehlo/stablehlo/dialect/TypeInference.cpp
+++ stablehlo/stablehlo/dialect/TypeInference.cpp
@@ -74,6 +74,7 @@
 #include "mlir/Support/LogicalResult.h"
 #include "stablehlo/dialect/AssemblyFormat.h"
 #include "stablehlo/dialect/Base.h"
+#include "stablehlo/dialect/TypeInference.h"
 
 #define DEBUG_TYPE "stablehlo-type-inference"
 
@@ -863,11 +864,16 @@
 }
 
 LogicalResult verifyReplicaGroups(std::optional<Location> location,
-                                  DenseIntElementsAttr replicaGroups,
+                                  Attribute replicaGroups,
                                   bool allGroupsMustHaveSameSize,
                                   bool useGlobalDeviceIds,
                                   std::optional<size_t> expectedGroupSize) {
-  auto replicaGroupType = cast<RankedTensorType>(replicaGroups.getType());
+  auto denseGroups = dyn_cast<DenseIntElementsAttr>(replicaGroups);
+  if (!denseGroups) {
+    return success();
+  }
+
+  auto replicaGroupType = cast<RankedTensorType>(denseGroups.getType());
   // all_gather_i3, all_to_all_i5
   if (replicaGroupType.getRank() != 2)
     return emitOptionalError(location,
@@ -880,14 +886,13 @@
                              "if `use_global_device_ids` is set, the replica "
                              "groups cannot be empty");
 
-  auto replicaIds = replicaGroups.getValues<int64_t>();
+  auto replicaIds = denseGroups.getValues<int64_t>();
 
   // Large programs can have many replicas, use a set with efficient lookup.
   llvm::DenseSet<int64_t> replicaIdsSeen;
   for (int64_t replicaId : replicaIds) {
     // Replica groups are stored in a 2D tensor. If the op supports non-uniform
-    // groups, null replica IDs are stored as -1.
-    // all_gather_c4
+    // groups, null replica IDs are stored as -1. all_gather_c4
     if (replicaId == -1) {
       if (!allGroupsMustHaveSameSize) continue;
       return emitOptionalError(location, "Invalid replica id -1");
@@ -1128,7 +1133,8 @@
     if (failed(mlir::verifyCompatibleShape(witnessType, inputTypes[i])))
       return emitOptionalError(
           location,
-          "expects all inputs to have compatible shapes. Shape at input-index ",
+          "expects all inputs to have compatible shapes. Shape at "
+          "input-index ",
           i, " is not compatible with shape at input-index 0");
 
   // reduce_window_c12, reduce_window_i7
@@ -1158,10 +1164,10 @@
   return success();
 }
 
-// Shape function can be called directly from autogenerated `build()` function,
-// which may not guarantee the added region(s) in `odsState.regions` to be
-// non-empty. Need check it here to avoid a crash for the ops that need regions
-// in type inference, i.e. `IfOp/CaseOp/MapOp`.
+// Shape function can be called directly from autogenerated `build()`
+// function, which may not guarantee the added region(s) in `odsState.regions`
+// to be non-empty. Need check it here to avoid a crash for the ops that need
+// regions in type inference, i.e. `IfOp/CaseOp/MapOp`.
 LogicalResult verifyRegionNotEmpty(std::optional<Location> location,
                                    Region& region) {
   if (region.empty())
@@ -1576,10 +1582,10 @@
 
   // dynamic_gather_c15, gather_c15
   if (llvm::is_contained(startIndicesBatchingDims, indexVectorDim))
-    return emitOptionalError(
-        location,
-        "expects start_indices_batching_dims not to include index_vector_dim ",
-        indexVectorDim);
+    return emitOptionalError(location,
+                             "expects start_indices_batching_dims not to "
+                             "include index_vector_dim ",
+                             indexVectorDim);
 
   // dynamic_gather_c16, gather_c16
   if (operandBatchingDims.size() != startIndicesBatchingDims.size()) {
@@ -1678,8 +1684,8 @@
     // This can never run into the special case where start_indices gets
     // implicitly expanded with a trailing 1 if
     // index_vector_dim = start_indices.rank because then index would equal
-    // index_vector_dim, which means we'd be looking at index+1, which would be
-    // out of bounds anyway.
+    // index_vector_dim, which means we'd be looking at index+1, which would
+    // be out of bounds anyway.
     if (index >= indexVectorDim) ++index;
     shape.push_back(getStartIndicesDim(index));
   }
@@ -1728,10 +1734,10 @@
                             indexVectorDim, shape);
 
   // The dimension sizes of result, corresponding to offset dimensions, depend
-  // on attributes (like `collapsed_slice_dims` and `slice_sizes`) and hence are
-  // always static. Whereas, the dimension sizes of result, corresponding to
-  // batch dimensions, depends on input `start_indices` and could be dynamic.
-  // The corresponding bounds, in that case,  are propagated from the
+  // on attributes (like `collapsed_slice_dims` and `slice_sizes`) and hence
+  // are always static. Whereas, the dimension sizes of result, corresponding
+  // to batch dimensions, depends on input `start_indices` and could be
+  // dynamic. The corresponding bounds, in that case,  are propagated from the
   // `start_indices`.
   Attribute encoding =
       cast<RankedTensorType>(startIndices.getType()).getEncoding();
@@ -1840,7 +1846,7 @@
 LogicalResult inferAllToAllOp(
     std::optional<Location> location, ValueRange operands,
     int64_t splitDimension, int64_t concatDimension, int64_t splitCount,
-    DenseIntElementsAttr replicaGroups,
+    Attribute replicaGroups,
     SmallVectorImpl<ShapedTypeComponents>& inferredReturnShapes) {
   // all_to_all_c5, all_to_all_c7, all_to_all_i5
   if (failed(verifyReplicaGroups(location, replicaGroups,
@@ -2069,7 +2075,8 @@
     }
   }
 
-  // Infer the most specific (size, bound) of all dimensions of the return type
+  // Infer the most specific (size, bound) of all dimensions of the return
+  // type
   SmallVector<int64_t> inferredSizes(rank, ShapedType::kDynamic);
   SmallVector<int64_t> inferredBounds(rank, ShapedType::kDynamic);
   // Note: for the concatenate dimension, 0 should be the identity element:
@@ -2108,9 +2115,9 @@
       inferredSizes, witnessType.getElementType(),
       boundsToEncoding(
           witnessType.getEncoding(),
-          // Empty array as argument is an indicator to boundsToEncoding() that
-          // there are no bounds at all in inputs, thus sparsity attributes will
-          // be included in the return type
+          // Empty array as argument is an indicator to boundsToEncoding()
+          // that there are no bounds at all in inputs, thus sparsity
+          // attributes will be included in the return type
           anyInputHaveBounds ? inferredBounds : llvm::ArrayRef<int64_t>({}))));
   return success();
 }
@@ -3038,7 +3045,8 @@
     if (dimensions.size() != operandType.getShape().size())
       return emitOptionalError(
           location,
-          "applied to a subset of dimensions currently not supported: operand "
+          "applied to a subset of dimensions currently not supported: "
+          "operand "
           "dimensions = ",
           operandType.getShape().size(),
           ", requested map dimensions size = ", dimensions.size());
@@ -3235,7 +3243,8 @@
   auto shapeOperandType = cast<ShapedType>(shape.getType());
   Type elementType = getElementTypeOrSelf(b);
 
-  // Operand `shape` (static 1D by ODS) may be a constant or not, if `shape` is:
+  // Operand `shape` (static 1D by ODS) may be a constant or not, if `shape`
+  // is:
   // 1. not constant (e.g. tensor<3xi64>): infer tensor<?x?x?x>.
   // 2. constant (e.g. dense<[2, 3, 5]>): infer tensor<2x3x5x>.
 
@@ -3628,9 +3637,8 @@
 
 LogicalResult verifyAllGatherOp(std::optional<Location> location,
                                 ValueRange operands, int64_t allGatherDim,
-                                DenseIntElementsAttr replicaGroups,
-                                int64_t channelId, bool useGlobalDeviceIds,
-                                ValueRange results) {
+                                Attribute replicaGroups, int64_t channelId,
+                                bool useGlobalDeviceIds, ValueRange results) {
   // all_gather_i3, all_gather_c2, all_gather_c4
   if (failed(verifyReplicaGroups(location, replicaGroups,
                                  /*allGroupsMustHaveSameSize=*/true,
@@ -3692,8 +3700,7 @@
 }
 
 LogicalResult verifyAllReduceOp(std::optional<Location> location,
-                                ValueRange operands,
-                                DenseIntElementsAttr replicaGroups,
+                                ValueRange operands, Attribute replicaGroups,
                                 int64_t channelId, bool useGlobalDeviceIds,
                                 Region& computation) {
   // TODO(#498): AllReduceOp does not have rank-2 replicaGroups.
@@ -3706,10 +3713,10 @@
 
   // all_reduce_c4
   if (useGlobalDeviceIds && channelId <= 0)
-    return emitOptionalError(
-        location,
-        "channel_id must be positive when useGlobalDeviceIds is set but got: ",
-        channelId);
+    return emitOptionalError(location,
+                             "channel_id must be positive when "
+                             "useGlobalDeviceIds is set but got: ",
+                             channelId);
 
   for (const Value& operand : operands) {
     auto operandType = cast<ShapedType>(operand.getType());
@@ -3848,15 +3855,21 @@
 }
 
 LogicalResult verifyCollectiveBroadcastOp(std::optional<Location> location,
-                                          DenseIntElementsAttr replicaGroups) {
+                                          Attribute replicaGroups) {
+  // TODO(b/477928179): Add verification for v3 replica groups.
+  auto denseGroups = dyn_cast<DenseIntElementsAttr>(replicaGroups);
+  if (!denseGroups) {
+    return success();
+  }
+
   // collective_permute_i2
-  auto replicaGroupType = cast<RankedTensorType>(replicaGroups.getType());
+  auto replicaGroupType = cast<RankedTensorType>(denseGroups.getType());
   if (replicaGroupType.getRank() != 2)
     return emitOptionalError(
         location, "replica groups should be a rank 2 tensor,",
         "but instead it is of rank ", replicaGroupType.getRank());
 
-  auto replicaIds = replicaGroups.getValues<int64_t>();
+  auto replicaIds = denseGroups.getValues<int64_t>();
   llvm::DenseSet<int64_t> replicaIdsSeen;
   for (int64_t replicaId : replicaIds) {
     // collective_broadcast_c2
@@ -3872,6 +3885,7 @@
       return emitOptionalError(location, "replica id #", replicaId,
                                " seen more than once");
   }
+  return success();
 
   return success();
 }
@@ -4162,8 +4176,8 @@
     return emitError() << "num primitive operations must be positive";
 
   // Best effort algorithm verification, support algorithm combinations
-  // known to be supported on some hardware, not necessarily the target hardware
-  // dot_general_i8, dot_general_i9, dot_general_i10
+  // known to be supported on some hardware, not necessarily the target
+  // hardware dot_general_i8, dot_general_i9, dot_general_i10
   if (!isKnownDotAlgorithm(lhsPrecisionType, rhsPrecisionType, accumulationType,
                            lhsComponentCount, rhsComponentCount,
                            numPrimitiveOperations, allowImpreciseAccumulation))
@@ -4464,11 +4478,11 @@
   // infeed_c2
   for (auto resultType : results.drop_back().getTypes())
     if (!isa<TensorType>(resultType))
-      return emitOptionalError(
-          location,
-          "all elements of result types, except the last element, are expected "
-          "to be of tensor type, but got ",
-          resultType);
+      return emitOptionalError(location,
+                               "all elements of result types, except the "
+                               "last element, are expected "
+                               "to be of tensor type, but got ",
+                               resultType);
 
   // infeed_c3
   if (!dialect->isTokenType(results.back().getType()))
@@ -4483,18 +4497,19 @@
                              "layout-attribute expected to be of array-type.");
 
   if (layout.value().size() != resultTypes.size() - 1)
-    return emitOptionalError(
-        location, "layout-attribute size must be ", resultTypes.size() - 1,
-        " (which is the number of op-results - 1 (for token result)), but got ",
-        layout.value().size());
+    return emitOptionalError(location, "layout-attribute size must be ",
+                             resultTypes.size() - 1,
+                             " (which is the number of op-results - 1 (for "
+                             "token result)), but got ",
+                             layout.value().size());
 
   for (auto childLayout : layout.value()) {
     mlir::ArrayAttr childLayoutArr = dyn_cast<mlir::ArrayAttr>(childLayout);
     if (!childLayoutArr)
-      return emitOptionalError(
-          location,
-          "layout-attribute expected to have elements of type array, but got ",
-          childLayout);
+      return emitOptionalError(location,
+                               "layout-attribute expected to have elements "
+                               "of type array, but got ",
+                               childLayout);
 
     for (auto i : childLayoutArr) {
       mlir::IntegerAttr attr = dyn_cast<mlir::IntegerAttr>(i);
@@ -4614,8 +4629,8 @@
 
 LogicalResult verifyReduceScatterOp(std::optional<Location> location,
                                     Value operand, int64_t scatterDimension,
-                                    DenseIntElementsAttr replicaGroups,
-                                    int64_t channelId, bool useGlobalDeviceIds,
+                                    Attribute replicaGroups, int64_t channelId,
+                                    bool useGlobalDeviceIds,
                                     Region& computation, Value result) {
   if (failed(verifyReplicaGroups(location, replicaGroups,
                                  /*allGroupsMustHaveSameSize=*/true,
@@ -4778,10 +4793,10 @@
   auto outputShape = cast<RankedTensorType>(outputState.getType());
   if (failed(verifyCompatibleShape(initialShape.getShape(),
                                    outputShape.getShape())))
-    return emitOptionalError(
-        location,
-        "output state shape must be compatible with initial state shape. Got: ",
-        initialShape, " and ", outputShape);
+    return emitOptionalError(location,
+                             "output state shape must be compatible with "
+                             "initial state shape. Got: ",
+                             initialShape, " and ", outputShape);
   return success();
 }
 
@@ -4940,7 +4955,8 @@
 }
 
 //  We intend to verify the following properties:
-//   P1. Check if the select function has a proper shape of (T,T) -> PRED, where
+//   P1. Check if the select function has a proper shape of (T,T) -> PRED,
+//   where
 //        T is a 0-D tensor with element-type same as 'operand' element-type.
 //   P2. Verify scatter-computation type.
 //   P3. size-of(window_dimension) == rank-of(input),
@@ -4987,10 +5003,10 @@
   // select_and_scatter_c9
   if (!selectResultType || !selectResultType.getElementType().isInteger(1) ||
       selectResultType.getRank() != 0)
-    return emitOptionalError(
-        location,
-        "expects the return-type of select-region to be tensor<i1>, but got: ",
-        selectResult[0].getType());
+    return emitOptionalError(location,
+                             "expects the return-type of select-region to be "
+                             "tensor<i1>, but got: ",
+                             selectResult[0].getType());
   // select_and_scatter_c10
   if (failed(verifyReducerShape(
           location, scatter.front(),
diff --ruN a/stablehlo/stablehlo/dialect/TypeInference.h b/stablehlo/stablehlo/dialect/TypeInference.h
--- stablehlo/stablehlo/dialect/TypeInference.h
+++ stablehlo/stablehlo/dialect/TypeInference.h
@@ -94,7 +94,7 @@
                                             ArrayRef<WindowDimension> window);
 
 LogicalResult verifyReplicaGroups(std::optional<Location> location,
-                                  DenseIntElementsAttr replicaGroups,
+                                  Attribute replicaGroups,
                                   bool allGroupsMustHaveSameSize,
                                   bool useGlobalDeviceIds,
                                   std::optional<size_t> expectedGroupSize);
@@ -134,7 +134,7 @@
 LogicalResult inferAllToAllOp(
     std::optional<Location> location, ValueRange operands,
     int64_t splitDimension, int64_t concatDimension, int64_t splitCount,
-    DenseIntElementsAttr replicaGroups,
+    Attribute replicaGroups,
     SmallVectorImpl<ShapedTypeComponents>& inferredReturnShapes);
 
 LogicalResult inferAllReduceOp(
@@ -426,13 +426,11 @@
 
 LogicalResult verifyAllGatherOp(std::optional<Location> location,
                                 ValueRange operands, int64_t allGatherDim,
-                                DenseIntElementsAttr replicaGroups,
-                                int64_t channelId, bool useGlobalDeviceIds,
-                                ValueRange results);
+                                Attribute replicaGroups, int64_t channelId,
+                                bool useGlobalDeviceIds, ValueRange results);
 
 LogicalResult verifyAllReduceOp(std::optional<Location> location,
-                                ValueRange operands,
-                                DenseIntElementsAttr replicaGroups,
+                                ValueRange operands, Attribute replicaGroups,
                                 int64_t channelId, bool useGlobalDeviceIds,
                                 Region& computation);
 
@@ -445,7 +443,7 @@
                                      Value result);
 
 LogicalResult verifyCollectiveBroadcastOp(std::optional<Location> location,
-                                          DenseIntElementsAttr replicaGroups);
+                                          Attribute replicaGroups);
 
 LogicalResult verifyCollectivePermuteOp(std::optional<Location> location,
                                         DenseIntElementsAttr sourceTargetPairs);
@@ -549,8 +547,8 @@
 
 LogicalResult verifyReduceScatterOp(std::optional<Location> location,
                                     Value operand, int64_t scatterDimension,
-                                    DenseIntElementsAttr replicaGroups,
-                                    int64_t channelId, bool useGlobalDeviceIds,
+                                    Attribute replicaGroups, int64_t channelId,
+                                    bool useGlobalDeviceIds,
                                     Region& computation, Value result);
 
 LogicalResult verifyReduceWindowOp(
diff --ruN a/stablehlo/stablehlo/dialect/Version.h b/stablehlo/stablehlo/dialect/Version.h
--- stablehlo/stablehlo/dialect/Version.h
+++ stablehlo/stablehlo/dialect/Version.h
@@ -38,7 +38,7 @@
   static FailureOr<Version> fromString(llvm::StringRef versionRef);
 
   /// Return a Version representing the current VHLO dialect version.
-  static Version getCurrentVersion() { return Version(1, 15, 0); }
+  static Version getCurrentVersion() { return Version(1, 16, 0); }
 
   /// Return a Version representing the minimum supported VHLO dialect version.
   static Version getMinimumVersion() { return Version(0, 9, 0); }
diff --ruN a/stablehlo/stablehlo/dialect/VhloAttrs.td b/stablehlo/stablehlo/dialect/VhloAttrs.td
--- stablehlo/stablehlo/dialect/VhloAttrs.td
+++ stablehlo/stablehlo/dialect/VhloAttrs.td
@@ -195,4 +195,28 @@
   }];
 }
 
+def VHLO_SubAxisInfoV1Attr : VHLO_AttrDef<"SubAxisInfoV1", "1.16.0", "current"> {
+  let mnemonic = "sub_axis_info_v1";
+  let parameters = (ins "int64_t":$pre_size, "int64_t":$size);
+  let assemblyFormat = "`<` struct(params) `>`";
+}
+
+def VHLO_AxisRefV1Attr : VHLO_AttrDef<"AxisRefV1", "1.16.0", "current"> {
+  let mnemonic = "axis_ref_v1";
+  let parameters = (ins
+    "mlir::Attribute":$name,
+    OptionalParameter<"mlir::Attribute">:$sub_axis_info
+  );
+  let assemblyFormat = "`<` struct(params) `>`";
+}
+
+def VHLO_ReplicaGroupMeshAxesV1Attr : VHLO_AttrDef<"ReplicaGroupMeshAxesV1", "1.16.0", "current"> {
+  let mnemonic = "replica_group_mesh_axes_v1";
+  let parameters = (ins
+    "mlir::Attribute":$mesh,
+    "mlir::Attribute":$axes
+  );
+  let assemblyFormat = "`<` struct(params) `>`";
+}
+
 #endif // STABLEHLO_DIALECT_VHLO_ATTRS
diff --ruN a/stablehlo/stablehlo/dialect/VhloBytecode.cpp b/stablehlo/stablehlo/dialect/VhloBytecode.cpp
--- stablehlo/stablehlo/dialect/VhloBytecode.cpp
+++ stablehlo/stablehlo/dialect/VhloBytecode.cpp
@@ -181,17 +181,36 @@
   ///   }
   kTypeExtensionsV1Attr = 18,
 
-  // ResultAccuracyModeV1Attr {
-  //   mode: varint (encoded enum)
-  // }
+  ///   ResultAccuracyModeV1Attr {
+  ///     mode: varint (encoded enum)
+  ///   }
   kResultAccuracyModeV1Attr = 19,
 
-  // ResultAccuracyV1Attr {
-  //   atol: APFloat
-  //   rtol: APFloat
-  //   ulps: svarint
-  // }
+  ///   ResultAccuracyV1Attr {
+  ///     atol: APFloat
+  ///     rtol: APFloat
+  ///     ulps: svarint
+  ///     mode: Attribute
+  ///   }
   kResultAccuracyV1Attr = 20,
+
+  ///   SubAxisInfoV1Attr {
+  ///     preSize: svarint
+  ///     size: svarint
+  ///   }
+  kSubAxisInfoV1Attr = 21,
+
+  ///   AxisRefV1Attr {
+  ///     name: Attribute
+  ///     subAxisInfo: Attribute (optional)
+  ///   }
+  kAxisRefV1Attr = 22,
+
+  ///   ReplicaGroupMeshAxesV1Attr {
+  ///     mesh: Attribute
+  ///     axes: Attribute
+  ///   }
+  kReplicaGroupMeshAxesV1Attr = 23,
 };
 
 /// This enum contains marker codes used to indicate which type is
@@ -460,6 +479,10 @@
       DialectBytecodeReader& reader) const;
   ResultAccuracyV1Attr readResultAccuracyV1Attr(
       DialectBytecodeReader& reader) const;
+  SubAxisInfoV1Attr readSubAxisInfoV1Attr(DialectBytecodeReader& reader) const;
+  AxisRefV1Attr readAxisRefV1Attr(DialectBytecodeReader& reader) const;
+  ReplicaGroupMeshAxesV1Attr readReplicaGroupMeshAxesV1Attr(
+      DialectBytecodeReader& reader) const;
 
   // TO ADD ATTRIBUTE: Include a write method for each attribute in VHLO
   // Ex: void write(SomeAttr attr, DialectBytecodeWriter &writer) const;
@@ -487,6 +510,10 @@
   void write(ResultAccuracyModeV1Attr attr,
              DialectBytecodeWriter& writer) const;
   void write(ResultAccuracyV1Attr attr, DialectBytecodeWriter& writer) const;
+  void write(SubAxisInfoV1Attr attr, DialectBytecodeWriter& writer) const;
+  void write(AxisRefV1Attr attr, DialectBytecodeWriter& writer) const;
+  void write(ReplicaGroupMeshAxesV1Attr attr,
+             DialectBytecodeWriter& writer) const;
 
   //===--------------------------------------------------------------------===//
   // Types
@@ -580,6 +607,12 @@
       return readResultAccuracyModeV1Attr(reader);
     case vhlo_encoding::kResultAccuracyV1Attr:
       return readResultAccuracyV1Attr(reader);
+    case vhlo_encoding::kSubAxisInfoV1Attr:
+      return readSubAxisInfoV1Attr(reader);
+    case vhlo_encoding::kAxisRefV1Attr:
+      return readAxisRefV1Attr(reader);
+    case vhlo_encoding::kReplicaGroupMeshAxesV1Attr:
+      return readReplicaGroupMeshAxesV1Attr(reader);
     default:
       reader.emitError() << "unknown vhlo attribute code: " << code;
       return Attribute();
@@ -598,7 +631,8 @@
             PrecisionV1Attr, RngAlgorithmV1Attr, RngDistributionV1Attr,
             StringV1Attr, TensorV1Attr, TransposeV1Attr, TypeV1Attr,
             TypeExtensionsV1Attr, ResultAccuracyV1Attr,
-            ResultAccuracyModeV1Attr>([&](auto attr) {
+            ResultAccuracyModeV1Attr, SubAxisInfoV1Attr, AxisRefV1Attr,
+            ReplicaGroupMeshAxesV1Attr>([&](auto attr) {
         LOG_WRITE_CALL;
         write(attr, writer);
         return success();
@@ -1666,6 +1700,78 @@
   writer.writeAttribute(attr.getMode());
 }
 
+//===----------------------------------------------------------------------===//
+// SubAxisInfoV1Attr
+
+SubAxisInfoV1Attr VhloBytecodeInterface::readSubAxisInfoV1Attr(
+    DialectBytecodeReader& reader) const {
+  LOG_READ_CALL;
+  int64_t preSize, size;
+  if (failed(reader.readSignedVarInt(preSize)) ||
+      failed(reader.readSignedVarInt(size))) {
+    return SubAxisInfoV1Attr();
+  }
+  return SubAxisInfoV1Attr::get(getContext(), preSize, size);
+}
+
+void VhloBytecodeInterface::write(SubAxisInfoV1Attr attr,
+                                  DialectBytecodeWriter& writer) const {
+  writer.writeVarInt(vhlo_encoding::kSubAxisInfoV1Attr);
+  writer.writeSignedVarInt(attr.getPreSize());
+  writer.writeSignedVarInt(attr.getSize());
+}
+
+//===----------------------------------------------------------------------===//
+// AxisRefV1Attr
+
+AxisRefV1Attr VhloBytecodeInterface::readAxisRefV1Attr(
+    DialectBytecodeReader& reader) const {
+  LOG_READ_CALL;
+  Attribute name;
+  if (failed(reader.readAttribute(name))) return AxisRefV1Attr();
+  uint64_t hasSubAxisInfo;
+  if (failed(reader.readVarInt(hasSubAxisInfo))) return AxisRefV1Attr();
+  Attribute subAxisInfo;
+  if (hasSubAxisInfo) {
+    if (failed(reader.readAttribute(subAxisInfo))) return AxisRefV1Attr();
+  }
+  return AxisRefV1Attr::get(getContext(), name, subAxisInfo);
+}
+
+void VhloBytecodeInterface::write(AxisRefV1Attr attr,
+                                  DialectBytecodeWriter& writer) const {
+  writer.writeVarInt(vhlo_encoding::kAxisRefV1Attr);
+  writer.writeAttribute(attr.getName());
+  if (attr.getSubAxisInfo()) {
+    writer.writeVarInt(1);
+    writer.writeAttribute(attr.getSubAxisInfo());
+  } else {
+    writer.writeVarInt(0);
+  }
+}
+
+//===----------------------------------------------------------------------===//
+// ReplicaGroupMeshAxesV1Attr
+
+ReplicaGroupMeshAxesV1Attr
+VhloBytecodeInterface::readReplicaGroupMeshAxesV1Attr(
+    DialectBytecodeReader& reader) const {
+  LOG_READ_CALL;
+  Attribute mesh, axes;
+  if (failed(reader.readAttribute(mesh)) ||
+      failed(reader.readAttribute(axes))) {
+    return ReplicaGroupMeshAxesV1Attr();
+  }
+  return ReplicaGroupMeshAxesV1Attr::get(getContext(), mesh, axes);
+}
+
+void VhloBytecodeInterface::write(ReplicaGroupMeshAxesV1Attr attr,
+                                  DialectBytecodeWriter& writer) const {
+  writer.writeVarInt(vhlo_encoding::kReplicaGroupMeshAxesV1Attr);
+  writer.writeAttribute(attr.getMesh());
+  writer.writeAttribute(attr.getAxes());
+}
+
 }  // namespace
 
 void addBytecodeInterface(VhloDialect* dialect) {
diff --ruN a/stablehlo/stablehlo/integrations/c/StablehloTypes.cpp b/stablehlo/stablehlo/integrations/c/StablehloTypes.cpp
--- stablehlo/stablehlo/integrations/c/StablehloTypes.cpp
+++ stablehlo/stablehlo/integrations/c/StablehloTypes.cpp
@@ -25,3 +25,24 @@
 bool stablehloTypeIsAToken(MlirType type) {
   return llvm::isa<mlir::stablehlo::TokenType>(unwrap(type));
 }
+
+MlirType stablehloFutureTypeGet(MlirContext ctx, intptr_t nTypes,
+                                MlirType const* types) {
+  llvm::SmallVector<mlir::Type, 4> mlirTypes;
+  return wrap(mlir::stablehlo::FutureType::get(
+      unwrap(ctx), unwrapList(nTypes, types, mlirTypes)));
+}
+
+bool stablehloTypeIsAFuture(MlirType type) {
+  return llvm::isa<mlir::stablehlo::FutureType>(unwrap(type));
+}
+
+intptr_t stablehloFutureTypeGetNumTypes(MlirType type) {
+  return static_cast<intptr_t>(
+      llvm::cast<mlir::stablehlo::FutureType>(unwrap(type)).getTypes().size());
+}
+
+MlirType stablehloFutureTypeGetType(MlirType type, intptr_t pos) {
+  return wrap(
+      llvm::cast<mlir::stablehlo::FutureType>(unwrap(type)).getTypes()[pos]);
+}
diff --ruN a/stablehlo/stablehlo/integrations/c/StablehloTypes.h b/stablehlo/stablehlo/integrations/c/StablehloTypes.h
--- stablehlo/stablehlo/integrations/c/StablehloTypes.h
+++ stablehlo/stablehlo/integrations/c/StablehloTypes.h
@@ -27,6 +27,21 @@
 // Returns true if the type is a token type.
 MLIR_CAPI_EXPORTED bool stablehloTypeIsAToken(MlirType type);
 
+// Creates a future type with the given element types.
+MLIR_CAPI_EXPORTED MlirType stablehloFutureTypeGet(MlirContext ctx,
+                                                   intptr_t nTypes,
+                                                   MlirType const* types);
+
+// Returns true if the type is a future type.
+MLIR_CAPI_EXPORTED bool stablehloTypeIsAFuture(MlirType type);
+
+// Returns the number of element types in the future type.
+MLIR_CAPI_EXPORTED intptr_t stablehloFutureTypeGetNumTypes(MlirType type);
+
+// Returns the pos-th element type in the future type.
+MLIR_CAPI_EXPORTED MlirType stablehloFutureTypeGetType(MlirType type,
+                                                       intptr_t pos);
+
 #ifdef __cplusplus
 }
 #endif
diff --ruN a/stablehlo/stablehlo/integrations/python/StablehloModule.cpp b/stablehlo/stablehlo/integrations/python/StablehloModule.cpp
--- stablehlo/stablehlo/integrations/python/StablehloModule.cpp
+++ stablehlo/stablehlo/integrations/python/StablehloModule.cpp
@@ -99,6 +99,26 @@
           },
           nb::arg("cls"), nb::arg("context").none() = nb::none(),
           "Creates a Token type.");
+
+  mlir::python::nanobind_adaptors::mlir_type_subclass(m, "FutureType",
+                                                      stablehloTypeIsAFuture)
+      .def_classmethod(
+          "get",
+          [](nb::object cls, const std::vector<MlirType>& types,
+             MlirContext ctx) {
+            return cls(stablehloFutureTypeGet(ctx, types.size(), types.data()));
+          },
+          nb::arg("cls"), nb::arg("types"),
+          nb::arg("context").none() = nb::none(), "Creates a Future type.")
+      .def_property_readonly("types", [](MlirType self) {
+        std::vector<MlirType> types;
+        intptr_t numTypes = stablehloFutureTypeGetNumTypes(self);
+        types.reserve(numTypes);
+        for (intptr_t i = 0; i < numTypes; ++i) {
+          types.push_back(stablehloFutureTypeGetType(self, i));
+        }
+        return types;
+      });
 
   //
   // Attributes.
diff --ruN a/stablehlo/stablehlo/reference/Ops.cpp b/stablehlo/stablehlo/reference/Ops.cpp
--- stablehlo/stablehlo/reference/Ops.cpp
+++ stablehlo/stablehlo/reference/Ops.cpp
@@ -51,6 +51,7 @@
 #include "mlir/Support/LLVM.h"
 #include "mlir/Support/LogicalResult.h"
 #include "stablehlo/dialect/Base.h"
+#include "stablehlo/dialect/ReplicaGroupUtils.h"
 #include "stablehlo/dialect/StablehloOps.h"
 #include "stablehlo/dialect/TypeInference.h"
 #include "stablehlo/reference/Axes.h"
@@ -224,19 +225,54 @@
       RankedTensorType::get(valuesShape, elementType), values);
 }
 
-SmallVector<SmallVector<uint32_t>> getReplicaGroups(
-    DenseIntElementsAttr replicaGroupsAttr) {
-  auto replicaGroupsShape = replicaGroupsAttr.getShapedType().getShape();
-  SmallVector<SmallVector<uint32_t>> replicaGroups(replicaGroupsShape[0]);
-  auto replicaGroupsIt = replicaGroupsAttr.getValues<int64_t>().begin();
-  for (auto& replicaGroup : replicaGroups) {
-    for (auto i = 0; i < replicaGroupsShape[1]; ++i, ++replicaGroupsIt) {
-      auto replicaId = *replicaGroupsIt;
-      if (replicaId == -1) continue;
-      replicaGroup.push_back(replicaId);
-    }
-  }
-  return replicaGroups;
+SmallVector<SmallVector<uint32_t>> getReplicaGroups(Attribute replicaGroupsAttr,
+                                                    Operation* op) {
+  if (auto denseAttr =
+          llvm::dyn_cast_or_null<DenseIntElementsAttr>(replicaGroupsAttr)) {
+    auto replicaGroupsShape = denseAttr.getShapedType().getShape();
+    SmallVector<SmallVector<uint32_t>> replicaGroups(replicaGroupsShape[0]);
+    auto replicaGroupsIt = denseAttr.getValues<int64_t>().begin();
+    for (auto& replicaGroup : replicaGroups) {
+      for (auto i = 0; i < replicaGroupsShape[1]; ++i, ++replicaGroupsIt) {
+        auto replicaId = *replicaGroupsIt;
+        if (replicaId == -1) continue;
+        replicaGroup.push_back(replicaId);
+      }
+    }
+    return replicaGroups;
+  }
+  if (auto meshAxesAttr =
+          llvm::dyn_cast_or_null<ReplicaGroupMeshAxesAttr>(replicaGroupsAttr)) {
+    auto meshSpec = meshAxesAttr.getMesh();
+    auto meshAttr = llvm::dyn_cast_or_null<stablehlo::MeshAttr>(meshSpec);
+    if (!meshAttr) {
+      auto symbolOp = SymbolTable::lookupNearestSymbolFrom(
+          op, llvm::cast<SymbolRefAttr>(meshSpec));
+      if (!symbolOp) {
+        llvm::report_fatal_error("Failed to find mesh symbol");
+      }
+      meshAttr = symbolOp->getAttrOfType<stablehlo::MeshAttr>("mesh");
+      if (!meshAttr) {
+        meshAttr =
+            symbolOp->getAttrOfType<stablehlo::MeshAttr>("stablehlo.mesh");
+      }
+      if (!meshAttr) {
+        llvm::report_fatal_error("Failed to find mesh attribute on symbol");
+      }
+    }
+    auto groupsOrFailure = flattenReplicaGroupMeshAxes(
+        meshAttr, meshAxesAttr.getAxes(), op->getLoc());
+    if (failed(groupsOrFailure)) {
+      llvm::report_fatal_error("Failed to flatten replica group mesh axes");
+    }
+
+    SmallVector<SmallVector<uint32_t>> u32Groups;
+    for (const auto& group : groupsOrFailure.value()) {
+      u32Groups.push_back(SmallVector<uint32_t>(group.begin(), group.end()));
+    }
+    return u32Groups;
+  }
+  return {};
 }
 
 Tensor convolutionOp(
@@ -383,13 +419,8 @@
     } else if (auto op = dyn_cast<AllGatherOp>(operation)) {
       auto operands = scope.findTensors(op.getOperands());
 
-      auto replicaGroupsAttr = op.getReplicaGroups();
-      auto replicaGroupsShape = replicaGroupsAttr.getShapedType().getShape();
-      SmallVector<SmallVector<uint32_t>> replicaGroups(replicaGroupsShape[0]);
-      auto replicaGroupsIt = replicaGroupsAttr.getValues<int64_t>().begin();
-      for (auto& replicaGroup : replicaGroups)
-        for (auto i = 0; i < replicaGroupsShape[1]; ++i, ++replicaGroupsIt)
-          replicaGroup.push_back(*replicaGroupsIt);
+      SmallVector<SmallVector<uint32_t>> replicaGroups =
+          getReplicaGroups(op.getReplicaGroups(), op);
 
       ChannelId channelId = 0;
       if (auto channelHandle = op.getChannelHandle())
@@ -402,7 +433,8 @@
       scope.add(op.getResults(), results);
     } else if (auto op = dyn_cast<AllReduceOp>(operation)) {
       auto operands = scope.findTensors(op.getOperands());
-      auto replicaGroups = getReplicaGroups(op.getReplicaGroups());
+      SmallVector<SmallVector<uint32_t>> replicaGroups =
+          getReplicaGroups(op.getReplicaGroups(), op);
 
       ChannelId channelId = 0;
       if (auto channelHandle = op.getChannelHandle())
@@ -415,13 +447,8 @@
       scope.add(op.getResults(), results);
     } else if (auto op = dyn_cast<AllToAllOp>(operation)) {
       auto operands = scope.findTensors(op.getOperands());
-      auto replicaGroupsAttr = op.getReplicaGroups();
-      auto replicaGroupsShape = replicaGroupsAttr.getShapedType().getShape();
-      SmallVector<SmallVector<uint32_t>> replicaGroups(replicaGroupsShape[0]);
-      auto replicaGroupsIt = replicaGroupsAttr.getValues<int64_t>().begin();
-      for (auto& replicaGroup : replicaGroups)
-        for (auto i = 0; i < replicaGroupsShape[1]; ++i, ++replicaGroupsIt)
-          replicaGroup.push_back(*replicaGroupsIt);
+      SmallVector<SmallVector<uint32_t>> replicaGroups =
+          getReplicaGroups(op.getReplicaGroups(), op);
 
       ChannelId channelId = 0;
       if (auto channelHandle = op.getChannelHandle())
@@ -493,13 +520,8 @@
     } else if (auto op = dyn_cast<CollectiveBroadcastOp>(operation)) {
       auto operand = scope.findTensor(op.getOperand());
 
-      auto replicaGroupsAttr = op.getReplicaGroups();
-      auto replicaGroupsShape = replicaGroupsAttr.getShapedType().getShape();
-      SmallVector<SmallVector<uint32_t>> replicaGroups(replicaGroupsShape[0]);
-      auto replicaGroupsIt = replicaGroupsAttr.getValues<int64_t>().begin();
-      for (auto& replicaGroup : replicaGroups)
-        for (auto i = 0; i < replicaGroupsShape[1]; ++i, ++replicaGroupsIt)
-          replicaGroup.push_back(*replicaGroupsIt);
+      SmallVector<SmallVector<uint32_t>> replicaGroups =
+          getReplicaGroups(op.getReplicaGroups(), op);
 
       ChannelId channelId = 0;
       if (auto channelHandle = op.getChannelHandle())
@@ -892,7 +914,8 @@
     } else if (auto op = dyn_cast<ReduceScatterOp>(operation)) {
       auto operand = scope.findTensor(op.getOperand());
       int64_t scatterDimension = op.getScatterDimension();
-      auto replicaGroups = getReplicaGroups(op.getReplicaGroups());
+      SmallVector<SmallVector<uint32_t>> replicaGroups =
+          getReplicaGroups(op.getReplicaGroups(), op);
 
       ChannelId channelId = 0;
       if (auto channelHandle = op.getChannelHandle())
diff --ruN a/stablehlo/stablehlo/tests/ops_stablehlo.mlir b/stablehlo/stablehlo/tests/ops_stablehlo.mlir
--- stablehlo/stablehlo/tests/ops_stablehlo.mlir
+++ stablehlo/stablehlo/tests/ops_stablehlo.mlir
@@ -6821,3 +6821,12 @@
   } : (tuple<tuple<memref<2xf32>>, memref<2xf32>>) -> (memref<2xf32>, memref<2xf32>, memref<2xf32>)
   func.return %2#0, %2#1, %2#2 : memref<2xf32>, memref<2xf32>, memref<2xf32>
 }
+
+func.func @all_gather_with_mesh_axes_replica_group(%operand: tensor<16x8xf32>) -> tensor<16x16xf32> {
+  %result = "stablehlo.all_gather"(%operand) {
+    all_gather_dim = 1 : i64,
+    replica_groups = #stablehlo.replica_group_mesh_axes<mesh = @mesh, axes = [0 : i64, 1 : i64]>,
+    channel_handle = #stablehlo.channel_handle<handle = 1, type = 0>
+  } : (tensor<16x8xf32>) -> tensor<16x16xf32>
+  func.return %result : tensor<16x16xf32>
+}
diff --ruN a/stablehlo/stablehlo/tests/replica_groups_mesh_axes.mlir b/stablehlo/stablehlo/tests/replica_groups_mesh_axes.mlir
--- stablehlo/stablehlo/tests/replica_groups_mesh_axes.mlir
+++ stablehlo/stablehlo/tests/replica_groups_mesh_axes.mlir
@@ -0,0 +1,16 @@
+// RUN: stablehlo-opt %s | stablehlo-opt | FileCheck %s
+// RUN: stablehlo-opt -emit-bytecode %s | stablehlo-opt | FileCheck %s
+
+// CHECK-LABEL: @test_replica_groups_mesh_axes
+func.func @test_replica_groups_mesh_axes(%arg0: tensor<f32>) -> tensor<f32> {
+  // CHECK: replica_groups = #stablehlo.replica_group_mesh_axes<mesh = @mesh, axes = [#stablehlo.axis_ref<name = "foo">, #stablehlo.axis_ref<name = "bar">]>
+  %0 = "stablehlo.custom_call"(%arg0) {
+    call_target_name = "test",
+    has_side_effect = false,
+    replica_groups = #stablehlo.replica_group_mesh_axes<
+      mesh = @mesh,
+      axes = [#stablehlo.axis_ref<name = "foo">, #stablehlo.axis_ref<name = "bar">]
+    >
+  } : (tensor<f32>) -> tensor<f32>
+  func.return %0 : tensor<f32>
+}
diff --ruN a/stablehlo/stablehlo/tests/transforms/mesh_axes_replica_group_compatibility.mlir b/stablehlo/stablehlo/tests/transforms/mesh_axes_replica_group_compatibility.mlir
--- stablehlo/stablehlo/tests/transforms/mesh_axes_replica_group_compatibility.mlir
+++ stablehlo/stablehlo/tests/transforms/mesh_axes_replica_group_compatibility.mlir
@@ -0,0 +1,43 @@
+// RUN: stablehlo-opt %s -stablehlo-compatibility-expander="target=1.14.0" | FileCheck %s
+
+module {
+
+
+  // CHECK-LABEL: @all_reduce_rgv3
+  func.func @all_reduce_rgv3(%arg0: tensor<4xf32>) -> tensor<4xf32> {
+    // CHECK: replica_groups = dense<{{\[\[}}0, 2], [1, 3]]> : tensor<2x2xi64>
+    %0 = "stablehlo.all_reduce"(%arg0) ({
+    ^bb0(%arg1: tensor<f32>, %arg2: tensor<f32>):
+      %1 = "stablehlo.add"(%arg1, %arg2) : (tensor<f32>, tensor<f32>) -> tensor<f32>
+      "stablehlo.return"(%1) : (tensor<f32>) -> ()
+    }) {
+      replica_groups = #stablehlo.replica_group_mesh_axes<mesh = #stablehlo.mesh<axes = [#stablehlo.mesh_axis<name = "x", size = 2>, #stablehlo.mesh_axis<name = "y", size = 2>]>, axes = [#stablehlo.axis_ref<name = "x">]>
+    } : (tensor<4xf32>) -> tensor<4xf32>
+    return %0 : tensor<4xf32>
+  }
+
+
+  // CHECK-LABEL: @all_gather_rgv3
+  func.func @all_gather_rgv3(%arg0: tensor<4xf32>) -> tensor<8xf32> {
+    // CHECK: replica_groups = dense<{{\[\[}}0, 1], [2, 3]]> : tensor<2x2xi64>
+    %0 = "stablehlo.all_gather"(%arg0) {
+      all_gather_dim = 0 : i64,
+      replica_groups = #stablehlo.replica_group_mesh_axes<mesh = #stablehlo.mesh<axes = [#stablehlo.mesh_axis<name = "x", size = 2>, #stablehlo.mesh_axis<name = "y", size = 2>]>, axes = [#stablehlo.axis_ref<name = "y">]>
+    } : (tensor<4xf32>) -> tensor<8xf32>
+
+    return %0 : tensor<8xf32>
+  }
+
+  // CHECK-LABEL: @all_to_all_rgv3
+  func.func @all_to_all_rgv3(%arg0: tensor<4xf32>) -> tensor<4xf32> {
+    // CHECK: replica_groups = dense<{{\[\[}}0, 2], [1, 3]]> : tensor<2x2xi64>
+    %0 = "stablehlo.all_to_all"(%arg0) {
+      concat_dimension = 0 : i64,
+      split_dimension = 0 : i64,
+      split_count = 2 : i64,
+      replica_groups = #stablehlo.replica_group_mesh_axes<mesh = #stablehlo.mesh<axes = [#stablehlo.mesh_axis<name = "x", size = 2>, #stablehlo.mesh_axis<name = "y", size = 2>]>, axes = [#stablehlo.axis_ref<name = "x">]>
+    } : (tensor<4xf32>) -> tensor<4xf32>
+
+    return %0 : tensor<4xf32>
+  }
+}
diff --ruN a/stablehlo/stablehlo/tests/transforms/stablehlo_compatibility_expander.mlir b/stablehlo/stablehlo/tests/transforms/stablehlo_compatibility_expander.mlir
--- stablehlo/stablehlo/tests/transforms/stablehlo_compatibility_expander.mlir
+++ stablehlo/stablehlo/tests/transforms/stablehlo_compatibility_expander.mlir
@@ -561,3 +561,25 @@
   }) : (tensor<?x2x4x7x9xi32>, tensor<4x?x5x2xi32>, tensor<4x?x5x8xi32>) -> tensor<?x2x4x7x9xi32>
   func.return %0 : tensor<?x2x4x7x9xi32>
 }
+
+// -----
+
+
+// CHECK-LABEL: @all_reduce_mesh_axes_expansion
+func.func @all_reduce_mesh_axes_expansion(%arg0: tensor<4xf32>) -> tensor<4xf32> {
+  // CHECK: %{{.*}} = "stablehlo.all_reduce"(%arg0) <{
+  // CHECK-SAME{LITERAL}: replica_groups = dense<[[0, 1]]> : tensor<1x2xi64>
+  // CHECK-SAME: }>
+  %0 = "stablehlo.all_reduce"(%arg0) <{
+    replica_groups = #stablehlo.replica_group_mesh_axes<
+      mesh = #stablehlo.mesh<axes = [#stablehlo.mesh_axis<name = "x", size = 2>]>,
+      axes = [#stablehlo.axis_ref<name = "x">]
+    >
+  }> ({
+  ^bb0(%arg1: tensor<f32>, %arg2: tensor<f32>):
+    %1 = stablehlo.add %arg1, %arg2 : tensor<f32>
+    stablehlo.return %1 : tensor<f32>
+  }) : (tensor<4xf32>) -> tensor<4xf32>
+  return %0 : tensor<4xf32>
+}
+
diff --ruN a/stablehlo/stablehlo/tests/verify_replica_groups_mesh_axes.mlir b/stablehlo/stablehlo/tests/verify_replica_groups_mesh_axes.mlir
--- stablehlo/stablehlo/tests/verify_replica_groups_mesh_axes.mlir
+++ stablehlo/stablehlo/tests/verify_replica_groups_mesh_axes.mlir
@@ -0,0 +1,13 @@
+// RUN: stablehlo-opt %s -verify-diagnostics -split-input-file | FileCheck %s
+
+// CHECK-LABEL: func @all_gather_replica_group_mesh_axes
+
+func.func @all_gather_replica_group_mesh_axes(%operand: tensor<16x8xf32>) -> tensor<16x16xf32> {
+  %result = "stablehlo.all_gather"(%operand) {
+    all_gather_dim = 1 : i64,
+    replica_groups = #stablehlo.replica_group_mesh_axes<mesh = @mesh, axes = [#stablehlo.axis_ref<name = "foo">, #stablehlo.axis_ref<name = "bar">]>,
+    channel_handle = #stablehlo.channel_handle<handle = 1, type = 0>
+  } : (tensor<16x8xf32>) -> tensor<16x16xf32>
+  func.return %result : tensor<16x16xf32>
+}
+
diff --ruN a/stablehlo/stablehlo/tests/vhlo/stablehlo_legalize_to_vhlo.1_16_0.mlir b/stablehlo/stablehlo/tests/vhlo/stablehlo_legalize_to_vhlo.1_16_0.mlir
--- stablehlo/stablehlo/tests/vhlo/stablehlo_legalize_to_vhlo.1_16_0.mlir
+++ stablehlo/stablehlo/tests/vhlo/stablehlo_legalize_to_vhlo.1_16_0.mlir
@@ -0,0 +1,3253 @@
+// RUN: stablehlo-opt --mlir-print-op-generic %s.bc | FileCheck %s
+// RUN: stablehlo-translate --deserialize %s.bc | stablehlo-translate --serialize --target=1.16.0 | stablehlo-opt --mlir-print-op-generic | FileCheck %s
+// RUN: stablehlo-translate --deserialize %s.bc | stablehlo-opt > %t.0
+// RUN: stablehlo-opt --strip-debuginfo %s > %t.1
+// RUN: diff %t.0 %t.1
+// RUN: stablehlo-translate --serialize --target=1.16.0 --strip-debuginfo %s > %t.2
+// RUN: diff %s.bc %t.2
+// RUN: stablehlo-opt --stablehlo-legalize-to-vhlo -emit-bytecode -debug-only=vhlo-bytecode %s 2>&1 | FileCheck --check-prefix=CHECK-WARN %s
+// RUN: stablehlo-opt --stablehlo-legalize-to-vhlo -emit-bytecode %s | stablehlo-opt -debug-only=vhlo-bytecode 2>&1 | FileCheck --check-prefix=CHECK-WARN %s
+
+// CHECK-WARN-NOT: Not Implemented
+
+// ============ ATTRIBUTES ============
+
+// CHECK-LABEL: "attr_comparison_direction_eq"
+// CHECK-NEXT: (%[[ARG0:.*]]: {{.*}}, %[[ARG1:.*]]: {{.*}})
+func.func @attr_comparison_direction_eq(%arg0: tensor<f32>, %arg1: tensor<f32>) -> tensor<i1> {
+  %0 = "stablehlo.compare"(%arg0, %arg1) {
+    // CHECK: comparison_direction = #vhlo<comparison_direction_v1 EQ>
+    comparison_direction = #stablehlo<comparison_direction EQ>
+  } : (tensor<f32>, tensor<f32>) -> tensor<i1>
+  func.return %0 : tensor<i1>
+}
+
+// CHECK-LABEL: "attr_comparison_direction_ne"
+// CHECK-NEXT: (%[[ARG0:.*]]: {{.*}}, %[[ARG1:.*]]: {{.*}})
+func.func @attr_comparison_direction_ne(%arg0: tensor<f32>, %arg1: tensor<f32>) -> tensor<i1> {
+  %0 = "stablehlo.compare"(%arg0, %arg1) {
+    // CHECK: comparison_direction = #vhlo<comparison_direction_v1 NE>
+    comparison_direction = #stablehlo<comparison_direction NE>
+  } : (tensor<f32>, tensor<f32>) -> tensor<i1>
+  func.return %0 : tensor<i1>
+}
+
+// CHECK-LABEL: "attr_comparison_direction_ge"
+// CHECK-NEXT: (%[[ARG0:.*]]: {{.*}}, %[[ARG1:.*]]: {{.*}})
+func.func @attr_comparison_direction_ge(%arg0: tensor<f32>, %arg1: tensor<f32>) -> tensor<i1> {
+  %0 = "stablehlo.compare"(%arg0, %arg1) {
+    // CHECK: comparison_direction = #vhlo<comparison_direction_v1 GE>
+    comparison_direction = #stablehlo<comparison_direction GE>
+  } : (tensor<f32>, tensor<f32>) -> tensor<i1>
+  func.return %0 : tensor<i1>
+}
+
+// CHECK-LABEL: "attr_comparison_direction_gt"
+// CHECK-NEXT: (%[[ARG0:.*]]: {{.*}}, %[[ARG1:.*]]: {{.*}})
+func.func @attr_comparison_direction_gt(%arg0: tensor<f32>, %arg1: tensor<f32>) -> tensor<i1> {
+  %0 = "stablehlo.compare"(%arg0, %arg1) {
+    // CHECK: comparison_direction = #vhlo<comparison_direction_v1 GT>
+    comparison_direction = #stablehlo<comparison_direction GT>
+  } : (tensor<f32>, tensor<f32>) -> tensor<i1>
+  func.return %0 : tensor<i1>
+}
+
+// CHECK-LABEL: "attr_comparison_direction_le"
+// CHECK-NEXT: (%[[ARG0:.*]]: {{.*}}, %[[ARG1:.*]]: {{.*}})
+func.func @attr_comparison_direction_le(%arg0: tensor<f32>, %arg1: tensor<f32>) -> tensor<i1> {
+  %0 = "stablehlo.compare"(%arg0, %arg1) {
+    // CHECK: comparison_direction = #vhlo<comparison_direction_v1 LE>
+    comparison_direction = #stablehlo<comparison_direction LE>
+  } : (tensor<f32>, tensor<f32>) -> tensor<i1>
+  func.return %0 : tensor<i1>
+}
+
+// CHECK-LABEL: "attr_comparison_direction_lt"
+// CHECK-NEXT: (%[[ARG0:.*]]: {{.*}}, %[[ARG1:.*]]: {{.*}})
+func.func @attr_comparison_direction_lt(%arg0: tensor<f32>, %arg1: tensor<f32>) -> tensor<i1> {
+  %0 = "stablehlo.compare"(%arg0, %arg1) {
+    // CHECK: comparison_direction = #vhlo<comparison_direction_v1 LT>
+    comparison_direction = #stablehlo<comparison_direction LT>
+  } : (tensor<f32>, tensor<f32>) -> tensor<i1>
+  func.return %0 : tensor<i1>
+}
+
+// CHECK-LABEL: "attr_comparison_type_notype"
+// CHECK-NEXT: (%[[ARG0:.*]]: {{.*}}, %[[ARG1:.*]]: {{.*}})
+func.func @attr_comparison_type_notype(%arg0: tensor<f32>, %arg1: tensor<f32>) -> tensor<i1> {
+  %0 = "stablehlo.compare"(%arg0, %arg1) {
+    comparison_direction = #stablehlo<comparison_direction EQ>
+    // CHECK: compare_type = #vhlo<comparison_type_v1 NOTYPE>
+  } : (tensor<f32>, tensor<f32>) -> tensor<i1>
+  func.return %0 : tensor<i1>
+}
+
+// CHECK-LABEL: "attr_comparison_type_float"
+// CHECK-NEXT: (%[[ARG0:.*]]: {{.*}}, %[[ARG1:.*]]: {{.*}})
+func.func @attr_comparison_type_float(%arg0: tensor<f32>, %arg1: tensor<f32>) -> tensor<i1> {
+  %0 = "stablehlo.compare"(%arg0, %arg1) {
+    comparison_direction = #stablehlo<comparison_direction EQ>,
+    // CHECK: compare_type = #vhlo<comparison_type_v1 FLOAT>,
+    compare_type = #stablehlo<comparison_type FLOAT>
+  } : (tensor<f32>, tensor<f32>) -> tensor<i1>
+  func.return %0 : tensor<i1>
+}
+
+// CHECK-LABEL: "attr_comparison_type_totalorder"
+// CHECK-NEXT: (%[[ARG0:.*]]: {{.*}}, %[[ARG1:.*]]: {{.*}})
+func.func @attr_comparison_type_totalorder(%arg0: tensor<f32>, %arg1: tensor<f32>) -> tensor<i1> {
+  %0 = "stablehlo.compare"(%arg0, %arg1) {
+    comparison_direction = #stablehlo<comparison_direction EQ>,
+    // CHECK: compare_type = #vhlo<comparison_type_v1 TOTALORDER>,
+    compare_type = #stablehlo<comparison_type TOTALORDER>
+  } : (tensor<f32>, tensor<f32>) -> tensor<i1>
+  func.return %0 : tensor<i1>
+}
+
+// CHECK-LABEL: "attr_comparison_type_signed"
+// CHECK-NEXT: (%[[ARG0:.*]]: {{.*}}, %[[ARG1:.*]]: {{.*}})
+func.func @attr_comparison_type_signed(%arg0: tensor<f32>, %arg1: tensor<f32>) -> tensor<i1> {
+  %0 = "stablehlo.compare"(%arg0, %arg1) {
+    comparison_direction = #stablehlo<comparison_direction EQ>,
+    // CHECK: compare_type = #vhlo<comparison_type_v1 SIGNED>,
+    compare_type = #stablehlo<comparison_type SIGNED>
+  } : (tensor<f32>, tensor<f32>) -> tensor<i1>
+  func.return %0 : tensor<i1>
+}
+
+// CHECK-LABEL: "attr_comparison_type_unsigned"
+// CHECK-NEXT: (%[[ARG0:.*]]: {{.*}}, %[[ARG1:.*]]: {{.*}})
+func.func @attr_comparison_type_unsigned(%arg0: tensor<f32>, %arg1: tensor<f32>) -> tensor<i1> {
+  %0 = "stablehlo.compare"(%arg0, %arg1) {
+    comparison_direction = #stablehlo<comparison_direction EQ>,
+    // CHECK: compare_type = #vhlo<comparison_type_v1 UNSIGNED>,
+    compare_type = #stablehlo<comparison_type UNSIGNED>
+  } : (tensor<f32>, tensor<f32>) -> tensor<i1>
+  func.return %0 : tensor<i1>
+}
+
+// ConvDimensionNumbers aka #stablehlo.conv is covered below.
+
+// CHECK-LABEL: "attr_custom_call_api_version_unspecified"
+// CHECK-NEXT: (%[[ARG0:.*]]: {{.*}})
+func.func @attr_custom_call_api_version_unspecified(%arg0: tensor<f32>) -> tensor<f32> {
+  %0 = "stablehlo.custom_call"(%arg0) {
+    call_target_name = "foo",
+    // CHECK: api_version = #vhlo<api_version_v1 API_VERSION_UNSPECIFIED>
+    api_version = 0 : i32
+  } : (tensor<f32>) -> tensor<f32>
+  func.return %0 : tensor<f32>
+}
+
+// CHECK-LABEL: "attr_custom_call_api_version_original"
+// CHECK-NEXT: (%[[ARG0:.*]]: {{.*}})
+func.func @attr_custom_call_api_version_original(%arg0: tensor<f32>) -> tensor<f32> {
+  %0 = "stablehlo.custom_call"(%arg0) {
+    call_target_name = "foo",
+    // CHECK: api_version = #vhlo<api_version_v1 API_VERSION_ORIGINAL>
+    api_version = 1 : i32
+  } : (tensor<f32>) -> tensor<f32>
+  func.return %0 : tensor<f32>
+}
+
+// CHECK-LABEL: "attr_custom_call_api_version_status_returning"
+// CHECK-NEXT: (%[[ARG0:.*]]: {{.*}})
+func.func @attr_custom_call_api_version_status_returning(%arg0: tensor<f32>) -> tensor<f32> {
+  %0 = "stablehlo.custom_call"(%arg0) {
+    call_target_name = "foo",
+    // CHECK: api_version = #vhlo<api_version_v1 API_VERSION_STATUS_RETURNING>
+    api_version = 2 : i32
+  } : (tensor<f32>) -> tensor<f32>
+  func.return %0 : tensor<f32>
+}
+
+// CHECK-LABEL: "attr_custom_call_api_version_status_returning_unified"
+// CHECK-NEXT: (%[[ARG0:.*]]: {{.*}})
+func.func @attr_custom_call_api_version_status_returning_unified(%arg0: tensor<f32>) -> tensor<f32> {
+  %0 = "stablehlo.custom_call"(%arg0) {
+    call_target_name = "foo",
+    // CHECK: api_version = #vhlo<api_version_v1 API_VERSION_STATUS_RETURNING_UNIFIED>
+    api_version = 3 : i32
+  } : (tensor<f32>) -> tensor<f32>
+  func.return %0 : tensor<f32>
+}
+
+// CHECK-LABEL: "attr_dict"
+// CHECK: #vhlo.dict_v1<{#vhlo.string_v1<"attr1"> = #vhlo.integer_v1<1 : i32>, #vhlo.string_v1<"attr2"> = #vhlo.integer_v1<2 : i32>}
+func.func @attr_dict() attributes {stablehlo.attr = {attr1 = 1 : i32, attr2 = 2 : i32}} {
+  return
+}
+
+// CHECK-LABEL: "attr_custom_call_api_version_typed_ffi"
+// CHECK-NEXT: (%[[ARG0:.*]]: {{.*}})
+// CHECK: api_version = #vhlo<api_version_v1 API_VERSION_TYPED_FFI>
+// CHECK-SAME: backend_config = #vhlo.dict_v1<{#vhlo.string_v1<"bar"> = #vhlo.integer_v1<42 : i32>}>
+func.func @attr_custom_call_api_version_typed_ffi(%arg0: tensor<f32>) -> tensor<f32> {
+  %0 = "stablehlo.custom_call"(%arg0) {
+    call_target_name = "foo",
+    backend_config= {bar = 42 : i32},
+    api_version = 4 : i32
+  } : (tensor<f32>) -> tensor<f32>
+  func.return %0 : tensor<f32>
+}
+
+
+// CHECK-LABEL: "attr_custom_call_api_version_typed_ffi_no_backend_config"
+// CHECK-NEXT: (%[[ARG0:.*]]: {{.*}})
+// CHECK: api_version = #vhlo<api_version_v1 API_VERSION_TYPED_FFI>
+// CHECK-SAME: backend_config = #vhlo.dict_v1<{}>
+func.func @attr_custom_call_api_version_typed_ffi_no_backend_config(%arg0: tensor<f32>) -> tensor<f32> {
+  %0 = "stablehlo.custom_call"(%arg0) {
+    call_target_name = "foo",
+    api_version = 4 : i32
+  } : (tensor<f32>) -> tensor<f32>
+  func.return %0 : tensor<f32>
+}
+
+// DotDimensionNumbers aka #stablehlo.dot is covered below.
+
+// CHECK-LABEL: "attr_fft_type_fft"
+// CHECK-NEXT: (%[[ARG0:.*]]: {{.*}})
+func.func @attr_fft_type_fft(%arg0: tensor<16xcomplex<f32>>) -> tensor<16xcomplex<f32>> {
+  %0 = "stablehlo.fft"(%arg0) {
+    // CHECK: fft_type = #vhlo<fft_type_v1 FFT>
+    fft_type = #stablehlo<fft_type FFT>,
+    fft_length = array<i64: 16>
+  } : (tensor<16xcomplex<f32>>) -> tensor<16xcomplex<f32>>
+  func.return %0 : tensor<16xcomplex<f32>>
+}
+
+// CHECK-LABEL: "attr_fft_type_ifft"
+// CHECK-NEXT: (%[[ARG0:.*]]: {{.*}})
+func.func @attr_fft_type_ifft(%arg0: tensor<16xcomplex<f32>>) -> tensor<16xcomplex<f32>> {
+  %0 = "stablehlo.fft"(%arg0) {
+    // CHECK: fft_type = #vhlo<fft_type_v1 IFFT>
+    fft_type = #stablehlo<fft_type IFFT>,
+    fft_length = array<i64: 16>
+  } : (tensor<16xcomplex<f32>>) -> tensor<16xcomplex<f32>>
+  func.return %0 : tensor<16xcomplex<f32>>
+}
+
+// CHECK-LABEL: "attr_fft_type_rfft"
+// CHECK-NEXT: (%[[ARG0:.*]]: {{.*}})
+func.func @attr_fft_type_rfft(%arg0: tensor<16xf32>) -> tensor<9xcomplex<f32>> {
+  %0 = "stablehlo.fft"(%arg0) {
+    // CHECK: fft_type = #vhlo<fft_type_v1 RFFT>
+    fft_type = #stablehlo<fft_type RFFT>,
+    fft_length = array<i64: 16>
+  } : (tensor<16xf32>) -> tensor<9xcomplex<f32>>
+  func.return %0 : tensor<9xcomplex<f32>>
+}
+
+// CHECK-LABEL: "attr_fft_type_irfft"
+// CHECK-NEXT: (%[[ARG0:.*]]: {{.*}})
+func.func @attr_fft_type_irfft(%arg0: tensor<9xcomplex<f32>>) -> tensor<16xf32> {
+  %0 = "stablehlo.fft"(%arg0) {
+    // CHECK: fft_type = #vhlo<fft_type_v1 IRFFT>
+    fft_type = #stablehlo<fft_type IRFFT>,
+    fft_length = array<i64: 16>
+  } : (tensor<9xcomplex<f32>>) -> tensor<16xf32>
+  func.return %0 : tensor<16xf32>
+}
+
+// CHECK-LABEL: "exponential_HIGHEST"
+// CHECK-NEXT: (%[[ARG0:.*]]: {{.*}}
+func.func @exponential_HIGHEST(%arg0: tensor<8x16xf32>) -> tensor<8x16xf32> {
+  %0 = "stablehlo.exponential"(%arg0) {
+    // CHECK: result_accuracy = #vhlo.result_accuracy_v1<atol = 0.000000e+00, rtol = 0.000000e+00, ulps = 0, mode = #vhlo<result_accuracy_mode_v1 HIGHEST>>
+    result_accuracy = #stablehlo.result_accuracy<atol = 0.000000e+00, rtol = 0.000000e+00, ulps = 0, mode = #stablehlo.result_accuracy_mode<HIGHEST>>
+  } : (tensor<8x16xf32>) -> tensor<8x16xf32>
+  func.return %0 : tensor<8x16xf32>
+}
+
+// CHECK-LABEL: "exponential_TOLERANCE"
+// CHECK-NEXT: (%[[ARG0:.*]]: {{.*}}
+func.func @exponential_TOLERANCE(%arg0: tensor<8x16xf32>) -> tensor<8x16xf32> {
+  %0 = "stablehlo.exponential"(%arg0) {
+    // CHECK: result_accuracy = #vhlo.result_accuracy_v1<atol = 1.000000e-05, rtol = 0.000000e+00, ulps = 1, mode = #vhlo<result_accuracy_mode_v1 TOLERANCE>>
+    result_accuracy = #stablehlo.result_accuracy<atol = 1.000000e-5, rtol = 0.000000e+00, ulps = 1, mode = #stablehlo.result_accuracy_mode<TOLERANCE>>
+  } : (tensor<8x16xf32>) -> tensor<8x16xf32>
+  func.return %0 : tensor<8x16xf32>
+}
+
+// CHECK-LABEL: "exponential_DEFAULT"
+// CHECK-NEXT: (%[[ARG0:.*]]: {{.*}}
+func.func @exponential_DEFAULT(%arg0: tensor<8x16xf32>) -> tensor<8x16xf32> {
+  %0 = "stablehlo.exponential"(%arg0) {
+    // CHECK: result_accuracy = #vhlo.result_accuracy_v1<atol = 0.000000e+00, rtol = 0.000000e+00, ulps = 0, mode = #vhlo<result_accuracy_mode_v1 DEFAULT>>
+    result_accuracy = #stablehlo.result_accuracy<atol = 0.000000e+00, rtol = 0.000000e+00, ulps = 0, mode = #stablehlo.result_accuracy_mode<DEFAULT>>
+  } : (tensor<8x16xf32>) -> tensor<8x16xf32>
+  func.return %0 : tensor<8x16xf32>
+}
+
+// GatherDimensionNumbers aka #stablehlo.gather is covered below.
+
+// CHECK-LABEL: "attr_precision_config_default"
+// CHECK-NEXT: (%[[ARG0:.*]]: {{.*}}, %[[ARG1:.*]]: {{.*}})
+func.func @attr_precision_config_default(%arg0: tensor<8x16xf32>, %arg1: tensor<16x8xf32>) -> tensor<8x8xf32> {
+  %0 = "stablehlo.dot"(%arg0, %arg1) {
+    // CHECK: precision_config = #vhlo.array_v1<[#vhlo<precision_v1 DEFAULT>, #vhlo<precision_v1 DEFAULT>]>
+  } : (tensor<8x16xf32>, tensor<16x8xf32>) -> tensor<8x8xf32>
+  func.return %0 : tensor<8x8xf32>
+}
+
+// CHECK-LABEL: "attr_precision_config_high"
+// CHECK-NEXT: (%[[ARG0:.*]]: {{.*}}, %[[ARG1:.*]]: {{.*}})
+func.func @attr_precision_config_high(%arg0: tensor<8x16xf32>, %arg1: tensor<16x8xf32>) -> tensor<8x8xf32> {
+  %0 = "stablehlo.dot"(%arg0, %arg1) {
+    // CHECK: precision_config = #vhlo.array_v1<[#vhlo<precision_v1 HIGH>, #vhlo<precision_v1 HIGH>]>
+    precision_config = [#stablehlo<precision HIGH>, #stablehlo<precision HIGH>]
+  } : (tensor<8x16xf32>, tensor<16x8xf32>) -> tensor<8x8xf32>
+  func.return %0 : tensor<8x8xf32>
+}
+
+// CHECK-LABEL: "attr_precision_config_highest"
+// CHECK-NEXT: (%[[ARG0:.*]]: {{.*}}, %[[ARG1:.*]]: {{.*}})
+func.func @attr_precision_config_highest(%arg0: tensor<8x16xf32>, %arg1: tensor<16x8xf32>) -> tensor<8x8xf32> {
+  %0 = "stablehlo.dot"(%arg0, %arg1) {
+    // CHECK: precision_config = #vhlo.array_v1<[#vhlo<precision_v1 HIGHEST>, #vhlo<precision_v1 HIGHEST>]>
+    precision_config = [#stablehlo<precision HIGHEST>, #stablehlo<precision HIGHEST>]
+  } : (tensor<8x16xf32>, tensor<16x8xf32>) -> tensor<8x8xf32>
+  func.return %0 : tensor<8x8xf32>
+}
+
+// CHECK-LABEL: "attr_rng_algorithm_default"
+// CHECK-NEXT: (%[[ARG0:.*]]: {{.*}})
+func.func @attr_rng_algorithm_default(%arg0: tensor<f32>) -> (tensor<f32>, tensor<f32>) {
+  %0:2 = "stablehlo.rng_bit_generator"(%arg0) {
+    // CHECK: rng_algorithm = #vhlo<rng_algorithm_v1 DEFAULT>
+    rng_algorithm = #stablehlo<rng_algorithm DEFAULT>
+  } : (tensor<f32>) -> (tensor<f32>, tensor<f32>)
+  func.return %0#0, %0#1 : tensor<f32>, tensor<f32>
+}
+
+// CHECK-LABEL: "attr_rng_algorithm_three_fry"
+// CHECK-NEXT: (%[[ARG0:.*]]: {{.*}})
+func.func @attr_rng_algorithm_three_fry(%arg0: tensor<f32>) -> (tensor<f32>, tensor<f32>) {
+  %0:2 = "stablehlo.rng_bit_generator"(%arg0) {
+    // CHECK: rng_algorithm = #vhlo<rng_algorithm_v1 THREE_FRY>
+    rng_algorithm = #stablehlo<rng_algorithm THREE_FRY>
+  } : (tensor<f32>) -> (tensor<f32>, tensor<f32>)
+  func.return %0#0, %0#1 : tensor<f32>, tensor<f32>
+}
+
+// CHECK-LABEL: "attr_rng_algorithm_philox"
+// CHECK-NEXT: (%[[ARG0:.*]]: {{.*}})
+func.func @attr_rng_algorithm_philox(%arg0: tensor<f32>) -> (tensor<f32>, tensor<f32>) {
+  %0:2 = "stablehlo.rng_bit_generator"(%arg0) {
+    // CHECK: rng_algorithm = #vhlo<rng_algorithm_v1 PHILOX>
+    rng_algorithm = #stablehlo<rng_algorithm PHILOX>
+  } : (tensor<f32>) -> (tensor<f32>, tensor<f32>)
+  func.return %0#0, %0#1 : tensor<f32>, tensor<f32>
+}
+
+// CHECK-LABEL: "attr_rng_distribution_uniform"
+// CHECK-NEXT: (%[[ARG0:.*]]: {{.*}}, %[[ARG1:.*]]: {{.*}}, %[[ARG2:.*]]: {{.*}})
+func.func @attr_rng_distribution_uniform(%arg0: tensor<f32>, %arg1: tensor<f32>, %arg2: tensor<0xindex>) -> tensor<f32> {
+  %0 = "stablehlo.rng"(%arg0, %arg1, %arg2) {
+    // CHECK: rng_distribution = #vhlo<rng_distribution_v1 UNIFORM>
+    rng_distribution = #stablehlo<rng_distribution UNIFORM>
+  } : (tensor<f32>, tensor<f32>, tensor<0xindex>) -> tensor<f32>
+  func.return %0 : tensor<f32>
+}
+
+// CHECK-LABEL: "attr_rng_distribution_normal"
+// CHECK-NEXT: (%[[ARG0:.*]]: {{.*}}, %[[ARG1:.*]]: {{.*}}, %[[ARG2:.*]]: {{.*}})
+func.func @attr_rng_distribution_normal(%arg0: tensor<f32>, %arg1: tensor<f32>, %arg2: tensor<0xindex>) -> tensor<f32> {
+  %0 = "stablehlo.rng"(%arg0, %arg1, %arg2) {
+    // CHECK: rng_distribution = #vhlo<rng_distribution_v1 NORMAL>
+    rng_distribution = #stablehlo<rng_distribution NORMAL>
+  } : (tensor<f32>, tensor<f32>, tensor<0xindex>) -> tensor<f32>
+  func.return %0 : tensor<f32>
+}
+
+// ScatterDimensionNumbers aka #stablehlo.scatter is covered below.
+
+// CHECK-LABEL: "attr_transpose_no_transpose"
+// CHECK-NEXT: (%[[ARG0:.*]]: {{.*}}, %[[ARG1:.*]]: {{.*}})
+func.func @attr_transpose_no_transpose(%arg0: tensor<16x16xf32>, %arg1: tensor<16x16xf32>) ->  tensor<16x16xf32> {
+  %0 = "stablehlo.triangular_solve"(%arg0, %arg1) {
+    left_side = true,
+    lower = true,
+    unit_diagonal = true,
+    // transpose_a = #vhlo<transpose_v1 NO_TRANSPOSE>,
+    transpose_a = #stablehlo<transpose NO_TRANSPOSE>
+  } : (tensor<16x16xf32>, tensor<16x16xf32>) -> tensor<16x16xf32>
+  func.return %0 : tensor<16x16xf32>
+}
+
+// CHECK-LABEL: "attr_transpose_transpose"
+// CHECK-NEXT: (%[[ARG0:.*]]: {{.*}}, %[[ARG1:.*]]: {{.*}})
+func.func @attr_transpose_transpose(%arg0: tensor<16x16xf32>, %arg1: tensor<16x16xf32>) ->  tensor<16x16xf32> {
+  %0 = "stablehlo.triangular_solve"(%arg0, %arg1) {
+    left_side = true,
+    lower = true,
+    unit_diagonal = true,
+    // transpose_a = #vhlo<transpose_v1 TRANSPOSE>,
+    transpose_a = #stablehlo<transpose TRANSPOSE>
+  } : (tensor<16x16xf32>, tensor<16x16xf32>) -> tensor<16x16xf32>
+  func.return %0 : tensor<16x16xf32>
+}
+
+// CHECK-LABEL: "attr_transpose_adjoint"
+// CHECK-NEXT: (%[[ARG0:.*]]: {{.*}}, %[[ARG1:.*]]: {{.*}})
+func.func @attr_transpose_adjoint(%arg0: tensor<16x16xf32>, %arg1: tensor<16x16xf32>) ->  tensor<16x16xf32> {
+  %0 = "stablehlo.triangular_solve"(%arg0, %arg1) {
+    left_side = true,
+    lower = true,
+    unit_diagonal = true,
+    // transpose_a = #vhlo<transpose_v1 ADJOINT>,
+    transpose_a = #stablehlo<transpose ADJOINT>
+  } : (tensor<16x16xf32>, tensor<16x16xf32>) -> tensor<16x16xf32>
+  func.return %0 : tensor<16x16xf32>
+}
+
+// TypeExtensionsAttr aka #stablehlo.type_extensions is covered below.
+
+// CHECK-LABEL: "attr_type_extensions_bounds"
+// CHECK-NEXT: (%[[ARG0:.*]]: {{.*}})
+func.func @attr_type_extensions_bounds(%arg0: tensor<?x?xf32, #stablehlo.type_extensions<bounds = [16, ?]>>) -> tensor<?x?xf32, #stablehlo.type_extensions<bounds = [16, ?]>> {
+  // CHECK: "vhlo.return_v1"(%[[ARG0]]) : (!vhlo.tensor_v1<?x?x!vhlo.f32_v1, #vhlo.type_extensions_v1<bounds = [16, ?]>>) -> ()
+  func.return %arg0 : tensor<?x?xf32, #stablehlo.type_extensions<bounds = [16, ?]>>
+}
+
+// CHECK-LABEL: "attr_frontend_attributes"
+func.func @attr_frontend_attributes(%arg0: tensor<f32>) -> tensor<f32> {
+  // CHECK: some.unregistered_attr
+  %1 = stablehlo.cosine %arg0 {some.unregistered_attr = 1 : i32} : tensor<f32>
+  return %1 : tensor<f32>
+}
+
+// Builtin attriubute tests
+
+// CHECK-LABEL: "byte_packed_boolean"
+func.func @byte_packed_boolean() -> (tensor<8xi1>, tensor<8xi1>, tensor<4xi1>, tensor<4xi1>, tensor<16xi1>) {
+  // CHECK: #vhlo.tensor_v1<dense<[true, false, false, false, false, false, false, false]
+  // CHECK-NEXT: #vhlo.tensor_v1<dense<true> : tensor<8xi1>>
+  // CHECK-NEXT: #vhlo.tensor_v1<dense<[true, false, false, false]> : tensor<4xi1>>
+  // CHECK-NEXT: #vhlo.tensor_v1<dense<true> : tensor<4xi1>>
+  // CHECK-NEXT: #vhlo.tensor_v1<dense<[true, false, false, false, false, false, false, false, true, false, false, false, false, false, false, false]> : tensor<16xi1>>
+  %c = stablehlo.constant dense<[true, false, false, false, false, false, false, false]> : tensor<8xi1>
+  %c_0 = stablehlo.constant dense<true> : tensor<8xi1>
+  %c_1 = stablehlo.constant dense<[true, false, false, false]> : tensor<4xi1>
+  %c_2 = stablehlo.constant dense<true> : tensor<4xi1>
+  %c_3 = stablehlo.constant dense<[true, false, false, false, false, false, false, false, true, false, false, false, false, false, false, false]> : tensor<16xi1>
+  return %c, %c_0, %c_1, %c_2, %c_3 : tensor<8xi1>, tensor<8xi1>, tensor<4xi1>, tensor<4xi1>, tensor<16xi1>
+}
+
+// ============ DEFAULTS ============
+
+// CHECK-LABEL: "default_all_gather"
+// CHECK-NEXT: (%[[ARG0:.*]]: {{.*}})
+func.func @default_all_gather(%arg0: tensor<16x8xf32>) -> tensor<16x16xf32> {
+  //               CHECK: "vhlo.all_gather_v2"(%[[ARG0]]) <{
+  //          CHECK-SAME:   all_gather_dim = #vhlo.integer_v1<1 : i64>
+  //          CHECK-SAME:   channel_id = #vhlo.integer_v1<0 : i64>,
+  // CHECK-SAME{LITERAL}:   replica_groups = #vhlo.tensor_v1<dense<[[0], [1]]> : tensor<2x1xi64>>,
+  //          CHECK-SAME:   use_global_device_ids = #vhlo.bool_v1<false>
+  //          CHECK-SAME: }> : (!vhlo.tensor_v1<16x8x!vhlo.f32_v1>) -> !vhlo.tensor_v1<16x16x!vhlo.f32_v1>
+  %0 = "stablehlo.all_gather"(%arg0) {
+    all_gather_dim = 1 : i64,
+    replica_groups = dense<[[0], [1]]> : tensor<2x1xi64>
+  } : (tensor<16x8xf32>) -> tensor<16x16xf32>
+  func.return %0 : tensor<16x16xf32>
+}
+
+// CHECK-LABEL: "default_all_gather_variadic"
+// CHECK-NEXT: (%[[ARG0:.*]]: {{.*}})
+func.func @default_all_gather_variadic(%arg0: tensor<16x8xf32>, %arg1: tensor<16x8xf32>) -> (tensor<16x16xf32>, tensor<16x16xf32>) {
+  %0:2 = "stablehlo.all_gather"(%arg0, %arg1) {
+    all_gather_dim = 1 : i64,
+    replica_groups = dense<[[0], [1]]> : tensor<2x1xi64>
+  } : (tensor<16x8xf32>, tensor<16x8xf32>) -> (tensor<16x16xf32>, tensor<16x16xf32>)
+  func.return %0#0, %0#1 : tensor<16x16xf32>, tensor<16x16xf32>
+}
+
+// CHECK-LABEL: "default_all_reduce"
+// CHECK-NEXT: (%[[ARG0:.*]]: {{.*}})
+func.func @default_all_reduce(%arg0: tensor<f32>) -> tensor<f32> {
+  //               CHECK: "vhlo.all_reduce_v2"(%[[ARG0]])
+  //          CHECK-SAME: <{
+  //          CHECK-SAME:   channel_id = #vhlo.integer_v1<0 : i64>,
+  // CHECK-SAME{LITERAL}:   replica_groups = #vhlo.tensor_v1<dense<[[0], [1]]> : tensor<2x1xi64>>,
+  //          CHECK-SAME:   use_global_device_ids = #vhlo.bool_v1<false>
+  //          CHECK-SAME: }> ({
+  //          CHECK-NEXT:   ^[[BB:bb.*]](%[[ARG1:arg.*]]: !vhlo.tensor_v1<!vhlo.f32_v1>, %[[ARG2:arg.*]]: !vhlo.tensor_v1<!vhlo.f32_v1>):
+  //          CHECK-NEXT:     %[[VAL1:.*]] = "vhlo.add_v1"(%[[ARG1]], %[[ARG2]]) : (!vhlo.tensor_v1<!vhlo.f32_v1>, !vhlo.tensor_v1<!vhlo.f32_v1>) -> !vhlo.tensor_v1<!vhlo.f32_v1>
+  //          CHECK-NEXT:     "vhlo.return_v1"(%[[VAL1]]) : (!vhlo.tensor_v1<!vhlo.f32_v1>) -> ()
+  //          CHECK-NEXT: }) : (!vhlo.tensor_v1<!vhlo.f32_v1>) -> !vhlo.tensor_v1<!vhlo.f32_v1>
+
+  %0 = "stablehlo.all_reduce"(%arg0) ({
+    ^bb0(%arg1: tensor<f32>, %arg2: tensor<f32>):
+      %1 = "stablehlo.add"(%arg1, %arg2) : (tensor<f32>, tensor<f32>) -> tensor<f32>
+      "stablehlo.return"(%1) : (tensor<f32>) -> ()
+  }) {
+    replica_groups = dense<[[0], [1]]> : tensor<2x1xi64>
+  } : (tensor<f32>) -> tensor<f32>
+  func.return %0 : tensor<f32>
+}
+
+// CHECK-LABEL: "default_all_to_all"
+// CHECK-NEXT: (%[[ARG0:.*]]: {{.*}})
+func.func @default_all_to_all(%arg0: tensor<4x16xf32>) -> tensor<16x4xf32> {
+  //               CHECK: "vhlo.all_to_all_v2"(%[[ARG0]]) <{
+  //          CHECK-SAME:   channel_id = #vhlo.integer_v1<0 : i64>,
+  //          CHECK-SAME:   concat_dimension = #vhlo.integer_v1<0 : i64>,
+  // CHECK-SAME{LITERAL}:   replica_groups = #vhlo.tensor_v1<dense<[[0, 1, 2, 3]]> : tensor<1x4xi64>>,
+  //          CHECK-SAME:   split_count = #vhlo.integer_v1<4 : i64>
+  //          CHECK-SAME:   split_dimension = #vhlo.integer_v1<1 : i64>
+  //          CHECK-SAME: }> : (!vhlo.tensor_v1<4x16x!vhlo.f32_v1>) -> !vhlo.tensor_v1<16x4x!vhlo.f32_v1>
+  %0 = "stablehlo.all_to_all"(%arg0) {
+    split_dimension = 1 : i64,
+    concat_dimension = 0 : i64,
+    split_count = 4 : i64,
+    replica_groups = dense<[[0, 1, 2, 3]]> : tensor<1x4xi64>
+  } : (tensor<4x16xf32>) -> tensor<16x4xf32>
+  func.return %0 : tensor<16x4xf32>
+}
+
+// CHECK-LABEL: "default_all_to_all_variadic"
+func.func @default_all_to_all_variadic(%arg0: tensor<4x16xf32>, %arg1: tensor<5x16xf32>) -> (tensor<16x4xf32>, tensor<20x4xf32>) {
+  %0:2 = "stablehlo.all_to_all"(%arg0, %arg1) {
+    split_dimension = 1 : i64,
+    concat_dimension = 0 : i64,
+    split_count = 4 : i64,
+    replica_groups = dense<[[0, 1, 2, 3]]> : tensor<1x4xi64>,
+    channel_handle = #stablehlo.channel_handle<handle = 1, type = 0>
+  } : (tensor<4x16xf32>, tensor<5x16xf32>) -> (tensor<16x4xf32>, tensor<20x4xf32>)
+  func.return %0#0, %0#1 : tensor<16x4xf32>, tensor<20x4xf32>
+}
+
+// CHECK-LABEL: "default_cholesky"
+// CHECK-NEXT: (%[[ARG0:.*]]: {{.*}})
+func.func @default_cholesky(%arg0: tensor<1x16x16xf32>) -> tensor<1x16x16xf32> {
+  //      CHECK: "vhlo.cholesky_v1"(%[[ARG0]]) <{
+  // CHECK-SAME:   lower = #vhlo.bool_v1<false>
+  // CHECK-SAME: }> : (!vhlo.tensor_v1<1x16x16x!vhlo.f32_v1>) -> !vhlo.tensor_v1<1x16x16x!vhlo.f32_v1>
+  %0 = "stablehlo.cholesky"(%arg0) : (tensor<1x16x16xf32>) -> tensor<1x16x16xf32>
+  func.return %0 : tensor<1x16x16xf32>
+}
+
+// CHECK-LABEL: "default_collective_permute"
+// CHECK-NEXT: (%[[ARG0:.*]]: {{.*}})
+func.func @default_collective_permute(%arg0: tensor<16x8xf32>) -> tensor<16x8xf32> {
+  //               CHECK: "vhlo.collective_permute_v1"(%[[ARG0]]) <{
+  //          CHECK-SAME:   channel_id = #vhlo.integer_v1<0 : i64>,
+  // CHECK-SAME{LITERAL}:   source_target_pairs = #vhlo.tensor_v1<dense<[[0, 1], [1, 2], [2, 3]]> : tensor<3x2xi64>>
+  //          CHECK-SAME: }> : (!vhlo.tensor_v1<16x8x!vhlo.f32_v1>) -> !vhlo.tensor_v1<16x8x!vhlo.f32_v1>
+  %0 = "stablehlo.collective_permute"(%arg0) {
+    source_target_pairs = dense<[[0, 1], [1, 2], [2, 3]]> : tensor<3x2xi64>
+  } : (tensor<16x8xf32>) -> tensor<16x8xf32>
+  func.return %0 : tensor<16x8xf32>
+}
+
+// CHECK-LABEL: "default_collective_broadcast"
+// CHECK-NEXT: (%[[ARG0:.*]]: {{.*}})
+func.func @default_collective_broadcast(%arg0: tensor<16x8xf32>) -> tensor<16x8xf32> {
+  //               CHECK: "vhlo.collective_broadcast_v1"(%[[ARG0]]) <{
+  //          CHECK-SAME:   channel_id = #vhlo.integer_v1<0 : i64>,
+  // CHECK-SAME{LITERAL}:   replica_groups = #vhlo.tensor_v1<dense<[[0, 1]]> : tensor<1x2xi64>>
+  //          CHECK-SAME: }> : (!vhlo.tensor_v1<16x8x!vhlo.f32_v1>) -> !vhlo.tensor_v1<16x8x!vhlo.f32_v1>
+  %0 = "stablehlo.collective_broadcast"(%arg0) {
+    replica_groups = dense<[[0, 1]]> : tensor<1x2xi64>
+  } : (tensor<16x8xf32>) -> tensor<16x8xf32>
+  func.return %0 : tensor<16x8xf32>
+}
+
+// CHECK-LABEL: "default_compare"
+// CHECK-NEXT: (%[[ARG0:.*]]: {{.*}}, %[[ARG1:.*]]: {{.*}})
+func.func @default_compare(%arg0: tensor<f32>, %arg1: tensor<f32>) -> tensor<i1> {
+  //      CHECK: "vhlo.compare_v1"(%[[ARG0]], %[[ARG1]]) <{
+  // CHECK-SAME:   compare_type = #vhlo<comparison_type_v1 NOTYPE>,
+  // CHECK-SAME:   comparison_direction = #vhlo<comparison_direction_v1 EQ>
+  // CHECK-SAME: }> : (!vhlo.tensor_v1<!vhlo.f32_v1>, !vhlo.tensor_v1<!vhlo.f32_v1>) -> !vhlo.tensor_v1<!vhlo.bool_v1>
+  %0 = "stablehlo.compare"(%arg0, %arg1) {
+    comparison_direction = #stablehlo<comparison_direction EQ>
+  } : (tensor<f32>, tensor<f32>) -> tensor<i1>
+  func.return %0 : tensor<i1>
+}
+
+// CHECK-LABEL: "default_composite"
+// CHECK-NEXT: (%[[ARG0:.*]]: {{.*}})
+func.func @default_composite(%arg0: tensor<f32>) -> tensor<f32> {
+  //               CHECK: "vhlo.composite_v2"(%[[ARG0]]) <{
+  //          CHECK-SAME:   composite_attributes = #vhlo.dict_v1<{}>
+  //          CHECK-SAME:   decomposition = #vhlo.string_v1<"composite_target">
+  //          CHECK-SAME:   name = #vhlo.string_v1<"stablehlo.composite_target">
+  //          CHECK-SAME:   version = #vhlo.integer_v1<0 : i64>
+  //          CHECK-SAME: }> : (!vhlo.tensor_v1<!vhlo.f32_v1>) -> !vhlo.tensor_v1<!vhlo.f32_v1>
+  %0 = "stablehlo.composite"(%arg0) {
+    name = "stablehlo.composite_target",
+    decomposition = @composite_target
+  } : (tensor<f32>) -> tensor<f32>
+  func.return %0 : tensor<f32>
+}
+
+// CHECK-LABEL: "default_convolution"
+// CHECK-NEXT: (%[[ARG0:.*]]: {{.*}}, %[[ARG1:.*]]: {{.*}})
+func.func @default_convolution(%arg0: tensor<1x8x8x207xf32>, %arg1: tensor<3x3x207x16xf32>) -> tensor<1x6x6x16xf32> {
+  //      CHECK: "vhlo.convolution_v1"(%[[ARG0]], %[[ARG1]]) <{
+  // CHECK-SAME:   batch_group_count = #vhlo.integer_v1<1 : i64>,
+  // CHECK-SAME:   feature_group_count = #vhlo.integer_v1<1 : i64>,
+  // CHECK-SAME:   input_batch_dimension = #vhlo.integer_v1<0 : i64>,
+  // CHECK-SAME:   input_feature_dimension = #vhlo.integer_v1<3 : i64>,
+  // CHECK-SAME:   input_spatial_dimensions = #vhlo.tensor_v1<dense<[1, 2]> : tensor<2xi64>>,
+  // CHECK-SAME:   kernel_input_feature_dimension = #vhlo.integer_v1<2 : i64>,
+  // CHECK-SAME:   kernel_output_feature_dimension = #vhlo.integer_v1<3 : i64>,
+  // CHECK-SAME:   kernel_spatial_dimensions = #vhlo.tensor_v1<dense<[0, 1]> : tensor<2xi64>>,
+  // CHECK-SAME:   lhs_dilation = #vhlo.tensor_v1<dense<1> : tensor<2xi64>>,
+  // CHECK-SAME:   output_batch_dimension = #vhlo.integer_v1<0 : i64>,
+  // CHECK-SAME:   output_feature_dimension = #vhlo.integer_v1<3 : i64>,
+  // CHECK-SAME:   output_spatial_dimensions = #vhlo.tensor_v1<dense<[1, 2]> : tensor<2xi64>>,
+  // CHECK-SAME:   padding = #vhlo.tensor_v1<dense<0> : tensor<2x2xi64>>,
+  // CHECK-SAME:   precision_config = #vhlo.array_v1<[#vhlo<precision_v1 DEFAULT>, #vhlo<precision_v1 DEFAULT>]>,
+  // CHECK-SAME:   rhs_dilation = #vhlo.tensor_v1<dense<1> : tensor<2xi64>>,
+  // CHECK-SAME:   window_reversal = #vhlo.tensor_v1<dense<false> : tensor<2xi1>>,
+  // CHECK-SAME:   window_strides = #vhlo.tensor_v1<dense<1> : tensor<2xi64>>
+  // CHECK-SAME: }> : (!vhlo.tensor_v1<1x8x8x207x!vhlo.f32_v1>, !vhlo.tensor_v1<3x3x207x16x!vhlo.f32_v1>) -> !vhlo.tensor_v1<1x6x6x16x!vhlo.f32_v1>
+  %0 = "stablehlo.convolution"(%arg0, %arg1) {
+    dimension_numbers = #stablehlo.conv<[b, 0, 1, f]x[0, 1, i, o]->[b, 0, 1, f]>,
+    feature_group_count = 1 : i64,
+    batch_group_count = 1 : i64
+  } : (tensor<1x8x8x207xf32>, tensor<3x3x207x16xf32>) -> tensor<1x6x6x16xf32>
+  func.return %0 : tensor<1x6x6x16xf32>
+}
+
+// CHECK-LABEL: "default_custom_call"
+// CHECK-NEXT: (%[[ARG0:.*]]: {{.*}})
+func.func @default_custom_call(%arg0: tensor<f32>) -> tensor<f32> {
+  //      CHECK: "vhlo.custom_call_v1"(%[[ARG0]]) <{
+  // CHECK-SAME:   api_version = #vhlo<api_version_v1 API_VERSION_ORIGINAL>,
+  // CHECK-SAME:   backend_config = #vhlo.string_v1<"">,
+  // CHECK-SAME:   call_target_name = #vhlo.string_v1<"foo">,
+  // CHECK-SAME:   called_computations = #vhlo.array_v1<[]>,
+  // CHECK-SAME:   has_side_effect = #vhlo.bool_v1<false>,
+  // CHECK-SAME:   operand_layouts = #vhlo.array_v1<[]>,
+  // CHECK-SAME:   output_operand_aliases = #vhlo.array_v1<[]>
+  // CHECK-SAME:   result_layouts = #vhlo.array_v1<[]>
+  // CHECK-SAME: }> : (!vhlo.tensor_v1<!vhlo.f32_v1>) -> !vhlo.tensor_v1<!vhlo.f32_v1>
+  %0 = "stablehlo.custom_call"(%arg0) {
+    call_target_name = "foo"
+  } : (tensor<f32>) -> tensor<f32>
+  func.return %0 : tensor<f32>
+}
+
+// CHECK-LABEL: "default_dot_general"
+// CHECK-NEXT: (%[[ARG0:.*]]: {{.*}}, %[[ARG1:.*]]: {{.*}})
+func.func @default_dot_general(%arg0: tensor<8x8x16xf32>, %arg1: tensor<8x16x8xf32>) -> tensor<8x8x8xf32> {
+  //      CHECK: "vhlo.dot_general_v2"(%[[ARG0]], %[[ARG1]]) <{
+  // CHECK-SAME:   accumulation_type = #vhlo.type_v1<!vhlo.none_v1>,
+  // CHECK-SAME:   allow_imprecise_accumulation = #vhlo.type_v1<!vhlo.none_v1>,
+  // CHECK-SAME:   lhs_batching_dimensions = #vhlo.tensor_v1<dense<0> : tensor<1xi64>>,
+  // CHECK-SAME:   lhs_component_count = #vhlo.type_v1<!vhlo.none_v1>,
+  // CHECK-SAME:   lhs_contracting_dimensions = #vhlo.tensor_v1<dense<2> : tensor<1xi64>>,
+  // CHECK-SAME:   lhs_precision_type = #vhlo.type_v1<!vhlo.none_v1>,
+  // CHECK-SAME:   num_primitive_operations = #vhlo.type_v1<!vhlo.none_v1>,
+  // CHECK-SAME:   precision_config = #vhlo.array_v1<[#vhlo<precision_v1 DEFAULT>, #vhlo<precision_v1 DEFAULT>]>,
+  // CHECK-SAME:   rhs_batching_dimensions = #vhlo.tensor_v1<dense<0> : tensor<1xi64>>,
+  // CHECK-SAME:   rhs_component_count = #vhlo.type_v1<!vhlo.none_v1>,
+  // CHECK-SAME:   rhs_contracting_dimensions = #vhlo.tensor_v1<dense<1> : tensor<1xi64>>,
+  // CHECK-SAME:   rhs_precision_type = #vhlo.type_v1<!vhlo.none_v1>
+  // CHECK-SAME: }> : (!vhlo.tensor_v1<8x8x16x!vhlo.f32_v1>, !vhlo.tensor_v1<8x16x8x!vhlo.f32_v1>) -> !vhlo.tensor_v1<8x8x8x!vhlo.f32_v1>
+  %0 = "stablehlo.dot_general"(%arg0, %arg1) {
+    dot_dimension_numbers = #stablehlo.dot<
+      lhs_batching_dimensions = [0],
+      lhs_contracting_dimensions = [2],
+      rhs_batching_dimensions = [0],
+      rhs_contracting_dimensions = [1]
+    >
+  } : (tensor<8x8x16xf32>, tensor<8x16x8xf32>) -> tensor<8x8x8xf32>
+  func.return %0 : tensor<8x8x8xf32>
+}
+
+// CHECK-LABEL: "dot_general_algorithm"
+// CHECK-NEXT: (%[[ARG0:.*]]: {{.*}}, %[[ARG1:.*]]: {{.*}})
+func.func @dot_general_algorithm(%arg0: tensor<8x8x16xf32>, %arg1: tensor<8x16x8xf32>) -> tensor<8x8x8xf32> {
+//      CHECK: "vhlo.dot_general_v2"(%[[ARG0]], %[[ARG1]]) <{
+// CHECK-SAME:   accumulation_type = #vhlo.type_v1<!vhlo.f32_v1>,
+// CHECK-SAME:   allow_imprecise_accumulation = #vhlo.bool_v1<false>,
+// CHECK-SAME:   lhs_batching_dimensions = #vhlo.tensor_v1<dense<0> : tensor<1xi64>>,
+// CHECK-SAME:   lhs_component_count = #vhlo.integer_v1<1 : i64>,
+// CHECK-SAME:   lhs_contracting_dimensions = #vhlo.tensor_v1<dense<2> : tensor<1xi64>>,
+// CHECK-SAME:   lhs_precision_type = #vhlo.type_v1<!vhlo.tf31_v1>,
+// CHECK-SAME:   num_primitive_operations = #vhlo.integer_v1<1 : i64>,
+// CHECK-SAME:   precision_config = #vhlo.array_v1<[#vhlo<precision_v1 DEFAULT>, #vhlo<precision_v1 DEFAULT>]>,
+// CHECK-SAME:   rhs_batching_dimensions = #vhlo.tensor_v1<dense<0> : tensor<1xi64>>,
+// CHECK-SAME:   rhs_component_count = #vhlo.integer_v1<1 : i64>,
+// CHECK-SAME:   rhs_contracting_dimensions = #vhlo.tensor_v1<dense<1> : tensor<1xi64>>,
+// CHECK-SAME:   rhs_precision_type = #vhlo.type_v1<!vhlo.tf31_v1>
+// CHECK-SAME: }> : (!vhlo.tensor_v1<8x8x16x!vhlo.f32_v1>, !vhlo.tensor_v1<8x16x8x!vhlo.f32_v1>) -> !vhlo.tensor_v1<8x8x8x!vhlo.f32_v1>
+  %0 = "stablehlo.dot_general"(%arg0, %arg1) {
+    dot_dimension_numbers = #stablehlo.dot<
+      lhs_batching_dimensions = [0],
+      lhs_contracting_dimensions = [2],
+      rhs_batching_dimensions = [0],
+      rhs_contracting_dimensions = [1]
+    >,
+    algorithm = #stablehlo.dot_algorithm<
+      lhs_precision_type = tf32,
+      rhs_precision_type = tf32,
+      accumulation_type = f32,
+      lhs_component_count = 1,
+      rhs_component_count = 1,
+      num_primitive_operations = 1,
+      allow_imprecise_accumulation = false
+    >
+  } : (tensor<8x8x16xf32>, tensor<8x16x8xf32>) -> tensor<8x8x8xf32>
+  func.return %0 : tensor<8x8x8xf32>
+}
+
+// CHECK-LABEL: "default_dynamic_broadcast_in_dim"
+// CHECK-NEXT: (%[[ARG0:.*]]: {{.*}}, %[[ARG1:.*]]: {{.*}})
+func.func @default_dynamic_broadcast_in_dim(%arg0: tensor<?x?xf32>, %arg1: tensor<2xindex>) -> tensor<?x?xf32> {
+  //      CHECK: "vhlo.dynamic_broadcast_in_dim_v1"(%[[ARG0]], %[[ARG1]]) <{
+  // CHECK-SAME:   broadcast_dimensions = #vhlo.tensor_v1<dense<[0, 1]> : tensor<2xi64>>,
+  // CHECK-SAME:   known_expanding_dimensions = #vhlo.tensor_v1<dense<> : tensor<0xi64>>,
+  // CHECK-SAME:   known_nonexpanding_dimensions = #vhlo.tensor_v1<dense<> : tensor<0xi64>>
+  // CHECK-SAME: }> : (!vhlo.tensor_v1<?x?x!vhlo.f32_v1>, !vhlo.tensor_v1<2x!vhlo.index_v1>) -> !vhlo.tensor_v1<?x?x!vhlo.f32_v1>
+  %0 = "stablehlo.dynamic_broadcast_in_dim"(%arg0, %arg1) {
+    broadcast_dimensions = array<i64: 0, 1>
+  } : (tensor<?x?xf32>, tensor<2xindex>) -> tensor<?x?xf32>
+  func.return %0 : tensor<?x?xf32>
+}
+
+// CHECK-LABEL: "default_dynamic_conv"
+// CHECK-NEXT: (%[[ARG0:.*]]: {{.*}}, %[[ARG1:.*]]: {{.*}}, %[[ARG2:.*]]: {{.*}})
+func.func @default_dynamic_conv(%arg0: tensor<1x8x8x207xf32>, %arg1: tensor<3x3x207x16xf32>, %arg2: tensor<2x2xi64>) -> tensor<1x?x?x16xf32> {
+  //      CHECK: "vhlo.dynamic_conv_v2"(%[[ARG0]], %[[ARG1]], %[[ARG2]]) <{
+  // CHECK-SAME:   batch_group_count = #vhlo.integer_v1<1 : i64>,
+  // CHECK-SAME:   feature_group_count = #vhlo.integer_v1<1 : i64>,
+  // CHECK-SAME:   input_batch_dimension = #vhlo.integer_v1<0 : i64>,
+  // CHECK-SAME:   input_feature_dimension = #vhlo.integer_v1<3 : i64>,
+  // CHECK-SAME:   input_spatial_dimensions = #vhlo.tensor_v1<dense<[1, 2]> : tensor<2xi64>>,
+  // CHECK-SAME:   kernel_input_feature_dimension = #vhlo.integer_v1<2 : i64>,
+  // CHECK-SAME:   kernel_output_feature_dimension = #vhlo.integer_v1<3 : i64>,
+  // CHECK-SAME:   kernel_spatial_dimensions = #vhlo.tensor_v1<dense<[0, 1]> : tensor<2xi64>>,
+  // CHECK-SAME:   lhs_dilation = #vhlo.tensor_v1<dense<1> : tensor<2xi64>>,
+  // CHECK-SAME:   output_batch_dimension = #vhlo.integer_v1<0 : i64>,
+  // CHECK-SAME:   output_feature_dimension = #vhlo.integer_v1<3 : i64>,
+  // CHECK-SAME:   output_spatial_dimensions = #vhlo.tensor_v1<dense<[1, 2]> : tensor<2xi64>>,
+  // CHECK-SAME:   precision_config = #vhlo.array_v1<[#vhlo<precision_v1 DEFAULT>, #vhlo<precision_v1 DEFAULT>]>,
+  // CHECK-SAME:   rhs_dilation = #vhlo.tensor_v1<dense<1> : tensor<2xi64>>,
+  // CHECK-SAME:   window_reversal = #vhlo.tensor_v1<dense<false> : tensor<2xi1>>,
+  // CHECK-SAME:   window_strides = #vhlo.tensor_v1<dense<1> : tensor<2xi64>>
+  // CHECK-SAME: }> : (!vhlo.tensor_v1<1x8x8x207x!vhlo.f32_v1>, !vhlo.tensor_v1<3x3x207x16x!vhlo.f32_v1>, !vhlo.tensor_v1<2x2x!vhlo.i64_v1>) -> !vhlo.tensor_v1<1x?x?x16x!vhlo.f32_v1>
+  %0 = "stablehlo.dynamic_conv"(%arg0, %arg1, %arg2) {
+    dimension_numbers = #stablehlo.conv<[b, 0, 1, f]x[0, 1, i, o]->[b, 0, 1, f]>,
+    feature_group_count = 1 : i64,
+    batch_group_count = 1 : i64
+  } : (tensor<1x8x8x207xf32>, tensor<3x3x207x16xf32>, tensor<2x2xi64>) -> tensor<1x?x?x16xf32>
+  func.return %0 : tensor<1x?x?x16xf32>
+}
+
+// CHECK-LABEL: "default_dynamic_gather"
+// CHECK-NEXT: (%[[ARG0:.*]]: {{.*}}, %[[ARG1:.*]]: {{.*}}, %[[ARG2:.*]]: {{.*}})
+func.func @default_dynamic_gather(%arg0 : tensor<2x4x9xf32>, %arg1 : tensor<1x5x2xi32>, %arg2 : tensor<3xi32>) -> tensor<1x5x8xf32> {
+  //      CHECK: "vhlo.dynamic_gather_v2"(%[[ARG0]], %[[ARG1]], %[[ARG2]]) <{
+  // CHECK-SAME:   collapsed_slice_dims = #vhlo.tensor_v1<dense<[0, 1]> : tensor<2xi64>>,
+  // CHECK-SAME:   index_vector_dim = #vhlo.integer_v1<2 : i64>,
+  // CHECK-SAME:   indices_are_sorted = #vhlo.bool_v1<false>,
+  // CHECK-SAME:   offset_dims = #vhlo.tensor_v1<dense<2> : tensor<1xi64>>,
+  // CHECK-SAME:   operand_batching_dims = #vhlo.tensor_v1<dense<> : tensor<0xi64>>,
+  // CHECK-SAME:   start_index_map = #vhlo.tensor_v1<dense<[0, 1]> : tensor<2xi64>>,
+  // CHECK-SAME:   start_indices_batching_dims = #vhlo.tensor_v1<dense<> : tensor<0xi64>>
+  // CHECK-SAME: }> : (!vhlo.tensor_v1<2x4x9x!vhlo.f32_v1>, !vhlo.tensor_v1<1x5x2x!vhlo.i32_v1>, !vhlo.tensor_v1<3x!vhlo.i32_v1>) -> !vhlo.tensor_v1<1x5x8x!vhlo.f32_v1>
+  %0 = "stablehlo.dynamic_gather"(%arg0, %arg1, %arg2) {
+    dimension_numbers = #stablehlo.gather<
+      offset_dims = [2],
+      collapsed_slice_dims = [0, 1],
+      start_index_map = [0, 1],
+      index_vector_dim = 2
+    >
+  } : (tensor<2x4x9xf32>, tensor<1x5x2xi32>, tensor<3xi32>) -> tensor<1x5x8xf32>
+  func.return %0 : tensor<1x5x8xf32>
+}
+
+func.func @default_func(%arg0: tensor<f32>) -> tensor<f32> {
+  // CHECK:      "vhlo.func_v1"() <{
+  // CHECK-SAME:   arg_attrs = #vhlo.array_v1<[]>,
+  // CHECK-SAME:   function_type = #vhlo.type_v1<!vhlo.func_v1<(!vhlo.tensor_v1<!vhlo.f32_v1>) -> !vhlo.tensor_v1<!vhlo.f32_v1>>>,
+  // CHECK-SAME:   res_attrs = #vhlo.array_v1<[]>,
+  // CHECK-SAME:   sym_name = #vhlo.string_v1<"default_func">,
+  // CHECK-SAME:   sym_visibility = #vhlo.string_v1<"">
+  // CHECK-SAME: }> ({
+  // CHECK-NEXT:   ^[[BB:bb.*]](%[[ARG0:.*]]: !vhlo.tensor_v1<!vhlo.f32_v1>):
+  // CHECK-NEXT:     "vhlo.return_v1"(%[[ARG0]]) : (!vhlo.tensor_v1<!vhlo.f32_v1>) -> ()
+  // CHECK-NEXT: }) : () -> ()
+  func.return %arg0 : tensor<f32>
+}
+
+// CHECK-LABEL: "default_gather"
+// CHECK-NEXT: (%[[ARG0:.*]]: {{.*}}, %[[ARG1:.*]]: {{.*}})
+func.func @default_gather(%arg0 : tensor<2x4x9xf32>, %arg1 : tensor<1x5x2xi32>) -> tensor<1x5x1xf32> {
+  //      CHECK: "vhlo.gather_v2"(%[[ARG0]], %[[ARG1]]) <{
+  // CHECK-SAME:   collapsed_slice_dims = #vhlo.tensor_v1<dense<[0, 1]> : tensor<2xi64>>,
+  // CHECK-SAME:   index_vector_dim = #vhlo.integer_v1<2 : i64>,
+  // CHECK-SAME:   indices_are_sorted = #vhlo.bool_v1<false>,
+  // CHECK-SAME:   offset_dims = #vhlo.tensor_v1<dense<2> : tensor<1xi64>>,
+  // CHECK-SAME:   operand_batching_dims = #vhlo.tensor_v1<dense<> : tensor<0xi64>>,
+  // CHECK-SAME:   slice_sizes = #vhlo.tensor_v1<dense<1> : tensor<3xi64>>,
+  // CHECK-SAME:   start_index_map = #vhlo.tensor_v1<dense<[0, 1]> : tensor<2xi64>>,
+  // CHECK-SAME:   start_indices_batching_dims = #vhlo.tensor_v1<dense<> : tensor<0xi64>>
+  // CHECK-SAME: }> : (!vhlo.tensor_v1<2x4x9x!vhlo.f32_v1>, !vhlo.tensor_v1<1x5x2x!vhlo.i32_v1>) -> !vhlo.tensor_v1<1x5x1x!vhlo.f32_v1>
+  %0 = "stablehlo.gather"(%arg0, %arg1) {
+    dimension_numbers = #stablehlo.gather<
+      offset_dims = [2],
+      collapsed_slice_dims = [0, 1],
+      start_index_map = [0, 1],
+      index_vector_dim = 2
+    >,
+    slice_sizes = array<i64: 1, 1, 1>
+  } : (tensor<2x4x9xf32>, tensor<1x5x2xi32>) -> tensor<1x5x1xf32>
+  func.return %0 : tensor<1x5x1xf32>
+}
+
+// CHECK-LABEL: "default_infeed"
+// CHECK-NEXT: (%[[ARG0:.*]]: {{.*}})
+func.func @default_infeed(%arg0: !stablehlo.token) -> (tensor<f32>, !stablehlo.token) {
+  //               CHECK: "vhlo.infeed_v1"(%[[ARG0]]) <{
+  //          CHECK-SAME:   infeed_config = #vhlo.string_v1<"">,
+  // CHECK-SAME{LITERAL}:   layout = #vhlo.array_v1<[]>
+  //          CHECK-SAME: }> : (!vhlo.token_v1) -> (!vhlo.tensor_v1<!vhlo.f32_v1>, !vhlo.token_v1)
+  %0:2 = "stablehlo.infeed"(%arg0) : (!stablehlo.token) -> (tensor<f32>, !stablehlo.token)
+  func.return %0#0, %0#1 : tensor<f32>, !stablehlo.token
+}
+
+// CHECK-LABEL: "default_outfeed"
+// CHECK-NEXT: (%[[ARG0:.*]]: {{.*}}, %[[ARG1:.*]]: {{.*}})
+func.func @default_outfeed(%arg0: tensor<f32>, %arg1: !stablehlo.token) -> !stablehlo.token {
+  //      CHECK: "vhlo.outfeed_v1"(%[[ARG0]], %[[ARG1]]) <{
+  // CHECK-SAME:   outfeed_config = #vhlo.string_v1<"">
+  // CHECK-SAME: }> : (!vhlo.tensor_v1<!vhlo.f32_v1>, !vhlo.token_v1) -> !vhlo.token_v1
+  %0 = "stablehlo.outfeed"(%arg0, %arg1) : (tensor<f32>, !stablehlo.token) -> !stablehlo.token
+  func.return %0 : !stablehlo.token
+}
+
+// CHECK-LABEL: "op_recv_with_source_target_pairs"
+// CHECK-NEXT: (%[[ARG0:.*]]: {{.*}})
+func.func @op_recv_with_source_target_pairs(%arg0: !stablehlo.token) -> (tensor<f32>, !stablehlo.token) {
+  //      CHECK: "vhlo.recv_v2"(%[[ARG0]]) <{
+  // CHECK-SAME:   channel_id = #vhlo.integer_v1<0 : i64>,
+  // CHECK-SAME:   channel_type = #vhlo.integer_v1<1 : i64>,
+  // CHECK-SAME:   is_host_transfer = #vhlo.bool_v1<false>,
+  // CHECK-SAME{LITERAL}:   source_target_pairs = #vhlo.tensor_v1<dense<[[0, 1], [1, 2]]> : tensor<2x2xi64>>
+  // CHECK-SAME{LITERAL}: }> : (!vhlo.token_v1) -> (!vhlo.tensor_v1<!vhlo.f32_v1>, !vhlo.token_v1)
+  %0:2 = "stablehlo.recv"(%arg0) {
+    channel_handle = #stablehlo.channel_handle<handle = 0, type = 1>,
+    source_target_pairs = dense<[[0, 1], [1, 2]]> : tensor<2x2xi64>
+  } : (!stablehlo.token) -> (tensor<f32>, !stablehlo.token)
+  func.return %0#0, %0#1 : tensor<f32>, !stablehlo.token
+}
+
+// CHECK-LABEL: "default_send"
+// CHECK-NEXT: (%[[ARG0:.*]]: {{.*}}, %[[ARG1:.*]]: {{.*}})
+func.func @default_send(%arg0: tensor<f32>, %arg1: !stablehlo.token) -> !stablehlo.token {
+  //      CHECK: "vhlo.send_v2"(%[[ARG0]], %[[ARG1]]) <{
+  // CHECK-SAME:   channel_id = #vhlo.integer_v1<0 : i64>,
+  // CHECK-SAME:   channel_type = #vhlo.integer_v1<1 : i64>,
+  // CHECK-SAME:   is_host_transfer = #vhlo.bool_v1<false>,
+  // CHECK-SAME{LITERAL}:   source_target_pairs = #vhlo.tensor_v1<dense<[[0, 1], [1, 2]]> : tensor<2x2xi64>>
+  // CHECK-SAME{LITERAL}: }> : (!vhlo.tensor_v1<!vhlo.f32_v1>, !vhlo.token_v1) -> !vhlo.token_v1
+  %0 = "stablehlo.send"(%arg0, %arg1) {
+    channel_handle = #stablehlo.channel_handle<handle = 0, type = 1>,
+    source_target_pairs = dense<[[0, 1], [1, 2]]> : tensor<2x2xi64>
+  } : (tensor<f32>, !stablehlo.token) -> !stablehlo.token
+  func.return %0 : !stablehlo.token
+}
+
+// CHECK-LABEL: "default_reduce_scatter"
+// CHECK-NEXT: (%[[ARG0:.*]]: {{.*}})
+func.func @default_reduce_scatter(%arg0: tensor<16xf32>) -> tensor<16xf32> {
+  //               CHECK: "vhlo.reduce_scatter_v1"(%[[ARG0]]) <{
+  //          CHECK-SAME:   channel_id = #vhlo.integer_v1<0 : i64>,
+  // CHECK-SAME{LITERAL}:   replica_groups = #vhlo.tensor_v1<dense<[[0], [1]]> : tensor<2x1xi64>>,
+  //          CHECK-SAME:   scatter_dimension = #vhlo.integer_v1<0 : i64>
+  //          CHECK-SAME:   use_global_device_ids = #vhlo.bool_v1<false>
+  //          CHECK-SAME: }> ({
+  //          CHECK-NEXT:   ^[[BB:bb.*]](%[[ARG1:arg.*]]: !vhlo.tensor_v1<!vhlo.f32_v1>, %[[ARG2:arg.*]]: !vhlo.tensor_v1<!vhlo.f32_v1>):
+  //          CHECK-NEXT:     %[[VAL1:.*]] = "vhlo.add_v1"(%[[ARG1]], %[[ARG2]]) : (!vhlo.tensor_v1<!vhlo.f32_v1>, !vhlo.tensor_v1<!vhlo.f32_v1>) -> !vhlo.tensor_v1<!vhlo.f32_v1>
+  //          CHECK-NEXT:     "vhlo.return_v1"(%[[VAL1]]) : (!vhlo.tensor_v1<!vhlo.f32_v1>) -> ()
+  //          CHECK-NEXT: }) : (!vhlo.tensor_v1<16x!vhlo.f32_v1>) -> !vhlo.tensor_v1<16x!vhlo.f32_v1>
+  %0 = "stablehlo.reduce_scatter"(%arg0) ({
+    ^bb0(%arg1: tensor<f32>, %arg2: tensor<f32>):
+      %1 = "stablehlo.add"(%arg1, %arg2) : (tensor<f32>, tensor<f32>) -> tensor<f32>
+      "stablehlo.return"(%1) : (tensor<f32>) -> ()
+  }) {
+    scatter_dimension = 0 : i64,
+    replica_groups = dense<[[0], [1]]> : tensor<2x1xi64>
+  } : (tensor<16xf32>) -> tensor<16xf32>
+  func.return %0 : tensor<16xf32>
+}
+
+// CHECK-LABEL: "default_reduce_window"
+// CHECK-NEXT: (%[[ARG0:.*]]: {{.*}}, %[[ARG1:.*]]: {{.*}})
+func.func @default_reduce_window(%arg0: tensor<2x17x31x7xf32>, %arg1: tensor<f32>) -> tensor<2x16x30x7xf32> {
+  //               CHECK: "vhlo.reduce_window_v1"(%[[ARG0]], %[[ARG1]])  <{
+  //          CHECK-SAME:   base_dilations = #vhlo.tensor_v1<dense<1> : tensor<4xi64>>,
+  // CHECK-SAME{LITERAL}:   padding = #vhlo.tensor_v1<dense<0> : tensor<4x2xi64>>,
+  //          CHECK-SAME:   window_dilations = #vhlo.tensor_v1<dense<1> : tensor<4xi64>>,
+  //          CHECK-SAME:   window_dimensions = #vhlo.tensor_v1<dense<[1, 2, 2, 1]> : tensor<4xi64>>,
+  //          CHECK-SAME:   window_strides = #vhlo.tensor_v1<dense<1> : tensor<4xi64>>
+  //          CHECK-SAME: }> ({
+  //          CHECK-NEXT:   ^[[BB:bb.*]](%[[ARG2:arg.*]]: !vhlo.tensor_v1<!vhlo.f32_v1>, %[[ARG3:arg.*]]: !vhlo.tensor_v1<!vhlo.f32_v1>):
+  //          CHECK-NEXT:     %[[VAL1:.*]] = "vhlo.maximum_v1"(%[[ARG2]], %[[ARG3]]) : (!vhlo.tensor_v1<!vhlo.f32_v1>, !vhlo.tensor_v1<!vhlo.f32_v1>) -> !vhlo.tensor_v1<!vhlo.f32_v1>
+  //          CHECK-NEXT:     "vhlo.return_v1"(%[[VAL1]]) : (!vhlo.tensor_v1<!vhlo.f32_v1>) -> ()
+  //          CHECK-NEXT: }) : (!vhlo.tensor_v1<2x17x31x7x!vhlo.f32_v1>, !vhlo.tensor_v1<!vhlo.f32_v1>) -> !vhlo.tensor_v1<2x16x30x7x!vhlo.f32_v1>
+  %0 = "stablehlo.reduce_window"(%arg0, %arg1) ({
+    ^bb0(%arg2: tensor<f32>, %arg3: tensor<f32>):
+      %1 = "stablehlo.maximum"(%arg2, %arg3) : (tensor<f32>, tensor<f32>) -> tensor<f32>
+      "stablehlo.return"(%1) : (tensor<f32>) -> ()
+  }) {
+    window_dimensions = array<i64: 1, 2, 2, 1>
+  } : (tensor<2x17x31x7xf32>, tensor<f32>) -> tensor<2x16x30x7xf32>
+  func.return %0 : tensor<2x16x30x7xf32>
+}
+
+// CHECK-LABEL: "default_scatter"
+// CHECK-NEXT: (%[[ARG0:.*]]: {{.*}}, %[[ARG1:.*]]: {{.*}}, %[[ARG2:.*]]: {{.*}})
+func.func @default_scatter(%arg0: tensor<200x100x300xf32>, %arg1: tensor<10x2xi32>, %arg2: tensor<10x300xf32>) -> tensor<200x100x300xf32> {
+  //      CHECK: "vhlo.scatter_v2"(%[[ARG0]], %[[ARG1]], %[[ARG2]]) <{
+  // CHECK-SAME:   index_vector_dim = #vhlo.integer_v1<1 : i64>,
+  // CHECK-SAME:   indices_are_sorted = #vhlo.bool_v1<false>,
+  // CHECK-SAME:   input_batching_dims = #vhlo.tensor_v1<dense<> : tensor<0xi64>>,
+  // CHECK-SAME:   inserted_window_dims = #vhlo.tensor_v1<dense<[0, 1]> : tensor<2xi64>>,
+  // CHECK-SAME:   scatter_dims_to_operand_dims = #vhlo.tensor_v1<dense<[0, 1]> : tensor<2xi64>>,
+  // CHECK-SAME:   scatter_indices_batching_dims = #vhlo.tensor_v1<dense<> : tensor<0xi64>>,
+  // CHECK-SAME:   unique_indices = #vhlo.bool_v1<false>,
+  // CHECK-SAME:   update_window_dims = #vhlo.tensor_v1<dense<1> : tensor<1xi64>>
+  // CHECK-SAME: }> ({
+  // CHECK-NEXT:   ^[[BB:bb.*]](%[[ARG3:arg.*]]: !vhlo.tensor_v1<!vhlo.f32_v1>, %[[ARG4:arg.*]]: !vhlo.tensor_v1<!vhlo.f32_v1>):
+  // CHECK-NEXT:     %[[VAL1:.*]] = "vhlo.add_v1"(%[[ARG3]], %[[ARG4]]) : (!vhlo.tensor_v1<!vhlo.f32_v1>, !vhlo.tensor_v1<!vhlo.f32_v1>) -> !vhlo.tensor_v1<!vhlo.f32_v1>
+  // CHECK-NEXT:     "vhlo.return_v1"(%[[VAL1]]) : (!vhlo.tensor_v1<!vhlo.f32_v1>) -> ()
+  // CHECK-NEXT: }) : (!vhlo.tensor_v1<200x100x300x!vhlo.f32_v1>, !vhlo.tensor_v1<10x2x!vhlo.i32_v1>, !vhlo.tensor_v1<10x300x!vhlo.f32_v1>) -> !vhlo.tensor_v1<200x100x300x!vhlo.f32_v1>
+  %0 = "stablehlo.scatter"(%arg0, %arg1, %arg2) ({
+    ^bb0(%arg3: tensor<f32>, %arg4: tensor<f32>):
+      %1 = "stablehlo.add"(%arg3, %arg4) : (tensor<f32>, tensor<f32>) -> tensor<f32>
+      "stablehlo.return"(%1) : (tensor<f32>) -> ()
+  }) {
+    scatter_dimension_numbers = #stablehlo.scatter<
+      update_window_dims = [1],
+      inserted_window_dims = [0, 1],
+      scatter_dims_to_operand_dims = [0, 1],
+      index_vector_dim = 1
+    >
+  } : (tensor<200x100x300xf32>, tensor<10x2xi32>, tensor<10x300xf32>) -> tensor<200x100x300xf32>
+  func.return %0 : tensor<200x100x300xf32>
+}
+
+// CHECK-LABEL: "default_select_and_scatter"
+// CHECK-NEXT: (%[[ARG0:.*]]: {{.*}}, %[[ARG1:.*]]: {{.*}}, %[[ARG2:.*]]: {{.*}})
+func.func @default_select_and_scatter(%arg0: tensor<10x24x24x64xf32>, %arg1: tensor<10x23x23x64xf32>, %arg2: tensor<f32>) -> tensor<10x24x24x64xf32> {
+  //      CHECK: "vhlo.select_and_scatter_v1"(%[[ARG0]], %[[ARG1]], %[[ARG2]]) <{
+  // CHECK-SAME:   padding = #vhlo.tensor_v1<dense<0> : tensor<4x2xi64>>,
+  // CHECK-SAME:   window_dimensions = #vhlo.tensor_v1<dense<[1, 2, 2, 1]> : tensor<4xi64>>,
+  // CHECK-SAME:   window_strides = #vhlo.tensor_v1<dense<1> : tensor<4xi64>>
+  // CHECK-SAME: }> ({
+  // CHECK-NEXT:   ^[[BB:bb.*]](%[[ARG31:arg.*]]: !vhlo.tensor_v1<!vhlo.f32_v1>, %[[ARG41:arg.*]]: !vhlo.tensor_v1<!vhlo.f32_v1>):
+  // CHECK-NEXT:     %[[VAL11:.*]] = "vhlo.compare_v1"(%[[ARG31]], %[[ARG41]]) <{compare_type = #vhlo<comparison_type_v1 TOTALORDER>, comparison_direction = #vhlo<comparison_direction_v1 GE>}>
+  // CHECK-NEXT:     "vhlo.return_v1"(%[[VAL11]]) : (!vhlo.tensor_v1<!vhlo.bool_v1>) -> ()
+  // CHECK-NEXT: }, {
+  // CHECK-NEXT:   ^[[BB:bb.*]](%[[ARG32:arg.*]]: !vhlo.tensor_v1<!vhlo.f32_v1>, %[[ARG42:arg.*]]: !vhlo.tensor_v1<!vhlo.f32_v1>):
+  // CHECK-NEXT:     %[[VAL12:.*]] = "vhlo.add_v1"(%[[ARG32]], %[[ARG42]]) : (!vhlo.tensor_v1<!vhlo.f32_v1>, !vhlo.tensor_v1<!vhlo.f32_v1>) -> !vhlo.tensor_v1<!vhlo.f32_v1>
+  // CHECK-NEXT:     "vhlo.return_v1"(%[[VAL12]]) : (!vhlo.tensor_v1<!vhlo.f32_v1>) -> ()
+  // CHECK-NEXT: }) : (!vhlo.tensor_v1<10x24x24x64x!vhlo.f32_v1>, !vhlo.tensor_v1<10x23x23x64x!vhlo.f32_v1>, !vhlo.tensor_v1<!vhlo.f32_v1>) -> !vhlo.tensor_v1<10x24x24x64x!vhlo.f32_v1>
+  %0 = "stablehlo.select_and_scatter"(%arg0, %arg1, %arg2) ({
+    ^bb0(%arg3: tensor<f32>, %arg4: tensor<f32>):
+      %1 = "stablehlo.compare"(%arg3, %arg4) {compare_type = #stablehlo<comparison_type TOTALORDER>, comparison_direction = #stablehlo<comparison_direction GE>} : (tensor<f32>, tensor<f32>) -> tensor<i1>
+      "stablehlo.return"(%1) : (tensor<i1>) -> ()
+  }, {
+    ^bb0(%arg3: tensor<f32>, %arg4: tensor<f32>):
+      %1 = "stablehlo.add"(%arg3, %arg4) : (tensor<f32>, tensor<f32>) -> tensor<f32>
+      "stablehlo.return"(%1) : (tensor<f32>) -> ()
+  }) {
+    window_dimensions = array<i64: 1, 2, 2, 1>
+  } : (tensor<10x24x24x64xf32>, tensor<10x23x23x64xf32>, tensor<f32>) -> tensor<10x24x24x64xf32>
+  func.return %0 : tensor<10x24x24x64xf32>
+}
+
+// CHECK-LABEL: "default_sort"
+// CHECK-NEXT: (%[[ARG0:.*]]: {{.*}})
+func.func @default_sort(%arg0: tensor<16xf32>) -> tensor<16xf32> {
+  //      CHECK: "vhlo.sort_v1"(%[[ARG0]]) <{
+  // CHECK-SAME:   dimension = #vhlo.integer_v1<-1 : i64>
+  // CHECK-SAME:   is_stable = #vhlo.bool_v1<false>
+  // CHECK-SAME: }> ({
+  // CHECK-NEXT:   ^[[BB:bb.*]](%[[ARG1:arg.*]]: !vhlo.tensor_v1<!vhlo.f32_v1>, %[[ARG2:arg.*]]: !vhlo.tensor_v1<!vhlo.f32_v1>):
+  // CHECK-NEXT:     %[[VAL1:.*]] = "vhlo.compare_v1"(%[[ARG1]], %[[ARG2]]) <{compare_type = #vhlo<comparison_type_v1 FLOAT>, comparison_direction = #vhlo<comparison_direction_v1 GT>}>
+  // CHECK-NEXT:     "vhlo.return_v1"(%[[VAL1]]) : (!vhlo.tensor_v1<!vhlo.bool_v1>) -> ()
+  // CHECK-NEXT: }) : (!vhlo.tensor_v1<16x!vhlo.f32_v1>) -> !vhlo.tensor_v1<16x!vhlo.f32_v1>
+  %0 = "stablehlo.sort"(%arg0) ({
+    ^bb0(%arg1: tensor<f32>, %arg2: tensor<f32>):
+      %1 = "stablehlo.compare"(%arg1, %arg2) {compare_type = #stablehlo<comparison_type FLOAT>, comparison_direction = #stablehlo<comparison_direction GT>} : (tensor<f32>, tensor<f32>) -> tensor<i1>
+      "stablehlo.return"(%1) : (tensor<i1>) -> ()
+  }) : (tensor<16xf32>) -> tensor<16xf32>
+  func.return %0 : tensor<16xf32>
+}
+
+// ============ OPS ============
+
+// CHECK-LABEL: "op_abs"
+// CHECK-NEXT: (%[[ARG0:.*]]: {{.*}})
+func.func @op_abs(%arg0: tensor<f32>) -> tensor<f32> {
+  // CHECK: "vhlo.abs_v1"(%[[ARG0]]) : (!vhlo.tensor_v1<!vhlo.f32_v1>) -> !vhlo.tensor_v1<!vhlo.f32_v1>
+  %0 = "stablehlo.abs"(%arg0) : (tensor<f32>) -> tensor<f32>
+  func.return %0 : tensor<f32>
+}
+
+// CHECK-LABEL: "op_add"
+// CHECK-NEXT: (%[[ARG0:.*]]: {{.*}}, %[[ARG1:.*]]: {{.*}})
+func.func @op_add(%arg0: tensor<f32>, %arg1: tensor<f32>) -> tensor<f32> {
+  // CHECK: "vhlo.add_v1"(%[[ARG0]], %[[ARG1]]) : (!vhlo.tensor_v1<!vhlo.f32_v1>, !vhlo.tensor_v1<!vhlo.f32_v1>) -> !vhlo.tensor_v1<!vhlo.f32_v1>
+  %0 = "stablehlo.add"(%arg0, %arg1) : (tensor<f32>, tensor<f32>) -> tensor<f32>
+  func.return %0 : tensor<f32>
+}
+
+// CHECK-LABEL: "op_after_all"
+// CHECK-NEXT: (%[[ARG0:.*]]: {{.*}})
+func.func @op_after_all(%arg0: !stablehlo.token) -> !stablehlo.token {
+  // CHECK: "vhlo.after_all_v1"(%[[ARG0]]) : (!vhlo.token_v1) -> !vhlo.token_v1
+  %0 = "stablehlo.after_all"(%arg0) : (!stablehlo.token) -> !stablehlo.token
+  func.return %0 : !stablehlo.token
+}
+
+// CHECK-LABEL: "op_all_gather"
+// CHECK-NEXT: (%[[ARG0:.*]]: {{.*}})
+func.func @op_all_gather(%arg0: tensor<16x8xf32>) -> tensor<16x16xf32> {
+  //               CHECK: "vhlo.all_gather_v2"(%[[ARG0]]) <{
+  //          CHECK-SAME:   all_gather_dim = #vhlo.integer_v1<1 : i64>
+  //          CHECK-SAME:   channel_id = #vhlo.integer_v1<1 : i64>,
+  // CHECK-SAME{LITERAL}:   replica_groups = #vhlo.tensor_v1<dense<[[0], [1]]> : tensor<2x1xi64>>,
+  //          CHECK-SAME:   use_global_device_ids = #vhlo.bool_v1<true>
+  //          CHECK-SAME: }> : (!vhlo.tensor_v1<16x8x!vhlo.f32_v1>) -> !vhlo.tensor_v1<16x16x!vhlo.f32_v1>
+  %0 = "stablehlo.all_gather"(%arg0) {
+    all_gather_dim = 1 : i64,
+    replica_groups = dense<[[0], [1]]> : tensor<2x1xi64>,
+    channel_handle = #stablehlo.channel_handle<handle = 1, type = 0>,
+    use_global_device_ids
+  } : (tensor<16x8xf32>) -> tensor<16x16xf32>
+  func.return %0 : tensor<16x16xf32>
+}
+
+// CHECK-LABEL: "op_all_reduce"
+// CHECK-NEXT: (%[[ARG0:.*]]: {{.*}})
+func.func @op_all_reduce(%arg0: tensor<f32>) -> tensor<f32> {
+  //               CHECK: "vhlo.all_reduce_v2"(%[[ARG0]]) <{
+  //          CHECK-SAME:   channel_id = #vhlo.integer_v1<1 : i64>,
+  // CHECK-SAME{LITERAL}:   replica_groups = #vhlo.tensor_v1<dense<[[0], [1]]> : tensor<2x1xi64>>,
+  //          CHECK-SAME:   use_global_device_ids = #vhlo.bool_v1<true>
+  //          CHECK-SAME: }> ({
+  //          CHECK-NEXT:   ^[[BB:bb.*]](%[[ARG1:arg.*]]: !vhlo.tensor_v1<!vhlo.f32_v1>, %[[ARG2:arg.*]]: !vhlo.tensor_v1<!vhlo.f32_v1>):
+  //          CHECK-NEXT:     %[[VAL1:.*]] = "vhlo.add_v1"(%[[ARG1]], %[[ARG2]]) : (!vhlo.tensor_v1<!vhlo.f32_v1>, !vhlo.tensor_v1<!vhlo.f32_v1>) -> !vhlo.tensor_v1<!vhlo.f32_v1>
+  //          CHECK-NEXT:     "vhlo.return_v1"(%[[VAL1]]) : (!vhlo.tensor_v1<!vhlo.f32_v1>) -> ()
+  //          CHECK-NEXT: }) : (!vhlo.tensor_v1<!vhlo.f32_v1>) -> !vhlo.tensor_v1<!vhlo.f32_v1>
+  %0 = "stablehlo.all_reduce"(%arg0) ({
+    ^bb0(%arg1: tensor<f32>, %arg2: tensor<f32>):
+      %1 = "stablehlo.add"(%arg1, %arg2) : (tensor<f32>, tensor<f32>) -> tensor<f32>
+      "stablehlo.return"(%1) : (tensor<f32>) -> ()
+  }) {
+    replica_groups = dense<[[0], [1]]> : tensor<2x1xi64>,
+    channel_handle = #stablehlo.channel_handle<handle = 1, type = 0>,
+    use_global_device_ids
+  } : (tensor<f32>) -> tensor<f32>
+  func.return %0 : tensor<f32>
+}
+
+// CHECK-LABEL: "op_all_reduce_with_promotable_types"
+func.func @op_all_reduce_with_promotable_types(%operand: tensor<f32>) -> tensor<f64> {
+  //  CHECK: "vhlo.all_reduce_v2"(%[[ARG0:.*]])
+  //  CHECK:   ^[[BB:bb.*]](%[[ARG1:arg.*]]: !vhlo.tensor_v1<!vhlo.f64_v1>, %[[ARG2:arg.*]]: !vhlo.tensor_v1<!vhlo.f64_v1>):
+  //  CHECK:     "vhlo.return_v1"(%[[VAL1:.*]]) : (!vhlo.tensor_v1<!vhlo.f64_v1>) -> ()
+  //  CHECK: }) : (!vhlo.tensor_v1<!vhlo.f32_v1>) -> !vhlo.tensor_v1<!vhlo.f64_v1>
+  %result = "stablehlo.all_reduce"(%operand) ({
+    ^bb0(%arg0: tensor<f64>, %arg1: tensor<f64>):
+      %0 = "stablehlo.add"(%arg0, %arg1) : (tensor<f64>, tensor<f64>) -> tensor<f64>
+      "stablehlo.return"(%0) : (tensor<f64>) -> ()
+  }) {
+    replica_groups = dense<[[0, 1]]> : tensor<1x2xi64>,
+    channel_handle = #stablehlo.channel_handle<handle = 1, type = 0>,
+    use_global_device_ids
+  } : (tensor<f32>) -> tensor<f64>
+
+  func.return %result : tensor<f64>
+}
+
+// CHECK-LABEL: "default_all_reduce_variadic"
+func.func @default_all_reduce_variadic(%arg0: tensor<f32>, %arg1: tensor<f32>) -> (tensor<f32>, tensor<f32>) {
+  %0:2 = "stablehlo.all_reduce"(%arg0, %arg1) ({
+    ^bb0(%arg2: tensor<f32>, %arg3: tensor<f32>):
+      %1 = "stablehlo.add"(%arg2, %arg3) : (tensor<f32>, tensor<f32>) -> (tensor<f32>)
+      "stablehlo.return"(%1) : (tensor<f32>) -> ()
+  }) {
+    replica_groups = dense<[[0], [1]]> : tensor<2x1xi64>
+  } : (tensor<f32>, tensor<f32>) -> (tensor<f32>, tensor<f32>)
+  func.return %0#0, %0#1 : tensor<f32>, tensor<f32>
+}
+
+// CHECK-LABEL: "op_all_to_all"
+// CHECK-NEXT: (%[[ARG0:.*]]: {{.*}})
+func.func @op_all_to_all(%arg0: tensor<4x16xf32>) -> tensor<16x4xf32> {
+  //               CHECK: "vhlo.all_to_all_v2"(%[[ARG0]]) <{
+  //          CHECK-SAME:   channel_id = #vhlo.integer_v1<1 : i64>,
+  //          CHECK-SAME:   concat_dimension = #vhlo.integer_v1<0 : i64>,
+  // CHECK-SAME{LITERAL}:   replica_groups = #vhlo.tensor_v1<dense<[[0, 1, 2, 3]]> : tensor<1x4xi64>>,
+  //          CHECK-SAME:   split_count = #vhlo.integer_v1<4 : i64>
+  //          CHECK-SAME:   split_dimension = #vhlo.integer_v1<1 : i64>
+  //          CHECK-SAME: }> : (!vhlo.tensor_v1<4x16x!vhlo.f32_v1>) -> !vhlo.tensor_v1<16x4x!vhlo.f32_v1>
+  %0 = "stablehlo.all_to_all"(%arg0) {
+    split_dimension = 1 : i64,
+    concat_dimension = 0 : i64,
+    split_count = 4 : i64,
+    replica_groups = dense<[[0, 1, 2, 3]]> : tensor<1x4xi64>,
+    channel_handle = #stablehlo.channel_handle<handle = 1, type = 0>
+  } : (tensor<4x16xf32>) -> tensor<16x4xf32>
+  func.return %0 : tensor<16x4xf32>
+}
+
+// CHECK-LABEL: "op_and"
+// CHECK-NEXT: (%[[ARG0:.*]]: {{.*}}, %[[ARG1:.*]]: {{.*}})
+func.func @op_and(%arg0: tensor<i1>, %arg1: tensor<i1>) -> tensor<i1> {
+  // CHECK: "vhlo.and_v1"(%[[ARG0]], %[[ARG1]]) : (!vhlo.tensor_v1<!vhlo.bool_v1>, !vhlo.tensor_v1<!vhlo.bool_v1>) -> !vhlo.tensor_v1<!vhlo.bool_v1>
+  %0 = "stablehlo.and"(%arg0, %arg1) : (tensor<i1>, tensor<i1>) -> tensor<i1>
+  func.return %0 : tensor<i1>
+}
+
+// CHECK-LABEL: "op_atan2"
+// CHECK-NEXT: (%[[ARG0:.*]]: {{.*}}, %[[ARG1:.*]]: {{.*}})
+func.func @op_atan2(%arg0: tensor<f32>, %arg1: tensor<f32>) -> tensor<f32> {
+  // CHECK: "vhlo.atan2_v1"(%[[ARG0]], %[[ARG1]]) : (!vhlo.tensor_v1<!vhlo.f32_v1>, !vhlo.tensor_v1<!vhlo.f32_v1>) -> !vhlo.tensor_v1<!vhlo.f32_v1>
+  %0 = "stablehlo.atan2"(%arg0, %arg1) : (tensor<f32>, tensor<f32>) -> tensor<f32>
+  func.return %0 : tensor<f32>
+}
+
+// CHECK-LABEL: "op_batch_norm_grad"
+// CHECK-NEXT: (%[[ARG0:.*]]: {{.*}}, %[[ARG1:.*]]: {{.*}}, %[[ARG2:.*]]: {{.*}}, %[[ARG3:.*]]: {{.*}}, %[[ARG4:.*]]: {{.*}})
+func.func @op_batch_norm_grad(%arg0: tensor<16x16x16x16xf32>, %arg1: tensor<16xf32>, %arg2: tensor<16xf32>, %arg3: tensor<16xf32>, %arg4: tensor<16x16x16x16xf32>) -> (tensor<16x16x16x16xf32>, tensor<16xf32>, tensor<16xf32>) {
+  //      CHECK: "vhlo.batch_norm_grad_v1"(%[[ARG0]], %[[ARG1]], %[[ARG2]], %[[ARG3]], %[[ARG4]]) <{
+  // CHECK-SAME:   epsilon = #vhlo.float_v1<1.000000e-03 : !vhlo.f32_v1>,
+  // CHECK-SAME:   feature_index = #vhlo.integer_v1<0 : i64>
+  // CHECK-SAME: }> : (!vhlo.tensor_v1<16x16x16x16x!vhlo.f32_v1>, !vhlo.tensor_v1<16x!vhlo.f32_v1>, !vhlo.tensor_v1<16x!vhlo.f32_v1>, !vhlo.tensor_v1<16x!vhlo.f32_v1>, !vhlo.tensor_v1<16x16x16x16x!vhlo.f32_v1>) -> (!vhlo.tensor_v1<16x16x16x16x!vhlo.f32_v1>, !vhlo.tensor_v1<16x!vhlo.f32_v1>, !vhlo.tensor_v1<16x!vhlo.f32_v1>)
+  %0:3 = "stablehlo.batch_norm_grad"(%arg0, %arg1, %arg2, %arg3, %arg4) {
+    epsilon = 0.001 : f32,
+    feature_index = 0 : i64
+  } : (tensor<16x16x16x16xf32>, tensor<16xf32>, tensor<16xf32>, tensor<16xf32>, tensor<16x16x16x16xf32>) -> (tensor<16x16x16x16xf32>, tensor<16xf32>, tensor<16xf32>)
+  func.return %0#0, %0#1, %0#2 : tensor<16x16x16x16xf32>, tensor<16xf32>, tensor<16xf32>
+}
+
+// CHECK-LABEL: "op_batch_norm_inference"
+// CHECK-NEXT: (%[[ARG0:.*]]: {{.*}}, %[[ARG1:.*]]: {{.*}}, %[[ARG2:.*]]: {{.*}}, %[[ARG3:.*]]: {{.*}}, %[[ARG4:.*]]: {{.*}})
+func.func @op_batch_norm_inference(%arg0: tensor<16x16x16x16xf32>, %arg1: tensor<16xf32>, %arg2: tensor<16xf32>, %arg3: tensor<16xf32>, %arg4: tensor<16xf32>) -> tensor<16x16x16x16xf32> {
+  //      CHECK: "vhlo.batch_norm_inference_v1"(%[[ARG0]], %[[ARG1]], %[[ARG2]], %[[ARG3]], %[[ARG4]]) <{
+  // CHECK-SAME:   epsilon = #vhlo.float_v1<1.000000e-03 : !vhlo.f32_v1>,
+  // CHECK-SAME:   feature_index = #vhlo.integer_v1<0 : i64>
+  // CHECK-SAME: }> : (!vhlo.tensor_v1<16x16x16x16x!vhlo.f32_v1>, !vhlo.tensor_v1<16x!vhlo.f32_v1>, !vhlo.tensor_v1<16x!vhlo.f32_v1>, !vhlo.tensor_v1<16x!vhlo.f32_v1>, !vhlo.tensor_v1<16x!vhlo.f32_v1>) -> !vhlo.tensor_v1<16x16x16x16x!vhlo.f32_v1>
+  %0 = "stablehlo.batch_norm_inference"(%arg0, %arg1, %arg2, %arg3, %arg4) {
+    epsilon = 0.001 : f32,
+    feature_index = 0 : i64
+  } : (tensor<16x16x16x16xf32>, tensor<16xf32>, tensor<16xf32>, tensor<16xf32>, tensor<16xf32>) -> tensor<16x16x16x16xf32>
+  func.return %0 : tensor<16x16x16x16xf32>
+}
+
+// CHECK-LABEL: "op_batch_norm_training"
+// CHECK-NEXT: (%[[ARG0:.*]]: {{.*}}, %[[ARG1:.*]]: {{.*}}, %[[ARG2:.*]]: {{.*}})
+func.func @op_batch_norm_training(%arg0: tensor<16x16x16x16xf32>, %arg1: tensor<16xf32>, %arg2: tensor<16xf32>) -> (tensor<16x16x16x16xf32>, tensor<16xf32>, tensor<16xf32>) {
+  //      CHECK: "vhlo.batch_norm_training_v1"(%[[ARG0]], %[[ARG1]], %[[ARG2]]) <{
+  // CHECK-SAME:   epsilon = #vhlo.float_v1<1.000000e-03 : !vhlo.f32_v1>,
+  // CHECK-SAME:   feature_index = #vhlo.integer_v1<0 : i64>
+  // CHECK-SAME: }> : (!vhlo.tensor_v1<16x16x16x16x!vhlo.f32_v1>, !vhlo.tensor_v1<16x!vhlo.f32_v1>, !vhlo.tensor_v1<16x!vhlo.f32_v1>) -> (!vhlo.tensor_v1<16x16x16x16x!vhlo.f32_v1>, !vhlo.tensor_v1<16x!vhlo.f32_v1>, !vhlo.tensor_v1<16x!vhlo.f32_v1>)
+  %0:3 = "stablehlo.batch_norm_training"(%arg0, %arg1, %arg2) {
+    epsilon = 0.001 : f32,
+    feature_index = 0 : i64
+  } : (tensor<16x16x16x16xf32>, tensor<16xf32>, tensor<16xf32>) -> (tensor<16x16x16x16xf32>, tensor<16xf32>, tensor<16xf32>)
+  func.return %0#0, %0#1, %0#2 : tensor<16x16x16x16xf32>, tensor<16xf32>, tensor<16xf32>
+}
+
+// CHECK-LABEL: "op_bitcast_convert"
+// CHECK-NEXT: (%[[ARG0:.*]]: {{.*}})
+func.func @op_bitcast_convert(%arg0: tensor<i32>) -> tensor<f32> {
+  // CHECK: "vhlo.bitcast_convert_v1"(%[[ARG0]]) : (!vhlo.tensor_v1<!vhlo.i32_v1>) -> !vhlo.tensor_v1<!vhlo.f32_v1>
+  %0 = "stablehlo.bitcast_convert"(%arg0) : (tensor<i32>) -> tensor<f32>
…
+  // CHECK: "vhlo.uniform_quantize_v1"(%[[ARG0]]) : (!vhlo.tensor_v1<!vhlo.f32_v1>) -> !vhlo.tensor_v1<!vhlo.quant_v1<!vhlo.i8_v1:!vhlo.f32_v1, 3.400000e+01:16, -128:127, 1>>
+  %0 = "stablehlo.uniform_quantize"(%arg0) : (tensor<f32>) -> tensor<!quant.uniform<i8:f32, 34.0:16>>
+  func.return %0 : tensor<!quant.uniform<i8:f32, 34.0:16>>
+}
+
+// CHECK-LABEL: "op_while"
+// CHECK-NEXT: (%[[ARG0:.*]]: {{.*}})
+func.func @op_while(%arg0: tensor<i1>) -> tensor<i1> {
+  //      CHECK: "vhlo.while_v1"(%[[ARG0]]) ({
+  // CHECK-NEXT:   ^[[BB:bb.*]](%[[ARG1:arg.*]]: !vhlo.tensor_v1<!vhlo.bool_v1>):
+  // CHECK-NEXT:     "vhlo.return_v1"(%[[ARG1]]) : (!vhlo.tensor_v1<!vhlo.bool_v1>) -> ()
+  // CHECK-NEXT:   }, {
+  // CHECK-NEXT:   ^[[BB:bb.*]](%[[ARG1:arg.*]]: !vhlo.tensor_v1<!vhlo.bool_v1>)
+  // CHECK-NEXT:     "vhlo.return_v1"(%[[ARG1]]) : (!vhlo.tensor_v1<!vhlo.bool_v1>) -> ()
+  // CHECK-NEXT: }) : (!vhlo.tensor_v1<!vhlo.bool_v1>) -> !vhlo.tensor_v1<!vhlo.bool_v1>
+  %0 = "stablehlo.while"(%arg0) ({
+    ^bb0(%arg1: tensor<i1>):
+      "stablehlo.return"(%arg1) : (tensor<i1>) -> ()
+    }, {
+    ^bb0(%arg1: tensor<i1>):
+      "stablehlo.return"(%arg1) : (tensor<i1>) -> ()
+  }) : (tensor<i1>) -> tensor<i1>
+  func.return %0: tensor<i1>
+}
+
+// CHECK-LABEL: "op_xor"
+// CHECK-NEXT: (%[[ARG0:.*]]: {{.*}}, %[[ARG1:.*]]: {{.*}})
+func.func @op_xor(%arg0: tensor<i1>, %arg1: tensor<i1>) -> tensor<i1> {
+  // CHECK: "vhlo.xor_v1"(%[[ARG0]], %[[ARG1]]) : (!vhlo.tensor_v1<!vhlo.bool_v1>, !vhlo.tensor_v1<!vhlo.bool_v1>) -> !vhlo.tensor_v1<!vhlo.bool_v1>
+  %0 = "stablehlo.xor"(%arg0, %arg1) : (tensor<i1>, tensor<i1>) -> tensor<i1>
+  func.return %0 : tensor<i1>
+}
+
+// ============ TYPES ============
+
+// CHECK-LABEL: "type_i1"
+// CHECK-NEXT: (%[[ARG0:.*]]: {{.*}}, %[[ARG1:.*]]: {{.*}})
+func.func @type_i1(%arg0: tensor<i1>, %arg1: tensor<i1>) -> tensor<i1> {
+  // CHECK: "vhlo.and_v1"(%[[ARG0]], %[[ARG1]]) : (!vhlo.tensor_v1<!vhlo.bool_v1>, !vhlo.tensor_v1<!vhlo.bool_v1>) -> !vhlo.tensor_v1<!vhlo.bool_v1>
+  %0 = "stablehlo.and"(%arg0, %arg1) : (tensor<i1>, tensor<i1>) -> tensor<i1>
+  func.return %0 : tensor<i1>
+}
+
+// CHECK-LABEL: "type_i2"
+// CHECK-NEXT: (%[[ARG0:.*]]: {{.*}}, %[[ARG1:.*]]: {{.*}})
+func.func @type_i2(%arg0: tensor<i2>, %arg1: tensor<i2>) -> tensor<i2> {
+  // CHECK: "vhlo.add_v1"(%[[ARG0]], %[[ARG1]]) : (!vhlo.tensor_v1<!vhlo.i2_v1>, !vhlo.tensor_v1<!vhlo.i2_v1>) -> !vhlo.tensor_v1<!vhlo.i2_v1>
+  %0 = "stablehlo.add"(%arg0, %arg1) : (tensor<i2>, tensor<i2>) -> tensor<i2>
+  func.return %0 : tensor<i2>
+}
+
+// CHECK-LABEL: "type_i4"
+// CHECK-NEXT: (%[[ARG0:.*]]: {{.*}}, %[[ARG1:.*]]: {{.*}})
+func.func @type_i4(%arg0: tensor<i4>, %arg1: tensor<i4>) -> tensor<i4> {
+  // CHECK: "vhlo.add_v1"(%[[ARG0]], %[[ARG1]]) : (!vhlo.tensor_v1<!vhlo.i4_v1>, !vhlo.tensor_v1<!vhlo.i4_v1>) -> !vhlo.tensor_v1<!vhlo.i4_v1>
+  %0 = "stablehlo.add"(%arg0, %arg1) : (tensor<i4>, tensor<i4>) -> tensor<i4>
+  func.return %0 : tensor<i4>
+}
+
+// CHECK-LABEL: "type_i8"
+// CHECK-NEXT: (%[[ARG0:.*]]: {{.*}}, %[[ARG1:.*]]: {{.*}})
+func.func @type_i8(%arg0: tensor<i8>, %arg1: tensor<i8>) -> tensor<i8> {
+  // CHECK: "vhlo.add_v1"(%[[ARG0]], %[[ARG1]]) : (!vhlo.tensor_v1<!vhlo.i8_v1>, !vhlo.tensor_v1<!vhlo.i8_v1>) -> !vhlo.tensor_v1<!vhlo.i8_v1>
+  %0 = "stablehlo.add"(%arg0, %arg1) : (tensor<i8>, tensor<i8>) -> tensor<i8>
+  func.return %0 : tensor<i8>
+}
+
+// CHECK-LABEL: "type_i16"
+// CHECK-NEXT: (%[[ARG0:.*]]: {{.*}}, %[[ARG1:.*]]: {{.*}})
+func.func @type_i16(%arg0: tensor<i16>, %arg1: tensor<i16>) -> tensor<i16> {
+  // CHECK: "vhlo.add_v1"(%[[ARG0]], %[[ARG1]]) : (!vhlo.tensor_v1<!vhlo.i16_v1>, !vhlo.tensor_v1<!vhlo.i16_v1>) -> !vhlo.tensor_v1<!vhlo.i16_v1>
+  %0 = "stablehlo.add"(%arg0, %arg1) : (tensor<i16>, tensor<i16>) -> tensor<i16>
+  func.return %0 : tensor<i16>
+}
+
+// CHECK-LABEL: "type_i32"
+// CHECK-NEXT: (%[[ARG0:.*]]: {{.*}}, %[[ARG1:.*]]: {{.*}})
+func.func @type_i32(%arg0: tensor<i32>, %arg1: tensor<i32>) -> tensor<i32> {
+  // CHECK: "vhlo.add_v1"(%[[ARG0]], %[[ARG1]]) : (!vhlo.tensor_v1<!vhlo.i32_v1>, !vhlo.tensor_v1<!vhlo.i32_v1>) -> !vhlo.tensor_v1<!vhlo.i32_v1>
+  %0 = "stablehlo.add"(%arg0, %arg1) : (tensor<i32>, tensor<i32>) -> tensor<i32>
+  func.return %0 : tensor<i32>
+}
+
+// CHECK-LABEL: "type_i64"
+// CHECK-NEXT: (%[[ARG0:.*]]: {{.*}}, %[[ARG1:.*]]: {{.*}})
+func.func @type_i64(%arg0: tensor<i64>, %arg1: tensor<i64>) -> tensor<i64> {
+  // CHECK: "vhlo.add_v1"(%[[ARG0]], %[[ARG1]]) : (!vhlo.tensor_v1<!vhlo.i64_v1>, !vhlo.tensor_v1<!vhlo.i64_v1>) -> !vhlo.tensor_v1<!vhlo.i64_v1>
+  %0 = "stablehlo.add"(%arg0, %arg1) : (tensor<i64>, tensor<i64>) -> tensor<i64>
+  func.return %0 : tensor<i64>
+}
+
+// CHECK-LABEL: "type_ui2"
+// CHECK-NEXT: (%[[ARG0:.*]]: {{.*}}, %[[ARG1:.*]]: {{.*}})
+func.func @type_ui2(%arg0: tensor<ui2>, %arg1: tensor<ui2>) -> tensor<ui2> {
+  // CHECK: "vhlo.add_v1"(%[[ARG0]], %[[ARG1]]) : (!vhlo.tensor_v1<!vhlo.ui2_v1>, !vhlo.tensor_v1<!vhlo.ui2_v1>) -> !vhlo.tensor_v1<!vhlo.ui2_v1>
+  %0 = "stablehlo.add"(%arg0, %arg1) : (tensor<ui2>, tensor<ui2>) -> tensor<ui2>
+  func.return %0 : tensor<ui2>
+}
+
+// CHECK-LABEL: "type_ui4"
+// CHECK-NEXT: (%[[ARG0:.*]]: {{.*}}, %[[ARG1:.*]]: {{.*}})
+func.func @type_ui4(%arg0: tensor<ui4>, %arg1: tensor<ui4>) -> tensor<ui4> {
+  // CHECK: "vhlo.add_v1"(%[[ARG0]], %[[ARG1]]) : (!vhlo.tensor_v1<!vhlo.ui4_v1>, !vhlo.tensor_v1<!vhlo.ui4_v1>) -> !vhlo.tensor_v1<!vhlo.ui4_v1>
+  %0 = "stablehlo.add"(%arg0, %arg1) : (tensor<ui4>, tensor<ui4>) -> tensor<ui4>
+  func.return %0 : tensor<ui4>
+}
+
+// CHECK-LABEL: "type_ui8"
+// CHECK-NEXT: (%[[ARG0:.*]]: {{.*}}, %[[ARG1:.*]]: {{.*}})
+func.func @type_ui8(%arg0: tensor<ui8>, %arg1: tensor<ui8>) -> tensor<ui8> {
+  // CHECK: "vhlo.add_v1"(%[[ARG0]], %[[ARG1]]) : (!vhlo.tensor_v1<!vhlo.ui8_v1>, !vhlo.tensor_v1<!vhlo.ui8_v1>) -> !vhlo.tensor_v1<!vhlo.ui8_v1>
+  %0 = "stablehlo.add"(%arg0, %arg1) : (tensor<ui8>, tensor<ui8>) -> tensor<ui8>
+  func.return %0 : tensor<ui8>
+}
+
+// CHECK-LABEL: "type_ui16"
+// CHECK-NEXT: (%[[ARG0:.*]]: {{.*}}, %[[ARG1:.*]]: {{.*}})
+func.func @type_ui16(%arg0: tensor<ui16>, %arg1: tensor<ui16>) -> tensor<ui16> {
+  // CHECK: "vhlo.add_v1"(%[[ARG0]], %[[ARG1]]) : (!vhlo.tensor_v1<!vhlo.ui16_v1>, !vhlo.tensor_v1<!vhlo.ui16_v1>) -> !vhlo.tensor_v1<!vhlo.ui16_v1>
+  %0 = "stablehlo.add"(%arg0, %arg1) : (tensor<ui16>, tensor<ui16>) -> tensor<ui16>
+  func.return %0 : tensor<ui16>
+}
+
+// CHECK-LABEL: "type_ui32"
+// CHECK-NEXT: (%[[ARG0:.*]]: {{.*}}, %[[ARG1:.*]]: {{.*}})
+func.func @type_ui32(%arg0: tensor<ui32>, %arg1: tensor<ui32>) -> tensor<ui32> {
+  // CHECK: "vhlo.add_v1"(%[[ARG0]], %[[ARG1]]) : (!vhlo.tensor_v1<!vhlo.ui32_v1>, !vhlo.tensor_v1<!vhlo.ui32_v1>) -> !vhlo.tensor_v1<!vhlo.ui32_v1>
+  %0 = "stablehlo.add"(%arg0, %arg1) : (tensor<ui32>, tensor<ui32>) -> tensor<ui32>
+  func.return %0 : tensor<ui32>
+}
+
+// CHECK-LABEL: "type_ui64"
+// CHECK-NEXT: (%[[ARG0:.*]]: {{.*}}, %[[ARG1:.*]]: {{.*}})
+func.func @type_ui64(%arg0: tensor<ui64>, %arg1: tensor<ui64>) -> tensor<ui64> {
+  // CHECK: "vhlo.add_v1"(%[[ARG0]], %[[ARG1]]) : (!vhlo.tensor_v1<!vhlo.ui64_v1>, !vhlo.tensor_v1<!vhlo.ui64_v1>) -> !vhlo.tensor_v1<!vhlo.ui64_v1>
+  %0 = "stablehlo.add"(%arg0, %arg1) : (tensor<ui64>, tensor<ui64>) -> tensor<ui64>
+  func.return %0 : tensor<ui64>
+}
+
+// CHECK-LABEL: "type_f4E2M1FN"
+// CHECK-NEXT: (%[[ARG0:.*]]: {{.*}}, %[[ARG1:.*]]: {{.*}})
+func.func @type_f4E2M1FN(%arg0: tensor<f4E2M1FN>, %arg1: tensor<f4E2M1FN>) -> tensor<f4E2M1FN> {
+  // CHECK: "vhlo.add_v1"(%[[ARG0]], %[[ARG1]]) : (!vhlo.tensor_v1<!vhlo.f4E2M1FN_v1>, !vhlo.tensor_v1<!vhlo.f4E2M1FN_v1>) -> !vhlo.tensor_v1<!vhlo.f4E2M1FN_v1>
+  %0 = "stablehlo.add"(%arg0, %arg1) : (tensor<f4E2M1FN>, tensor<f4E2M1FN>) -> tensor<f4E2M1FN>
+  func.return %0 : tensor<f4E2M1FN>
+}
+
+// CHECK-LABEL: "type_f6E2M3FN"
+// CHECK-NEXT: (%[[ARG0:.*]]: {{.*}}, %[[ARG1:.*]]: {{.*}})
+func.func @type_f6E2M3FN(%arg0: tensor<f6E2M3FN>, %arg1: tensor<f6E2M3FN>) -> tensor<f6E2M3FN> {
+  // CHECK: "vhlo.add_v1"(%[[ARG0]], %[[ARG1]]) : (!vhlo.tensor_v1<!vhlo.f6E2M3FN_v1>, !vhlo.tensor_v1<!vhlo.f6E2M3FN_v1>) -> !vhlo.tensor_v1<!vhlo.f6E2M3FN_v1>
+  %0 = "stablehlo.add"(%arg0, %arg1) : (tensor<f6E2M3FN>, tensor<f6E2M3FN>) -> tensor<f6E2M3FN>
+  func.return %0 : tensor<f6E2M3FN>
+}
+
+// CHECK-LABEL: "type_f6E3M2FN"
+// CHECK-NEXT: (%[[ARG0:.*]]: {{.*}}, %[[ARG1:.*]]: {{.*}})
+func.func @type_f6E3M2FN(%arg0: tensor<f6E3M2FN>, %arg1: tensor<f6E3M2FN>) -> tensor<f6E3M2FN> {
+  // CHECK: "vhlo.add_v1"(%[[ARG0]], %[[ARG1]]) : (!vhlo.tensor_v1<!vhlo.f6E3M2FN_v1>, !vhlo.tensor_v1<!vhlo.f6E3M2FN_v1>) -> !vhlo.tensor_v1<!vhlo.f6E3M2FN_v1>
+  %0 = "stablehlo.add"(%arg0, %arg1) : (tensor<f6E3M2FN>, tensor<f6E3M2FN>) -> tensor<f6E3M2FN>
+  func.return %0 : tensor<f6E3M2FN>
+}
+
+// CHECK-LABEL: "type_f8E3M4"
+// CHECK-NEXT: (%[[ARG0:.*]]: {{.*}}, %[[ARG1:.*]]: {{.*}})
+func.func @type_f8E3M4(%arg0: tensor<f8E3M4>, %arg1: tensor<f8E3M4>) -> tensor<f8E3M4> {
+  // CHECK: "vhlo.add_v1"(%[[ARG0]], %[[ARG1]]) : (!vhlo.tensor_v1<!vhlo.f8E3M4_v1>, !vhlo.tensor_v1<!vhlo.f8E3M4_v1>) -> !vhlo.tensor_v1<!vhlo.f8E3M4_v1>
+  %0 = "stablehlo.add"(%arg0, %arg1) : (tensor<f8E3M4>, tensor<f8E3M4>) -> tensor<f8E3M4>
+  func.return %0 : tensor<f8E3M4>
+}
+
+// CHECK-LABEL: "type_f8E4M3"
+// CHECK-NEXT: (%[[ARG0:.*]]: {{.*}}, %[[ARG1:.*]]: {{.*}})
+func.func @type_f8E4M3(%arg0: tensor<f8E4M3>, %arg1: tensor<f8E4M3>) -> tensor<f8E4M3> {
+  // CHECK: "vhlo.add_v1"(%[[ARG0]], %[[ARG1]]) : (!vhlo.tensor_v1<!vhlo.f8E4M3_v1>, !vhlo.tensor_v1<!vhlo.f8E4M3_v1>) -> !vhlo.tensor_v1<!vhlo.f8E4M3_v1>
+  %0 = "stablehlo.add"(%arg0, %arg1) : (tensor<f8E4M3>, tensor<f8E4M3>) -> tensor<f8E4M3>
+  func.return %0 : tensor<f8E4M3>
+}
+
+// CHECK-LABEL: "type_f8E4M3FN"
+// CHECK-NEXT: (%[[ARG0:.*]]: {{.*}}, %[[ARG1:.*]]: {{.*}})
+func.func @type_f8E4M3FN(%arg0: tensor<f8E4M3FN>, %arg1: tensor<f8E4M3FN>) -> tensor<f8E4M3FN> {
+  // CHECK: "vhlo.add_v1"(%[[ARG0]], %[[ARG1]]) : (!vhlo.tensor_v1<!vhlo.f8E4M3FN_v1>, !vhlo.tensor_v1<!vhlo.f8E4M3FN_v1>) -> !vhlo.tensor_v1<!vhlo.f8E4M3FN_v1>
+  %0 = "stablehlo.add"(%arg0, %arg1) : (tensor<f8E4M3FN>, tensor<f8E4M3FN>) -> tensor<f8E4M3FN>
+  func.return %0 : tensor<f8E4M3FN>
+}
+
+// CHECK-LABEL: "type_f8E5M2"
+// CHECK-NEXT: (%[[ARG0:.*]]: {{.*}}, %[[ARG1:.*]]: {{.*}})
+func.func @type_f8E5M2(%arg0: tensor<f8E5M2>, %arg1: tensor<f8E5M2>) -> tensor<f8E5M2> {
+  // CHECK: "vhlo.add_v1"(%[[ARG0]], %[[ARG1]]) : (!vhlo.tensor_v1<!vhlo.f8E5M2_v1>, !vhlo.tensor_v1<!vhlo.f8E5M2_v1>) -> !vhlo.tensor_v1<!vhlo.f8E5M2_v1>
+  %0 = "stablehlo.add"(%arg0, %arg1) : (tensor<f8E5M2>, tensor<f8E5M2>) -> tensor<f8E5M2>
+  func.return %0 : tensor<f8E5M2>
+}
+
+// CHECK-LABEL: "type_f8E4M3FNUZ"
+// CHECK-NEXT: (%[[ARG0:.*]]: {{.*}}, %[[ARG1:.*]]: {{.*}})
+func.func @type_f8E4M3FNUZ(%arg0: tensor<f8E4M3FNUZ>, %arg1: tensor<f8E4M3FNUZ>) -> tensor<f8E4M3FNUZ> {
+  // CHECK: "vhlo.add_v1"(%[[ARG0]], %[[ARG1]]) : (!vhlo.tensor_v1<!vhlo.f8E4M3FNUZ_v1>, !vhlo.tensor_v1<!vhlo.f8E4M3FNUZ_v1>) -> !vhlo.tensor_v1<!vhlo.f8E4M3FNUZ_v1>
+  %0 = "stablehlo.add"(%arg0, %arg1) : (tensor<f8E4M3FNUZ>, tensor<f8E4M3FNUZ>) -> tensor<f8E4M3FNUZ>
+  func.return %0 : tensor<f8E4M3FNUZ>
+}
+
+// CHECK-LABEL: "type_f8E4M3B11FNUZ"
+// CHECK-NEXT: (%[[ARG0:.*]]: {{.*}}, %[[ARG1:.*]]: {{.*}})
+func.func @type_f8E4M3B11FNUZ(%arg0: tensor<f8E4M3B11FNUZ>, %arg1: tensor<f8E4M3B11FNUZ>) -> tensor<f8E4M3B11FNUZ> {
+  // CHECK: "vhlo.add_v1"(%[[ARG0]], %[[ARG1]]) : (!vhlo.tensor_v1<!vhlo.f8E4M3B11FNUZ_v1>, !vhlo.tensor_v1<!vhlo.f8E4M3B11FNUZ_v1>) -> !vhlo.tensor_v1<!vhlo.f8E4M3B11FNUZ_v1>
+  %0 = "stablehlo.add"(%arg0, %arg1) : (tensor<f8E4M3B11FNUZ>, tensor<f8E4M3B11FNUZ>) -> tensor<f8E4M3B11FNUZ>
+  func.return %0 : tensor<f8E4M3B11FNUZ>
+}
+
+// CHECK-LABEL: "type_f8E5M2FNUZ"
+// CHECK-NEXT: (%[[ARG0:.*]]: {{.*}}, %[[ARG1:.*]]: {{.*}})
+func.func @type_f8E5M2FNUZ(%arg0: tensor<f8E5M2FNUZ>, %arg1: tensor<f8E5M2FNUZ>) -> tensor<f8E5M2FNUZ> {
+  // CHECK: "vhlo.add_v1"(%[[ARG0]], %[[ARG1]]) : (!vhlo.tensor_v1<!vhlo.f8E5M2FNUZ_v1>, !vhlo.tensor_v1<!vhlo.f8E5M2FNUZ_v1>) -> !vhlo.tensor_v1<!vhlo.f8E5M2FNUZ_v1>
+  %0 = "stablehlo.add"(%arg0, %arg1) : (tensor<f8E5M2FNUZ>, tensor<f8E5M2FNUZ>) -> tensor<f8E5M2FNUZ>
+  func.return %0 : tensor<f8E5M2FNUZ>
+}
+
+// CHECK-LABEL: "type_f8E8M0FNU"
+// CHECK-NEXT: (%[[ARG0:.*]]: {{.*}}, %[[ARG1:.*]]: {{.*}})
+func.func @type_f8E8M0FNU(%arg0: tensor<f8E8M0FNU>, %arg1: tensor<f8E8M0FNU>) -> tensor<f8E8M0FNU> {
+  // CHECK: "vhlo.add_v1"(%[[ARG0]], %[[ARG1]]) : (!vhlo.tensor_v1<!vhlo.f8E8M0FNU_v1>, !vhlo.tensor_v1<!vhlo.f8E8M0FNU_v1>) -> !vhlo.tensor_v1<!vhlo.f8E8M0FNU_v1>
+  %0 = "stablehlo.add"(%arg0, %arg1) : (tensor<f8E8M0FNU>, tensor<f8E8M0FNU>) -> tensor<f8E8M0FNU>
+  func.return %0 : tensor<f8E8M0FNU>
+}
+
+// CHECK-LABEL: "type_bf16"
+// CHECK-NEXT: (%[[ARG0:.*]]: {{.*}}, %[[ARG1:.*]]: {{.*}})
+func.func @type_bf16(%arg0: tensor<bf16>, %arg1: tensor<bf16>) -> tensor<bf16> {
+  // CHECK: "vhlo.add_v1"(%[[ARG0]], %[[ARG1]]) : (!vhlo.tensor_v1<!vhlo.bf16_v1>, !vhlo.tensor_v1<!vhlo.bf16_v1>) -> !vhlo.tensor_v1<!vhlo.bf16_v1>
+  %0 = "stablehlo.add"(%arg0, %arg1) : (tensor<bf16>, tensor<bf16>) -> tensor<bf16>
+  func.return %0 : tensor<bf16>
+}
+
+// CHECK-LABEL: "type_f16"
+// CHECK-NEXT: (%[[ARG0:.*]]: {{.*}}, %[[ARG1:.*]]: {{.*}})
+func.func @type_f16(%arg0: tensor<f16>, %arg1: tensor<f16>) -> tensor<f16> {
+  // CHECK: "vhlo.add_v1"(%[[ARG0]], %[[ARG1]]) : (!vhlo.tensor_v1<!vhlo.f16_v1>, !vhlo.tensor_v1<!vhlo.f16_v1>) -> !vhlo.tensor_v1<!vhlo.f16_v1>
+  %0 = "stablehlo.add"(%arg0, %arg1) : (tensor<f16>, tensor<f16>) -> tensor<f16>
+  func.return %0 : tensor<f16>
+}
+
+// CHECK-LABEL: "type_f32"
+// CHECK-NEXT: (%[[ARG0:.*]]: {{.*}}, %[[ARG1:.*]]: {{.*}})
+func.func @type_f32(%arg0: tensor<f32>, %arg1: tensor<f32>) -> tensor<f32> {
+  // CHECK: "vhlo.add_v1"(%[[ARG0]], %[[ARG1]]) : (!vhlo.tensor_v1<!vhlo.f32_v1>, !vhlo.tensor_v1<!vhlo.f32_v1>) -> !vhlo.tensor_v1<!vhlo.f32_v1>
+  %0 = "stablehlo.add"(%arg0, %arg1) : (tensor<f32>, tensor<f32>) -> tensor<f32>
+  func.return %0 : tensor<f32>
+}
+
+// CHECK-LABEL: "type_f64"
+// CHECK-NEXT: (%[[ARG0:.*]]: {{.*}}, %[[ARG1:.*]]: {{.*}})
+func.func @type_f64(%arg0: tensor<f64>, %arg1: tensor<f64>) -> tensor<f64> {
+  // CHECK: "vhlo.add_v1"(%[[ARG0]], %[[ARG1]]) : (!vhlo.tensor_v1<!vhlo.f64_v1>, !vhlo.tensor_v1<!vhlo.f64_v1>) -> !vhlo.tensor_v1<!vhlo.f64_v1>
+  %0 = "stablehlo.add"(%arg0, %arg1) : (tensor<f64>, tensor<f64>) -> tensor<f64>
+  func.return %0 : tensor<f64>
+}
+
+// CHECK-LABEL: "type_complex_f32"
+// CHECK-NEXT: (%[[ARG0:.*]]: {{.*}}, %[[ARG1:.*]]: {{.*}})
+func.func @type_complex_f32(%arg0: tensor<complex<f32>>, %arg1: tensor<complex<f32>>) -> tensor<complex<f32>> {
+  // CHECK: "vhlo.add_v1"(%[[ARG0]], %[[ARG1]]) : (!vhlo.tensor_v1<!vhlo.complex_v1<!vhlo.f32_v1>>, !vhlo.tensor_v1<!vhlo.complex_v1<!vhlo.f32_v1>>) -> !vhlo.tensor_v1<!vhlo.complex_v1<!vhlo.f32_v1>>
+  %0 = "stablehlo.add"(%arg0, %arg1) : (tensor<complex<f32>>, tensor<complex<f32>>) -> tensor<complex<f32>>
+  func.return %0 : tensor<complex<f32>>
+}
+
+// CHECK-LABEL: "type_complex_f64"
+// CHECK-NEXT: (%[[ARG0:.*]]: {{.*}}, %[[ARG1:.*]]: {{.*}})
+func.func @type_complex_f64(%arg0: tensor<complex<f64>>, %arg1: tensor<complex<f64>>) -> tensor<complex<f64>> {
+  // CHECK: "vhlo.add_v1"(%[[ARG0]], %[[ARG1]]) : (!vhlo.tensor_v1<!vhlo.complex_v1<!vhlo.f64_v1>>, !vhlo.tensor_v1<!vhlo.complex_v1<!vhlo.f64_v1>>) -> !vhlo.tensor_v1<!vhlo.complex_v1<!vhlo.f64_v1>>
+  %0 = "stablehlo.add"(%arg0, %arg1) : (tensor<complex<f64>>, tensor<complex<f64>>) -> tensor<complex<f64>>
+  func.return %0 : tensor<complex<f64>>
+}
+
+// CHECK-LABEL: "type_tf32"
+// CHECK: #vhlo.type_v1<!vhlo.tf31_v1>
+func.func @type_tf32() attributes {stablehlo.attr = tf32 } {
+  return
+}
+
+// CHECK-LABEL: "type_none"
+// CHECK: #vhlo.type_v1<!vhlo.none_v1>
+func.func @type_none() attributes {stablehlo.attr = none } {
+  return
+}
+
+// CHECK-LABEL: "type_dynamism_ranked"
+// CHECK-NEXT: (%[[ARG0:.*]]: {{.*}})
+func.func @type_dynamism_ranked(%arg0: tensor<?xf32>) -> tensor<?xf32> {
+  // CHECK: "vhlo.abs_v1"(%[[ARG0]]) : (!vhlo.tensor_v1<?x!vhlo.f32_v1>) -> !vhlo.tensor_v1<?x!vhlo.f32_v1>
+  %0 = "stablehlo.abs"(%arg0) : (tensor<?xf32>) -> tensor<?xf32>
+  func.return %0 : tensor<?xf32>
+}
+
+// CHECK-LABEL: "type_per_tensor_quantization"
+// CHECK-NEXT: (%[[ARG0:.*]]: {{.*}}, %[[ARG1:.*]]: {{.*}})
+func.func @type_per_tensor_quantization(%arg0: tensor<!quant.uniform<i8:f32, 34.0:16>>, %arg1: tensor<!quant.uniform<i8:f32, 34.0:16>>) -> tensor<!quant.uniform<i8:f32, 34.0:16>> {
+  // CHECK: "vhlo.add_v1"(%[[ARG0]], %[[ARG1]]) : (!vhlo.tensor_v1<!vhlo.quant_v1<!vhlo.i8_v1:!vhlo.f32_v1, 3.400000e+01:16, -128:127, 1>>, !vhlo.tensor_v1<!vhlo.quant_v1<!vhlo.i8_v1:!vhlo.f32_v1, 3.400000e+01:16, -128:127, 1>>) -> !vhlo.tensor_v1<!vhlo.quant_v1<!vhlo.i8_v1:!vhlo.f32_v1, 3.400000e+01:16, -128:127, 1>>
+  %0 = "stablehlo.add"(%arg0, %arg1) : (tensor<!quant.uniform<i8:f32, 34.0:16>>, tensor<!quant.uniform<i8:f32, 34.0:16>>) -> tensor<!quant.uniform<i8:f32, 34.0:16>>
+  func.return %0 : tensor<!quant.uniform<i8:f32, 34.0:16>>
+}
+
+// CHECK-LABEL: "type_per_axis_quantization"
+// CHECK-NEXT: (%[[ARG0:.*]]: {{.*}})
+func.func @type_per_axis_quantization(%arg0: tensor<2x!quant.uniform<i8:f32:0, {34.0:16, 34.0:16}>>) -> tensor<2x!quant.uniform<i8:f32:0, {34.0:16, 34.0:16}>> {
+  // CHECK: "vhlo.add_v1"(%[[ARG0]], %[[ARG0]]) : (!vhlo.tensor_v1<2x!vhlo.quant_per_axis_v1<!vhlo.i8_v1:!vhlo.f32_v1, 0, [3.400000e+01, 3.400000e+01], [16, 16], -128:127, 1>>, !vhlo.tensor_v1<2x!vhlo.quant_per_axis_v1<!vhlo.i8_v1:!vhlo.f32_v1, 0, [3.400000e+01, 3.400000e+01], [16, 16], -128:127, 1>>) -> !vhlo.tensor_v1<2x!vhlo.quant_per_axis_v1<!vhlo.i8_v1:!vhlo.f32_v1, 0, [3.400000e+01, 3.400000e+01], [16, 16], -128:127, 1>>
+  %0 = stablehlo.add %arg0, %arg0 : tensor<2x!quant.uniform<i8:f32:0, {34.0:16, 34.0:16}>>
+  func.return %0 : tensor<2x!quant.uniform<i8:f32:0, {34.0:16, 34.0:16}>>
+}
+
+//       CHECK: function_type = #vhlo.type_v1<!vhlo.func_v1<(!vhlo.token_v1) -> !vhlo.token_v1>>
+// CHECK-LABEL: "type_token_callee"
+// CHECK-NEXT: (%[[ARG0:.*]]: {{.*}})
+func.func @type_token_callee(%arg0: !stablehlo.token) -> !stablehlo.token {
+  // CHECK: "vhlo.return_v1"(%[[ARG0]]) : (!vhlo.token_v1) -> ()
+  return %arg0 : !stablehlo.token
+}
+
+//       CHECK: function_type = #vhlo.type_v1<!vhlo.func_v1<(!vhlo.token_v1) -> !vhlo.token_v1>>
+// CHECK-LABEL: "type_token_caller"
+// CHECK-NEXT: (%[[ARG0:.*]]: {{.*}})
+func.func @type_token_caller(%arg0: !stablehlo.token) -> !stablehlo.token {
+  // CHECK:      "vhlo.call_v1"(%[[ARG0]]) <{callee = #vhlo.string_v1<"type_token_callee">}
+  // CHECK-SAME: (!vhlo.token_v1) -> !vhlo.token_v1
+  %0 = func.call @type_token_callee(%arg0) : (!stablehlo.token) -> !stablehlo.token
+  return %0 : !stablehlo.token
+}
+
+// CHECK-LABEL: "type_tuple"
+// CHECK-NEXT: (%[[ARG0:.*]]: {{.*}})
+func.func @type_tuple(%arg0: tuple<tensor<f32>>) -> tuple<!stablehlo.token> {
+  %0 = "stablehlo.custom_call"(%arg0) {
+    call_target_name = "foo"
+  // CHECK: (!vhlo.tuple_v1<!vhlo.tensor_v1<!vhlo.f32_v1>>) -> !vhlo.tuple_v1<!vhlo.token_v1>
+  } : (tuple<tensor<f32>>) -> tuple<!stablehlo.token>
+  return %0 : tuple<!stablehlo.token>
+}
+
+// CHECK-LABEL: type_buffer_function_input_output
+// CHECK-NEXT: (%[[ARG0:.*]]: !vhlo.buffer_v1<2x!vhlo.f32_v1>)
+func.func @type_buffer_function_input_output(%arg0: memref<2xf32>) -> memref<2xf32> {
+  // CHECK: "vhlo.return_v1"(%[[ARG0]]) : (!vhlo.buffer_v1<2x!vhlo.f32_v1>) -> ()
+  func.return %arg0 : memref<2xf32>
+}
+
+// CHECK-LABEL: type_buffer_special_custom_calls
+// CHECK-NEXT: (%[[ARG0:.*]]: {{.*}})
+func.func @type_buffer_special_custom_calls(%arg0: tensor<2xf32>) -> tensor<2xf32> {
+  //               CHECK: %[[CALL0:.*]] = "vhlo.custom_call_v1"(%[[ARG0]])
+  //          CHECK-SAME: call_target_name = #vhlo.string_v1<"Pin">
+  //          CHECK-SAME: : (!vhlo.tensor_v1<2x!vhlo.f32_v1>) -> !vhlo.buffer_v1<2x!vhlo.f32_v1>
+  %0 = "stablehlo.custom_call"(%arg0) {
+    call_target_name = "Pin",
+    api_version = 4 : i32
+  } : (tensor<2xf32>) -> memref<2xf32>
+  //               CHECK: %{{.*}} = "vhlo.custom_call_v1"(%[[CALL0]])
+  //          CHECK-SAME: call_target_name = #vhlo.string_v1<"Unpin">
+  //          CHECK-SAME: : (!vhlo.buffer_v1<2x!vhlo.f32_v1>) -> !vhlo.tensor_v1<2x!vhlo.f32_v1>
+  %1 = "stablehlo.custom_call"(%0) {
+    call_target_name = "Unpin",
+    api_version = 4 : i32
+  } : (memref<2xf32>) -> tensor<2xf32>
+  func.return %1 : tensor<2xf32>
+}
+
+// CHECK: function_type = #vhlo.type_v1<!vhlo.func_v1<(()) -> !vhlo.future_v1<!vhlo.tensor_v1<!vhlo.f32_v1>>>>
+// CHECK-LABEL: "type_future"
+func.func private @type_future() -> !stablehlo.future<tensor<f32>>
+
+// CHECK: function_type = #vhlo.type_v1<!vhlo.func_v1<(()) -> !vhlo.future_v1<!vhlo.tensor_v1<2x3x!vhlo.f32_v1>>>>
+// CHECK-LABEL: "type_future_ranked"
+func.func private @type_future_ranked() -> !stablehlo.future<tensor<2x3xf32>>
+
+// CHECK: function_type = #vhlo.type_v1<!vhlo.func_v1<(()) -> !vhlo.future_v1<!vhlo.tensor_v1<?x!vhlo.f32_v1>>>>
+// CHECK-LABEL: "type_future_dynamic"
+func.func private @type_future_dynamic() -> !stablehlo.future<tensor<?xf32>>
+
+// CHECK: function_type = #vhlo.type_v1<!vhlo.func_v1<(()) -> !vhlo.future_v1<!vhlo.tensor_v1<!vhlo.f32_v1>, !vhlo.tensor_v1<!vhlo.i32_v1>>>>
+// CHECK-LABEL: "type_future_multiple"
+func.func private @type_future_multiple() -> !stablehlo.future<tensor<f32>, tensor<i32>>
+
+// CHECK-LABEL: "op_async_start_all_reduce"
+// CHECK-NEXT: (%[[ARG0:.*]]: {{.*}})
+func.func @op_async_start_all_reduce(%arg0: tensor<4x4xf32>) -> !stablehlo.future<tensor<4x4xf32>> {
+  //      CHECK: "vhlo.async_start_v1"(%[[ARG0]]) ({
+  // CHECK-NEXT:   ^[[BB:bb.*]](%[[BARG0:.*]]: {{.*}}):
+  // CHECK-NEXT:   %[[VAL1:.*]] = "vhlo.all_reduce_v2"(%[[BARG0]]) <{
+  // CHECK-SAME:     channel_id = #vhlo.integer_v1<0 : i64>,
+  // CHECK-SAME{LITERAL}:     replica_groups = #vhlo.tensor_v1<dense<[[0, 1]]> : tensor<1x2xi64>>,
+  // CHECK-SAME:     use_global_device_ids = #vhlo.bool_v1<false>
+  // CHECK-SAME:   }> ({
+  // CHECK-NEXT:     ^[[BB:bb.*]](%[[ARG1:arg.*]]: !vhlo.tensor_v1<!vhlo.f32_v1>, %[[ARG2:arg.*]]: !vhlo.tensor_v1<!vhlo.f32_v1>):
+  // CHECK-NEXT:       %[[VAL2:.*]] = "vhlo.add_v1"(%[[ARG1]], %[[ARG2]]) : (!vhlo.tensor_v1<!vhlo.f32_v1>, !vhlo.tensor_v1<!vhlo.f32_v1>) -> !vhlo.tensor_v1<!vhlo.f32_v1>
+  // CHECK-NEXT:       "vhlo.return_v1"(%[[VAL2]]) : (!vhlo.tensor_v1<!vhlo.f32_v1>) -> ()
+  // CHECK-NEXT:   }) : (!vhlo.tensor_v1<4x4x!vhlo.f32_v1>) -> !vhlo.tensor_v1<4x4x!vhlo.f32_v1>
+  // CHECK-NEXT:   "vhlo.return_v1"(%[[VAL1]]) : (!vhlo.tensor_v1<4x4x!vhlo.f32_v1>) -> ()
+  // CHECK-NEXT: }) : (!vhlo.tensor_v1<4x4x!vhlo.f32_v1>) -> !vhlo.future_v1<!vhlo.tensor_v1<4x4x!vhlo.f32_v1>>
+  %0 = "stablehlo.async_start"(%arg0) ({
+    ^bb0(%barg0: tensor<4x4xf32>):
+    %1 = "stablehlo.all_reduce"(%barg0) ({
+    ^bb0(%arg2: tensor<f32>, %arg3: tensor<f32>):
+      %2 = "stablehlo.add"(%arg2, %arg3) : (tensor<f32>, tensor<f32>) -> tensor<f32>
+      "stablehlo.return"(%2) : (tensor<f32>) -> ()
+    }) {replica_groups = dense<[[0, 1]]> : tensor<1x2xi64>} : (tensor<4x4xf32>) -> tensor<4x4xf32>
+    "stablehlo.return"(%1) : (tensor<4x4xf32>) -> ()
+  }) : (tensor<4x4xf32>) -> !stablehlo.future<tensor<4x4xf32>>
+  func.return %0: !stablehlo.future<tensor<4x4xf32>>
+}
+
+// CHECK-LABEL: "op_async_start_all_gather"
+// CHECK-NEXT: (%[[ARG0:.*]]: {{.*}})
+func.func @op_async_start_all_gather(%arg0: tensor<8x2xf32>) -> !stablehlo.future<tensor<8x8xf32>> {
+  //      CHECK: "vhlo.async_start_v1"(%[[ARG0]]) ({
+  // CHECK-NEXT:   ^[[BB:bb.*]](%[[BARG0:.*]]: {{.*}}):
+  // CHECK-NEXT:   %[[VAL1:.*]] = "vhlo.all_gather_v2"(%[[BARG0]]) <{
+  // CHECK-SAME:     all_gather_dim = #vhlo.integer_v1<1 : i64>,
+  // CHECK-SAME:     channel_id = #vhlo.integer_v1<0 : i64>,
+  // CHECK-SAME{LITERAL}:     replica_groups = #vhlo.tensor_v1<dense<[[0, 2, 4, 6], [1, 3, 5, 7]]> : tensor<2x4xi64>>,
+  // CHECK-SAME:     use_global_device_ids = #vhlo.bool_v1<false>
+  // CHECK-SAME:   }> : (!vhlo.tensor_v1<8x2x!vhlo.f32_v1>) -> !vhlo.tensor_v1<8x8x!vhlo.f32_v1>
+  // CHECK-NEXT:   "vhlo.return_v1"(%[[VAL1]]) : (!vhlo.tensor_v1<8x8x!vhlo.f32_v1>) -> ()
+  // CHECK-NEXT: }) : (!vhlo.tensor_v1<8x2x!vhlo.f32_v1>) -> !vhlo.future_v1<!vhlo.tensor_v1<8x8x!vhlo.f32_v1>>
+  %0 = "stablehlo.async_start"(%arg0) ({
+    ^bb0(%barg0: tensor<8x2xf32>):
+    %1 = "stablehlo.all_gather"(%barg0) {
+      all_gather_dim = 1 : i64,
+      replica_groups = dense<[[0, 2, 4, 6], [1, 3, 5, 7]]> : tensor<2x4xi64>
+    } : (tensor<8x2xf32>) -> tensor<8x8xf32>
+    "stablehlo.return"(%1) : (tensor<8x8xf32>) -> ()
+  }) : (tensor<8x2xf32>) -> !stablehlo.future<tensor<8x8xf32>>
+  func.return %0: !stablehlo.future<tensor<8x8xf32>>
+}
+
+// CHECK-LABEL: "op_async_start_all_to_all"
+// CHECK-NEXT: (%[[ARG0:.*]]: {{.*}})
+func.func @op_async_start_all_to_all(%arg0: tensor<4x16xf32>) -> !stablehlo.future<tensor<16x4xf32>> {
+  //      CHECK: "vhlo.async_start_v1"(%[[ARG0]]) ({
+  // CHECK-NEXT:   ^[[BB:bb.*]](%[[BARG0:.*]]: {{.*}}):
+  // CHECK-NEXT:   %[[VAL1:.*]] = "vhlo.all_to_all_v2"(%[[BARG0]]) <{
+  // CHECK-SAME:     channel_id = #vhlo.integer_v1<0 : i64>,
+  // CHECK-SAME:     concat_dimension = #vhlo.integer_v1<0 : i64>,
+  // CHECK-SAME{LITERAL}:     replica_groups = #vhlo.tensor_v1<dense<[[0, 1, 2, 3]]> : tensor<1x4xi64>>,
+  // CHECK-SAME:     split_count = #vhlo.integer_v1<4 : i64>,
+  // CHECK-SAME:     split_dimension = #vhlo.integer_v1<1 : i64>
+  // CHECK-SAME:   }> : (!vhlo.tensor_v1<4x16x!vhlo.f32_v1>) -> !vhlo.tensor_v1<16x4x!vhlo.f32_v1>
+  // CHECK-NEXT:   "vhlo.return_v1"(%[[VAL1]]) : (!vhlo.tensor_v1<16x4x!vhlo.f32_v1>) -> ()
+  // CHECK-NEXT: }) : (!vhlo.tensor_v1<4x16x!vhlo.f32_v1>) -> !vhlo.future_v1<!vhlo.tensor_v1<16x4x!vhlo.f32_v1>>
+  %0 = "stablehlo.async_start"(%arg0) ({
+    ^bb0(%barg0: tensor<4x16xf32>):
+    %1 = "stablehlo.all_to_all"(%barg0) {
+      split_dimension = 1 : i64,
+      concat_dimension = 0 : i64,
+      split_count = 4 : i64,
+      replica_groups = dense<[[0, 1, 2, 3]]> : tensor<1x4xi64>
+    } : (tensor<4x16xf32>) -> tensor<16x4xf32>
+    "stablehlo.return"(%1) : (tensor<16x4xf32>) -> ()
+  }) : (tensor<4x16xf32>) -> !stablehlo.future<tensor<16x4xf32>>
+  func.return %0: !stablehlo.future<tensor<16x4xf32>>
+}
+
+// CHECK-LABEL: "op_async_start_collective_permute"
+// CHECK-NEXT: (%[[ARG0:.*]]: {{.*}})
+func.func @op_async_start_collective_permute(%arg0: tensor<128x32xf32>) -> !stablehlo.future<tensor<128x32xf32>> {
+  //      CHECK: "vhlo.async_start_v1"(%[[ARG0]]) ({
+  // CHECK-NEXT:   ^[[BB:bb.*]](%[[BARG0:.*]]: {{.*}}):
+  // CHECK-NEXT:   %[[VAL1:.*]] = "vhlo.collective_permute_v1"(%[[BARG0]]) <{
+  // CHECK-SAME:     channel_id = #vhlo.integer_v1<0 : i64>,
+  // CHECK-SAME{LITERAL}:     source_target_pairs = #vhlo.tensor_v1<dense<[[0, 1], [1, 2], [2, 3]]> : tensor<3x2xi64>>
+  // CHECK-SAME:   }> : (!vhlo.tensor_v1<128x32x!vhlo.f32_v1>) -> !vhlo.tensor_v1<128x32x!vhlo.f32_v1>
+  // CHECK-NEXT:   "vhlo.return_v1"(%[[VAL1]]) : (!vhlo.tensor_v1<128x32x!vhlo.f32_v1>) -> ()
+  // CHECK-NEXT: }) : (!vhlo.tensor_v1<128x32x!vhlo.f32_v1>) -> !vhlo.future_v1<!vhlo.tensor_v1<128x32x!vhlo.f32_v1>>
+  %0 = "stablehlo.async_start"(%arg0) ({
+    ^bb0(%barg0: tensor<128x32xf32>):
+    %1 = "stablehlo.collective_permute"(%barg0) {
+      source_target_pairs = dense<[[0, 1], [1, 2], [2, 3]]> : tensor<3x2xi64>
+    } : (tensor<128x32xf32>) -> tensor<128x32xf32>
+    "stablehlo.return"(%1) : (tensor<128x32xf32>) -> ()
+  }) : (tensor<128x32xf32>) -> !stablehlo.future<tensor<128x32xf32>>
+  func.return %0: !stablehlo.future<tensor<128x32xf32>>
+}
+
+// CHECK-LABEL: "op_async_start_collective_broadcast"
+// CHECK-NEXT: (%[[ARG0:.*]]: {{.*}})
+func.func @op_async_start_collective_broadcast(%arg0: tensor<16x8xf32>) -> !stablehlo.future<tensor<16x8xf32>> {
+  //      CHECK: "vhlo.async_start_v1"(%[[ARG0]]) ({
+  // CHECK-NEXT:   ^[[BB:bb.*]](%[[BARG0:.*]]: {{.*}}):
+  // CHECK-NEXT:   %[[VAL1:.*]] = "vhlo.collective_broadcast_v1"(%[[BARG0]]) <{
+  // CHECK-SAME:     channel_id = #vhlo.integer_v1<0 : i64>,
+  // CHECK-SAME{LITERAL}:     replica_groups = #vhlo.tensor_v1<dense<[[0, 1]]> : tensor<1x2xi64>>
+  // CHECK-SAME:   }> : (!vhlo.tensor_v1<16x8x!vhlo.f32_v1>) -> !vhlo.tensor_v1<16x8x!vhlo.f32_v1>
+  // CHECK-NEXT:   "vhlo.return_v1"(%[[VAL1]]) : (!vhlo.tensor_v1<16x8x!vhlo.f32_v1>) -> ()
+  // CHECK-NEXT: }) : (!vhlo.tensor_v1<16x8x!vhlo.f32_v1>) -> !vhlo.future_v1<!vhlo.tensor_v1<16x8x!vhlo.f32_v1>>
+  %0 = "stablehlo.async_start"(%arg0) ({
+    ^bb0(%barg0: tensor<16x8xf32>):
+    %1 = "stablehlo.collective_broadcast"(%barg0) {
+      replica_groups = dense<[[0, 1]]> : tensor<1x2xi64>
+    } : (tensor<16x8xf32>) -> tensor<16x8xf32>
+    "stablehlo.return"(%1) : (tensor<16x8xf32>) -> ()
+  }) : (tensor<16x8xf32>) -> !stablehlo.future<tensor<16x8xf32>>
+  func.return %0: !stablehlo.future<tensor<16x8xf32>>
+}
+
+// CHECK-LABEL: "op_async_start_reduce_scatter"
+// CHECK-NEXT: (%[[ARG0:.*]]: {{.*}})
+func.func @op_async_start_reduce_scatter(%arg0: tensor<4x16xf32>) -> !stablehlo.future<tensor<4x4xf32>> {
+  //      CHECK: "vhlo.async_start_v1"(%[[ARG0]]) ({
+  // CHECK-NEXT:   ^[[BB:bb.*]](%[[BARG0:.*]]: {{.*}}):
+  // CHECK-NEXT:   %[[VAL1:.*]] = "vhlo.reduce_scatter_v1"(%[[BARG0]]) <{
+  // CHECK-SAME:     channel_id = #vhlo.integer_v1<0 : i64>,
+  // CHECK-SAME{LITERAL}:     replica_groups = #vhlo.tensor_v1<dense<[[0, 1, 2, 3]]> : tensor<1x4xi64>>,
+  // CHECK-SAME:     scatter_dimension = #vhlo.integer_v1<1 : i64>,
+  // CHECK-SAME:     use_global_device_ids = #vhlo.bool_v1<false>
+  // CHECK-SAME:   }> ({
+  // CHECK-NEXT:     ^[[BB:bb.*]](%[[ARG1:arg.*]]: !vhlo.tensor_v1<!vhlo.f32_v1>, %[[ARG2:arg.*]]: !vhlo.tensor_v1<!vhlo.f32_v1>):
+  // CHECK-NEXT:       %[[VAL2:.*]] = "vhlo.add_v1"(%[[ARG1]], %[[ARG2]]) : (!vhlo.tensor_v1<!vhlo.f32_v1>, !vhlo.tensor_v1<!vhlo.f32_v1>) -> !vhlo.tensor_v1<!vhlo.f32_v1>
+  // CHECK-NEXT:       "vhlo.return_v1"(%[[VAL2]]) : (!vhlo.tensor_v1<!vhlo.f32_v1>) -> ()
+  // CHECK-NEXT:   }) : (!vhlo.tensor_v1<4x16x!vhlo.f32_v1>) -> !vhlo.tensor_v1<4x4x!vhlo.f32_v1>
+  // CHECK-NEXT:   "vhlo.return_v1"(%[[VAL1]]) : (!vhlo.tensor_v1<4x4x!vhlo.f32_v1>) -> ()
+  // CHECK-NEXT: }) : (!vhlo.tensor_v1<4x16x!vhlo.f32_v1>) -> !vhlo.future_v1<!vhlo.tensor_v1<4x4x!vhlo.f32_v1>>
+  %0 = "stablehlo.async_start"(%arg0) ({
+    ^bb0(%barg0: tensor<4x16xf32>):
+    %1 = "stablehlo.reduce_scatter"(%barg0) ({
+      ^bb0(%arg2: tensor<f32>, %arg3: tensor<f32>):
+      %2 = stablehlo.add %arg2, %arg3 : tensor<f32>
+      "stablehlo.return"(%2) : (tensor<f32>) -> ()
+    }) {replica_groups = dense<[[0, 1, 2, 3]]> : tensor<1x4xi64>,
+        scatter_dimension = 1 : i64} : (tensor<4x16xf32>) -> tensor<4x4xf32>
+    "stablehlo.return"(%1) : (tensor<4x4xf32>) -> ()
+  }) : (tensor<4x16xf32>) -> !stablehlo.future<tensor<4x4xf32>>
+  func.return %0: !stablehlo.future<tensor<4x4xf32>>
+}
+
+// CHECK-LABEL: "op_async_done"
+// CHECK-NEXT: (%[[ARG0:.*]]: {{.*}})
+func.func @op_async_done(%arg0: tensor<4x4xf32>) -> tensor<4x4xf32> {
+  // CHECK: %[[VAL1:.*]] = "vhlo.async_start_v1"(%[[ARG0]])
+  // CHECK: %[[VAL2:.*]] = "vhlo.async_done_v1"(%[[VAL1]]) : (!vhlo.future_v1<!vhlo.tensor_v1<4x4x!vhlo.f32_v1>>) -> !vhlo.tensor_v1<4x4x!vhlo.f32_v1>
+  %0 = "stablehlo.async_start"(%arg0) ({
+    ^bb0(%barg0: tensor<4x4xf32>):
+    %1 = "stablehlo.all_reduce"(%barg0) ({
+    ^bb0(%arg2: tensor<f32>, %arg3: tensor<f32>):
+      %2 = "stablehlo.add"(%arg2, %arg3) : (tensor<f32>, tensor<f32>) -> tensor<f32>
+      "stablehlo.return"(%2) : (tensor<f32>) -> ()
+    }) {replica_groups = dense<[[0, 1]]> : tensor<1x2xi64>} : (tensor<4x4xf32>) -> tensor<4x4xf32>
+    "stablehlo.return"(%1) : (tensor<4x4xf32>) -> ()
+  }) : (tensor<4x4xf32>) -> !stablehlo.future<tensor<4x4xf32>>
+  %1 = "stablehlo.async_done"(%0) : (!stablehlo.future<tensor<4x4xf32>>) -> tensor<4x4xf32>
+  func.return %1: tensor<4x4xf32>
+}
+
+// ============ DEPENDENCIES  ============
+
+func.func @composite_target(%arg0: tensor<f32>) -> tensor<f32> {
+  return %arg0: tensor<f32>
+}
+
+// CHECK-LABEL: "attr_replica_group_mesh_axes"
+func.func @attr_replica_group_mesh_axes(%arg0: tensor<f32>) -> tensor<f32> {
+  // CHECK: "vhlo.all_reduce_v2"
+  // CHECK-SAME: replica_groups = #vhlo.replica_group_mesh_axes_v1<
+  // CHECK-SAME:   mesh = #vhlo.string_v1<"mesh">,
+  // CHECK-SAME:   axes = #vhlo.array_v1<[#vhlo.axis_ref_v1<name = #vhlo.string_v1<"x">, sub_axis_info = #vhlo.sub_axis_info_v1<pre_size = 1, size = 2>>, #vhlo.axis_ref_v1<name = #vhlo.string_v1<"y">>]>
+  // CHECK-SAME: >
+  %0 = "stablehlo.all_reduce"(%arg0) ({
+    ^bb0(%arg1: tensor<f32>, %arg2: tensor<f32>):
+      %1 = "stablehlo.add"(%arg1, %arg2) : (tensor<f32>, tensor<f32>) -> tensor<f32>
+      "stablehlo.return"(%1) : (tensor<f32>) -> ()
+  }) {
+    replica_groups = #stablehlo.replica_group_mesh_axes<
+      mesh = @mesh,
+      axes = [
+        #stablehlo.axis_ref<name = "x", sub_axis_info = (1)2>,
+        #stablehlo.axis_ref<name = "y">
+      ]
+    >
+  } : (tensor<f32>) -> tensor<f32>
+  func.return %0 : tensor<f32>
+}
diff --ruN a/stablehlo/stablehlo/tests/vhlo/stablehlo_legalize_to_vhlo.mlir b/stablehlo/stablehlo/tests/vhlo/stablehlo_legalize_to_vhlo.mlir
--- stablehlo/stablehlo/tests/vhlo/stablehlo_legalize_to_vhlo.mlir
+++ stablehlo/stablehlo/tests/vhlo/stablehlo_legalize_to_vhlo.mlir
@@ -487,6 +487,31 @@
   } : (tensor<f32>) -> tensor<f32>
   func.return %0 : tensor<f32>
 }
+
+// CHECK-LABEL: "attr_replica_group_mesh_axes"
+func.func @attr_replica_group_mesh_axes(%arg0: tensor<f32>) -> tensor<f32> {
+  // CHECK: "vhlo.all_reduce_v2"
+  // CHECK-SAME: replica_groups = #vhlo.replica_group_mesh_axes_v1<
+  // CHECK-SAME:   mesh = #vhlo.string_v1<"mesh">,
+  // CHECK-SAME:   axes = #vhlo.array_v1<[#vhlo.axis_ref_v1<name = #vhlo.string_v1<"x">, sub_axis_info = #vhlo.sub_axis_info_v1<pre_size = 1, size = 2>>, #vhlo.axis_ref_v1<name = #vhlo.string_v1<"y">>]>
+  // CHECK-SAME: >
+  %0 = "stablehlo.all_reduce"(%arg0) ({
+    ^bb0(%arg1: tensor<f32>, %arg2: tensor<f32>):
+      %1 = "stablehlo.add"(%arg1, %arg2) : (tensor<f32>, tensor<f32>) -> tensor<f32>
+      "stablehlo.return"(%1) : (tensor<f32>) -> ()
+  }) {
+    replica_groups = #stablehlo.replica_group_mesh_axes<
+      mesh = @mesh,
+      axes = [
+        #stablehlo.axis_ref<name = "x", sub_axis_info = (1)2>,
+        #stablehlo.axis_ref<name = "y">
+      ]
+    >
+  } : (tensor<f32>) -> tensor<f32>
+  func.return %0 : tensor<f32>
+}
+
+
 
 // CHECK-LABEL: "default_all_to_all"
 // CHECK-NEXT: (%[[ARG0:.*]]: {{.*}})
diff --ruN a/stablehlo/stablehlo/tests/vhlo/vhlo_to_version_downgrade_invalid.1_15_0.mlir b/stablehlo/stablehlo/tests/vhlo/vhlo_to_version_downgrade_invalid.1_15_0.mlir
--- stablehlo/stablehlo/tests/vhlo/vhlo_to_version_downgrade_invalid.1_15_0.mlir
+++ stablehlo/stablehlo/tests/vhlo/vhlo_to_version_downgrade_invalid.1_15_0.mlir
@@ -0,0 +1,21 @@
+// RUN: not stablehlo-opt --stablehlo-legalize-to-vhlo --vhlo-to-version='target=1.15.0' %s 2>&1 | FileCheck %s
+
+// Future types cannot be downgraded to v1.15.0 (v1).
+
+// CHECK: failed to legalize operation
+func.func @attr_replica_group_mesh_axes(%arg0: tensor<f32>) -> tensor<f32> {
+  %0 = "stablehlo.all_reduce"(%arg0) ({
+    ^bb0(%arg1: tensor<f32>, %arg2: tensor<f32>):
+      %1 = "stablehlo.add"(%arg1, %arg2) : (tensor<f32>, tensor<f32>) -> tensor<f32>
+      "stablehlo.return"(%1) : (tensor<f32>) -> ()
+  }) {
+    replica_groups = #stablehlo.replica_group_mesh_axes<
+      mesh = ["x", "y"],
+      axes = [
+        #stablehlo.axis_ref<name = "x", sub_axis_info = (1)2>,
+        #stablehlo.axis_ref<name = "y">
+      ]
+    >
+  } : (tensor<f32>) -> tensor<f32>
+  func.return %0 : tensor<f32>
+}
diff --ruN a/stablehlo/stablehlo/transforms/StablehloCompatibilityExpander.cpp b/stablehlo/stablehlo/transforms/StablehloCompatibilityExpander.cpp
--- stablehlo/stablehlo/transforms/StablehloCompatibilityExpander.cpp
+++ stablehlo/stablehlo/transforms/StablehloCompatibilityExpander.cpp
@@ -42,6 +42,7 @@
 #include "mlir/Rewrite/FrozenRewritePatternSet.h"
 #include "mlir/Support/LLVM.h"
 #include "mlir/Transforms/GreedyPatternRewriteDriver.h"
+#include "stablehlo/dialect/ReplicaGroupUtils.h"
 #include "stablehlo/dialect/StablehloOps.h"
 #include "stablehlo/dialect/Version.h"
 #include "stablehlo/transforms/PassUtils.h"  // IWYU pragma: keep
@@ -310,6 +311,67 @@
   }
 };
 
+// ReplicaGroupMeshAxesExpander handles the conversion of
+// #stablehlo.replica_group_mesh_axes to a dense I64ElementsAttr for target
+// versions that do not support it.
+struct ReplicaGroupMeshAxesExpander : public RewritePattern {
+  ReplicaGroupMeshAxesExpander(MLIRContext* context)
+      : RewritePattern(MatchAnyOpTypeTag(), 1, context) {}
+
+  LogicalResult matchAndRewrite(Operation* op,
+                                PatternRewriter& rewriter) const override {
+    auto replicaGroupsAttr = op->getAttrOfType<Attribute>("replica_groups");
+    if (!replicaGroupsAttr) return failure();
+
+    auto meshAxesAttr = dyn_cast<ReplicaGroupMeshAxesAttr>(replicaGroupsAttr);
+    if (!meshAxesAttr) return failure();
+
+    // Resolve Mesh.
+    auto meshSpec = meshAxesAttr.getMesh();
+    auto meshAttr = llvm::dyn_cast_or_null<stablehlo::MeshAttr>(meshSpec);
+    if (!meshAttr) {
+      auto symbolOp = SymbolTable::lookupNearestSymbolFrom(
+          op, llvm::cast<SymbolRefAttr>(meshSpec));
+      if (!symbolOp) {
+        return op->emitError("Failed to find mesh symbol");
+      }
+      meshAttr = symbolOp->getAttrOfType<stablehlo::MeshAttr>("mesh");
+      if (!meshAttr) {
+        meshAttr =
+            symbolOp->getAttrOfType<stablehlo::MeshAttr>("stablehlo.mesh");
+      }
+      if (!meshAttr) {
+        return op->emitError("Failed to find mesh attribute on symbol");
+      }
+    }
+
+    // Flattening logic.
+    auto commAxes = meshAxesAttr.getAxes();
+    auto groupsOrFailure =
+        flattenReplicaGroupMeshAxes(meshAttr, commAxes, op->getLoc());
+    if (failed(groupsOrFailure)) return failure();
+
+    const auto& groups = groupsOrFailure.value();
+
+    int64_t numGroups = groups.size();
+    int64_t groupSize = groups.empty() ? 0 : groups[0].size();
+
+    // Create the dense attribute.
+    SmallVector<int64_t> flattenedGroups;
+    for (const auto& group : groups) {
+      flattenedGroups.append(group.begin(), group.end());
+    }
+    auto type =
+        RankedTensorType::get({numGroups, groupSize}, rewriter.getI64Type());
+    auto newDenseAttr = DenseIntElementsAttr::get(type, flattenedGroups);
+
+    rewriter.modifyOpInPlace(
+        op, [&] { op->setAttr("replica_groups", newDenseAttr); });
+
+    return success();
+  }
+};
+
 //===----------------------------------------------------------------------===//
 // Pass
 //===----------------------------------------------------------------------===//
@@ -380,6 +442,10 @@
   // incompats.
   if (targetVersion < vhlo::Version(1, 9, 0))
     patterns->add<FileLineColRangeToLoc>(context);
+
+  // StableHLO RGV3 (replica_group_mesh_axes) is introduced in v1.16.0 or later.
+  if (targetVersion < vhlo::Version(1, 16, 0))
+    patterns->add<ReplicaGroupMeshAxesExpander>(context);
 }
 
 }  // namespace stablehlo
diff --ruN a/stablehlo/stablehlo/transforms/StablehloLegalizeToVhlo.cpp b/stablehlo/stablehlo/transforms/StablehloLegalizeToVhlo.cpp
--- stablehlo/stablehlo/transforms/StablehloLegalizeToVhlo.cpp
+++ stablehlo/stablehlo/transforms/StablehloLegalizeToVhlo.cpp
@@ -175,6 +175,45 @@
                                            attr.getRtol(), attr.getUlps(),
                                            modeAttr);
   }
+  if (auto attr = dyn_cast<stablehlo::SubAxisInfoAttr>(stablehloAttr)) {
+    return vhlo::SubAxisInfoV1Attr::get(attr.getContext(), attr.getPreSize(),
+                                        attr.getSize());
+  }
+  if (auto attr = dyn_cast<stablehlo::AxisRefAttr>(stablehloAttr)) {
+    auto vhloName = convertGeneric(
+        StringAttr::get(attr.getContext(), attr.getName()), typeConverter);
+    auto vhloSubAxisInfo =
+        attr.getSubAxisInfo()
+            ? convertGeneric(attr.getSubAxisInfo(), typeConverter)
+            : Attribute();
+    return vhlo::AxisRefV1Attr::get(attr.getContext(), vhloName,
+                                    vhloSubAxisInfo);
+  }
+  if (auto attr =
+          dyn_cast<stablehlo::ReplicaGroupMeshAxesAttr>(stablehloAttr)) {
+    Attribute vhloMesh;
+    if (auto symbolRef = dyn_cast<FlatSymbolRefAttr>(attr.getMesh())) {
+      // VHLO only supports symbol references for mesh for now.
+      vhloMesh =
+          vhlo::StringV1Attr::get(attr.getContext(), symbolRef.getValue());
+    } else {
+      // If it's an inlined mesh (pre-lifting), we cannot serialize it to VHLO
+      // natively yet without defining VhloMeshAttr.
+      return {};
+    }
+
+    SmallVector<Attribute> vhloAxesAttrs;
+    for (auto axis : attr.getAxes()) {
+      auto vhloAxis = convertGeneric(axis, typeConverter);
+      if (!vhloAxis) return {};
+      vhloAxesAttrs.push_back(vhloAxis);
+    }
+    auto vhloAxes = vhlo::ArrayV1Attr::get(attr.getContext(), vhloAxesAttrs);
+
+    return vhlo::ReplicaGroupMeshAxesV1Attr::get(attr.getContext(), vhloMesh,
+                                                 vhloAxes);
+  }
+
   if (llvm::isa<stablehlo::StablehloDialect>(stablehloAttr.getDialect())) {
     // All StableHLO attributes must have counterparts in VHLO.
     return {};
diff --ruN a/stablehlo/stablehlo/transforms/StablehloRefineShapes.cpp b/stablehlo/stablehlo/transforms/StablehloRefineShapes.cpp
--- stablehlo/stablehlo/transforms/StablehloRefineShapes.cpp
+++ stablehlo/stablehlo/transforms/StablehloRefineShapes.cpp
@@ -51,6 +51,7 @@
 #include "mlir/Transforms/GreedyPatternRewriteDriver.h"
 #include "stablehlo/dialect/Base.h"
 #include "stablehlo/dialect/ChloOps.h"
+#include "stablehlo/dialect/ReplicaGroupUtils.h"
 #include "stablehlo/dialect/StablehloOps.h"
 #include "stablehlo/dialect/TypeInference.h"
 #include "stablehlo/transforms/Passes.h"
@@ -66,11 +67,12 @@
 
 LogicalResult refineValues(PatternRewriter& rewriter, Operation* op,
                            ValueRange values, TypeRange types) {
-  if (values.size() != types.size())
+  if (values.size() != types.size()) {
     return rewriter.notifyMatchFailure(op, [&](Diagnostic& diag) {
       diag << "refineValues failed for " << types << ": expected "
            << values.size() << " types, got " << types.size();
     });
+  }
 
   // Check whether `types` contain any new information with respect to
   // existing return types. Even if just a single dimension size out of an
@@ -113,9 +115,6 @@
       // verification of the op.
       if (isa<chlo::ChloDialect, StablehloDialect>(user->getDialect()))
         continue;
-      // TODO(bartchr): Consider if the dialect allow-listing approach is too
-      // strict. In the meantime, allow some shape interop with the shardy
-      // dialect.
       if (user->getDialect()->getNamespace() == "sdy") continue;
 
       // Simply changing operand type of `func.return` won't work because
@@ -171,11 +170,12 @@
   SmallVector<Type> flattenedTypes;
   hlo::flattenTupleTypes(op->getResultTypes(), flattenedTypes);
   auto flattenedSize = flattenedTypes.size();
-  if (flattenedSize != refinements.size())
+  if (flattenedSize != refinements.size()) {
     return rewriter.notifyMatchFailure(op, [&](Diagnostic& diag) {
       diag << "refineReturnTypes failed: expected " << flattenedSize
            << " refinements, got " << refinements.size();
     });
+  }
 
   SmallVector<Type> flattenedRefinedTypes;
   for (auto it : llvm::zip(flattenedTypes, refinements)) {
@@ -510,8 +510,23 @@
       // don't know num_partitions at this point, we error out.
       if (op.getChannelHandle() && !op.getUseGlobalDeviceIds())
         return rewriter.notifyMatchFailure(op, "unsupported strategy");
-      DenseIntElementsAttr replicaGroups = op.getReplicaGroups();
-      auto shardCount = replicaGroups.getType().getDimSize(1);
+      int64_t shardCount = 0;
+      Attribute replicaGroupsAttr = op.getReplicaGroups();
+      if (auto denseGroups =
+              dyn_cast<DenseIntElementsAttr>(replicaGroupsAttr)) {
+        shardCount = denseGroups.getType().getDimSize(1);
+      } else {
+        auto meshAxesAttr = cast<ReplicaGroupMeshAxesAttr>(replicaGroupsAttr);
+        auto flattenedGroupsOr = flattenReplicaGroupMeshAxes(
+            meshAxesAttr.getMesh(), meshAxesAttr.getAxes(), op.getLoc());
+        if (failed(flattenedGroupsOr))
+          return rewriter.notifyMatchFailure(
+              op, "failed to flatten replica groups");
+        if (flattenedGroupsOr->empty())
+          return rewriter.notifyMatchFailure(op,
+                                             "empty flattened replica groups");
+        shardCount = (*flattenedGroupsOr)[0].size();
+      }
       SmallVector<int64_t> refinement(operandType.getShape());
       if (!operandType.isDynamicDim(op.getAllGatherDim()))
         refinement[op.getAllGatherDim()] *= shardCount;
@@ -876,8 +891,22 @@
     // num_partitions at this point, we error out.
     if (op.getChannelHandle() && !op.getUseGlobalDeviceIds())
       return rewriter.notifyMatchFailure(op, "unsupported strategy");
-    DenseIntElementsAttr replicaGroups = op.getReplicaGroups();
-    auto shardCount = replicaGroups.getType().getDimSize(1);
+    int64_t shardCount = 0;
+    Attribute replicaGroupsAttr = op.getReplicaGroups();
+    if (auto denseGroups = dyn_cast<DenseIntElementsAttr>(replicaGroupsAttr)) {
+      shardCount = denseGroups.getType().getDimSize(1);
+    } else {
+      auto meshAxesAttr = cast<ReplicaGroupMeshAxesAttr>(replicaGroupsAttr);
+      auto flattenedGroupsOr = flattenReplicaGroupMeshAxes(
+          meshAxesAttr.getMesh(), meshAxesAttr.getAxes(), op.getLoc());
+      if (failed(flattenedGroupsOr))
+        return rewriter.notifyMatchFailure(op,
+                                           "failed to flatten replica groups");
+      if (flattenedGroupsOr->empty())
+        return rewriter.notifyMatchFailure(op,
+                                           "empty flattened replica groups");
+      shardCount = (*flattenedGroupsOr)[0].size();
+    }
 
     SmallVector<int64_t> refinement(operandType.getShape());
     if (!operandType.isDynamicDim(op.getScatterDimension()))
diff --ruN a/stablehlo/stablehlo/transforms/VhloLegalizeToStablehlo.cpp b/stablehlo/stablehlo/transforms/VhloLegalizeToStablehlo.cpp
--- stablehlo/stablehlo/transforms/VhloLegalizeToStablehlo.cpp
+++ stablehlo/stablehlo/transforms/VhloLegalizeToStablehlo.cpp
@@ -190,12 +190,41 @@
     RETURN_CONVERTED_ENUM_ATTR(ResultAccuracyMode, V1);
   }
   if (auto attr = dyn_cast<vhlo::ResultAccuracyV1Attr>(vhloAttr)) {
-    auto modeAttr = dyn_cast_or_null<stablehlo::ResultAccuracyModeAttr>(
+    auto modeAttr = cast<stablehlo::ResultAccuracyModeAttr>(
         convertGeneric(attr.getMode(), typeConverter));
-    if (!modeAttr) return {};
     return stablehlo::ResultAccuracyAttr::get(attr.getContext(), attr.getAtol(),
                                               attr.getRtol(), attr.getUlps(),
                                               modeAttr);
+  }
+  if (auto attr = dyn_cast<vhlo::SubAxisInfoV1Attr>(vhloAttr)) {
+    return stablehlo::SubAxisInfoAttr::get(attr.getContext(), attr.getPreSize(),
+                                           attr.getSize());
+  }
+  if (auto attr = dyn_cast<vhlo::AxisRefV1Attr>(vhloAttr)) {
+    auto stablehloName =
+        cast<StringAttr>(convertGeneric(attr.getName(), typeConverter))
+            .getValue();
+    auto stablehloSubAxisInfo =
+        attr.getSubAxisInfo() ? cast<stablehlo::SubAxisInfoAttr>(convertGeneric(
+                                    attr.getSubAxisInfo(), typeConverter))
+                              : stablehlo::SubAxisInfoAttr();
+    return stablehlo::AxisRefAttr::get(attr.getContext(), stablehloName,
+                                       stablehloSubAxisInfo);
+  }
+  if (auto attr = dyn_cast<vhlo::ReplicaGroupMeshAxesV1Attr>(vhloAttr)) {
+    Attribute stablehloMesh;
+    if (auto vhloString = dyn_cast<vhlo::StringV1Attr>(attr.getMesh())) {
+      stablehloMesh = FlatSymbolRefAttr::get(
+          StringAttr::get(attr.getContext(), vhloString.getValue()));
+    } else {
+      stablehloMesh = convertGeneric(attr.getMesh(), typeConverter);
+    }
+
+    auto convertedAxes = convertGeneric(attr.getAxes(), typeConverter);
+    auto arrayAttrAxes = llvm::cast<ArrayAttr>(convertedAxes);
+
+    return stablehlo::ReplicaGroupMeshAxesAttr::get(
+        attr.getContext(), stablehloMesh, arrayAttrAxes);
   }
 
   // All VHLO Attributes must be converted by now.
diff --ruN a/stablehlo/stablehlo/transforms/VhloToVersion.cpp b/stablehlo/stablehlo/transforms/VhloToVersion.cpp
--- stablehlo/stablehlo/transforms/VhloToVersion.cpp
+++ stablehlo/stablehlo/transforms/VhloToVersion.cpp
@@ -153,6 +153,18 @@
     return isLegalType(typeAttr.getValue(), targetVersion);
   if (auto resultAccuracyAttr = dyn_cast<ResultAccuracyV1Attr>(attr))
     return isLegalAttribute(resultAccuracyAttr.getMode(), targetVersion);
+  if (auto axisRefAttr = dyn_cast<AxisRefV1Attr>(attr)) {
+    return success(
+        succeeded(isLegalAttribute(axisRefAttr.getName(), targetVersion)) &&
+        (!axisRefAttr.getSubAxisInfo() ||
+         succeeded(
+             isLegalAttribute(axisRefAttr.getSubAxisInfo(), targetVersion))));
+  }
+  if (auto meshAxesAttr = dyn_cast<ReplicaGroupMeshAxesV1Attr>(attr)) {
+    return success(
+        succeeded(isLegalAttribute(meshAxesAttr.getMesh(), targetVersion)) &&
+        succeeded(isLegalAttribute(meshAxesAttr.getAxes(), targetVersion)));
+  }
 
   // Is VHLO and valid version, success.
   return success();

