diff --ruN a/stablehlo/stablehlo/dialect/StablehloOps.td b/stablehlo/stablehlo/dialect/StablehloOps.td
--- stablehlo/stablehlo/dialect/StablehloOps.td
+++ stablehlo/stablehlo/dialect/StablehloOps.td
@@ -1245,11 +1245,6 @@
   );
 
   let results = (outs HLO_Token);
-  let builders = [
-    OpBuilder<(ins
-      "::mlir::Type":$result_type, "::mlir::Value":$operand,
-      "::mlir::DenseIntElementsAttr":$source_target_pairs,
-      "::mlir::stablehlo::ChannelHandleAttr":$channel_handle)>];
 }
 
 def StableHLO_RecvOp : StableHLO_Op<"recv", [
@@ -1279,11 +1274,6 @@
     DefaultValuedOptionalAttr<BoolAttr, "false">:$is_host_transfer, /*recv_i4*/
     OptionalAttr<I64ElementsAttr>:$source_target_pairs /*recv_i5*/
   );
-  let builders = [
-    OpBuilder<(ins
-      "::mlir::Type":$result_type, "::mlir::Value":$operand,
-      "::mlir::DenseIntElementsAttr":$source_target_pairs,
-      "::mlir::stablehlo::ChannelHandleAttr":$channel_handle)>];
 
   let results = (outs Variadic<HLO_StaticShapeTensorOrPerAxisQuantizedTensorOrToken>);
   let hasVerifier = 1;
diff --ruN a/stablehlo/stablehlo/dialect/Version.cpp b/stablehlo/stablehlo/dialect/Version.cpp
--- stablehlo/stablehlo/dialect/Version.cpp
+++ stablehlo/stablehlo/dialect/Version.cpp
@@ -83,7 +83,7 @@
     case CompatibilityRequirement::NONE:
       return Version::getCurrentVersion();
     case CompatibilityRequirement::WEEK_4:
-      return Version(1, 10, 10);  // WEEK_4 ANCHOR: DO NOT MODIFY
+      return Version(1, 11, 0);  // WEEK_4 ANCHOR: DO NOT MODIFY
     case CompatibilityRequirement::WEEK_12:
       return Version(1, 10, 3);  // WEEK_12 ANCHOR: DO NOT MODIFY
     case CompatibilityRequirement::MAX:
diff --ruN a/stablehlo/stablehlo/integrations/python/tests/stablehlo.py b/stablehlo/stablehlo/integrations/python/tests/stablehlo.py
--- stablehlo/stablehlo/integrations/python/tests/stablehlo.py
+++ stablehlo/stablehlo/integrations/python/tests/stablehlo.py
@@ -21,6 +21,9 @@
 import os
 import re
 import tempfile
+
+from jax.interpreters import mlir
+import jax.numpy as jnp
 from mlir import ir
 from mlir import passmanager as pm
 from mlir.dialects import stablehlo
@@ -432,23 +435,43 @@
   assert attr.ulps == 2
 
 
-@run
-def test_reference_api_with_probe():
-  """Tests that probe files are created in the specified directory."""
+def _run_probe_test(tensor_type, arg):
+  """Helper to run a probe test and verify output files."""
   test_tmpdir_base = os.environ.get("TEST_TMPDIR")
   with tempfile.TemporaryDirectory(dir=test_tmpdir_base) as tmpdir:
-    tensor_type = "f32"
-    arg = np.asarray(2, np.float32)
     m = ir.Module.parse(_ASM_FORMAT_WITH_PROBE.format(tensor_type))
-    args = [ir.DenseElementsAttr.get(arg)]
+
+    # bfloat16 requires special handling for DenseElementsAttr creation
+    if arg.dtype == jnp.bfloat16:
+      element_type = mlir.dtype_to_ir_type(arg.dtype)
+      shaped_type = ir.RankedTensorType.get(
+          arg.shape, element_type, loc=ir.Location.unknown(context=ir.Context())
+      )
+      args = [ir.DenseElementsAttr.get(arg, type=shaped_type)]
+    else:
+      args = [ir.DenseElementsAttr.get(arg)]
 
     # Call eval_module, directing probe outputs to the temporary directory.
     stablehlo.eval_module(m, args, probe_instrumentation_dir=tmpdir)
 
-    # Verify that the expected probe files were created.
+    # Verify that the expected probe files were created. The interpreter names
+    # probe files probe1.npy, probe2.npy, etc. The `probe_id` is used as
+    # metadata in `index.csv`.
     probe_file = os.path.join(tmpdir, "probe1.npy")
     metadata_file = os.path.join(tmpdir, "index.csv")
     assert os.path.exists(probe_file), f"Probe file not found: {probe_file}"
     assert os.path.exists(
         metadata_file
     ), f"Metadata file not found: {metadata_file}"
+
+
+@run
+def test_reference_api_with_probe():
+  """Tests that probe files are created in the specified directory."""
+  _run_probe_test("f32", np.asarray(2, np.float32))
+
+
+@run
+def test_reference_api_with_probe_bf16():
+  """Tests that probe files are created for bf16 tensors."""
+  _run_probe_test("bf16", np.asarray(2, jnp.bfloat16))
diff --ruN a/stablehlo/stablehlo/reference/InterpreterInstrumentWithProbe.cpp b/stablehlo/stablehlo/reference/InterpreterInstrumentWithProbe.cpp
--- stablehlo/stablehlo/reference/InterpreterInstrumentWithProbe.cpp
+++ stablehlo/stablehlo/reference/InterpreterInstrumentWithProbe.cpp
@@ -43,7 +43,7 @@
   InterpreterInstrumentWithProbePass(
       const InterpreterInstrumentWithProbePassOptions& opts)
       : InterpreterInstrumentWithProbePassBase<
-            InterpreterInstrumentWithProbePass>(opts){};
+            InterpreterInstrumentWithProbePass>(opts) {};
   void runOnOperation() override;
 
  private:
@@ -122,7 +122,16 @@
 }
 
 bool InterpreterInstrumentWithProbePass::shouldProbeValue(Value value) const {
-  return isa<TensorType>(value.getType());
+  // Check if the value's type is a RankedTensorType.
+  auto tensorType = dyn_cast<RankedTensorType>(value.getType());
+  if (!tensorType) return false;
+
+  // Check if the RankedTensorType has a static shape.
+  if (!tensorType.hasStaticShape()) return false;
+
+  Type elementType = tensorType.getElementType();
+
+  return elementType.isIntOrFloat() || isa<ComplexType>(elementType);
 }
 
 }  // namespace
diff --ruN a/stablehlo/stablehlo/reference/NumPy.cpp b/stablehlo/stablehlo/reference/NumPy.cpp
--- stablehlo/stablehlo/reference/NumPy.cpp
+++ stablehlo/stablehlo/reference/NumPy.cpp
@@ -319,6 +319,7 @@
   if (type.isF16()) return Functor<uint16_t>()(std::forward<Args>(args)...);
   if (type.isF32()) return Functor<float>()(std::forward<Args>(args)...);
   if (type.isF64()) return Functor<double>()(std::forward<Args>(args)...);
+  if (type.isBF16()) return Functor<uint16_t>()(std::forward<Args>(args)...);
   if (auto complexTy = dyn_cast<ComplexType>(type)) {
     auto complexElemTy = complexTy.getElementType();
 
diff --ruN a/stablehlo/stablehlo/tests/interpret/probe.mlir b/stablehlo/stablehlo/tests/interpret/probe.mlir
--- stablehlo/stablehlo/tests/interpret/probe.mlir
+++ stablehlo/stablehlo/tests/interpret/probe.mlir
@@ -43,6 +43,17 @@
   %2 = stablehlo.add %0, %1 : tensor<3xf64>
   %3 = interpreter.probe %2, probe_id = "probe_f64" : tensor<3xf64>
   check.expect_serialized_eq %3, probe_id = "probe_f64" : tensor<3xf64>
+  func.return
+}
+
+// -----
+
+func.func @probe_bf16() {
+  %0 = stablehlo.constant dense<[1.0, 2.5, -3.0]> : tensor<3xbf16>
+  %1 = stablehlo.constant dense<[0.5, 1.5, 0.0]> : tensor<3xbf16>
+  %2 = stablehlo.add %0, %1 : tensor<3xbf16>
+  %3 = interpreter.probe %2, probe_id = "probe_bf16" : tensor<3xbf16>
+  check.expect_serialized_eq %3, probe_id = "probe_bf16" : tensor<3xbf16>
   func.return
 }
 
diff --ruN a/stablehlo/stablehlo/tests/transforms/stablehlo_aggressive_folder.mlir b/stablehlo/stablehlo/tests/transforms/stablehlo_aggressive_folder.mlir
--- stablehlo/stablehlo/tests/transforms/stablehlo_aggressive_folder.mlir
+++ stablehlo/stablehlo/tests/transforms/stablehlo_aggressive_folder.mlir
@@ -246,6 +246,9 @@
 
 // -----
 
+////////
+// ConvertOp
+
 // CHECK-LABEL: func @eval_convert_f32_to_i64
 func.func @eval_convert_f32_to_i64() -> tensor<2xi64> {
   // CHECK-NOT: stablehlo.convert
@@ -254,6 +257,42 @@
   %0 = stablehlo.constant dense<[1.0, 2.0]> : tensor<2xf32>
   %1 = stablehlo.convert %0 : (tensor<2xf32>) -> tensor<2xi64>
   func.return %1 : tensor<2xi64>
+}
+
+// CHECK-LABEL: func @eval_convert_bool_f32
+func.func @eval_convert_bool_f32() -> tensor<2xf32> {
+  // CHECK-NEXT: [[CST:%.+]] = stablehlo.constant dense<[0.000000e+00, 1.000000e+00]> : tensor<2xf32>
+  %cst = stablehlo.constant dense<[0, 1]> : tensor<2xi1>
+  %0 = stablehlo.convert %cst : (tensor<2xi1>) -> tensor<2xf32>
+  // CHECK-NEXT: return [[CST]]
+  func.return %0 : tensor<2xf32>
+}
+
+// CHECK-LABEL: func @eval_convert_bool_i32
+func.func @eval_convert_bool_i32() -> tensor<2xi32> {
+  // CHECK-NEXT: [[CST:%.+]] = stablehlo.constant dense<[0, 1]> : tensor<2xi32>
+  %cst = stablehlo.constant dense<[0, 1]> : tensor<2xi1>
+  %0 = stablehlo.convert %cst : (tensor<2xi1>) -> tensor<2xi32>
+  // CHECK-NEXT: return [[CST]]
+  func.return %0 : tensor<2xi32>
+}
+
+// CHECK-LABEL: func @eval_convert_i32_bool
+func.func @eval_convert_i32_bool() -> tensor<3xi1> {
+  // CHECK-NEXT: [[CST:%.+]] = stablehlo.constant dense<[false, true, true]> : tensor<3xi1>
+  %cst = stablehlo.constant dense<[0, 1, 10]> : tensor<3xi32>
+  %0 = stablehlo.convert %cst : (tensor<3xi32>) -> tensor<3xi1>
+  // CHECK-NEXT: return [[CST]]
+  func.return %0 : tensor<3xi1>
+}
+
+// CHECK-LABEL: func @eval_convert_f32_bool
+func.func @eval_convert_f32_bool() -> tensor<4xi1> {
+  // CHECK-NEXT: [[CST:%.+]] = stablehlo.constant dense<[true, false, true, true]> : tensor<4xi1>
+  %cst = stablehlo.constant dense<[-1.0, 0.0, 1.0, 10.0]> : tensor<4xf32>
+  %0 = stablehlo.convert %cst : (tensor<4xf32>) -> tensor<4xi1>
+  // CHECK-NEXT: return [[CST]]
+  func.return %0 : tensor<4xi1>
 }
 
 // -----
diff --ruN a/stablehlo/stablehlo/tests/transforms/stablehlo_probe_instrumentation.mlir b/stablehlo/stablehlo/tests/transforms/stablehlo_probe_instrumentation.mlir
--- stablehlo/stablehlo/tests/transforms/stablehlo_probe_instrumentation.mlir
+++ stablehlo/stablehlo/tests/transforms/stablehlo_probe_instrumentation.mlir
@@ -1,4 +1,4 @@
-// RUN: stablehlo-opt --interpreter-instrument-with-probe="useDebugInfo=true" --split-input-file --verify-diagnostics %s | FileCheck %s
+// RUN: stablehlo-opt --allow-unregistered-dialect --interpreter-instrument-with-probe="useDebugInfo=true" --split-input-file --verify-diagnostics %s | FileCheck %s
 
 // CHECK-LABEL: func @instrument_basic_no_location
 func.func @instrument_basic_no_location(%arg0: tensor<1x2xi32>, %arg1: tensor<1x2xi32>) -> tensor<1x2xi32> {
@@ -98,3 +98,14 @@
 
   func.return %results1 : tensor<i64>
 }
+
+// -----
+
+// CHECK-LABEL: func @test_string_type
+func.func @test_string_type() -> tensor<!tf_type.string> {
+  // CHECK: "tf.Const"
+  // CHECK-NOT: interpreter.probe
+  // CHECK-NEXT: return
+  %0 = "tf.Const"() {value = dense<"hello"> : tensor<!tf_type.string>} : () -> tensor<!tf_type.string>
+  return %0 : tensor<!tf_type.string>
+}
diff --ruN a/stablehlo/stablehlo/tests/transforms/stablehlo_refine_shapes.mlir b/stablehlo/stablehlo/tests/transforms/stablehlo_refine_shapes.mlir
--- stablehlo/stablehlo/tests/transforms/stablehlo_refine_shapes.mlir
+++ stablehlo/stablehlo/tests/transforms/stablehlo_refine_shapes.mlir
@@ -19,7 +19,8 @@
 
 // -----
 
-// expected-error@-3{{must have no more than one function or a `main` function to clearly identify which function will be refined}}
+// expected-error@+1{{must have no more than one function or a `main` function to clearly identify which function will be refined}}
+module {
 func.func @error_too_many_functions(%arg0: tensor<f32>) -> tensor<f32> {
   %0 = func.call @helper(%arg0) : (tensor<f32>) -> tensor<f32>
   func.return %0 : tensor<f32>
@@ -27,6 +28,7 @@
 
 func.func private @helper(%arg0: tensor<f32>) -> tensor<f32> {
   return %arg0 : tensor<f32>
+}
 }
 
 // -----
diff --ruN a/stablehlo/stablehlo/tests/vhlo/vhlo_to_version_downgrade_invalid.0_16_0.mlir b/stablehlo/stablehlo/tests/vhlo/vhlo_to_version_downgrade_invalid.0_16_0.mlir
--- stablehlo/stablehlo/tests/vhlo/vhlo_to_version_downgrade_invalid.0_16_0.mlir
+++ stablehlo/stablehlo/tests/vhlo/vhlo_to_version_downgrade_invalid.0_16_0.mlir
@@ -1,6 +1,7 @@
 // RUN: stablehlo-opt --stablehlo-legalize-to-vhlo --vhlo-to-version='target=0.16.0' --verify-diagnostics --split-input-file %s
 
-// expected-error @-3 {{failed to convert VHLO to v0.16.0}}
+// expected-error @+1 {{failed to convert VHLO to v0.16.0}}
+module {
 func.func @reduce_with_promotable_types(%arg0: tensor<4x4xf32>, %arg1 : tensor<f32>)
     -> (tensor<4xf64>) {
 
@@ -15,10 +16,12 @@
 
   func.return %0: tensor<4xf64>
 }
+}
 
 // -----
 
-// expected-error @-3 {{failed to convert VHLO to v0.16.0}}
+// expected-error @+1 {{failed to convert VHLO to v0.16.0}}
+module {
 func.func @all_reduce_with_promotable_types(%operand: tensor<f32>) -> tensor<f64> {
 
   // expected-error @+1 {{failed to legalize operation 'vhlo.all_reduce_v2' that was explicitly marked illegal}}
@@ -33,10 +36,12 @@
 
   func.return %result : tensor<f64>
 }
+}
 
 // -----
 
-// expected-error @-3 {{failed to convert VHLO to v0.16.0}}
+// expected-error @+1 {{failed to convert VHLO to v0.16.0}}
+module {
 func.func @reduce_scatter_with_promotable_types(%data: tensor<4x16xf32>) -> tensor<4x4xf64> {
 
   // expected-error @+1 {{failed to legalize operation 'vhlo.reduce_scatter_v1' that was explicitly marked illegal}}
@@ -50,10 +55,12 @@
       use_global_device_ids} : (tensor<4x16xf32>) -> tensor<4x4xf64>
   func.return %0 : tensor<4x4xf64>
 }
+}
 
 // -----
 
-// expected-error @-3 {{failed to convert VHLO to v0.16.0}}
+// expected-error @+1 {{failed to convert VHLO to v0.16.0}}
+module {
 func.func @reduce_window_with_promotable_types(%arg0: tensor<4x2xf32>,
     %arg1: tensor<4x2xf32>, %init0: tensor<f32>, %init1: tensor<f32>) ->
     (tensor<2x2xf64>, tensor<2x2xf32>) {
@@ -73,10 +80,12 @@
               (tensor<2x2xf64>, tensor<2x2xf32>)
   func.return %0#0, %0#1 : tensor<2x2xf64>, tensor<2x2xf32>
 }
+}
 
 // -----
 
-// expected-error @-3 {{failed to convert VHLO to v0.16.0}}
+// expected-error @+1 {{failed to convert VHLO to v0.16.0}}
+module {
 func.func @scatter_with_promotable_types(%input_tensor: tensor<200x100x300xf32>,
     %scatter_indices: tensor<10x2xi32>, %updates: tensor<10x300xf32>) ->
       tensor<200x100x300xf64> {
@@ -99,10 +108,12 @@
       tensor<200x100x300xf64>
   func.return %0 : tensor<200x100x300xf64>
 }
+}
 
 // -----
 
-// expected-error @-3 {{failed to convert VHLO to v0.16.0}}
+// expected-error @+1 {{failed to convert VHLO to v0.16.0}}
+module {
 func.func @select_and_scatter_with_promotable_types(
     %arg0: tensor<10x24x24x64xf32>,
     %arg1: tensor<10x12x12x64xf32>) -> () {
@@ -127,3 +138,4 @@
         tensor<10x24x24x64xf64>
   func.return
 }
+}
diff --ruN a/stablehlo/stablehlo/tests/vhlo/vhlo_to_version_downgrade_invalid.0_9_0.mlir b/stablehlo/stablehlo/tests/vhlo/vhlo_to_version_downgrade_invalid.0_9_0.mlir
--- stablehlo/stablehlo/tests/vhlo/vhlo_to_version_downgrade_invalid.0_9_0.mlir
+++ stablehlo/stablehlo/tests/vhlo/vhlo_to_version_downgrade_invalid.0_9_0.mlir
@@ -1,17 +1,21 @@
 // RUN: stablehlo-opt --stablehlo-legalize-to-vhlo --vhlo-to-version='target=0.9.0' --verify-diagnostics --split-input-file %s
 
-// expected-error @-3 {{failed to convert VHLO to v0.9.0}}
-// expected-error @+1 {{failed to legalize operation 'vhlo.func_v1' that was explicitly marked illegal}}
+// expected-error @+2 {{failed to convert VHLO to v0.9.0}}
+// expected-error @+2 {{failed to legalize operation 'vhlo.func_v1' that was explicitly marked illegal}}
+module {
 func.func @type_fp8_E5M2FNUZ(%arg0: tensor<f8E5M2FNUZ>) -> tensor<f8E5M2FNUZ> {
   %0 = stablehlo.add %arg0, %arg0 : tensor<f8E5M2FNUZ>
   func.return %0 : tensor<f8E5M2FNUZ>
 }
+}
 
 // -----
 
-// expected-error @-3 {{failed to convert VHLO to v0.9.0}}
-// expected-error @+1 {{failed to legalize operation 'vhlo.func_v1' that was explicitly marked illegal}}
+// expected-error @+2 {{failed to convert VHLO to v0.9.0}}
+// expected-error @+2 {{failed to legalize operation 'vhlo.func_v1' that was explicitly marked illegal}}
+module {
 func.func @type_fp8_E4M3FNUZ(%arg0: tensor<f8E4M3FNUZ>) -> tensor<f8E4M3FNUZ> {
   %0 = stablehlo.add %arg0, %arg0 : tensor<f8E4M3FNUZ>
   func.return %0 : tensor<f8E4M3FNUZ>
 }
+}
diff --ruN a/stablehlo/stablehlo/tests/vhlo/vhlo_to_version_downgrade_invalid.1_11_0.mlir b/stablehlo/stablehlo/tests/vhlo/vhlo_to_version_downgrade_invalid.1_11_0.mlir
--- stablehlo/stablehlo/tests/vhlo/vhlo_to_version_downgrade_invalid.1_11_0.mlir
+++ stablehlo/stablehlo/tests/vhlo/vhlo_to_version_downgrade_invalid.1_11_0.mlir
@@ -1,6 +1,7 @@
 // RUN: stablehlo-opt --stablehlo-legalize-to-vhlo --vhlo-to-version='target=1.11.0' --verify-diagnostics --split-input-file %s
 
-// expected-error @-3 {{failed to convert VHLO to v1.11.0}}
+// expected-error @+1 {{failed to convert VHLO to v1.11.0}}
+module {
 func.func public @send_op(%arg0: tensor<f32>, %arg1: !stablehlo.token) -> !stablehlo.token {
   // expected-error @+1 {{failed to legalize operation 'vhlo.send_v2' that was explicitly marked illegal}}
   %0 = "stablehlo.send"(%arg0, %arg1) {
@@ -10,10 +11,12 @@
   } : (tensor<f32>, !stablehlo.token) -> !stablehlo.token
   func.return %0 : !stablehlo.token
 }
+}
 
 // -----
 
-// expected-error @-3 {{failed to convert VHLO to v1.11.0}}
+// expected-error @+1 {{failed to convert VHLO to v1.11.0}}
+module {
 func.func public @recv_op(%arg0: !stablehlo.token) -> (tensor<f32>, !stablehlo.token) {
   // expected-error @+1 {{failed to legalize operation 'vhlo.recv_v2' that was explicitly marked illegal}}
   %0:2 = "stablehlo.recv"(%arg0) {
@@ -23,3 +26,4 @@
   } : (!stablehlo.token) -> (tensor<f32>, !stablehlo.token)
   func.return %0#0, %0#1 : tensor<f32>, !stablehlo.token
 }
+}
diff --ruN a/stablehlo/stablehlo/tests/vhlo/vhlo_to_version_downgrade_invalid.1_1_0.mlir b/stablehlo/stablehlo/tests/vhlo/vhlo_to_version_downgrade_invalid.1_1_0.mlir
--- stablehlo/stablehlo/tests/vhlo/vhlo_to_version_downgrade_invalid.1_1_0.mlir
+++ stablehlo/stablehlo/tests/vhlo/vhlo_to_version_downgrade_invalid.1_1_0.mlir
@@ -1,17 +1,21 @@
 // RUN: stablehlo-opt --stablehlo-legalize-to-vhlo --vhlo-to-version='target=1.1.0' --verify-diagnostics --split-input-file %s
 
-// expected-error @-3 {{failed to convert VHLO to v1.1.0}}
-// expected-error @+1 {{failed to legalize operation 'vhlo.func_v1' that was explicitly marked illegal}}
+// expected-error @+2 {{failed to convert VHLO to v1.1.0}}
+// expected-error @+2 {{failed to legalize operation 'vhlo.func_v1' that was explicitly marked illegal}}
+module {
 func.func @type_i2(%arg0: tensor<i2>) -> tensor<i2> {
   %0 = stablehlo.add %arg0, %arg0 : tensor<i2>
   func.return %0 : tensor<i2>
 }
+}
 
 // -----
 
-// expected-error @-3 {{failed to convert VHLO to v1.1.0}}
-// expected-error @+1 {{failed to legalize operation 'vhlo.func_v1' that was explicitly marked illegal}}
+// expected-error @+2 {{failed to convert VHLO to v1.1.0}}
+// expected-error @+2 {{failed to legalize operation 'vhlo.func_v1' that was explicitly marked illegal}}
+module {
 func.func @type_ui2(%arg0: tensor<ui2>) -> tensor<ui2> {
   %0 = stablehlo.add %arg0, %arg0 : tensor<ui2>
   func.return %0 : tensor<ui2>
 }
+}
diff --ruN a/stablehlo/stablehlo/tests/vhlo/vhlo_to_version_downgrade_invalid.1_2_0.mlir b/stablehlo/stablehlo/tests/vhlo/vhlo_to_version_downgrade_invalid.1_2_0.mlir
--- stablehlo/stablehlo/tests/vhlo/vhlo_to_version_downgrade_invalid.1_2_0.mlir
+++ stablehlo/stablehlo/tests/vhlo/vhlo_to_version_downgrade_invalid.1_2_0.mlir
@@ -1,6 +1,7 @@
 // RUN: stablehlo-opt --stablehlo-legalize-to-vhlo --vhlo-to-version='target=1.2.0' --verify-diagnostics --split-input-file %s
 
-// expected-error @-3 {{failed to convert VHLO to v1.2.0}}
+// expected-error @+1 {{failed to convert VHLO to v1.2.0}}
+module {
 func.func @custom_call_dictionary_attr(%arg0: tensor<f32>) -> tensor<f32> {
 // expected-error @+1 {{failed to legalize operation 'vhlo.custom_call_v1' that was explicitly marked illegal}}
 %0 = "stablehlo.custom_call"(%arg0) {
@@ -10,10 +11,12 @@
   } : (tensor<f32>) -> tensor<f32>
   func.return %0 : tensor<f32>
 }
+}
 
 // -----
 
-// expected-error @-3 {{failed to convert VHLO to v1.2.0}}
+// expected-error @+1 {{failed to convert VHLO to v1.2.0}}
+module {
 func.func @custom_call_dictionary_attr(%arg0: tensor<f32>) -> tensor<f32> {
 // expected-error @+1 {{failed to legalize operation 'vhlo.custom_call_v1' that was explicitly marked illegal}}
 %0 = "stablehlo.custom_call"(%arg0) {
@@ -22,3 +25,4 @@
   } : (tensor<f32>) -> tensor<f32>
   func.return %0 : tensor<f32>
 }
+}
diff --ruN a/stablehlo/stablehlo/tests/vhlo/vhlo_to_version_downgrade_invalid.1_4_0.mlir b/stablehlo/stablehlo/tests/vhlo/vhlo_to_version_downgrade_invalid.1_4_0.mlir
--- stablehlo/stablehlo/tests/vhlo/vhlo_to_version_downgrade_invalid.1_4_0.mlir
+++ stablehlo/stablehlo/tests/vhlo/vhlo_to_version_downgrade_invalid.1_4_0.mlir
@@ -1,6 +1,7 @@
 // RUN: stablehlo-opt --stablehlo-legalize-to-vhlo --vhlo-to-version='target=1.4.0' --verify-diagnostics --split-input-file %s
 
-// expected-error @-3 {{failed to convert VHLO to v1.4.0}}
+// expected-error @+1 {{failed to convert VHLO to v1.4.0}}
+module {
 func.func @all_reduce_variadic(%arg0: tensor<f32>, %arg1: tensor<f32>) -> (tensor<f32>, tensor<f32>) {
   // expected-error @+1 {{failed to legalize operation 'vhlo.all_reduce_v2' that was explicitly marked illegal}}
   %0:2 = "stablehlo.all_reduce"(%arg0, %arg1) ({
@@ -12,10 +13,12 @@
   } : (tensor<f32>, tensor<f32>) -> (tensor<f32>, tensor<f32>)
   func.return %0#0, %0#1 : tensor<f32>, tensor<f32>
 }
+}
 
 // -----
 
-// expected-error @-3 {{failed to convert VHLO to v1.4.0}}
+// expected-error @+1 {{failed to convert VHLO to v1.4.0}}
+module {
 func.func @all_gather_variadic(%arg0: tensor<16x8xf32>, %arg1: tensor<16x8xf32>) -> (tensor<16x16xf32>, tensor<16x16xf32>) {
   // expected-error @+1 {{failed to legalize operation 'vhlo.all_gather_v2' that was explicitly marked illegal}}
   %0:2 = "stablehlo.all_gather"(%arg0, %arg1) {
@@ -24,10 +27,12 @@
   } : (tensor<16x8xf32>, tensor<16x8xf32>) -> (tensor<16x16xf32>, tensor<16x16xf32>)
   func.return %0#0, %0#1 : tensor<16x16xf32>, tensor<16x16xf32>
 }
+}
 
 // -----
 
-// expected-error @-3 {{failed to convert VHLO to v1.4.0}}
+// expected-error @+1 {{failed to convert VHLO to v1.4.0}}
+module {
 func.func @all_to_all_variadic(%arg0: tensor<4x16xf32>, %arg1: tensor<5x16xf32>) -> (tensor<16x4xf32>, tensor<20x4xf32>) {
   // expected-error @+1 {{failed to legalize operation 'vhlo.all_to_all_v2' that was explicitly marked illegal}}
   %0:2 = "stablehlo.all_to_all"(%arg0, %arg1) {
@@ -39,3 +44,4 @@
   } : (tensor<4x16xf32>, tensor<5x16xf32>) -> (tensor<16x4xf32>, tensor<20x4xf32>)
   func.return %0#0, %0#1 : tensor<16x4xf32>, tensor<20x4xf32>
 }
+}
diff --ruN a/stablehlo/stablehlo/tests/vhlo/vhlo_to_version_downgrade_invalid.1_5_0.mlir b/stablehlo/stablehlo/tests/vhlo/vhlo_to_version_downgrade_invalid.1_5_0.mlir
--- stablehlo/stablehlo/tests/vhlo/vhlo_to_version_downgrade_invalid.1_5_0.mlir
+++ stablehlo/stablehlo/tests/vhlo/vhlo_to_version_downgrade_invalid.1_5_0.mlir
@@ -1,6 +1,7 @@
 // RUN: stablehlo-opt --stablehlo-legalize-to-vhlo --vhlo-to-version='target=1.5.0' --verify-diagnostics --split-input-file %s
 
-// expected-error @-3 {{failed to convert VHLO to v1.5.0}}
+// expected-error @+1 {{failed to convert VHLO to v1.5.0}}
+module {
 func.func @dot_general_algorithm(%arg0: tensor<2x2x2xi64>, %arg1: tensor<2x2x2xi64>) -> tensor<2x2x2xi64> {
   // expected-error @+1 {{failed to legalize operation 'vhlo.dot_general_v2' that was explicitly marked illegal}}
   %0 = "stablehlo.dot_general"(%arg0, %arg1) <{
@@ -9,19 +10,24 @@
     algorithm = #stablehlo.dot_algorithm<lhs_precision_type = tf32, rhs_precision_type = tf32, accumulation_type = f32, lhs_component_count = 1, rhs_component_count = 1, num_primitive_operations = 1, allow_imprecise_accumulation = false>
   }> : (tensor<2x2x2xi64>, tensor<2x2x2xi64>) -> tensor<2x2x2xi64>  return %0 : tensor<2x2x2xi64>
 }
-
-// -----
-
-// expected-error @-3 {{failed to convert VHLO to v1.5.0}}
-// expected-error @+1 {{failed to legalize operation 'vhlo.func_v1' that was explicitly marked illegal}}
-func.func @none_type() attributes {stablehlo.attr = none } {
-  return
 }
 
 // -----
 
-// expected-error @-3 {{failed to convert VHLO to v1.5.0}}
-// expected-error @+1 {{failed to legalize operation 'vhlo.func_v1' that was explicitly marked illegal}}
+// expected-error @+2 {{failed to convert VHLO to v1.5.0}}
+// expected-error @+2 {{failed to legalize operation 'vhlo.func_v1' that was explicitly marked illegal}}
+module {
+func.func @none_type() attributes {stablehlo.attr = none } {
+  return
+}
+}
+
+// -----
+
+// expected-error @+2 {{failed to convert VHLO to v1.5.0}}
+// expected-error @+2 {{failed to legalize operation 'vhlo.func_v1' that was explicitly marked illegal}}
+module {
 func.func @tf32_type() attributes {stablehlo.attr = tf32 } {
   return
 }
+}
diff --ruN a/stablehlo/stablehlo/tests/vhlo/vhlo_to_version_downgrade_invalid.1_6_0.mlir b/stablehlo/stablehlo/tests/vhlo/vhlo_to_version_downgrade_invalid.1_6_0.mlir
--- stablehlo/stablehlo/tests/vhlo/vhlo_to_version_downgrade_invalid.1_6_0.mlir
+++ stablehlo/stablehlo/tests/vhlo/vhlo_to_version_downgrade_invalid.1_6_0.mlir
@@ -1,17 +1,21 @@
 // RUN: stablehlo-opt --stablehlo-legalize-to-vhlo --vhlo-to-version='target=1.6.0' --verify-diagnostics --split-input-file %s
 
-// expected-error @-3 {{failed to convert VHLO to v1.6.0}}
-// expected-error @+1 {{failed to legalize operation 'vhlo.func_v1' that was explicitly marked illegal}}
+// expected-error @+2 {{failed to convert VHLO to v1.6.0}}
+// expected-error @+2 {{failed to legalize operation 'vhlo.func_v1' that was explicitly marked illegal}}
+module {
 func.func @type_f8E4M3(%arg0: tensor<f8E4M3>) -> tensor<f8E4M3> {
   %0 = stablehlo.add %arg0, %arg0 : tensor<f8E4M3>
   func.return %0 : tensor<f8E4M3>
 }
+}
 
 // -----
 
-// expected-error @-3 {{failed to convert VHLO to v1.6.0}}
-// expected-error @+1 {{failed to legalize operation 'vhlo.func_v1' that was explicitly marked illegal}}
+// expected-error @+2 {{failed to convert VHLO to v1.6.0}}
+// expected-error @+2 {{failed to legalize operation 'vhlo.func_v1' that was explicitly marked illegal}}
+module {
 func.func @type_f8E3M4(%arg0: tensor<f8E3M4>) -> tensor<f8E3M4> {
   %0 = stablehlo.add %arg0, %arg0 : tensor<f8E3M4>
   func.return %0 : tensor<f8E3M4>
 }
+}
diff --ruN a/stablehlo/stablehlo/tests/vhlo/vhlo_to_version_downgrade_invalid.1_7_0.mlir b/stablehlo/stablehlo/tests/vhlo/vhlo_to_version_downgrade_invalid.1_7_0.mlir
--- stablehlo/stablehlo/tests/vhlo/vhlo_to_version_downgrade_invalid.1_7_0.mlir
+++ stablehlo/stablehlo/tests/vhlo/vhlo_to_version_downgrade_invalid.1_7_0.mlir
@@ -1,35 +1,43 @@
 // RUN: stablehlo-opt --stablehlo-legalize-to-vhlo --vhlo-to-version='target=1.7.0' --verify-diagnostics --split-input-file %s
 
-// expected-error @-3 {{failed to convert VHLO to v1.7.0}}
-// expected-error @+1 {{failed to legalize operation 'vhlo.func_v1' that was explicitly marked illegal}}
+// expected-error @+2 {{failed to convert VHLO to v1.7.0}}
+// expected-error @+2 {{failed to legalize operation 'vhlo.func_v1' that was explicitly marked illegal}}
+module {
 func.func @type_f4E2M1FN(%arg0: tensor<f4E2M1FN>, %arg1: tensor<f4E2M1FN>) -> tensor<f4E2M1FN> {
   %0 = "stablehlo.add"(%arg0, %arg1) : (tensor<f4E2M1FN>, tensor<f4E2M1FN>) -> tensor<f4E2M1FN>
   func.return %0 : tensor<f4E2M1FN>
 }
+}
 
 // -----
 
-// expected-error @-3 {{failed to convert VHLO to v1.7.0}}
-// expected-error @+1 {{failed to legalize operation 'vhlo.func_v1' that was explicitly marked illegal}}
+// expected-error @+2 {{failed to convert VHLO to v1.7.0}}
+// expected-error @+2 {{failed to legalize operation 'vhlo.func_v1' that was explicitly marked illegal}}
+module {
 func.func @type_f6E2M3FN(%arg0: tensor<f6E2M3FN>, %arg1: tensor<f6E2M3FN>) -> tensor<f6E2M3FN> {
   %0 = "stablehlo.add"(%arg0, %arg1) : (tensor<f6E2M3FN>, tensor<f6E2M3FN>) -> tensor<f6E2M3FN>
   func.return %0 : tensor<f6E2M3FN>
 }
+}
 
 // -----
 
-// expected-error @-3 {{failed to convert VHLO to v1.7.0}}
-// expected-error @+1 {{failed to legalize operation 'vhlo.func_v1' that was explicitly marked illegal}}
+// expected-error @+2 {{failed to convert VHLO to v1.7.0}}
+// expected-error @+2 {{failed to legalize operation 'vhlo.func_v1' that was explicitly marked illegal}}
+module {
 func.func @type_f6E3M2FN(%arg0: tensor<f6E3M2FN>, %arg1: tensor<f6E3M2FN>) -> tensor<f6E3M2FN> {
   %0 = "stablehlo.add"(%arg0, %arg1) : (tensor<f6E3M2FN>, tensor<f6E3M2FN>) -> tensor<f6E3M2FN>
   func.return %0 : tensor<f6E3M2FN>
 }
+}
 
 // -----
 
-// expected-error @-3 {{failed to convert VHLO to v1.7.0}}
-// expected-error @+1 {{failed to legalize operation 'vhlo.func_v1' that was explicitly marked illegal}}
+// expected-error @+2 {{failed to convert VHLO to v1.7.0}}
+// expected-error @+2 {{failed to legalize operation 'vhlo.func_v1' that was explicitly marked illegal}}
+module {
 func.func @type_f8E8M0FNU(%arg0: tensor<f8E8M0FNU>, %arg1: tensor<f8E8M0FNU>) -> tensor<f8E8M0FNU> {
   %0 = "stablehlo.add"(%arg0, %arg1) : (tensor<f8E8M0FNU>, tensor<f8E8M0FNU>) -> tensor<f8E8M0FNU>
   func.return %0 : tensor<f8E8M0FNU>
 }
+}
diff --ruN a/stablehlo/stablehlo/tests/vhlo/vhlo_to_version_downgrade_invalid.1_8_0.mlir b/stablehlo/stablehlo/tests/vhlo/vhlo_to_version_downgrade_invalid.1_8_0.mlir
--- stablehlo/stablehlo/tests/vhlo/vhlo_to_version_downgrade_invalid.1_8_0.mlir
+++ stablehlo/stablehlo/tests/vhlo/vhlo_to_version_downgrade_invalid.1_8_0.mlir
@@ -11,7 +11,8 @@
 
 // -----
 
-// expected-error @-3 {{failed to convert VHLO to v1.8.0}}
+// expected-error @+1 {{failed to convert VHLO to v1.8.0}}
+module {
 func.func @attr_result_accuracy_highest(%arg0: tensor<f32>) -> tensor<f32> {
   // expected-error @+1 {{failed to legalize operation 'vhlo.exponential_v2' that was explicitly marked illegal}}
   %0 = "stablehlo.exponential"(%arg0) {
@@ -19,4 +20,5 @@
   } : (tensor<f32>) -> tensor<f32>
   func.return %0 : tensor<f32>
 }
+}
 
diff --ruN a/stablehlo/stablehlo/tests/vhlo/vhlo_to_version_downgrade_invalid.1_9_0.mlir b/stablehlo/stablehlo/tests/vhlo/vhlo_to_version_downgrade_invalid.1_9_0.mlir
--- stablehlo/stablehlo/tests/vhlo/vhlo_to_version_downgrade_invalid.1_9_0.mlir
+++ stablehlo/stablehlo/tests/vhlo/vhlo_to_version_downgrade_invalid.1_9_0.mlir
@@ -11,7 +11,8 @@
 
 // -----
 
-// expected-error @-3 {{failed to convert VHLO to v1.9.0}}
+// expected-error @+1 {{failed to convert VHLO to v1.9.0}}
+module {
 func.func @cbrt_invalid(%arg0: tensor<f32>) -> tensor<f32> {
   // expected-error @+1 {{failed to legalize operation 'vhlo.cbrt_v2' that was explicitly marked illegal}}
   %0 = "stablehlo.cbrt"(%arg0) {
@@ -19,6 +20,7 @@
   } : (tensor<f32>) -> tensor<f32>
   func.return %0 : tensor<f32>
 }
+}
 
 // -----
 
@@ -32,7 +34,8 @@
 
 // -----
 
-// expected-error @-3 {{failed to convert VHLO to v1.9.0}}
+// expected-error @+1 {{failed to convert VHLO to v1.9.0}}
+module {
 func.func @cosine_invalid(%arg0: tensor<f32>) -> tensor<f32> {
   // expected-error @+1 {{failed to legalize operation 'vhlo.cosine_v2' that was explicitly marked illegal}}
   %0 = "stablehlo.cosine"(%arg0) {
@@ -40,6 +43,7 @@
   } : (tensor<f32>) -> tensor<f32>
   func.return %0 : tensor<f32>
 }
+}
 
 // -----
 
@@ -53,7 +57,8 @@
 
 // -----
 
-// expected-error @-3 {{failed to convert VHLO to v1.9.0}}
+// expected-error @+1 {{failed to convert VHLO to v1.9.0}}
+module {
 func.func @exponential_minus_one_invalid(%arg0: tensor<f32>) -> tensor<f32> {
   // expected-error @+1 {{failed to legalize operation 'vhlo.exponential_minus_one_v2' that was explicitly marked illegal}}
   %0 = "stablehlo.exponential_minus_one"(%arg0) {
@@ -61,6 +66,7 @@
   } : (tensor<f32>) -> tensor<f32>
   func.return %0 : tensor<f32>
 }
+}
 
 // -----
 
@@ -74,7 +80,8 @@
 
 // -----
 
-// expected-error @-3 {{failed to convert VHLO to v1.9.0}}
+// expected-error @+1 {{failed to convert VHLO to v1.9.0}}
+module {
 func.func @log_invalid(%arg0: tensor<f32>) -> tensor<f32> {
   // expected-error @+1 {{failed to legalize operation 'vhlo.log_v2' that was explicitly marked illegal}}
   %0 = "stablehlo.log"(%arg0) {
@@ -82,6 +89,7 @@
   } : (tensor<f32>) -> tensor<f32>
   func.return %0 : tensor<f32>
 }
+}
 
 // -----
 
@@ -95,7 +103,8 @@
 
 // -----
 
-// expected-error @-3 {{failed to convert VHLO to v1.9.0}}
+// expected-error @+1 {{failed to convert VHLO to v1.9.0}}
+module {
 func.func @log_plus_one_invalid(%arg0: tensor<f32>) -> tensor<f32> {
   // expected-error @+1 {{failed to legalize operation 'vhlo.log_plus_one_v2' that was explicitly marked illegal}}
   %0 = "stablehlo.log_plus_one"(%arg0) {
@@ -103,6 +112,7 @@
   } : (tensor<f32>) -> tensor<f32>
   func.return %0 : tensor<f32>
 }
+}
 
 // -----
 
@@ -116,7 +126,8 @@
 
 // -----
 
-// expected-error @-3 {{failed to convert VHLO to v1.9.0}}
+// expected-error @+1 {{failed to convert VHLO to v1.9.0}}
+module {
 func.func @logistic_invalid(%arg0: tensor<f32>) -> tensor<f32> {
   // expected-error @+1 {{failed to legalize operation 'vhlo.logistic_v2' that was explicitly marked illegal}}
   %0 = "stablehlo.logistic"(%arg0) {
@@ -124,6 +135,7 @@
   } : (tensor<f32>) -> tensor<f32>
   func.return %0 : tensor<f32>
 }
+}
 
 // -----
 
@@ -137,7 +149,8 @@
 
 // -----
 
-// expected-error @-3 {{failed to convert VHLO to v1.9.0}}
+// expected-error @+1 {{failed to convert VHLO to v1.9.0}}
+module {
 func.func @rsqrt_invalid(%arg0: tensor<f32>) -> tensor<f32> {
   // expected-error @+1 {{failed to legalize operation 'vhlo.rsqrt_v2' that was explicitly marked illegal}}
   %0 = "stablehlo.rsqrt"(%arg0) {
@@ -145,6 +158,7 @@
   } : (tensor<f32>) -> tensor<f32>
   func.return %0 : tensor<f32>
 }
+}
 
 // -----
 
@@ -158,7 +172,8 @@
 
 // -----
 
-// expected-error @-3 {{failed to convert VHLO to v1.9.0}}
+// expected-error @+1 {{failed to convert VHLO to v1.9.0}}
+module {
 func.func @sine_invalid(%arg0: tensor<f32>) -> tensor<f32> {
   // expected-error @+1 {{failed to legalize operation 'vhlo.sine_v2' that was explicitly marked illegal}}
   %0 = "stablehlo.sine"(%arg0) {
@@ -166,6 +181,7 @@
   } : (tensor<f32>) -> tensor<f32>
   func.return %0 : tensor<f32>
 }
+}
 
 // -----
 
@@ -179,7 +195,8 @@
 
 // -----
 
-// expected-error @-3 {{failed to convert VHLO to v1.9.0}}
+// expected-error @+1 {{failed to convert VHLO to v1.9.0}}
+module {
 func.func @sqrt_invalid(%arg0: tensor<f32>) -> tensor<f32> {
   // expected-error @+1 {{failed to legalize operation 'vhlo.sqrt_v2' that was explicitly marked illegal}}
   %0 = "stablehlo.sqrt"(%arg0) {
@@ -187,6 +204,7 @@
   } : (tensor<f32>) -> tensor<f32>
   func.return %0 : tensor<f32>
 }
+}
 
 // -----
 
@@ -200,7 +218,8 @@
 
 // -----
 
-// expected-error @-3 {{failed to convert VHLO to v1.9.0}}
+// expected-error @+1 {{failed to convert VHLO to v1.9.0}}
+module {
 func.func @tan_invalid(%arg0: tensor<f32>) -> tensor<f32> {
   // expected-error @+1 {{failed to legalize operation 'vhlo.tan_v2' that was explicitly marked illegal}}
   %0 = "stablehlo.tan"(%arg0) {
@@ -208,6 +227,7 @@
   } : (tensor<f32>) -> tensor<f32>
   func.return %0 : tensor<f32>
 }
+}
 
 // -----
 
@@ -221,7 +241,8 @@
 
 // -----
 
-// expected-error @-3 {{failed to convert VHLO to v1.9.0}}
+// expected-error @+1 {{failed to convert VHLO to v1.9.0}}
+module {
 func.func @tanh_invalid(%arg0: tensor<f32>) -> tensor<f32> {
   // expected-error @+1 {{failed to legalize operation 'vhlo.tanh_v2' that was explicitly marked illegal}}
   %0 = "stablehlo.tanh"(%arg0) {
@@ -229,4 +250,5 @@
   } : (tensor<f32>) -> tensor<f32>
   func.return %0 : tensor<f32>
 }
-
+}
+
diff --ruN a/stablehlo/stablehlo/transforms/optimization/StablehloAggressiveFolder.cpp b/stablehlo/stablehlo/transforms/optimization/StablehloAggressiveFolder.cpp
--- stablehlo/stablehlo/transforms/optimization/StablehloAggressiveFolder.cpp
+++ stablehlo/stablehlo/transforms/optimization/StablehloAggressiveFolder.cpp
@@ -200,8 +200,11 @@
   auto newType = getElementTypeOrSelf(resultType);
   size_t newBitWidth = newType.getIntOrFloatBitWidth();
 
-  bool isOldTypeUnsigned = oldType.isInteger(1) || oldType.isUnsignedInteger();
-  bool isNewTypeUnsigned = newType.isInteger(1) || newType.isUnsignedInteger();
+  bool isOldTypeUnsigned =
+      oldType.isSignlessInteger(1) || oldType.isUnsignedInteger();
+  bool isNewTypeUnsigned =
+      newType.isSignlessInteger(1) || newType.isUnsignedInteger();
+  bool isNewTypeBoolean = newType.isSignlessInteger(1);
 
   if (isa<FloatType>(oldType)) {
     if (auto newFloatType = dyn_cast<FloatType>(newType)) {
@@ -217,6 +220,16 @@
                                           llvm::RoundingMode::NearestTiesToEven,
                                           &losesInfo);
             return newValue;
+          });
+    }
+
+    // Float -> Boolean
+    if (isNewTypeBoolean) {
+      return foldConvertHelper<FloatAttr, IntegerAttr>(
+          rewriter, op, elements, resultType,
+          [newBitWidth](const APFloat& operand, bool& /*castStatus*/) {
+            APInt resVal(1, operand.isZero() ? 0 : 1);
+            return resVal.sextOrTrunc(newBitWidth);
           });
     }
 
@@ -249,6 +262,16 @@
           apf.convertFromAPInt(operand, !isOldTypeUnsigned,
                                APFloat::rmNearestTiesToEven);
           return apf;
+        });
+  }
+
+  // Int -> Boolean
+  if (isNewTypeBoolean) {
+    return foldConvertHelper<IntegerAttr, IntegerAttr>(
+        rewriter, op, elements, resultType,
+        [newBitWidth](const APInt& operand, bool& /*castStatus*/) {
+          APInt resVal(1, operand.isZero() ? 0 : 1);
+          return resVal.sextOrTrunc(newBitWidth);
         });
   }
 

