diff --ruN a/stablehlo/stablehlo/dialect/ChloOps.cpp b/stablehlo/stablehlo/dialect/ChloOps.cpp
--- stablehlo/stablehlo/dialect/ChloOps.cpp
+++ stablehlo/stablehlo/dialect/ChloOps.cpp
@@ -805,6 +805,9 @@
   // output dimension size will be dynamic as well.
   int64_t dim = adaptor.getDimension();
   int64_t dimSize = ShapedType::kDynamic;
+  if (adaptor.getScanDimSize().has_value()) {
+    dimSize = adaptor.getScanDimSize().value();
+  }
   for (auto [i, type] : llvm::enumerate(adaptor.getInputs().getTypes())) {
     auto inputType = dyn_cast<RankedTensorType>(type);
     if (!inputType) {
@@ -814,9 +817,8 @@
       return emitOptionalError(location, "scan dimension of operand ", i,
                                " is out of bounds");
     }
-    dimSize = inputType.getDimSize(dim);
     if (dimSize == ShapedType::kDynamic) {
-      break;
+      dimSize = inputType.getDimSize(dim);
     }
   }
 
@@ -837,34 +839,6 @@
   return success();
 }
 
-LogicalResult ScanOp::reifyReturnTypeShapes(
-    OpBuilder& builder, ValueRange operands,
-    SmallVectorImpl<Value>& reifiedReturnShapes) {
-  ScanOp::Adaptor adaptor(operands, getOperation()->getAttrDictionary(),
-                          getOperation()->getPropertiesStorage());
-  auto inputs = adaptor.getInputs();
-  size_t k = adaptor.getInits().size();
-  size_t numResults = getOperation()->getNumResults();
-  size_t numOutputs = numResults - k;
-
-  for (size_t i = 0; i < numOutputs; ++i) {
-    size_t inputIdx = i;
-    Value inputVal = (inputIdx < inputs.size()) ? inputs[inputIdx] : inputs[0];
-    if (failed(hlo::deriveShapeFromOperand(&builder, getOperation(), inputVal,
-                                           &reifiedReturnShapes))) {
-      return failure();
-    }
-  }
-
-  for (auto init : adaptor.getInits()) {
-    if (failed(hlo::deriveShapeFromOperand(&builder, getOperation(), init,
-                                           &reifiedReturnShapes))) {
-      return failure();
-    }
-  }
-  return success();
-}
-
 LogicalResult ScanOp::verify() {
   if (getInputs().empty() && getOutputs().empty()) {
     return emitOpError() << "at least one of inputs or outputs must be present";
@@ -873,7 +847,7 @@
   // Check that the scan dimension is in bounds for all operands. Also check
   // that all operands have the same scan dimension size.
   int64_t dim = getDimension();
-  int64_t dimSize = ShapedType::kDynamic;
+  std::optional<uint64_t> dimSize = getScanDimSize();
   for (auto [i, type] : llvm::enumerate(getInputs().getTypes())) {
     auto inputType = dyn_cast<RankedTensorType>(type);
     if (!inputType) {
@@ -886,13 +860,11 @@
     if (inputType.isDynamicDim(dim)) {
       continue;
     }
-    dimSize = inputType.getDimSize(dim);
-    if (dimSize != ShapedType::kDynamic &&
-        dimSize != inputType.getDimSize(dim)) {
-      return emitOpError() << "scan dimension size of operand " << i
-                           << " does not match previous operands";
-    }
-    dimSize = inputType.getDimSize(dim);
+    uint64_t currentDimSize = inputType.getDimSize(dim);
+    if (dimSize.has_value() && dimSize.value() != currentDimSize) {
+      return emitOpError() << "invalid scan dimension size of operand " << i;
+    }
+    dimSize = currentDimSize;
   }
 
   Block& bodyBlock = getBody().front();
@@ -936,20 +908,21 @@
       parser.parseKeyword("inits") ||
       parser.parseOperandList(inits, OpAsmParser::Delimiter::Paren) ||
       parser.parseKeyword("dimension") || parser.parseEqual() ||
-      parser.parseInteger(dimension) || parser.parseRegion(*body) ||
-      parser.parseOptionalAttrDict(result.attributes) ||
-      parser.parseColonType(funcType)) {
+      parser.parseInteger(dimension) ||
+      parser.parseOptionalAttrDictWithKeyword(result.attributes) ||
+      parser.parseRegion(*body) || parser.parseColonType(funcType)) {
     return failure();
   }
 
-  size_t numInputs = inputs.size();
-  size_t numCarries = inits.size();
+  int32_t numInputs = inputs.size();
+  int32_t numCarries = inits.size();
+  int32_t numOutputs = funcType.getNumResults() - numCarries;
   if (funcType.getInputs().size() != numInputs + numCarries) {
     return parser.emitError(
         parser.getNameLoc(),
         "operand types must match the number of inputs and inits");
   }
-  if (funcType.getResults().size() < numCarries) {
+  if (numOutputs < 0) {
     return parser.emitError(
         parser.getNameLoc(),
         "not enough result types to cover the required carries");
@@ -968,13 +941,10 @@
   Builder& builder = parser.getBuilder();
   result.addAttribute(ScanOp::getDimensionAttrName(result.name),
                       builder.getI64IntegerAttr(dimension));
-  result.addAttribute(
-      ScanOp::getOperandSegmentSizeAttr(),
-      builder.getDenseI32ArrayAttr({(int32_t)numInputs, (int32_t)numCarries}));
-  size_t numOutputs = funcType.getNumResults() - numCarries;
-  result.addAttribute(
-      ScanOp::getResultSegmentSizeAttr(),
-      builder.getDenseI32ArrayAttr({(int32_t)numOutputs, (int32_t)numCarries}));
+  result.addAttribute(ScanOp::getOperandSegmentSizeAttr(),
+                      builder.getDenseI32ArrayAttr({numInputs, numCarries}));
+  result.addAttribute(ScanOp::getResultSegmentSizeAttr(),
+                      builder.getDenseI32ArrayAttr({numOutputs, numCarries}));
 
   return success();
 }
@@ -985,10 +955,12 @@
   p << ") inits (";
   p.printOperands(getInits());
   p << ") dimension=" << getDimension() << " ";
+  p.printOptionalAttrDictWithKeyword(
+      getOperation()->getAttrs(),
+      /*elidedAttrs=*/{"dimension", "operandSegmentSizes",
+                       "resultSegmentSizes"});
+  p << " ";
   p.printRegion(getBody(), /*printEntryBlockArgs=*/true);
-  p.printOptionalAttrDict(getOperation()->getAttrs(),
-                          /*elidedAttrs=*/{"dimension", "operandSegmentSizes",
-                                           "resultSegmentSizes"});
   p << " : ";
   p.printFunctionalType(*this);
 }
diff --ruN a/stablehlo/stablehlo/dialect/ChloOps.td b/stablehlo/stablehlo/dialect/ChloOps.td
--- stablehlo/stablehlo/dialect/ChloOps.td
+++ stablehlo/stablehlo/dialect/ChloOps.td
@@ -938,7 +938,7 @@
 def CHLO_ScanOp : CHLO_Op<"scan", [
       AttrSizedOperandSegments,
       AttrSizedResultSegments,
-      InferTensorTypeWithReify,
+      InferTensorType,
       IsolatedFromAbove,
       OpAsmOpInterface,
       RecursiveMemoryEffects,
@@ -961,6 +961,7 @@
     Variadic<HLO_AnyTensor>:$inputs,
     Variadic<HLO_AnyTensor>:$inits,
     ConfinedAttr<I64Attr, [IntNonNegative]>:$dimension,
+    OptionalAttr<ConfinedAttr<I64Attr, [IntNonNegative]>>:$scan_dim_size,
     DefaultValuedOptionalAttr<BoolAttr, "false">:$is_reverse,
     OptionalAttr<BoolAttr>:$is_associative
   );
diff --ruN a/stablehlo/stablehlo/tests/ops_chlo.mlir b/stablehlo/stablehlo/tests/ops_chlo.mlir
--- stablehlo/stablehlo/tests/ops_chlo.mlir
+++ stablehlo/stablehlo/tests/ops_chlo.mlir
@@ -423,7 +423,49 @@
 // CHECK-LABEL: func @scan
 func.func @scan(%arg0: tensor<2x3xf32>, %arg1: tensor<3xf32>) -> tensor<2x3xf32> {
   // CHECK: chlo.scan
-  %0, %1 = chlo.scan (%arg0) inits (%arg1) dimension = 0 {
+  %0, %1 = chlo.scan (%arg0) inits (%arg1) dimension = 0 attributes {} {
+  ^bb0(%input0: tensor<3xf32>, %carry0: tensor<3xf32>):
+    %2 = stablehlo.add %input0, %carry0 : tensor<3xf32>
+    stablehlo.return %2, %2 : tensor<3xf32>, tensor<3xf32>
+  } : (tensor<2x3xf32>, tensor<3xf32>) -> (tensor<2x3xf32>, tensor<3xf32>)
+  func.return %0 : tensor<2x3xf32>
+}
+
+// -----
+
+// CHECK-LABEL: func @scan_explicit_size
+func.func @scan_explicit_size(%arg0: tensor<2x3xf32>, %arg1: tensor<3xf32>) -> tensor<2x3xf32> {
+  // CHECK: chlo.scan
+  // CHECK: scan_dim_size = 2 : i64
+  %0, %1 = chlo.scan (%arg0) inits (%arg1) dimension = 0 attributes { scan_dim_size = 2 : i64 } {
+  ^bb0(%input0: tensor<3xf32>, %carry0: tensor<3xf32>):
+    %2 = stablehlo.add %input0, %carry0 : tensor<3xf32>
+    stablehlo.return %2, %2 : tensor<3xf32>, tensor<3xf32>
+  } : (tensor<2x3xf32>, tensor<3xf32>) -> (tensor<2x3xf32>, tensor<3xf32>)
+  func.return %0 : tensor<2x3xf32>
+}
+
+// -----
+
+// CHECK-LABEL: func @scan_is_reverse
+func.func @scan_is_reverse(%arg0: tensor<2x3xf32>, %arg1: tensor<3xf32>) -> tensor<2x3xf32> {
+  // CHECK: chlo.scan
+  // CHECK: is_reverse = true
+  %0, %1 = chlo.scan (%arg0) inits (%arg1) dimension = 0 attributes { is_reverse = true } {
+  ^bb0(%input0: tensor<3xf32>, %carry0: tensor<3xf32>):
+    %2 = stablehlo.add %input0, %carry0 : tensor<3xf32>
+    stablehlo.return %2, %2 : tensor<3xf32>, tensor<3xf32>
+  } : (tensor<2x3xf32>, tensor<3xf32>) -> (tensor<2x3xf32>, tensor<3xf32>)
+  func.return %0 : tensor<2x3xf32>
+}
+
+// -----
+
+// CHECK-LABEL: func @scan_is_associative
+func.func @scan_is_associative(%arg0: tensor<2x3xf32>, %arg1: tensor<3xf32>) -> tensor<2x3xf32> {
+  // CHECK: chlo.scan
+  // CHECK: is_associative = true
+  %0, %1 = chlo.scan (%arg0) inits (%arg1) dimension = 0 attributes { is_associative = true } {
   ^bb0(%input0: tensor<3xf32>, %carry0: tensor<3xf32>):
     %2 = stablehlo.add %input0, %carry0 : tensor<3xf32>
     stablehlo.return %2, %2 : tensor<3xf32>, tensor<3xf32>
@@ -447,6 +489,18 @@
 
 // -----
 
+func.func @scan_explicit_size_mismatch(%arg0: tensor<2x3xf32>, %arg1: tensor<3xf32>) -> tensor<2x3xf32> {
+  // expected-error @+1 {{'chlo.scan' op invalid scan dimension size of operand 0}}
+  %0, %1 = chlo.scan (%arg0) inits (%arg1) dimension = 0 attributes { scan_dim_size = 3 : i64 } {
+  ^bb0(%input0: tensor<3xf32>, %carry0: tensor<3xf32>):
+    %2 = stablehlo.add %input0, %carry0 : tensor<3xf32>
+    stablehlo.return %2, %2 : tensor<3xf32>, tensor<3xf32>
+  } : (tensor<2x3xf32>, tensor<3xf32>) -> (tensor<2x3xf32>, tensor<3xf32>)
+  func.return %0 : tensor<2x3xf32>
+}
+
+// -----
+
 func.func @scan_size_mismatch(%arg0: tensor<2x3xf32>, %arg1: tensor<3xf32>) -> tensor<2x3xf32> {
   // expected-error @+1 {{'chlo.scan' op expects 1 arguments in the body, but got 2}}
   %0 = chlo.scan(%arg0) inits () dimension = 0 {
diff --ruN a/stablehlo/stablehlo/tests/ops_stablehlo_quantized.mlir b/stablehlo/stablehlo/tests/ops_stablehlo_quantized.mlir
--- stablehlo/stablehlo/tests/ops_stablehlo_quantized.mlir
+++ stablehlo/stablehlo/tests/ops_stablehlo_quantized.mlir
@@ -437,7 +437,7 @@
 // -----
 
 func.func @negative_clamp_quantization(%arg0: tensor<1x!quant.uniform<ui8:f32:0, {0.1:-30}>>) -> tensor<1x!quant.uniform<ui8:f32:0, {0.1:-30}>> {
-  // expected-error-re@+1 {{operand #0 must be ranked tensor of {{.*}}, but got 'tensor<1x!quant.uniform<u8:f32:0, {1.000000e-01:-30}>>'}}
+  // expected-error-re@+1 {{operand #0 must be ranked tensor of {{.*}}, but got 'tensor<1x!quant.uniform<ui8:f32:0, {1.000000e-01:-30}>>'}}
   %0 = "stablehlo.clamp"(%arg0, %arg0, %arg0) : (tensor<1x!quant.uniform<ui8:f32:0, {0.1:-30}>>, tensor<1x!quant.uniform<ui8:f32:0, {0.1:-30}>>, tensor<1x!quant.uniform<ui8:f32:0, {0.1:-30}>>) -> tensor<1x!quant.uniform<ui8:f32:0, {0.1:-30}>>
   func.return %0: tensor<1x!quant.uniform<ui8:f32:0, {0.1:-30}>>
 }
@@ -888,7 +888,7 @@
 // -----
 
 func.func @illegal_storage_type_for_quantized_element_type(%arg0: tensor<4x!quant.uniform<si8:f32, 1.000000e+00>>) -> tensor<4xf32> {
-  // expected-error-re@+1 {{operand #0 must be ranked tensor of {{.*}}, but got 'tensor<4x!quant.uniform<i8:f32, 1.000000e+00>>}}
+  // expected-error-re@+1 {{operand #0 must be ranked tensor of {{.*}}, but got 'tensor<4x!quant.uniform<si8:f32, 1.000000e+00>>}}
   %0 = "stablehlo.uniform_dequantize"(%arg0) : (tensor<4x!quant.uniform<si8:f32, 1.000000e+00>>) -> tensor<4xf32>
   func.return %0 : tensor<4xf32>
 }
diff --ruN a/stablehlo/stablehlo/tests/transforms/stablehlo_legalize_qdq_to_quantized_op.mlir b/stablehlo/stablehlo/tests/transforms/stablehlo_legalize_qdq_to_quantized_op.mlir
--- stablehlo/stablehlo/tests/transforms/stablehlo_legalize_qdq_to_quantized_op.mlir
+++ stablehlo/stablehlo/tests/transforms/stablehlo_legalize_qdq_to_quantized_op.mlir
@@ -3,8 +3,8 @@
 // -----
 
 // CHECK-LABEL @compose_quantized_abs_op
-// CHECK:      %[[abs0:.*]] = stablehlo.abs %arg0 : tensor<16x16x!quant.uniform<u8:f32, 3.400000e+01:16>>
-// CHECK-NEXT: return %[[abs0]] : tensor<16x16x!quant.uniform<u8:f32, 3.400000e+01:16>>
+// CHECK:      %[[abs0:.*]] = stablehlo.abs %arg0 : tensor<16x16x!quant.uniform<ui8:f32, 3.400000e+01:16>>
+// CHECK-NEXT: return %[[abs0]] : tensor<16x16x!quant.uniform<ui8:f32, 3.400000e+01:16>>
 func.func @compose_quantized_abs_op(%arg0: tensor<16x16x!quant.uniform<ui8:f32, 34.0:16>>) -> tensor<16x16x!quant.uniform<ui8:f32, 34.0:16>> {
     %0 = stablehlo.uniform_dequantize %arg0 : (tensor<16x16x!quant.uniform<ui8:f32, 34.0:16>>) -> tensor<16x16xf32>
     %1 = stablehlo.abs %0 : tensor<16x16xf32>
@@ -15,8 +15,8 @@
 // -----
 
 // CHECK-LABEL @failed_to_match_uniform_quant_op_operand_not_defined_by_op
-// CHECK:       %0 = stablehlo.uniform_quantize %arg0 : (tensor<16x16xf32>) -> tensor<16x16x!quant.uniform<u8:f32, 3.400000e+01:16>>
-// CHECK-NEXT:  return %0 : tensor<16x16x!quant.uniform<u8:f32, 3.400000e+01:16>>
+// CHECK:       %0 = stablehlo.uniform_quantize %arg0 : (tensor<16x16xf32>) -> tensor<16x16x!quant.uniform<ui8:f32, 3.400000e+01:16>>
+// CHECK-NEXT:  return %0 : tensor<16x16x!quant.uniform<ui8:f32, 3.400000e+01:16>>
 func.func @failed_to_match_uniform_quant_op_operand_not_defined_by_op(%arg0: tensor<16x16xf32>) -> tensor<16x16x!quant.uniform<ui8:f32, 34.0:16>> {
   %0 = stablehlo.uniform_quantize %arg0 : (tensor<16x16xf32>) -> tensor<16x16x!quant.uniform<ui8:f32, 34.0:16>>
   func.return %0 : tensor<16x16x!quant.uniform<ui8:f32, 34.0:16>>
@@ -30,8 +30,8 @@
 // CHECK-NEXT:    %2 = stablehlo.add %arg1, %arg2 : tensor<f32>
 // CHECK-NEXT:    stablehlo.return %2 : tensor<f32>
 // CHECK-NEXT:    }) : (tensor<4xf32>) -> tensor<4xf32>
-// CHECK-NEXT:  %1 = stablehlo.uniform_quantize %0 : (tensor<4xf32>) -> tensor<4x!quant.uniform<u8:f32, 3.400000e+01:16>>
-// CHECK-NEXT:  return %1 : tensor<4x!quant.uniform<u8:f32, 3.400000e+01:16>>
+// CHECK-NEXT:  %1 = stablehlo.uniform_quantize %0 : (tensor<4xf32>) -> tensor<4x!quant.uniform<ui8:f32, 3.400000e+01:16>>
+// CHECK-NEXT:  return %1 : tensor<4x!quant.uniform<ui8:f32, 3.400000e+01:16>>
 
 func.func @failed_to_match_op_with_region(%operand0 : tensor<4xf32>) -> (tensor<4x!quant.uniform<ui8:f32, 34.0:16>>) {
   %0 = stablehlo.uniform_quantize %operand0 : (tensor<4xf32>) -> tensor<4x!quant.uniform<ui8:f32, 34.0:16>>
@@ -51,13 +51,13 @@
 // -----
 
 // CHECK-LABEL failed_to_match_varidic_op
-// CHECK:       %0 = stablehlo.uniform_quantize %arg0 : (tensor<8x2xf32>) -> tensor<8x2x!quant.uniform<u8:f32, 3.400000e+01:16>>
-// CHECK-NEXT:  %1 = stablehlo.uniform_dequantize %0 : (tensor<8x2x!quant.uniform<u8:f32, 3.400000e+01:16>>) -> tensor<8x2xf32>
-// CHECK-NEXT:  %2 = stablehlo.uniform_quantize %arg1 : (tensor<2x2xf32>) -> tensor<2x2x!quant.uniform<u8:f32, 3.400000e+01:16>>
-// CHECK-NEXT:  %3 = stablehlo.uniform_dequantize %2 : (tensor<2x2x!quant.uniform<u8:f32, 3.400000e+01:16>>) -> tensor<2x2xf32>
+// CHECK:       %0 = stablehlo.uniform_quantize %arg0 : (tensor<8x2xf32>) -> tensor<8x2x!quant.uniform<ui8:f32, 3.400000e+01:16>>
+// CHECK-NEXT:  %1 = stablehlo.uniform_dequantize %0 : (tensor<8x2x!quant.uniform<ui8:f32, 3.400000e+01:16>>) -> tensor<8x2xf32>
+// CHECK-NEXT:  %2 = stablehlo.uniform_quantize %arg1 : (tensor<2x2xf32>) -> tensor<2x2x!quant.uniform<ui8:f32, 3.400000e+01:16>>
+// CHECK-NEXT:  %3 = stablehlo.uniform_dequantize %2 : (tensor<2x2x!quant.uniform<ui8:f32, 3.400000e+01:16>>) -> tensor<2x2xf32>
 // CHECK-NEXT:  %4:2 = "stablehlo.all_gather"(%1, %3) {{.*}} : (tensor<8x2xf32>, tensor<2x2xf32>) -> (tensor<8x8xf32>, tensor<2x4xf32>)
-// CHECK-NEXT:  %5 = stablehlo.uniform_quantize %4#0 : (tensor<8x8xf32>) -> tensor<8x8x!quant.uniform<u8:f32, 3.400000e+01:16>>
-// CHECK-NEXT:  return %5, %4#1 : tensor<8x8x!quant.uniform<u8:f32, 3.400000e+01:16>>, tensor<2x4xf32>
+// CHECK-NEXT:  %5 = stablehlo.uniform_quantize %4#0 : (tensor<8x8xf32>) -> tensor<8x8x!quant.uniform<ui8:f32, 3.400000e+01:16>>
+// CHECK-NEXT:  return %5, %4#1 : tensor<8x8x!quant.uniform<ui8:f32, 3.400000e+01:16>>, tensor<2x4xf32>
 func.func @failed_to_match_varidic_op(%arg0: tensor<8x2xf32>, %arg1: tensor<2x2xf32>) -> (tensor<8x8x!quant.uniform<ui8:f32, 34.0:16>>, tensor<2x4xf32>) {
   %0 = stablehlo.uniform_quantize %arg0 : (tensor<8x2xf32>) -> tensor<8x2x!quant.uniform<ui8:f32, 34.0:16>>
   %1 = stablehlo.uniform_dequantize %0 : (tensor<8x2x!quant.uniform<ui8:f32, 34.0:16>>) -> tensor<8x2xf32>
@@ -75,12 +75,12 @@
 // -----
 
 // CHECK-LABEL @failed_to_match_operand_of_compute_op_already_quantized
-// CHECK:        %0 = stablehlo.uniform_quantize %arg0 : (tensor<1x8x8x207xf32>) -> tensor<1x8x8x207x!quant.uniform<u8:f32, 3.400000e+01:16>>
-// CHECK-NEXT:   %1 = stablehlo.uniform_dequantize %0 : (tensor<1x8x8x207x!quant.uniform<u8:f32, 3.400000e+01:16>>) -> tensor<1x8x8x207xf32>
+// CHECK:        %0 = stablehlo.uniform_quantize %arg0 : (tensor<1x8x8x207xf32>) -> tensor<1x8x8x207x!quant.uniform<ui8:f32, 3.400000e+01:16>>
+// CHECK-NEXT:   %1 = stablehlo.uniform_dequantize %0 : (tensor<1x8x8x207x!quant.uniform<ui8:f32, 3.400000e+01:16>>) -> tensor<1x8x8x207xf32>
 // CHECK-NEXT:   %2 = stablehlo.abs %arg1 : tensor<3x3x207x16x!quant.uniform<i8:f32, 5.000000e+00:20>>
 // CHECK-NEXT:   %3 = stablehlo.convolution(%1, %2) {{.*}} : (tensor<1x8x8x207xf32>, tensor<3x3x207x16x!quant.uniform<i8:f32, 5.000000e+00:20>>) -> tensor<1x8x8x16xf32>
-// CHECK-NEXT:   %4 = stablehlo.uniform_quantize %3 : (tensor<1x8x8x16xf32>) -> tensor<1x8x8x16x!quant.uniform<u8:f32, 3.400000e+01:16>>
-// CHECK-NEXT:   return %4 : tensor<1x8x8x16x!quant.uniform<u8:f32, 3.400000e+01:16>>
+// CHECK-NEXT:   %4 = stablehlo.uniform_quantize %3 : (tensor<1x8x8x16xf32>) -> tensor<1x8x8x16x!quant.uniform<ui8:f32, 3.400000e+01:16>>
+// CHECK-NEXT:   return %4 : tensor<1x8x8x16x!quant.uniform<ui8:f32, 3.400000e+01:16>>
 func.func @failed_to_match_operand_of_compute_op_already_quantized(%arg0: tensor<1x8x8x207xf32>, %arg1: tensor<3x3x207x16x!quant.uniform<i8:f32, 5.0:20>>) -> tensor<1x8x8x16x!quant.uniform<ui8:f32, 34.0:16>> {
     %0 = stablehlo.uniform_quantize %arg0 : (tensor<1x8x8x207xf32>) -> tensor<1x8x8x207x!quant.uniform<ui8:f32, 34.0:16>>
     %1 = stablehlo.uniform_dequantize %0 : (tensor<1x8x8x207x!quant.uniform<ui8:f32, 34.0:16>>) -> tensor<1x8x8x207xf32>
@@ -97,11 +97,11 @@
 // -----
 
 // CHECK-LABEL @failed_to_match_operand_not_defined_by_op
-// CHECK:       %0 = stablehlo.uniform_quantize %arg1 : (tensor<16x16xf32>) -> tensor<16x16x!quant.uniform<u8:f32, 3.400000e+01:16>>
-// CHECK-NEXT:  %1 = stablehlo.uniform_dequantize %0 : (tensor<16x16x!quant.uniform<u8:f32, 3.400000e+01:16>>) -> tensor<16x16xf32>
+// CHECK:       %0 = stablehlo.uniform_quantize %arg1 : (tensor<16x16xf32>) -> tensor<16x16x!quant.uniform<ui8:f32, 3.400000e+01:16>>
+// CHECK-NEXT:  %1 = stablehlo.uniform_dequantize %0 : (tensor<16x16x!quant.uniform<ui8:f32, 3.400000e+01:16>>) -> tensor<16x16xf32>
 // CHECK-NEXT:  %2 = stablehlo.add %arg0, %1 : tensor<16x16xf32>
-// CHECK-NEXT:  %3 = stablehlo.uniform_quantize %2 : (tensor<16x16xf32>) -> tensor<16x16x!quant.uniform<u8:f32, 3.400000e+01:16>>
-// CHECK-NEXT:  return %3 : tensor<16x16x!quant.uniform<u8:f32, 3.400000e+01:16>>
+// CHECK-NEXT:  %3 = stablehlo.uniform_quantize %2 : (tensor<16x16xf32>) -> tensor<16x16x!quant.uniform<ui8:f32, 3.400000e+01:16>>
+// CHECK-NEXT:  return %3 : tensor<16x16x!quant.uniform<ui8:f32, 3.400000e+01:16>>
 func.func @failed_to_match_operand_not_defined_by_op(%arg0: tensor<16x16xf32>, %arg1: tensor<16x16xf32>) -> tensor<16x16x!quant.uniform<ui8:f32, 34.0:16>> {
     %1 = stablehlo.uniform_quantize %arg1 : (tensor<16x16xf32>) -> tensor<16x16x!quant.uniform<ui8:f32, 34.0:16>>
     %2 = stablehlo.uniform_dequantize %1 : (tensor<16x16x!quant.uniform<ui8:f32, 34.0:16>>) -> tensor<16x16xf32>
@@ -114,11 +114,11 @@
 
 // CHECK-LABEL @failed_to_match_defining_op_is_not_a_uniform_dequantized_op
 // CHECK:       %0 = stablehlo.abs %arg0 : tensor<16x16xf32>
-// CHECK-NEXT:  %1 = stablehlo.uniform_quantize %arg1 : (tensor<16x16xf32>) -> tensor<16x16x!quant.uniform<u8:f32, 3.400000e+01:16>>
-// CHECK-NEXT:  %2 = stablehlo.uniform_dequantize %1 : (tensor<16x16x!quant.uniform<u8:f32, 3.400000e+01:16>>) -> tensor<16x16xf32>
+// CHECK-NEXT:  %1 = stablehlo.uniform_quantize %arg1 : (tensor<16x16xf32>) -> tensor<16x16x!quant.uniform<ui8:f32, 3.400000e+01:16>>
+// CHECK-NEXT:  %2 = stablehlo.uniform_dequantize %1 : (tensor<16x16x!quant.uniform<ui8:f32, 3.400000e+01:16>>) -> tensor<16x16xf32>
 // CHECK-NEXT:  %3 = stablehlo.add %0, %2 : tensor<16x16xf32>
-// CHECK-NEXT:  %4 = stablehlo.uniform_quantize %3 : (tensor<16x16xf32>) -> tensor<16x16x!quant.uniform<u8:f32, 3.400000e+01:16>>
-// CHECK-NEXT:  return %4 : tensor<16x16x!quant.uniform<u8:f32, 3.400000e+01:16>>
+// CHECK-NEXT:  %4 = stablehlo.uniform_quantize %3 : (tensor<16x16xf32>) -> tensor<16x16x!quant.uniform<ui8:f32, 3.400000e+01:16>>
+// CHECK-NEXT:  return %4 : tensor<16x16x!quant.uniform<ui8:f32, 3.400000e+01:16>>
 func.func @failed_to_match_defining_op_is_not_a_uniform_dequantized_op(%arg0: tensor<16x16xf32>, %arg1: tensor<16x16xf32>) -> tensor<16x16x!quant.uniform<ui8:f32, 34.0:16>> {
     %0 = stablehlo.abs %arg0 : tensor<16x16xf32>
     %1 = stablehlo.uniform_quantize %arg1 : (tensor<16x16xf32>) -> tensor<16x16x!quant.uniform<ui8:f32, 34.0:16>>
diff --ruN a/stablehlo/stablehlo/transforms/VhloLegalizeToStablehlo.cpp b/stablehlo/stablehlo/transforms/VhloLegalizeToStablehlo.cpp
--- stablehlo/stablehlo/transforms/VhloLegalizeToStablehlo.cpp
+++ stablehlo/stablehlo/transforms/VhloLegalizeToStablehlo.cpp
@@ -25,6 +25,7 @@
 #include "llvm/Support/Debug.h"
 #include "llvm/Support/ErrorHandling.h"
 #include "mlir/Dialect/Func/IR/FuncOps.h"
+#include "mlir/IR/AttrTypeSubElements.h"
 #include "mlir/IR/Attributes.h"
 #include "mlir/IR/BuiltinAttributes.h"
 #include "mlir/IR/BuiltinOps.h"
@@ -1158,10 +1159,28 @@
   }
 
   void runOnOperation() override {
-    // Upgraded VHLO should always be convertible to StableHLO.
-    // Arbitrary VHLO might not be convertible if it uses deprecated features
-    // which are no longer available in StableHLO.
-    if (failed(applyPartialConversion(getOperation(), *target, patterns))) {
+    // Upgraded VHLO types should always be convertible to StableHLO.
+    mlir::AttrTypeReplacer replacer;
+    replacer.addReplacement([&](Type type) -> std::optional<Type> {
+      Type newType = converter.convertType(type);
+      if (newType && newType != type) return newType;
+      return std::nullopt;
+    });
+    // Only types are updated here, as attribute creation with StableHLO types
+    // would trigger VHLO assertion. This is used to avoid need for signature
+    // conversion which results in invalidating the blocks and triggering
+    // recomputing the order of operations, as well as inserting many
+    // unrealized conversion casts.
+    replacer.recursivelyReplaceElementsIn(getOperation(),
+                                          /*replaceAttrs=*/false,
+                                          /*replaceLocs=*/false,
+                                          /*replaceTypes=*/true);
+
+    ConversionConfig config;
+    config.allowPatternRollback = false;
+    config.foldingMode = mlir::DialectConversionFoldingMode::Never;
+    if (failed(applyPartialConversion(getOperation(), *target, patterns,
+                                      config))) {
       return signalPassFailure();
     }
 

