diff --ruN a/stablehlo/stablehlo/conversions/tosa/tests/unary.mlir b/stablehlo/stablehlo/conversions/tosa/tests/unary.mlir
--- stablehlo/stablehlo/conversions/tosa/tests/unary.mlir
+++ stablehlo/stablehlo/conversions/tosa/tests/unary.mlir
@@ -123,8 +123,7 @@
 
 // CHECK-LABEL: @transpose
 func.func @transpose(%arg0: tensor<1x2x3xf32>) -> tensor<3x2x1xf32> {
-  // CHECK: %[[VAR0:.*]] = "tosa.const"() <{value = dense<[2, 1, 0]> : tensor<3xi32>}> : () -> tensor<3xi32>
-  // CHECK: %[[VAR1:.*]] = tosa.transpose %arg0, %[[VAR0]]
+  // CHECK: %[[VAR0:.*]] = tosa.transpose %arg0 {perms = array<i32: 2, 1, 0>}
   %0 = "stablehlo.transpose"(%arg0) {permutation = array<i64: 2, 1, 0>} : (tensor<1x2x3xf32>) -> tensor<3x2x1xf32>
   return %0 : tensor<3x2x1xf32>
 }
diff --ruN a/stablehlo/stablehlo/conversions/tosa/transforms/StablehloLegalizeToTosa.cpp b/stablehlo/stablehlo/conversions/tosa/transforms/StablehloLegalizeToTosa.cpp
--- stablehlo/stablehlo/conversions/tosa/transforms/StablehloLegalizeToTosa.cpp
+++ stablehlo/stablehlo/conversions/tosa/transforms/StablehloLegalizeToTosa.cpp
@@ -458,13 +458,10 @@
     }
 
     auto perms = op.getPermutation();
-    auto type = RankedTensorType::get({static_cast<int64_t>(perms.size())},
-                                      rewriter.getI32Type());
     std::vector<int32_t> perms_int32(perms.begin(), perms.end());
-    auto constOp = rewriter.create<tosa::ConstOp>(
-        op->getLoc(), type, DenseIntElementsAttr::get(type, perms_int32));
-    rewriter.replaceOpWithNewOp<tosa::TransposeOp>(op, op.getType(),
-                                                   op.getOperand(), constOp);
+    rewriter.replaceOpWithNewOp<tosa::TransposeOp>(
+        op, op.getType(), op.getOperand(),
+        rewriter.getDenseI32ArrayAttr(perms_int32));
     return success();
   }
 };
diff --ruN a/stablehlo/stablehlo/tests/ops_stablehlo_bounded_dynamism.mlir b/stablehlo/stablehlo/tests/ops_stablehlo_bounded_dynamism.mlir
--- stablehlo/stablehlo/tests/ops_stablehlo_bounded_dynamism.mlir
+++ stablehlo/stablehlo/tests/ops_stablehlo_bounded_dynamism.mlir
@@ -57,7 +57,7 @@
 // -----
 
 func.func @constant_with_dynamic_shape() -> tensor<1x?xf32, #stablehlo.bounds<?, 5>> {
-  // expected-error@+2 {{elements literal type must have static shape}}
+  // expected-error@below {{elements literal type must have static shape}}
   %c = stablehlo.constant dense<1> : tensor<1x?xf32, #stablehlo.bounds<?, 5>>
   return %c : tensor<1x?xf32, #stablehlo.bounds<?, 5>>
 }
diff --ruN a/stablehlo/stablehlo/tests/transforms/stablehlo_aggressive_simplification.mlir b/stablehlo/stablehlo/tests/transforms/stablehlo_aggressive_simplification.mlir
--- stablehlo/stablehlo/tests/transforms/stablehlo_aggressive_simplification.mlir
+++ stablehlo/stablehlo/tests/transforms/stablehlo_aggressive_simplification.mlir
@@ -1908,6 +1908,19 @@
 
 // -----
 
+// CHECK-LABEL: @side_effecting_custom_call
+func.func @side_effecting_custom_call(%arg0: tensor<0xf32>) -> (tensor<0xf32>, tensor<0xf32>) {
+  // CHECK:      %[[CST:.*]] = stablehlo.constant dense<> : tensor<0xf32>
+  // CHECK-NEXT: %[[CC:.*]] = stablehlo.custom_call @foo(%arg0) {api_version = 0 : i32, has_side_effect = true} : (tensor<0xf32>) -> tensor<0xf32>
+  %0 = stablehlo.custom_call @foo(%arg0) {api_version = 0 : i32, has_side_effect = true} : (tensor<0xf32>) -> tensor<0xf32>
+  // CHECK-NOT:  stablehlo.custom_call{{.*}}has_side_effect = false
+  %1 = stablehlo.custom_call @foo(%arg0) {api_version = 0 : i32, has_side_effect = false} : (tensor<0xf32>) -> tensor<0xf32>
+  // CHECK: return %[[CC]], %[[CST]]
+  return %0, %1 : tensor<0xf32>, tensor<0xf32>
+}
+
+// -----
+
 /////////
 // Generic Shape Ops
 
diff --ruN a/stablehlo/stablehlo/tests/transforms/stablehlo_legalize_qdq_to_quantized_op.mlir b/stablehlo/stablehlo/tests/transforms/stablehlo_legalize_qdq_to_quantized_op.mlir
--- stablehlo/stablehlo/tests/transforms/stablehlo_legalize_qdq_to_quantized_op.mlir
+++ stablehlo/stablehlo/tests/transforms/stablehlo_legalize_qdq_to_quantized_op.mlir
@@ -127,3 +127,15 @@
     %4 = stablehlo.uniform_quantize %3 : (tensor<16x16xf32>) -> tensor<16x16x!quant.uniform<ui8:f32, 34.0:16>>
     func.return %4: tensor<16x16x!quant.uniform<ui8:f32, 34.0:16>>
 }
+
+// -----
+
+// CHECK-LABEL @failed_to_match_zero_defining_op
+// CHECK{LITERAL}: %cst = stablehlo.constant dense<0.000000e+00> : tensor<2xf32>
+// CHECK-NEXT: %0 = stablehlo.uniform_quantize %cst : (tensor<2xf32>) -> tensor<2x!quant.uniform<u8:f32, 3.400000e+01:16>>
+// CHECK-NEXT: return %0 : tensor<2x!quant.uniform<u8:f32, 3.400000e+01:16>>
+func.func @failed_to_match_zero_defining_op() -> tensor<2x!quant.uniform<u8:f32, 3.400000e+01:16>> {
+  %0 = stablehlo.constant dense<0.000000e+00> : tensor<2xf32>
+  %1 = stablehlo.uniform_quantize %0 : (tensor<2xf32>) -> tensor<2x!quant.uniform<u8:f32, 3.400000e+01:16>>
+  return %1 : tensor<2x!quant.uniform<u8:f32, 3.400000e+01:16>>
+}
diff --ruN a/stablehlo/stablehlo/transforms/StablehloLegalizeQDQToQuantizedOp.cpp b/stablehlo/stablehlo/transforms/StablehloLegalizeQDQToQuantizedOp.cpp
--- stablehlo/stablehlo/transforms/StablehloLegalizeQDQToQuantizedOp.cpp
+++ stablehlo/stablehlo/transforms/StablehloLegalizeQDQToQuantizedOp.cpp
@@ -63,6 +63,10 @@
 
     // Collect quantized operands and result types to rewrite.
     // All operands and results must be quantized
+    if (computeOp->getNumOperands() == 0)
+      return rewriter.notifyMatchFailure(computeOp,
+                                         "requires non empty operands");
+
     llvm::SmallVector<Value> quantizedComputeOpOperands;
     for (const Value& operand : computeOp->getOperands()) {
       auto* definingOp = operand.getDefiningOp();
diff --ruN a/stablehlo/stablehlo/transforms/optimization/Passes.h b/stablehlo/stablehlo/transforms/optimization/Passes.h
--- stablehlo/stablehlo/transforms/optimization/Passes.h
+++ stablehlo/stablehlo/transforms/optimization/Passes.h
@@ -50,6 +50,13 @@
                                           MLIRContext *context,
                                           bool foldFloat = false,
                                           PatternBenefit benefit = 1);
+
+/// Some workloads in XLA import StableHLO from HLO. Since there are a few
+/// differences in HLO (no implicit captures, lots of tuples, etc.), this
+/// set of patterns brings the imported HLO back to a more canonical form
+/// without applying a full set of graph simplifications.
+void populateStablehloHloImportCanonicalizationPatterns(
+    MLIRContext *context, RewritePatternSet *patterns);
 }  // namespace stablehlo
 }  // namespace mlir
 
diff --ruN a/stablehlo/stablehlo/transforms/optimization/StablehloAggressiveSimplification.cpp b/stablehlo/stablehlo/transforms/optimization/StablehloAggressiveSimplification.cpp
--- stablehlo/stablehlo/transforms/optimization/StablehloAggressiveSimplification.cpp
+++ stablehlo/stablehlo/transforms/optimization/StablehloAggressiveSimplification.cpp
@@ -1400,6 +1400,12 @@
     if (isa<ConstantOp>(op))
       return rewriter.notifyMatchFailure(op, "op is empty constant");
 
+    // Skip ops that have memory effects, similar to XLA's zero extent
+    // simplification, replacing these doesn't save any computation.
+    auto effectInterface = dyn_cast<MemoryEffectOpInterface>(op);
+    if (effectInterface && !effectInterface.hasNoEffect())
+      return rewriter.notifyMatchFailure(op, "op has memory effect");
+
     // If the result is a zero-extent tensor, replace the whole op with an empty
     // constant.
     bool didUpdate = false;
@@ -1528,6 +1534,12 @@
             DynamicReshapeOpIsStatic, DynamicIotaIsStatic>(context);
 }
 
+void populateStablehloHloImportCanonicalizationPatterns(
+    MLIRContext *context, RewritePatternSet *patterns) {
+  patterns->add<TupleIsRepacking, TupleIsUnpacked, WhileOpImplicitCapture>(
+      context);
+}
+
 std::unique_ptr<Pass> createStablehloAggressiveSimplificationPass(
     GreedyRewriteConfig config) {
   return std::make_unique<StablehloAggressiveSimplificationPass>(config);
diff --ruN a/stablehlo/stablehlo/transforms/optimization/StablehloAggressiveSimplificationPatterns.td b/stablehlo/stablehlo/transforms/optimization/StablehloAggressiveSimplificationPatterns.td
--- stablehlo/stablehlo/transforms/optimization/StablehloAggressiveSimplificationPatterns.td
+++ stablehlo/stablehlo/transforms/optimization/StablehloAggressiveSimplificationPatterns.td
@@ -411,7 +411,7 @@
 // GetTupleElementOp
 
 // Pattern: get_tuple_element(tuple(X_0, X_1, ...), i) -> X_i
-def : Pat<(StableHLO_GetTupleElementOp (StableHLO_TupleOp:$tuple $operands), $idx),
+def TupleIsUnpacked : Pat<(StableHLO_GetTupleElementOp (StableHLO_TupleOp:$tuple $operands), $idx),
           (GetOperandN $tuple, $idx)>;
 
 ////////

