diff --ruN a/stablehlo/CMakeLists.txt b/stablehlo/CMakeLists.txt
--- stablehlo/CMakeLists.txt
+++ stablehlo/CMakeLists.txt
@@ -13,131 +13,20 @@
 # See the License for the specific language governing permissions and
 # limitations under the License.
 #
-cmake_minimum_required(VERSION 3.15.0)
 
-if(POLICY CMP0068)
-  cmake_policy(SET CMP0068 NEW)
-  set(CMAKE_BUILD_WITH_INSTALL_NAME_DIR ON)
-endif()
-
-if(POLICY CMP0075)
-  cmake_policy(SET CMP0075 NEW)
-endif()
-
-if(POLICY CMP0077)
-  cmake_policy(SET CMP0077 NEW)
-endif()
-
-# CMP0116: Ninja generators transform `DEPFILE`s from `add_custom_command()`
-# New in CMake 3.20. https://cmake.org/cmake/help/latest/policy/CMP0116.html
-if(POLICY CMP0116)
-  cmake_policy(SET CMP0116 OLD)
-endif()
+# This build of StableHLO is meant to be embedded in MLIR-HLO.
+# As a result, its root CMakeLists.txt is different from the original
+# CMakeLists.txt from https://github.com/openxla/stablehlo.
+# All other files of this build of StableHLO except for this one are the same
+# as the original files.
+# To get access to a standalone build of StableHLO, check out the
+# openxla/stablehlo repository.
 
 #-------------------------------------------------------------------------------
 # Options and settings
 #-------------------------------------------------------------------------------
-option(STABLEHLO_BUILD_EMBEDDED "Build StableHLO as part of another project" OFF)
-option(STABLEHLO_ENABLE_BINDINGS_PYTHON "Enables StableHLO Python bindings" OFF)
-option(STABLEHLO_ENABLE_STRICT_BUILD "Build StableHLO with strict warnings and warnings as errors" OFF)
 
-#-------------------------------------------------------------------------------
-# Project setup and globals
-#-------------------------------------------------------------------------------
-set(STABLEHLO_EXTERNAL_PROJECT_BUILD OFF)
-
-if(NOT (CMAKE_SOURCE_DIR STREQUAL CMAKE_CURRENT_SOURCE_DIR) AND NOT MLIR_BINARY_DIR)
-  # Building as part of LLVM via the external project mechanism.
-  set(STABLEHLO_EXTERNAL_PROJECT_BUILD ON)
-else()
-  # Building standalone.
-  project(stablehlo LANGUAGES CXX C)
-  set(CMAKE_C_STANDARD 11)
-  set(CMAKE_CXX_STANDARD 17)
-endif()
-
-# Build with ccache if the package is present
-set(LLVM_CCACHE_BUILD OFF CACHE BOOL "Set to ON for a ccache enabled build")
-if(LLVM_CCACHE_BUILD)
-  find_program(CCACHE_PROGRAM ccache)
-  if(CCACHE_PROGRAM)
-      set(LLVM_CCACHE_MAXSIZE "" CACHE STRING "Size of ccache")
-      set(LLVM_CCACHE_DIR "" CACHE STRING "Directory to keep ccached data")
-      set(LLVM_CCACHE_PARAMS "CCACHE_CPP2=yes CCACHE_HASHDIR=yes"
-          CACHE STRING "Parameters to pass through to ccache")
-
-      set(CCACHE_PROGRAM "${LLVM_CCACHE_PARAMS} ${CCACHE_PROGRAM}")
-      if (LLVM_CCACHE_MAXSIZE)
-        set(CCACHE_PROGRAM "CCACHE_MAXSIZE=${LLVM_CCACHE_MAXSIZE} ${CCACHE_PROGRAM}")
-      endif()
-      if (LLVM_CCACHE_DIR)
-        set(CCACHE_PROGRAM "CCACHE_DIR=${LLVM_CCACHE_DIR} ${CCACHE_PROGRAM}")
-      endif()
-      set_property(GLOBAL PROPERTY RULE_LAUNCH_COMPILE ${CCACHE_PROGRAM})
-  else()
-    message(FATAL_ERROR "Unable to find the program ccache. Set LLVM_CCACHE_BUILD to OFF")
-  endif()
-endif()
-
-#-------------------------------------------------------------------------------
-# MLIR/LLVM Configuration
-#-------------------------------------------------------------------------------
-if (STABLEHLO_ENABLE_STRICT_BUILD)
-  set(LLVM_ENABLE_WARNINGS ON)
-  set(LLVM_ENABLE_WERROR ON)
-  set(LLVM_ENABLE_PEDANTIC ON)
-endif()
-
-# Find MLIR to install if we are building standalone. If building as part of
-# another project, let it handle the MLIR dependency. The dependent project
-# might use a bundled version of MLIR instead of installing, for instance.
-if(STABLEHLO_EXTERNAL_PROJECT_BUILD)
-  message(STATUS "Building StableHLO as an external LLVM project")
-  set(MLIR_MAIN_SRC_DIR ${LLVM_MAIN_SRC_DIR}/../mlir ) # --src-root
-  set(MLIR_INCLUDE_DIR ${MLIR_MAIN_SRC_DIR}/include ) # --includedir
-  set(MLIR_GENERATED_INCLUDE_DIR ${LLVM_BINARY_DIR}/tools/mlir/include)
-  include_directories(SYSTEM ${MLIR_INCLUDE_DIR})
-  include_directories(SYSTEM ${MLIR_GENERATED_INCLUDE_DIR})
-  include_directories(SYSTEM ${MLIR_TABLEGEN_OUTPUT_DIR})
-
-  set(BACKEND_PACKAGE_STRING "${PACKAGE_STRING}")
-  list(APPEND CMAKE_MODULE_PATH "${MLIR_MAIN_SRC_DIR}/cmake/modules")
-elseif(NOT STABLEHLO_BUILD_EMBEDDED)
-  message(STATUS "Building StableHLO with an installed MLIR")
-  find_package(MLIR REQUIRED CONFIG)
-  message(STATUS "Using MLIRConfig.cmake in: ${MLIR_DIR}")
-  message(STATUS "Using LLVMConfig.cmake in: ${LLVM_DIR}")
-  set(LLVM_RUNTIME_OUTPUT_INTDIR ${CMAKE_BINARY_DIR}/bin)
-  set(LLVM_LIBRARY_OUTPUT_INTDIR ${CMAKE_BINARY_DIR}/lib)
-  list(APPEND CMAKE_MODULE_PATH "${MLIR_CMAKE_DIR}")
-  list(APPEND CMAKE_MODULE_PATH "${LLVM_CMAKE_DIR}")
-else()
-  message(STATUS "Building StableHLO embedded in another project")
-endif()
-
-if(LLVM_ENABLE_ZLIB)
-  find_package(ZLIB)
-endif()
-
-include(TableGen)
-include(AddLLVM)
-include(AddMLIR)
-include(HandleLLVMOptions)
-include_directories(${LLVM_INCLUDE_DIRS})
-include_directories(${MLIR_INCLUDE_DIRS})
-include_directories(${CMAKE_CURRENT_SOURCE_DIR})
-include_directories(${CMAKE_CURRENT_BINARY_DIR})
-link_directories(${LLVM_BUILD_LIBRARY_DIR})
-add_definitions(${LLVM_DEFINITIONS})
-
-#-------------------------------------------------------------------------------
-# Python configuration
-#-------------------------------------------------------------------------------
-
-if(STABLEHLO_ENABLE_BINDINGS_PYTHON)
-  include(MLIRDetectPythonEnv)
-  mlir_configure_python_dev_packages()
-endif()
+set(STABLEHLO_ENABLE_BINDINGS_PYTHON ${MHLO_ENABLE_BINDINGS_PYTHON})
 
 #-------------------------------------------------------------------------------
 # Directory setup
diff --ruN a/stablehlo/stablehlo/CMakeLists.txt b/stablehlo/stablehlo/CMakeLists.txt
--- stablehlo/stablehlo/CMakeLists.txt
+++ stablehlo/stablehlo/CMakeLists.txt
@@ -15,6 +15,7 @@
 add_subdirectory(api)
 add_subdirectory(conversions)
 add_subdirectory(dialect)
+add_subdirectory(experimental)
 add_subdirectory(integrations)
 add_subdirectory(reference)
 add_subdirectory(tests)
diff --ruN a/stablehlo/stablehlo/api/PortableApi.h b/stablehlo/stablehlo/api/PortableApi.h
--- stablehlo/stablehlo/api/PortableApi.h
+++ stablehlo/stablehlo/api/PortableApi.h
@@ -27,7 +27,7 @@
 
 /// Return the current version for portable API.
 /// Increments on all meaningful changes to this file.
-inline int64_t getApiVersion() { return 5; }
+inline int64_t getApiVersion() { return 6; }
 
 // Get the current StableHLO version.
 //
diff --ruN a/stablehlo/stablehlo/conversions/linalg/tests/convolution.mlir b/stablehlo/stablehlo/conversions/linalg/tests/convolution.mlir
--- stablehlo/stablehlo/conversions/linalg/tests/convolution.mlir
+++ stablehlo/stablehlo/conversions/linalg/tests/convolution.mlir
@@ -37,8 +37,8 @@
     >,
     feature_group_count = 1 : i64,
     padding = dense<[[0, 0]]> : tensor<1x2xi64>,
-    rhs_dilation = dense<1> : tensor<1xi64>,
-    window_strides = dense<1> : tensor<1xi64>,
+    rhs_dilation = array<i64: 1>,
+    window_strides = array<i64: 1>,
     someattr
   } : (tensor<?x8x?xf32>, tensor<2x?x?xf32>) -> tensor<?x7x?xf32>
   func.return %0 : tensor<?x7x?xf32>
@@ -80,8 +80,8 @@
     >,
     feature_group_count = 1 : i64,
     padding = dense<[[0, 0], [0, 0]]> : tensor<2x2xi64>,
-    rhs_dilation = dense<1> : tensor<2xi64>,
-    window_strides = dense<1> : tensor<2xi64>
+    rhs_dilation = array<i64: 1, 1>,
+    window_strides = array<i64: 1, 1>
   } : (tensor<?x4x5x?xf32>, tensor<3x2x?x?xf32>) -> tensor<?x2x4x?xf32>
   func.return %0 : tensor<?x2x4x?xf32>
 }
@@ -223,8 +223,8 @@
     >,
     feature_group_count = 1 : i64,
     padding = dense<[[0, 0], [0, 0], [0, 0]]> : tensor<3x2xi64>,
-    rhs_dilation = dense<1> : tensor<3xi64>,
-    window_strides = dense<1> : tensor<3xi64>
+    rhs_dilation = array<i64: 1, 1, 1>,
+    window_strides = array<i64: 1, 1, 1>
   } : (tensor<?x8x8x8x?xf32>, tensor<2x2x2x?x?xf32>) -> tensor<?x7x7x7x?xf32>
   func.return %0 : tensor<?x7x7x7x?xf32>
 }
@@ -263,8 +263,8 @@
     >,
     feature_group_count = 1 : i64,
     padding = dense<0> : tensor<2x2xi64>,
-    rhs_dilation = dense<[2, 1]> : tensor<2xi64>,
-    window_strides = dense<1> : tensor<2xi64>
+    rhs_dilation = array<i64: 2, 1>,
+    window_strides = array<i64: 1, 1>
   } : (tensor<1x4x5x2xf32>, tensor<2x2x2x3xf32>) -> tensor<1x2x4x3xf32>
   func.return %0 : tensor<1x2x4x3xf32>
 }
@@ -349,8 +349,8 @@
     >,
     feature_group_count = 2 : i64,
     padding = dense<0> : tensor<2x2xi64>,
-    rhs_dilation = dense<1> : tensor<2xi64>,
-    window_strides = dense<1> : tensor<2xi64>,
+    rhs_dilation = array<i64: 1, 1>,
+    window_strides = array<i64: 1, 1>,
     someattr} : (tensor<2x4x5x2xf32>, tensor<2x2x1x6xf32>) -> tensor<2x3x4x6xf32>
   func.return %0 : tensor<2x3x4x6xf32>
 }
@@ -390,8 +390,8 @@
     >,
     feature_group_count = 2 : i64,
     padding = dense<[[0, 0], [1, 1]]> : tensor<2x2xi64>,
-    rhs_dilation = dense<1> : tensor<2xi64>,
-    window_strides = dense<1> : tensor<2xi64>,
+    rhs_dilation = array<i64: 1, 1>,
+    window_strides = array<i64: 1, 1>,
     someattr} : (tensor<2x4x5x2xf32>, tensor<2x2x1x4xf32>) -> tensor<2x3x6x4xf32>
   func.return %0 : tensor<2x3x6x4xf32>
 }
@@ -438,8 +438,8 @@
     >,
     feature_group_count = 96 : i64,
     padding = dense<0> : tensor<2x2xi64>,
-    rhs_dilation = dense<1> : tensor<2xi64>,
-    window_strides = dense<2> : tensor<2xi64>} : (tensor<1x113x113x96xf32>, tensor<3x3x1x96xf32>) -> tensor<1x56x56x96xf32>
+    rhs_dilation = array<i64: 1, 1>,
+    window_strides = array<i64: 2, 2>} : (tensor<1x113x113x96xf32>, tensor<3x3x1x96xf32>) -> tensor<1x56x56x96xf32>
   func.return %0 : tensor<1x56x56x96xf32>
 }
 // CHECK-DAG:     %[[CST:.+]] = arith.constant 0.000000e+00 : f32
@@ -476,8 +476,8 @@
     >,
     feature_group_count = 96 : i64,
     padding = dense<[[1, 1], [2, 2]]> : tensor<2x2xi64>,
-    rhs_dilation = dense<1> : tensor<2xi64>,
-    window_strides = dense<2> : tensor<2xi64>} : (tensor<1x113x113x96xf32>, tensor<3x3x1x96xf32>) -> tensor<1x57x58x96xf32>
+    rhs_dilation = array<i64: 1, 1>,
+    window_strides = array<i64: 2, 2>} : (tensor<1x113x113x96xf32>, tensor<3x3x1x96xf32>) -> tensor<1x57x58x96xf32>
   func.return %0 : tensor<1x57x58x96xf32>
 }
 // CHECK-DAG:     %[[ZERO:.*]] = arith.constant 0.000000e+00 : f32
diff --ruN a/stablehlo/stablehlo/conversions/linalg/tests/gather.mlir b/stablehlo/stablehlo/conversions/linalg/tests/gather.mlir
--- stablehlo/stablehlo/conversions/linalg/tests/gather.mlir
+++ stablehlo/stablehlo/conversions/linalg/tests/gather.mlir
@@ -14,7 +14,7 @@
       start_index_map = [0, 1]
     >,
     indices_are_sorted = false,
-    slice_sizes = dense<[1, 1, 8]> : tensor<3xi64>,
+    slice_sizes = array<i64: 1, 1, 8>,
     someattr
   } : (tensor<1x4x8xi32>, tensor<1x8x2xi32>) -> tensor<1x8x8xi32>
   func.return %res : tensor<1x8x8xi32>
@@ -59,7 +59,7 @@
       start_index_map = [0, 1]
     >,
     indices_are_sorted = false,
-    slice_sizes = dense<[1, 1, 8]> : tensor<3xi64>,
+    slice_sizes = array<i64: 1, 1, 8>,
     someattr
   } : (tensor<1x4x8xi32>, tensor<1x8x2xui32>) -> tensor<1x8x8xi32>
   func.return %res : tensor<1x8x8xi32>
@@ -84,7 +84,7 @@
       start_index_map = [0, 1]
     >,
     indices_are_sorted = false,
-    slice_sizes = dense<[1, 1, 8]> : tensor<3xi64>
+    slice_sizes = array<i64: 1, 1, 8>
   } : (tensor<1x4x8xui32>, tensor<1x8x2xi32>) -> tensor<1x8x8xui32>
   func.return %res : tensor<1x8x8xui32>
 }
@@ -107,7 +107,7 @@
       start_index_map = [0, 1]
     >,
     indices_are_sorted = false,
-    slice_sizes = dense<[4, 2]> : tensor<2xi64>
+    slice_sizes = array<i64: 4, 2>
   } : (tensor<6x3xi32>, tensor<5x2xi32>) -> tensor<5x4x2xi32>
   func.return %res : tensor<5x4x2xi32>
 }
@@ -148,7 +148,7 @@
       start_index_map = [0, 1]
     >,
     indices_are_sorted = false,
-    slice_sizes = dense<[2, 3, 4]> : tensor<3xi64>
+    slice_sizes = array<i64: 2, 3, 4>
   } : (tensor<?x?x?xi32>, tensor<5x2xi32>) -> tensor<2x3x4x5xi32>
   func.return %res : tensor<2x3x4x5xi32>
 }
@@ -198,7 +198,7 @@
       start_index_map = [3, 1, 2, 0]
     >,
     indices_are_sorted = false,
-    slice_sizes = dense<[1, 2, 1, 4]> : tensor<4xi64>
+    slice_sizes = array<i64: 1, 2, 1, 4>
   } : (tensor<6x3x2x7xi32>, tensor<5x4xi32>) -> tensor<5x2x4xi32>
   func.return %res : tensor<5x2x4xi32>
 }
@@ -256,7 +256,7 @@
       start_index_map = [0]
     >,
     indices_are_sorted = false,
-    slice_sizes = dense<[3, 4]> : tensor<2xi64>
+    slice_sizes = array<i64: 3, 4>
   } : (tensor<?x?xi32>, tensor<5x2xi32>) -> tensor<3x4x5x2xi32>
   func.return %res : tensor<3x4x5x2xi32>
 }
@@ -297,7 +297,7 @@
       start_index_map = [0]
     >,
     indices_are_sorted = false,
-    slice_sizes = dense<[3, 4]> : tensor<2xi64>
+    slice_sizes = array<i64: 3, 4>
   } : (tensor<?x?xi32>, tensor<?x?xi32>) -> tensor<3x4x?xi32>
   func.return %res : tensor<3x4x?xi32>
 }
@@ -338,7 +338,7 @@
       start_index_map = [0]
     >,
     indices_are_sorted = false,
-    slice_sizes = dense<[3, 4]> : tensor<2xi64>
+    slice_sizes = array<i64: 3, 4>
   } : (tensor<*xi32>, tensor<?x?xi32>) -> tensor<?x?x?xi32>
   func.return %res : tensor<?x?x?xi32>
 }
diff --ruN a/stablehlo/stablehlo/conversions/linalg/tests/miscellaneous.mlir b/stablehlo/stablehlo/conversions/linalg/tests/miscellaneous.mlir
--- stablehlo/stablehlo/conversions/linalg/tests/miscellaneous.mlir
+++ stablehlo/stablehlo/conversions/linalg/tests/miscellaneous.mlir
@@ -651,7 +651,7 @@
   ^bb0(%arg2: tensor<f32>, %arg3: tensor<f32>):
     %1 = stablehlo.add %arg2, %arg3 : tensor<f32>
     "stablehlo.return"(%1) : (tensor<f32>) -> ()
-  }) {dimensions = dense<0> : tensor<1xi64>}
+  }) {dimensions = array<i64: 0>}
   : (tensor<?xf32>, tensor<4xf32>) -> tensor<?xf32>
   func.return %0 : tensor<?xf32>
 }
@@ -671,7 +671,7 @@
   ^bb0(%arg2: tensor<f32>):
     %1 = stablehlo.add %arg2, %arg2 : tensor<f32>
     "stablehlo.return"(%1) : (tensor<f32>) -> ()
-  }) {dimensions = dense<0> : tensor<1xi64>}
+  }) {dimensions = array<i64: 0>}
   : (tensor<?xf32>) -> tensor<?xf32>
   func.return %0 : tensor<?xf32>
 }
@@ -702,7 +702,7 @@
        {comparison_direction = #stablehlo<comparison_direction EQ>}
        : (tensor<f32>, tensor<f32>) -> tensor<i1>
     "stablehlo.return"(%3) : (tensor<i1>) -> ()
-  }) {dimensions = dense<0> : tensor<1xi64>}
+  }) {dimensions = array<i64: 0>}
   : (tensor<?xcomplex<f32>>, tensor<?xcomplex<f32>>) -> tensor<?xi1>
   func.return %0 : tensor<?xi1>
 }
@@ -1089,8 +1089,8 @@
     stablehlo.return %9 : tensor<f32>
   }) {
     padding = dense<0> : tensor<4x2xi64>,
-    window_dimensions = dense<[1, 2, 2, 1]> : tensor<4xi64>,
-    window_strides = dense<[1, 2, 2, 1]> : tensor<4xi64>
+    window_dimensions = array<i64: 1, 2, 2, 1>,
+    window_strides = array<i64: 1, 2, 2, 1>
   } : (tensor<2x8x8x1xf32>, tensor<2x4x4x1xf32>, tensor<f32>) -> tensor<2x8x8x1xf32>
 
   return %0 : tensor<2x8x8x1xf32>
diff --ruN a/stablehlo/stablehlo/conversions/linalg/tests/reduce.mlir b/stablehlo/stablehlo/conversions/linalg/tests/reduce.mlir
--- stablehlo/stablehlo/conversions/linalg/tests/reduce.mlir
+++ stablehlo/stablehlo/conversions/linalg/tests/reduce.mlir
@@ -10,7 +10,7 @@
   ^bb0(%arg3: tensor<i32>, %arg4 : tensor<i32>):
     %1 = stablehlo.add %arg3, %arg4 : tensor<i32>
     "stablehlo.return"(%1) : (tensor<i32>) -> ()
-  }) {dimensions = dense<1> : tensor<1xi64>, someattr} : (tensor<5x4xi32>, tensor<i32>) -> tensor<5xi32>
+  }) {dimensions = array<i64: 1>, someattr} : (tensor<5x4xi32>, tensor<i32>) -> tensor<5xi32>
   func.return %0 : tensor<5xi32>
 }
 // CHECK-DAG: %[[INIT:.*]] = tensor.extract %{{.*}} : tensor<i32>
@@ -43,7 +43,7 @@
   ^bb0(%arg3: tensor<i32>, %arg4 : tensor<i32>):
     %1 = stablehlo.add %arg3, %arg4 : tensor<i32>
     "stablehlo.return"(%1) : (tensor<i32>) -> ()
-  }) {dimensions = dense<1> : tensor<1xi64>, someattr} : (tensor<*xi32>, tensor<i32>) -> tensor<*xi32>
+  }) {dimensions = array<i64: 1>, someattr} : (tensor<*xi32>, tensor<i32>) -> tensor<*xi32>
   func.return %0 : tensor<*xi32>
 }
 // CHECK: stablehlo.reduce
@@ -60,7 +60,7 @@
   ^bb0(%arg3: tensor<i32>, %arg4 : tensor<i32>):
     %1 = stablehlo.maximum %arg3, %arg4 : tensor<i32>
     "stablehlo.return"(%1) : (tensor<i32>) -> ()
-  }) {dimensions = dense<0> : tensor<1xi64>} : (tensor<5x4xi32>, tensor<i32>) -> tensor<4xi32>
+  }) {dimensions = array<i64: 0>} : (tensor<5x4xi32>, tensor<i32>) -> tensor<4xi32>
   func.return %0 : tensor<4xi32>
 }
 // CHECK-DAG: %[[INIT:.*]] = tensor.extract %{{.*}} : tensor<i32>
@@ -90,7 +90,7 @@
   ^bb0(%arg3: tensor<i32>, %arg4 : tensor<i32>):
     %1 = stablehlo.maximum %arg3, %arg4 : tensor<i32>
     "stablehlo.return"(%1) : (tensor<i32>) -> ()
-  }) {dimensions = dense<0> : tensor<1xi64>} : (tensor<5x4xi32>, tensor<i32>) -> tensor<?xi32>
+  }) {dimensions = array<i64: 0>} : (tensor<5x4xi32>, tensor<i32>) -> tensor<?xi32>
   func.return %0 : tensor<?xi32>
 }
 
@@ -112,7 +112,7 @@
   ^bb0(%arg1: tensor<f32>, %arg2: tensor<f32>):
     %1 = stablehlo.add %arg1, %arg2 : tensor<f32>
     "stablehlo.return"(%1) : (tensor<f32>) -> ()
-  }) {dimensions = dense<1> : tensor<1xi64>} : (tensor<1x10xf32>, tensor<f32>) -> tensor<1xf32>
+  }) {dimensions = array<i64: 1>} : (tensor<1x10xf32>, tensor<f32>) -> tensor<1xf32>
   func.return %0 : tensor<1xf32>
 }
 // CHECK-DAG: %[[INIT_TENSOR:.*]] = tensor.empty()
@@ -137,7 +137,7 @@
   ^bb0(%arg2: tensor<i32>, %arg3: tensor<i32>):
     %1 = stablehlo.add %arg2, %arg3 : tensor<i32>
     "stablehlo.return"(%1) : (tensor<i32>) -> ()
-  }) {dimensions = dense<[0, 2]> : tensor<2xi64>} : (tensor<5x4x3xi32>, tensor<i32>) -> tensor<4xi32>
+  }) {dimensions = array<i64: 0, 2>} : (tensor<5x4x3xi32>, tensor<i32>) -> tensor<4xi32>
   func.return %0 : tensor<4xi32>
 }
 // CHECK-DAG: %[[INIT:.*]] = tensor.extract %{{.*}} : tensor<i32>
@@ -216,7 +216,7 @@
   ^bb0(%arg3: tensor<i32>, %arg4 : tensor<i32>):
     %1 = stablehlo.add %arg3, %arg4 : tensor<i32>
     "stablehlo.return"(%1) : (tensor<i32>) -> ()
-  }) {dimensions = dense<1> : tensor<1xi64>} : (tensor<?x?xi32>, tensor<i32>) -> tensor<?xi32>
+  }) {dimensions = array<i64: 1>} : (tensor<?x?xi32>, tensor<i32>) -> tensor<?xi32>
   func.return %0 : tensor<?xi32>
 }
 // CHECK-DAG: %[[INIT:.*]] = tensor.extract %{{.*}} : tensor<i32>
@@ -255,7 +255,7 @@
     %673 = "stablehlo.select"(%669, %arg3, %arg16) : (tensor<i1>, tensor<i32>, tensor<i32>) -> tensor<i32>
     %674 = "stablehlo.select"(%671, %672, %673) : (tensor<i1>, tensor<i32>, tensor<i32>) -> tensor<i32>
     "stablehlo.return"(%670, %674) : (tensor<i32>, tensor<i32>) -> ()
-  }) {dimensions = dense<0> : tensor<1xi64>} : (tensor<9x2xi32>, tensor<9x2xi32>, tensor<i32>, tensor<i32>) -> (tensor<2xi32>, tensor<2xi32>)
+  }) {dimensions = array<i64: 0>} : (tensor<9x2xi32>, tensor<9x2xi32>, tensor<i32>, tensor<i32>) -> (tensor<2xi32>, tensor<2xi32>)
   func.return %res0, %res1 : tensor<2xi32>, tensor<2xi32>
 }
 // CHECK-DAG:    %[[CST0:.*]] = arith.constant -2147483648 : i32
@@ -316,7 +316,7 @@
     %1 = "stablehlo.select"(%0, %arg7, %arg9) : (tensor<i1>, tensor<f32>, tensor<f32>) -> tensor<f32>
     %2 = "stablehlo.select"(%0, %arg8, %arg10) : (tensor<i1>, tensor<i32>, tensor<i32>) -> tensor<i32>
     "stablehlo.return"(%1, %2) : (tensor<f32>, tensor<i32>) -> ()
-  }) {dimensions = dense<1> : tensor<1xi64>} : (tensor<128x10xf32>, tensor<128x10xi32>, tensor<f32>, tensor<i32>) ->(tensor<128xf32>, tensor<128xi32>)
+  }) {dimensions = array<i64: 1>} : (tensor<128x10xf32>, tensor<128x10xi32>, tensor<f32>, tensor<i32>) ->(tensor<128xf32>, tensor<128xi32>)
   func.return %res0, %res1 : tensor<128xf32>, tensor<128xi32>
 }
 // CHECK-DAG:        %[[CST0:.*]] = arith.constant 1.000000e+00 : f32
@@ -399,8 +399,8 @@
   ^bb0(%arg2: tensor<f32>, %arg3 : tensor<f32>):
     %1 = stablehlo.minimum %arg2, %arg3 : tensor<f32>
     "stablehlo.return"(%1) : (tensor<f32>) -> ()
-  }) {window_dimensions = dense<[1, 3, 3, 1]> : tensor<4xi64>,
-      window_strides = dense<[1, 2, 2, 1]> : tensor<4xi64>,
+  }) {window_dimensions = array<i64: 1, 3, 3, 1>,
+      window_strides = array<i64: 1, 2, 2, 1>,
       someattr} : (tensor<1x17x17x64xf32>, tensor<f32>) -> tensor<1x8x8x64xf32>
   func.return %0 : tensor<1x8x8x64xf32>
 }
@@ -426,8 +426,8 @@
   ^bb0(%arg2: tensor<f32>, %arg3 : tensor<f32>):
     %1 = stablehlo.maximum %arg2, %arg3 : tensor<f32>
     "stablehlo.return"(%1) : (tensor<f32>) -> ()
-  }) {window_dimensions = dense<[1, 3, 3, 1]> : tensor<4xi64>,
-      window_strides = dense<[1, 2, 2, 1]> : tensor<4xi64>} : (tensor<1x17x17x64xf32>, tensor<f32>) -> tensor<1x8x8x64xf32>
+  }) {window_dimensions = array<i64: 1, 3, 3, 1>,
+      window_strides = array<i64: 1, 2, 2, 1>} : (tensor<1x17x17x64xf32>, tensor<f32>) -> tensor<1x8x8x64xf32>
   func.return %0 : tensor<1x8x8x64xf32>
 }
 // CHECK:         %[[WINDOW:.+]] = tensor.empty() : tensor<3x3xf32>
@@ -451,8 +451,8 @@
   ^bb0(%arg2: tensor<f32>, %arg3 : tensor<f32>):
     %1 = stablehlo.add %arg2, %arg3 : tensor<f32>
     "stablehlo.return"(%1) : (tensor<f32>) -> ()
-  }) {window_dimensions = dense<[1, 3, 3, 1]> : tensor<4xi64>,
-      window_strides = dense<[1, 2, 2, 1]> : tensor<4xi64>} : (tensor<1x17x17x64xf32>, tensor<f32>) -> tensor<1x8x8x64xf32>
+  }) {window_dimensions = array<i64: 1, 3, 3, 1>,
+      window_strides = array<i64: 1, 2, 2, 1>} : (tensor<1x17x17x64xf32>, tensor<f32>) -> tensor<1x8x8x64xf32>
   func.return %0 : tensor<1x8x8x64xf32>
 }
 // CHECK:         %[[WINDOW:.+]] = tensor.empty() : tensor<3x3xf32>
@@ -475,8 +475,8 @@
   ^bb0(%arg1: tensor<f32>, %arg2 : tensor<f32>):
     %2 = stablehlo.maximum %arg1, %arg2 : tensor<f32>
     "stablehlo.return"(%2) : (tensor<f32>) -> ()
-  }) {window_dimensions = dense<[1, 3, 3, 1]> : tensor<4xi64>,
-      window_strides = dense<[1, 2, 2, 1]> : tensor<4xi64>} : (tensor<1x17x17x64xf32>, tensor<f32>) -> tensor<1x8x8x64xf32>
+  }) {window_dimensions = array<i64: 1, 3, 3, 1>,
+      window_strides = array<i64: 1, 2, 2, 1>} : (tensor<1x17x17x64xf32>, tensor<f32>) -> tensor<1x8x8x64xf32>
   func.return %1 : tensor<1x8x8x64xf32>
 }
 
@@ -502,8 +502,8 @@
     %1 = stablehlo.add %arg2, %arg4 : tensor<f32>
     %2 = stablehlo.maximum %arg3, %arg5 : tensor<f32>
     "stablehlo.return"(%1, %2) : (tensor<f32>, tensor<f32>) -> ()
-  }) {window_dimensions = dense<[1, 3, 3, 1]> : tensor<4xi64>,
-      window_strides = dense<[1, 2, 2, 1]> : tensor<4xi64>} : (tensor<1x17x17x64xf32>, tensor<1x17x17x64xf32>, tensor<f32>, tensor<f32>) -> (tensor<1x8x8x64xf32>, tensor<1x8x8x64xf32>)
+  }) {window_dimensions = array<i64: 1, 3, 3, 1>,
+      window_strides = array<i64: 1, 2, 2, 1>} : (tensor<1x17x17x64xf32>, tensor<1x17x17x64xf32>, tensor<f32>, tensor<f32>) -> (tensor<1x8x8x64xf32>, tensor<1x8x8x64xf32>)
   func.return %0#0, %0#1 : tensor<1x8x8x64xf32>, tensor<1x8x8x64xf32>
 }
 
@@ -537,8 +537,8 @@
   ^bb0(%arg1: tensor<ui32>, %arg2: tensor<ui32>):
     stablehlo.return %arg1 : tensor<ui32>
   }) {
-    window_dimensions = dense<[1, 1]> : tensor<2xi64>,
-    window_strides = dense<[1, 1]> : tensor<2xi64>
+    window_dimensions = array<i64: 1, 1>,
+    window_strides = array<i64: 1, 1>
   } : (tensor<1x1xui32>, tensor<ui32>) -> tensor<1x1xui32>
   return %1 : tensor<1x1xui32>
 }
@@ -554,8 +554,8 @@
   ^bb0(%arg2: tensor<f32>, %arg3 : tensor<f32>):
     %1 = stablehlo.add %arg2, %arg3 : tensor<f32>
     "stablehlo.return"(%1) : (tensor<f32>) -> ()
-  }) {window_dimensions = dense<[1, 3, 3, 1]> : tensor<4xi64>,
-      window_strides = dense<[1, 2, 2, 1]> : tensor<4xi64>} : (tensor<?x?x?x?xf32>, tensor<f32>) -> tensor<?x?x?x?xf32>
+  }) {window_dimensions = array<i64: 1, 3, 3, 1>,
+      window_strides = array<i64: 1, 2, 2, 1>} : (tensor<?x?x?x?xf32>, tensor<f32>) -> tensor<?x?x?x?xf32>
   func.return %0 : tensor<?x?x?x?xf32>
 }
 // CHECK-DAG:     %[[C0:.+]] = arith.constant 0 : index
@@ -593,8 +593,8 @@
   ^bb0(%arg2: tensor<f32>, %arg3 : tensor<f32>):
     %1 = stablehlo.minimum %arg2, %arg3 : tensor<f32>
     "stablehlo.return"(%1) : (tensor<f32>) -> ()
-  }) {window_dimensions = dense<[1, 3, 3, 3, 1]> : tensor<5xi64>,
-      window_strides = dense<[1, 2, 2, 2, 1]> : tensor<5xi64>} : (tensor<1x17x17x17x64xf32>, tensor<f32>) -> tensor<1x8x8x8x64xf32>
+  }) {window_dimensions = array<i64: 1, 3, 3, 3, 1>,
+      window_strides = array<i64: 1, 2, 2, 2, 1>} : (tensor<1x17x17x17x64xf32>, tensor<f32>) -> tensor<1x8x8x8x64xf32>
   func.return %0 : tensor<1x8x8x8x64xf32>
 }
 // CHECK:         %[[WINDOW:.+]] = tensor.empty() : tensor<3x3x3xf32>
@@ -618,8 +618,8 @@
   ^bb0(%arg2: tensor<f32>, %arg3 : tensor<f32>):
     %1 = stablehlo.maximum %arg2, %arg3 : tensor<f32>
     "stablehlo.return"(%1) : (tensor<f32>) -> ()
-  }) {window_dimensions = dense<[1, 3, 3, 3, 1]> : tensor<5xi64>,
-      window_strides = dense<[1, 2, 2, 2, 1]> : tensor<5xi64>} : (tensor<1x17x17x17x64xf32>, tensor<f32>) -> tensor<1x8x8x8x64xf32>
+  }) {window_dimensions = array<i64: 1, 3, 3, 3, 1>,
+      window_strides = array<i64: 1, 2, 2, 2, 1>} : (tensor<1x17x17x17x64xf32>, tensor<f32>) -> tensor<1x8x8x8x64xf32>
   func.return %0 : tensor<1x8x8x8x64xf32>
 }
 // CHECK:         %[[WINDOW:.+]] = tensor.empty() : tensor<3x3x3xf32>
@@ -643,8 +643,8 @@
   ^bb0(%arg2: tensor<f32>, %arg3 : tensor<f32>):
     %1 = stablehlo.add %arg2, %arg3 : tensor<f32>
     "stablehlo.return"(%1) : (tensor<f32>) -> ()
-  }) {window_dimensions = dense<[1, 3, 3, 3, 1]> : tensor<5xi64>,
-      window_strides = dense<[1, 2, 2, 2, 1]> : tensor<5xi64>} : (tensor<1x17x17x17x64xf32>, tensor<f32>) -> tensor<1x8x8x8x64xf32>
+  }) {window_dimensions = array<i64: 1, 3, 3, 3, 1>,
+      window_strides = array<i64: 1, 2, 2, 2, 1>} : (tensor<1x17x17x17x64xf32>, tensor<f32>) -> tensor<1x8x8x8x64xf32>
   func.return %0 : tensor<1x8x8x8x64xf32>
 }
 // CHECK:         %[[WINDOW:.+]] = tensor.empty() : tensor<3x3x3xf32>
@@ -668,9 +668,9 @@
   ^bb0(%arg2: tensor<f32>, %arg3 : tensor<f32>):
     %1 = stablehlo.add %arg2, %arg3 : tensor<f32>
     "stablehlo.return"(%1) : (tensor<f32>) -> ()
-  }) {base_dilations = dense<[1, 1, 1, 2, 1]> : tensor<5xi64>,
-      window_dimensions = dense<[1, 3, 3, 3, 1]> : tensor<5xi64>,
-      window_strides = dense<[1, 2, 2, 2, 1]> : tensor<5xi64>} : (tensor<1x17x17x17x64xf32>, tensor<f32>) -> tensor<1x8x8x16x64xf32>
+  }) {base_dilations = array<i64: 1, 1, 1, 2, 1>,
+      window_dimensions = array<i64: 1, 3, 3, 3, 1>,
+      window_strides = array<i64: 1, 2, 2, 2, 1>} : (tensor<1x17x17x17x64xf32>, tensor<f32>) -> tensor<1x8x8x16x64xf32>
   func.return %0 : tensor<1x8x8x16x64xf32>
 }
 
@@ -690,7 +690,11 @@
   ^bb0(%arg2: tensor<f32>, %arg3: tensor<f32>):
     %1 = stablehlo.add %arg2, %arg3 : tensor<f32>
     "stablehlo.return"(%1) : (tensor<f32>) -> ()
-  }) {base_dilations = dense<1> : tensor<2xi64>, padding = dense<[[0, 3], [1, 2]]> : tensor<2x2xi64>, window_dilations = dense<[1, 2]> : tensor<2xi64>, window_dimensions = dense<[1, 2]> : tensor<2xi64>, window_strides = dense<[2, 1]> : tensor<2xi64>} : (tensor<4x6xf32>, tensor<f32>) -> tensor<4x7xf32>
+  }) {base_dilations = array<i64: 1, 1>,
+      padding = dense<[[0, 3], [1, 2]]> : tensor<2x2xi64>,
+      window_dilations = array<i64: 1, 2>,
+      window_dimensions = array<i64: 1, 2>,
+      window_strides = array<i64: 2, 1>} : (tensor<4x6xf32>, tensor<f32>) -> tensor<4x7xf32>
   func.return %0 : tensor<4x7xf32>
 }
 // CHECK: %[[INIT:.+]] = tensor.empty() : tensor<4x7xf32>
@@ -727,7 +731,11 @@
     %1 = stablehlo.add %arg2, %arg3 : tensor<f32>
     %2 = stablehlo.multiply %1, %c2 : tensor<f32>
     "stablehlo.return"(%2) : (tensor<f32>) -> ()
-  }) {base_dilations = dense<1> : tensor<2xi64>, padding = dense<[[0, 3], [1, 2]]> : tensor<2x2xi64>, window_dilations = dense<[1, 2]> : tensor<2xi64>, window_dimensions = dense<[1, 2]> : tensor<2xi64>, window_strides = dense<[2, 1]> : tensor<2xi64>} : (tensor<4x6xf32>, tensor<f32>) -> tensor<4x7xf32>
+  }) {base_dilations = array<i64: 1, 1>,
+      padding = dense<[[0, 3], [1, 2]]> : tensor<2x2xi64>,
+      window_dilations = array<i64: 1, 2>,
+      window_dimensions = array<i64: 1, 2>,
+      window_strides = array<i64: 2, 1>} : (tensor<4x6xf32>, tensor<f32>) -> tensor<4x7xf32>
   func.return %0 : tensor<4x7xf32>
 }
 
@@ -747,7 +755,10 @@
   ^bb0(%arg2: tensor<f32>, %arg3: tensor<f32>):
     %1 = stablehlo.add %arg2, %arg3 : tensor<f32>
     "stablehlo.return"(%1) : (tensor<f32>) -> ()
-  }) {padding = dense<[[0, 3], [1, 2]]> : tensor<2x2xi64>, window_dilations = dense<[1, 2]> : tensor<2xi64>, window_dimensions = dense<[1, 2]> : tensor<2xi64>, window_strides = dense<[2, 1]> : tensor<2xi64>} : (tensor<3x6xf32>, tensor<f32>) -> tensor<3x7xf32>
+  }) {padding = dense<[[0, 3], [1, 2]]> : tensor<2x2xi64>,
+      window_dilations = array<i64: 1, 2>,
+      window_dimensions = array<i64: 1, 2>,
+      window_strides = array<i64: 2, 1>} : (tensor<3x6xf32>, tensor<f32>) -> tensor<3x7xf32>
   func.return %0 : tensor<3x7xf32>
 }
 // CHECK: %[[PADVAL:.+]] = tensor.extract %[[ARG1]][] : tensor<f32>
@@ -764,7 +775,10 @@
   ^bb0(%arg2: tensor<f32>, %arg3: tensor<f32>):
     %1 = stablehlo.add %arg2, %arg3 : tensor<f32>
     "stablehlo.return"(%1) : (tensor<f32>) -> ()
-  }) {base_dilations = dense<[2, 1]> : tensor<2xi64>, window_dilations = dense<[1, 2]> : tensor<2xi64>, window_dimensions = dense<[1, 2]> : tensor<2xi64>, window_strides = dense<[2, 1]> : tensor<2xi64>} : (tensor<3x6xf32>, tensor<f32>) -> tensor<3x4xf32>
+  }) {base_dilations = array<i64: 2, 1>,
+      window_dilations = array<i64: 1, 2>,
+      window_dimensions = array<i64: 1, 2>,
+      window_strides = array<i64: 2, 1>} : (tensor<3x6xf32>, tensor<f32>) -> tensor<3x4xf32>
   func.return %0 : tensor<3x4xf32>
 }
 // CHECK: %[[PADVAL:.+]] = tensor.extract %[[ARG1]][] : tensor<f32>
@@ -782,7 +796,11 @@
   ^bb0(%arg2: tensor<f32>, %arg3: tensor<f32>):
     %1 = stablehlo.add %arg2, %arg3 : tensor<f32>
     "stablehlo.return"(%1) : (tensor<f32>) -> ()
-  }) {base_dilations = dense<[2, 1]> : tensor<2xi64>, padding = dense<[[0, 3], [1, 2]]> : tensor<2x2xi64>, window_dilations = dense<[1, 2]> : tensor<2xi64>, window_dimensions = dense<[1, 2]> : tensor<2xi64>, window_strides = dense<[2, 1]> : tensor<2xi64>} : (tensor<3x6xf32>, tensor<f32>) -> tensor<4x7xf32>
+  }) {base_dilations = array<i64: 2, 1>,
+      padding = dense<[[0, 3], [1, 2]]> : tensor<2x2xi64>,
+      window_dilations = array<i64: 1, 2>,
+      window_dimensions = array<i64: 1, 2>,
+      window_strides = array<i64: 2, 1>} : (tensor<3x6xf32>, tensor<f32>) -> tensor<4x7xf32>
   func.return %0 : tensor<4x7xf32>
 }
 // CHECK: %[[PADVAL:.+]] = tensor.extract %[[ARG1]][] : tensor<f32>
@@ -799,7 +817,11 @@
   ^bb0(%arg2: tensor<f32>, %arg3: tensor<f32>):
     %1 = stablehlo.add %arg2, %arg3 : tensor<f32>
     "stablehlo.return"(%1) : (tensor<f32>) -> ()
-  }) {base_dilations = dense<> : tensor<0xi64>, padding = dense<> : tensor<0x2xi64>, window_dilations = dense<> : tensor<0xi64>, window_dimensions = dense<> : tensor<0xi64>, window_strides = dense<> : tensor<0xi64>} : (tensor<f32>, tensor<f32>) -> tensor<f32>
+  }) {base_dilations = array<i64>,
+      padding = dense<> : tensor<0x2xi64>,
+      window_dilations = array<i64>,
+      window_dimensions = array<i64>,
+      window_strides = array<i64>} : (tensor<f32>, tensor<f32>) -> tensor<f32>
   func.return %0 : tensor<f32>
 }
 // CHECK: linalg.generic {indexing_maps = [#[[MAP]], #[[MAP]], #[[MAP]]]
diff --ruN a/stablehlo/stablehlo/conversions/linalg/transforms/StablehloToLinalgConvolution.cpp b/stablehlo/stablehlo/conversions/linalg/transforms/StablehloToLinalgConvolution.cpp
--- stablehlo/stablehlo/conversions/linalg/transforms/StablehloToLinalgConvolution.cpp
+++ stablehlo/stablehlo/conversions/linalg/transforms/StablehloToLinalgConvolution.cpp
@@ -30,11 +30,12 @@
 /// Apply dilation and padding to the input of a convolution.
 Value applyConvolutionPadding(Location loc, Value input,
                               DenseIntElementsAttr padding,
-                              Attribute lhsDilation,
+                              DenseI64ArrayAttr lhsDilation,
                               llvm::ArrayRef<int64_t> dimMappings,
                               OpBuilder &rewriter) {
   SmallVector<int64_t> lhsDilationValues;
-  if (lhsDilation) lhsDilationValues = hlo::getI64Array(lhsDilation);
+  if (lhsDilation)
+    lhsDilationValues = llvm::to_vector(lhsDilation.asArrayRef());
   bool noPadding = !padding || isSplatValue(padding, 0);
   bool noDilation = !lhsDilation || hlo::isSplatArray(lhsDilationValues, 1);
   if (noPadding && noDilation) return input;
diff --ruN a/stablehlo/stablehlo/conversions/linalg/transforms/StablehloToLinalgReduce.cpp b/stablehlo/stablehlo/conversions/linalg/transforms/StablehloToLinalgReduce.cpp
--- stablehlo/stablehlo/conversions/linalg/transforms/StablehloToLinalgReduce.cpp
+++ stablehlo/stablehlo/conversions/linalg/transforms/StablehloToLinalgReduce.cpp
@@ -129,7 +129,7 @@
     }
     auto srcRank = cast<ShapedType>(adaptor.getInputs()[0].getType()).getRank();
 
-    SmallVector<int64_t> reductionDims = op.getDimensions();
+    SmallVector<int64_t> reductionDims = llvm::to_vector(op.getDimensions());
 
     SmallVector<Type> resultTypes;
     if (failed(typeConverter->convertTypes(op.getResultTypes(), resultTypes)))
@@ -226,7 +226,7 @@
                                          "unsupported reduce (noop or empty)");
     }
 
-    auto reductionDims = op.getDimensions();
+    auto reductionDims = llvm::to_vector(op.getDimensions());
     // stablehlo.reduce doesn't specify the order of the reduction dimensions.
     llvm::sort(reductionDims);
 
@@ -346,17 +346,17 @@
 
     llvm::SmallVector<int64_t> baseDilations;
     if (op.getBaseDilations()) {
-      baseDilations = *op.getBaseDilations();
+      baseDilations = llvm::to_vector(*op.getBaseDilations());
     }
 
     llvm::SmallVector<int64_t> windowStrides(windowDimensions.size(), 1);
     if (op.getWindowStrides()) {
-      windowStrides = *op.getWindowStrides();
+      windowStrides = llvm::to_vector(*op.getWindowStrides());
     }
 
     llvm::SmallVector<int64_t> windowDilations(windowDimensions.size(), 1);
     if (op.getWindowDilations()) {
-      windowDilations = *op.getWindowDilations();
+      windowDilations = llvm::to_vector(*op.getWindowDilations());
     }
 
     auto rank = static_cast<int64_t>(windowDimensions.size());
diff --ruN a/stablehlo/stablehlo/conversions/tosa/tests/binary.mlir b/stablehlo/stablehlo/conversions/tosa/tests/binary.mlir
--- stablehlo/stablehlo/conversions/tosa/tests/binary.mlir
+++ stablehlo/stablehlo/conversions/tosa/tests/binary.mlir
@@ -109,7 +109,7 @@
       start_index_map = [0, 1]
     >,
     indices_are_sorted = false,
-    slice_sizes = dense<[1, 2, 5]> : tensor<3xi64>
+    slice_sizes = array<i64: 1, 2, 5>
   } : (tensor<3x4x5xi32>, tensor<3x2xi32>) -> tensor<3x2x5xi32>
   return %0 : tensor<3x2x5xi32>
 }
@@ -127,7 +127,7 @@
       start_index_map = [0, 1]
     >,
     indices_are_sorted = false,
-    slice_sizes = dense<[1, 2, 5]> : tensor<3xi64>
+    slice_sizes = array<i64: 1, 2, 5>
   } : (tensor<*xi32>, tensor<3x2xi32>) -> tensor<*xi32>
   return %0 : tensor<*xi32>
 }
@@ -182,7 +182,7 @@
   ^bb0(%arg2: tensor<f32>, %arg3: tensor<f32>):
     %1 = stablehlo.maximum %arg2, %arg3 : tensor<f32>
     "stablehlo.return"(%1) : (tensor<f32>) -> ()
-  }) {dimensions = dense<1> : tensor<1xi64>} : (tensor<1x10xf32>, tensor<f32>) -> tensor<1xf32>
+  }) {dimensions = array<i64: 1>} : (tensor<1x10xf32>, tensor<f32>) -> tensor<1xf32>
   return %0 : tensor<1xf32>
 }
 
@@ -194,7 +194,7 @@
   ^bb0(%arg2: tensor<f32>, %arg3: tensor<f32>):
     %1 = stablehlo.add %arg2, %arg3 : tensor<f32>
     "stablehlo.return"(%1) : (tensor<f32>) -> ()
-  }) {dimensions = dense<0> : tensor<1xi64>} : (tensor<5x4xf32>, tensor<f32>) -> tensor<4xf32>
+  }) {dimensions = array<i64: 0>} : (tensor<5x4xf32>, tensor<f32>) -> tensor<4xf32>
   return %0 : tensor<4xf32>
 }
 
diff --ruN a/stablehlo/stablehlo/dialect/AssemblyFormat.cpp b/stablehlo/stablehlo/dialect/AssemblyFormat.cpp
--- stablehlo/stablehlo/dialect/AssemblyFormat.cpp
+++ stablehlo/stablehlo/dialect/AssemblyFormat.cpp
@@ -255,46 +255,6 @@
 //===----------------------------------------------------------------------===//
 // Attribute Printers and Parsers
 //===----------------------------------------------------------------------===//
-
-void printDenseI64Array(OpAsmPrinter& p, Operation* op,
-                        DenseIntElementsAttr attr) {
-  if (attr.getType().getRank() != 1)
-    llvm::report_fatal_error("printDenseI64Array only supports rank-1 arrays");
-  auto values = llvm::to_vector(attr.getValues<int64_t>());
-  DenseI64ArrayAttr arrayAttr =
-      DenseI64ArrayAttr::get(op->getContext(), values);
-  arrayAttr.print(p);
-}
-
-ParseResult parseDenseI64Array(OpAsmParser& parser,
-                               DenseIntElementsAttr& attr) {
-  DenseI64ArrayAttr arrayAttr = DenseI64ArrayAttr::parse(parser, Type{})
-                                    .dyn_cast_or_null<DenseI64ArrayAttr>();
-  if (!arrayAttr) return failure();
-
-  ArrayRef<int64_t> data = arrayAttr.asArrayRef();
-  RankedTensorType type =
-      RankedTensorType::get(data.size(), parser.getBuilder().getI64Type());
-  attr = DenseIntElementsAttr::get(type, data);
-  return success();
-}
-
-void printI64DenseArrayOrElements1D(OpAsmPrinter& p, Operation* op,
-                                    Attribute attr) {
-  if (auto elems = dyn_cast<DenseIntElementsAttr>(attr)) {
-    printDenseI64Array(p, op, elems);
-    return;
-  }
-  dyn_cast<DenseI64ArrayAttr>(attr).print(p);
-}
-
-ParseResult parseI64DenseArrayOrElements1D(OpAsmParser& parser,
-                                           Attribute& attr) {
-  if ((attr = DenseI64ArrayAttr::parse(parser, Type{}))) {
-    return success();
-  }
-  return failure();
-}
 
 void printSliceRanges(OpAsmPrinter& p, Operation* op,
                       ArrayRef<int64_t> startIndices,
diff --ruN a/stablehlo/stablehlo/dialect/AssemblyFormat.h b/stablehlo/stablehlo/dialect/AssemblyFormat.h
--- stablehlo/stablehlo/dialect/AssemblyFormat.h
+++ stablehlo/stablehlo/dialect/AssemblyFormat.h
@@ -174,31 +174,6 @@
 // Attribute Printers and Parsers
 //===----------------------------------------------------------------------===//
 
-// DenseI64Array - Used to print DenseIntElementsAttrs that are verified to have
-// rank 1 as an i64 array without needing the dense specifier or type specifier.
-//
-//   Generic:
-//     { dense<[1, 2]> : tensor<2xi64> }
-//   Custom:
-//     [1, 2]
-void printDenseI64Array(OpAsmPrinter& p, Operation* op,
-                        DenseIntElementsAttr attr);
-
-ParseResult parseDenseI64Array(OpAsmParser& parser, DenseIntElementsAttr& attr);
-
-// I64DenseArrayOrElements1D - Used to print an attr that can be either
-// I64ElementsAttr (DenseIntElementsAttr) or DenseI64ArrayAttr.
-//
-//   Dense elements:
-//     { dense<[1, 2]> : tensor<2xi64> }
-//   Array:
-//     { array<i64: 1, 2> }
-void printI64DenseArrayOrElements1D(OpAsmPrinter& p, Operation* op,
-                                    Attribute attr);
-
-ParseResult parseI64DenseArrayOrElements1D(OpAsmParser& parser,
-                                           Attribute& attr);
-
 // SliceRanges - Used to print multi-dimensional ranges for slice.
 void printSliceRanges(OpAsmPrinter& p, Operation* op,
                       ArrayRef<int64_t> startIndices,
diff --ruN a/stablehlo/stablehlo/dialect/Base.cpp b/stablehlo/stablehlo/dialect/Base.cpp
--- stablehlo/stablehlo/dialect/Base.cpp
+++ stablehlo/stablehlo/dialect/Base.cpp
@@ -617,18 +617,5 @@
       false);
 }
 
-SmallVector<bool> getBoolArray(Attribute attr) {
-  if (!attr) return {};
-  if (auto elements = attr.dyn_cast<DenseIntOrFPElementsAttr>())
-    return llvm::to_vector(elements.getValues<bool>());
-  if (auto array = attr.dyn_cast<DenseBoolArrayAttr>()) {
-    return SmallVector<bool>(array.asArrayRef());
-  }
-  llvm::report_fatal_error(
-      "called getBoolArray on Attribute that was neither a "
-      "DenseIntOrFPElementsAttr or a DenseBoolArrayAttr",
-      false);
-}
-
 }  // namespace hlo
 }  // namespace mlir
diff --ruN a/stablehlo/stablehlo/dialect/Base.h b/stablehlo/stablehlo/dialect/Base.h
--- stablehlo/stablehlo/dialect/Base.h
+++ stablehlo/stablehlo/dialect/Base.h
@@ -57,11 +57,6 @@
 }
 
 // Checks whether every position in the given array contains the given value.
-// This is especially useful for dealing with instances of
-// I64DenseArrayOrElements1DAttr, which returns a SmallVector<int64_t> as its
-// value no matter what actual attribute is backing it.
-// TODO(#1578): Remove this code once all uses of I64DenseArrayOrElements1DAttr
-// have been removed.
 bool isSplatArray(ArrayRef<int64_t> arr, int64_t val);
 
 // Returns a vector of the int64 values in a I64DenseArrayOrElements1DAttr.
@@ -70,13 +65,6 @@
 // TODO(#1578): Remove this code once all uses of I64DenseArrayOrElements1DAttr
 // have been removed.
 SmallVector<int64_t> getI64Array(Attribute);
-
-// Returns a vector of the bool values in a BoolDenseArrayOrElementsAttr.
-// Such an Attr can be backed by either a DenseIntOrFPElementsAttr or
-// a DenseBoolArrayAttr.
-// TODO(#1578): Remove this code once all uses of BoolDenseArrayOrElementsAttr
-// have been removed.
-SmallVector<bool> getBoolArray(Attribute);
 
 //  Verifies that the two types have compatible shape with bounds but allows
 //  different element types.
diff --ruN a/stablehlo/stablehlo/dialect/StablehloAttrs.td b/stablehlo/stablehlo/dialect/StablehloAttrs.td
--- stablehlo/stablehlo/dialect/StablehloAttrs.td
+++ stablehlo/stablehlo/dialect/StablehloAttrs.td
@@ -179,35 +179,18 @@
   let hasCustomAssemblyFormat = 1;
 }
 
-def StableHLO_BoolElementsAttr :
-    ElementsAttrBase<
-      And<[CPred<"$_self.isa<::mlir::DenseIntOrFPElementsAttr>()">,
-           CPred<"$_self.cast<::mlir::DenseIntOrFPElementsAttr>().getType().getElementType().isInteger(1)">]>,
-      "constant boolean vector/tensor attribute"> {
-  let storageType = [{ ::mlir::DenseElementsAttr }];
-  let returnType = [{ ::mlir::DenseElementsAttr }];
-
-  let convertFromStorage = "$_self";
-}
-
-def BoolDenseArrayOrElementsAttr : Attr<Or<[DenseBoolArrayAttr.predicate, StableHLO_BoolElementsAttr.predicate]>, "either a DenseBoolArrayAttr or a StableHLO_BoolElementsAttr"> {
-  let storageType = "mlir::Attribute";
-  let returnType = "SmallVector<bool>";
-  let convertFromStorage = "hlo::getBoolArray($_self)";
-}
-
 def StableHLO_ConvolutionAttributes {
   dag attributes = (ins
     // Default value: one for each of the spatial dimension.
-    OptionalAttr<I64DenseArrayOrElements1DAttr>:$window_strides,
+    OptionalAttr<DenseI64ArrayAttr>:$window_strides,
     // Default value: two zeros for each of the spatial dimension.
     OptionalAttr<I64ElementsAttr>:$padding,
     // Default value: one for each of the spatial dimension.
-    OptionalAttr<I64DenseArrayOrElements1DAttr>:$lhs_dilation,
+    OptionalAttr<DenseI64ArrayAttr>:$lhs_dilation,
     // Default value: one for each of the spatial dimension.
-    OptionalAttr<I64DenseArrayOrElements1DAttr>:$rhs_dilation,
+    OptionalAttr<DenseI64ArrayAttr>:$rhs_dilation,
     // Default value: false for each of the spatial dimension.
-    OptionalAttr<BoolDenseArrayOrElementsAttr>:$window_reversal,
+    OptionalAttr<DenseBoolArrayAttr>:$window_reversal,
     StableHLO_ConvDimensionNumbers:$dimension_numbers,
     I64Attr:$feature_group_count,
     I64Attr:$batch_group_count,
diff --ruN a/stablehlo/stablehlo/dialect/StablehloOps.cpp b/stablehlo/stablehlo/dialect/StablehloOps.cpp
--- stablehlo/stablehlo/dialect/StablehloOps.cpp
+++ stablehlo/stablehlo/dialect/StablehloOps.cpp
@@ -1401,10 +1401,10 @@
 // Builder that takes a constructor for its region and infers result types
 void ReduceWindowOp::build(
     OpBuilder& odsBuilder, OperationState& odsState, ValueRange inputs,
-    ValueRange init_values, DenseIntElementsAttr window_dimensions,
-    /*optional*/ DenseIntElementsAttr window_strides,
-    /*optional*/ DenseIntElementsAttr base_dilations,
-    /*optional*/ DenseIntElementsAttr window_dilations,
+    ValueRange init_values, DenseI64ArrayAttr window_dimensions,
+    /*optional*/ DenseI64ArrayAttr window_strides,
+    /*optional*/ DenseI64ArrayAttr base_dilations,
+    /*optional*/ DenseI64ArrayAttr window_dilations,
     /*optional*/ DenseIntElementsAttr padding,
     function_ref<void(OpBuilder&, Location, ValueRange)> bodyBuilder) {
   odsState.addOperands(inputs);
@@ -1631,7 +1631,7 @@
         parser.parseKeyword("reducer"))
       return failure();
     OpBuilder builder(parser.getBuilder().getContext());
-    result.addAttribute("dimensions", builder.getI64TensorAttr(dimensions));
+    result.addAttribute("dimensions", builder.getDenseI64ArrayAttr(dimensions));
 
     // Parse the "reducer" region now.
     SmallVector<OpAsmParser::UnresolvedOperand, 2> reducerOperands;
@@ -1769,7 +1769,7 @@
   // dimension attribute.
   result.addTypes(reduceOpFnType.getResults());
   result.location = innerOp->getLoc();
-  result.addAttribute("dimensions", builder.getI64TensorAttr(dimensions));
+  result.addAttribute("dimensions", builder.getDenseI64ArrayAttr(dimensions));
   return success();
 }
 
@@ -2423,10 +2423,8 @@
 
 using mlir::hlo::parseComplexOpType;
 using mlir::hlo::parseCustomCallTarget;
-using mlir::hlo::parseDenseI64Array;
 using mlir::hlo::parseDotDimensionNumbers;
 using mlir::hlo::parseExponentMantissa;
-using mlir::hlo::parseI64DenseArrayOrElements1D;
 using mlir::hlo::parsePairwiseOpType;
 using mlir::hlo::parseSameOperandsAndResultType;
 using mlir::hlo::parseSelectOpType;
@@ -2436,10 +2434,8 @@
 using mlir::hlo::parseVariadicSameOperandsAndResultType;
 using mlir::hlo::printComplexOpType;
 using mlir::hlo::printCustomCallTarget;
-using mlir::hlo::printDenseI64Array;
 using mlir::hlo::printDotDimensionNumbers;
 using mlir::hlo::printExponentMantissa;
-using mlir::hlo::printI64DenseArrayOrElements1D;
 using mlir::hlo::printPairwiseOpType;
 using mlir::hlo::printSameOperandsAndResultType;
 using mlir::hlo::printSelectOpType;
@@ -3109,11 +3105,11 @@
 }  // namespace
 
 void printWindowAttributes(OpAsmPrinter& p, Operation* /*op*/,
-                           std::optional<Attribute> windowStrides,
+                           std::optional<DenseI64ArrayAttr> windowStrides,
                            std::optional<DenseIntElementsAttr> padding,
-                           std::optional<Attribute> lhsDilation,
-                           std::optional<Attribute> rhsDilation,
-                           std::optional<Attribute> windowReversal) {
+                           std::optional<DenseI64ArrayAttr> lhsDilation,
+                           std::optional<DenseI64ArrayAttr> rhsDilation,
+                           std::optional<DenseBoolArrayAttr> windowReversal) {
   using pair_t = std::pair<Attribute, StringRef>;
   std::array<pair_t, 5> printedAttributes = {{
       {windowStrides ? *windowStrides : nullptr, "stride"},
@@ -3134,20 +3130,23 @@
     if (attr.second == "pad") {
       printWindowPadding(p, attr.first.dyn_cast<DenseIntElementsAttr>());
     } else if (attr.second == "reverse") {
-      llvm::interleaveComma(hlo::getBoolArray(attr.first), p);
+      llvm::interleaveComma(
+          attr.first.dyn_cast<DenseBoolArrayAttr>().asArrayRef(), p);
     } else {
-      llvm::interleaveComma(hlo::getI64Array(attr.first), p);
+      llvm::interleaveComma(
+          attr.first.dyn_cast<DenseI64ArrayAttr>().asArrayRef(), p);
     }
 
     p << ']';
   });
 }
 
-ParseResult parseWindowAttributes(OpAsmParser& parser, Attribute& windowStrides,
+ParseResult parseWindowAttributes(OpAsmParser& parser,
+                                  DenseI64ArrayAttr& windowStrides,
                                   DenseIntElementsAttr& padding,
-                                  Attribute& lhsDilation,
-                                  Attribute& rhsDilation,
-                                  Attribute& windowReversal) {
+                                  DenseI64ArrayAttr& lhsDilation,
+                                  DenseI64ArrayAttr& rhsDilation,
+                                  DenseBoolArrayAttr& windowReversal) {
   StringRef attributeName;
 
   llvm::StringSet<> allowedAttributeNames{
@@ -3202,13 +3201,12 @@
                                          int64Parser))
         return failure();
       if (attributeName == "reverse") {
-        auto ty = RankedTensorType::get({static_cast<int64_t>(values.size())},
-                                        parser.getBuilder().getIntegerType(1));
         auto boolVector = llvm::to_vector<4>(
             llvm::map_range(values, [](int64_t v) { return v != 0; }));
-        windowReversal = DenseElementsAttr::get(ty, boolVector);
+        windowReversal =
+            DenseBoolArrayAttr::get(parser.getContext(), boolVector);
       } else {
-        auto attr = parser.getBuilder().getI64TensorAttr(values);
+        auto attr = parser.getBuilder().getDenseI64ArrayAttr(values);
 
         if (attributeName == "stride") {
           windowStrides = attr;
diff --ruN a/stablehlo/stablehlo/dialect/StablehloOps.h b/stablehlo/stablehlo/dialect/StablehloOps.h
--- stablehlo/stablehlo/dialect/StablehloOps.h
+++ stablehlo/stablehlo/dialect/StablehloOps.h
@@ -88,17 +88,18 @@
 
 // Custom formatting for convolution window attributes.
 void printWindowAttributes(OpAsmPrinter &p, Operation *op,
-                           std::optional<Attribute> windowStrides,
+                           std::optional<DenseI64ArrayAttr> windowStrides,
                            std::optional<DenseIntElementsAttr> padding,
-                           std::optional<Attribute> lhsDilation,
-                           std::optional<Attribute> rhsDilation,
-                           std::optional<Attribute> windowReversal);
+                           std::optional<DenseI64ArrayAttr> lhsDilation,
+                           std::optional<DenseI64ArrayAttr> rhsDilation,
+                           std::optional<DenseBoolArrayAttr> windowReversal);
 
-ParseResult parseWindowAttributes(OpAsmParser &parser, Attribute &windowStrides,
+ParseResult parseWindowAttributes(OpAsmParser &parser,
+                                  DenseI64ArrayAttr &windowStrides,
                                   DenseIntElementsAttr &padding,
-                                  Attribute &lhsDilation,
-                                  Attribute &rhsDilation,
-                                  Attribute &windowReversal);
+                                  DenseI64ArrayAttr &lhsDilation,
+                                  DenseI64ArrayAttr &rhsDilation,
+                                  DenseBoolArrayAttr &windowReversal);
 
 }  // end namespace stablehlo
 }  // end namespace mlir
diff --ruN a/stablehlo/stablehlo/dialect/StablehloOps.td b/stablehlo/stablehlo/dialect/StablehloOps.td
--- stablehlo/stablehlo/dialect/StablehloOps.td
+++ stablehlo/stablehlo/dialect/StablehloOps.td
@@ -1472,7 +1472,7 @@
   let arguments = (ins
     Variadic<HLO_Tensor>:$inputs, /*reduce_i1*/
     Variadic<HLO_Tensor>:$init_values, /*reduce_i2*/
-    I64DenseArrayOrElements1DAttr:$dimensions /*reduce_i3*/
+    DenseI64ArrayAttr:$dimensions /*reduce_i3*/
   );
   let regions = (region SizedRegion<1>:$body /*reduce_i4*/);
 
@@ -1870,7 +1870,7 @@
   }];
   let arguments = (ins
     HLO_Tensor:$operand /*broadcast_in_dim_i1*/,
-    I64DenseArrayOrElements1DAttr:$broadcast_dimensions /*broadcast_in_dim_i2*/
+    DenseI64ArrayAttr:$broadcast_dimensions /*broadcast_in_dim_i2*/
   );
 
   let results = (outs HLO_StaticShapeTensor);
@@ -1878,7 +1878,7 @@
   let hasVerifier = 1;
 
   let assemblyFormat = [{
-    $operand `,` `dims` `=` custom<I64DenseArrayOrElements1D>($broadcast_dimensions)
+    $operand `,` `dims` `=` $broadcast_dimensions
       attr-dict `:` functional-type(operands, results)
   }];
 }
@@ -1903,9 +1903,9 @@
   let arguments = (ins
     HLO_Tensor:$operand,
     HLO_DimensionTensor:$output_dimensions,
-    I64DenseArrayOrElements1DAttr:$broadcast_dimensions,
-    OptionalAttr<I64DenseArrayOrElements1DAttr>:$known_expanding_dimensions,
-    OptionalAttr<I64DenseArrayOrElements1DAttr>:$known_nonexpanding_dimensions
+    DenseI64ArrayAttr:$broadcast_dimensions,
+    OptionalAttr<DenseI64ArrayAttr>:$known_expanding_dimensions,
+    OptionalAttr<DenseI64ArrayAttr>:$known_nonexpanding_dimensions
   );
 
   let results = (outs HLO_Tensor);
@@ -1913,7 +1913,7 @@
   let builders = [
       OpBuilder<(ins
         "Type":$result_type, "Value":$operand, "Value":$output_dimensions,
-        "Attribute":$broadcast_dimensions), [{
+        "DenseI64ArrayAttr":$broadcast_dimensions), [{
       build($_builder, $_state, result_type, operand, output_dimensions,
           broadcast_dimensions, /*known_expanding_dimensions=*/{},
           /*known_nonexpanding_dimensions=*/{});
@@ -1923,7 +1923,7 @@
   let hasVerifier = 1;
 
   let assemblyFormat = [{
-    $operand `,` $output_dimensions `,` `dims` `=` custom<I64DenseArrayOrElements1D>($broadcast_dimensions)
+    $operand `,` $output_dimensions `,` `dims` `=` $broadcast_dimensions
       attr-dict `:` functional-type(operands, results)
   }];
 }
@@ -2126,7 +2126,7 @@
   let extraClassDeclaration = [{
     bool hasWindowReversal() {
       auto reversal = getWindowReversalAttr();
-      return reversal && llvm::any_of(hlo::getBoolArray(reversal), [](bool v) { return v; });
+      return reversal && llvm::any_of(reversal.asArrayRef(), [](bool v) { return v; });
     }
   }];
 
@@ -2396,7 +2396,7 @@
     HLO_Tensor:$operand /*gather_i1*/,
     HLO_IntTensor:$start_indices /*gather_i2*/,
     StableHLO_GatherDimensionNumbers:$dimension_numbers /*gather_i3, gather_i4, gather_i5, gather_i6*/,
-    I64DenseArrayOrElements1DAttr:$slice_sizes /*gather_i7*/,
+    DenseI64ArrayAttr:$slice_sizes /*gather_i7*/,
     DefaultValuedOptionalAttr<BoolAttr, "false">:$indices_are_sorted /*gather_i8*/
   );
 
@@ -2455,7 +2455,7 @@
   }];
   let arguments = (ins
     Variadic<HLO_Tensor>:$inputs /*map_i1*/,
-    I64DenseArrayOrElements1DAttr:$dimensions /*map_i2*/
+    DenseI64ArrayAttr:$dimensions /*map_i2*/
   );
   let regions = (region SizedRegion<1>:$computation /*map_i3*/);
   let results = (outs HLO_Tensor);
@@ -2616,8 +2616,8 @@
     HLO_Tensor:$operand, /*select_and_scatter_i1*/
     HLO_Tensor:$source, /*select_and_scatter_i2*/
     HLO_Tensor:$init_value, /*select_and_scatter_i3*/
-    OptionalAttr<I64DenseArrayOrElements1DAttr>:$window_dimensions, /*select_and_scatter_i4*/
-    OptionalAttr<I64DenseArrayOrElements1DAttr>:$window_strides, /*select_and_scatter_i5*/
+    OptionalAttr<DenseI64ArrayAttr>:$window_dimensions, /*select_and_scatter_i4*/
+    OptionalAttr<DenseI64ArrayAttr>:$window_strides, /*select_and_scatter_i5*/
     OptionalAttr<I64ElementsAttr>:$padding /*select_and_scatter_i6*/
   );
 
@@ -2881,13 +2881,13 @@
   let arguments = (ins
     Variadic<HLO_Tensor>:$inputs /*reduce_window_i1*/,
     Variadic<HLO_Tensor>:$init_values /*reduce_window_i2*/,
-    I64DenseArrayOrElements1DAttr:$window_dimensions /*reduce_window_i3*/,
+    DenseI64ArrayAttr:$window_dimensions /*reduce_window_i3*/,
     // If strides or dilations attributes are missing then the default value is
     // one for each of the operand dimensions. Similarly, padding values are zero
     // for both low and high in each of the dimensions, if not specified.
-    OptionalAttr<I64DenseArrayOrElements1DAttr>:$window_strides /*reduce_window_i4*/,
-    OptionalAttr<I64DenseArrayOrElements1DAttr>:$base_dilations /*reduce_window_i5*/,
-    OptionalAttr<I64DenseArrayOrElements1DAttr>:$window_dilations /*reduce_window_i6*/,
+    OptionalAttr<DenseI64ArrayAttr>:$window_strides /*reduce_window_i4*/,
+    OptionalAttr<DenseI64ArrayAttr>:$base_dilations /*reduce_window_i5*/,
+    OptionalAttr<DenseI64ArrayAttr>:$window_dilations /*reduce_window_i6*/,
     OptionalAttr<I64ElementsAttr>:$padding /*reduce_window_i7*/
   );
 
@@ -2902,10 +2902,10 @@
   let builders = [
     OpBuilder<(ins "Type":$result_type, "Value":$operand,
       "Value":$init_value,
-      "DenseIntElementsAttr":$window_dimensions,
-      "DenseIntElementsAttr":$window_strides,
-      "DenseIntElementsAttr":$base_dilations,
-      "DenseIntElementsAttr":$window_dilations,
+      "DenseI64ArrayAttr":$window_dimensions,
+      "DenseI64ArrayAttr":$window_strides,
+      "DenseI64ArrayAttr":$base_dilations,
+      "DenseI64ArrayAttr":$window_dilations,
       "DenseIntElementsAttr":$padding),
     [{
       build($_builder, $_state, TypeRange(result_type), ValueRange(operand),
@@ -2914,10 +2914,10 @@
     }]>,
     OpBuilder<(ins "ValueRange":$operands,
       "ValueRange":$init_values,
-      "DenseIntElementsAttr":$window_dimensions,
-      "DenseIntElementsAttr":$window_strides,
-      "DenseIntElementsAttr":$base_dilations,
-      "DenseIntElementsAttr":$window_dilations,
+      "DenseI64ArrayAttr":$window_dimensions,
+      "DenseI64ArrayAttr":$window_strides,
+      "DenseI64ArrayAttr":$base_dilations,
+      "DenseI64ArrayAttr":$window_dilations,
       "DenseIntElementsAttr":$padding,
       "function_ref<void(OpBuilder &, Location, ValueRange)>":$bodyBuilder
     )>,
diff --ruN a/stablehlo/stablehlo/experimental/BUILD.bazel b/stablehlo/stablehlo/experimental/BUILD.bazel
--- stablehlo/stablehlo/experimental/BUILD.bazel
+++ stablehlo/stablehlo/experimental/BUILD.bazel
@@ -0,0 +1,114 @@
+# Copyright 2023 The StableHLO Authors. All Rights Reserved.
+#
+# Licensed under the Apache License, Version 2.0 (the "License");
+# you may not use this file except in compliance with the License.
+# You may obtain a copy of the License at
+#
+#      https://www.apache.org/licenses/LICENSE-2.0
+#
+# Unless required by applicable law or agreed to in writing, software
+# distributed under the License is distributed on an "AS IS" BASIS,
+# WITHOUT WARRANTIES OR CONDITIONS OF ANY KIND, either express or implied.
+# See the License for the specific language governing permissions and
+# limitations under the License.
+load("@llvm-project//mlir:tblgen.bzl", "gentbl_cc_library")
+
+package(
+    default_visibility = ["//visibility:public"],
+    licenses = ["notice"],
+)
+
+cc_library(
+    name = "experimental_base",
+    srcs = [
+        "dialect/Base.cpp",
+    ],
+    hdrs = [
+        "dialect/Base.h",
+    ],
+    deps = [
+        "@llvm-project//llvm:Support",
+        "@llvm-project//mlir:IR",
+    ],
+)
+
+cc_library(
+    name = "experimental_stablehlo_ops",
+    srcs = [
+        "dialect/StablehloOps.cpp",
+    ],
+    hdrs = [
+        "dialect/StablehloOps.h",
+    ],
+    deps = [
+        ":experimental_base",
+        "//:stablehlo_ops",
+        "@llvm-project//llvm:Support",
+        "@llvm-project//mlir:FuncDialect",
+        "@llvm-project//mlir:IR",
+        "@llvm-project//mlir:Support",
+    ],
+)
+
+gentbl_cc_library(
+    name = "experimental_stablehlo_pass_inc_gen",
+    tbl_outs = [
+        (
+            [
+                "-gen-pass-decls",
+            ],
+            "transforms/Passes.h.inc",
+        ),
+    ],
+    tblgen = "@llvm-project//mlir:mlir-tblgen",
+    td_file = "transforms/Passes.td",
+    deps = ["@llvm-project//mlir:PassBaseTdFiles"],
+)
+
+cc_library(
+    name = "experimental_stablehlo_passes",
+    srcs = [
+        "transforms/StablehloCanonicalizeDynamism.cpp",
+        "transforms/StablehloRefineShapes.cpp",
+    ],
+    hdrs = [
+        "transforms/Passes.h",
+    ],
+    deps = [
+        ":experimental_stablehlo_ops",
+        ":experimental_stablehlo_pass_inc_gen",
+        "//:base",
+        "//:chlo_ops",
+        "//:stablehlo_ops",
+        "//:stablehlo_ops_inc_gen",
+        "//:stablehlo_passes",
+        "//:stablehlo_type_inference",
+        "@llvm-project//llvm:Support",
+        "@llvm-project//mlir:FuncDialect",
+        "@llvm-project//mlir:IR",
+        "@llvm-project//mlir:InferTypeOpInterface",
+        "@llvm-project//mlir:Pass",
+        "@llvm-project//mlir:Support",
+        "@llvm-project//mlir:TransformUtils",
+        "@llvm-project//mlir:Transforms",
+    ],
+)
+
+cc_binary(
+    name = "experimental-stablehlo-opt",
+    srcs = [
+        "tools/StablehloOptMain.cpp",
+    ],
+    deps = [
+        ":experimental_stablehlo_passes",
+        "//:interpreter_ops",
+        "//:register",
+        "//:stablehlo_passes",
+        "//:test_utils",
+        "//:tosa_passes",
+        "@llvm-project//mlir:AllExtensions",
+        "@llvm-project//mlir:AllPassesAndDialects",
+        "@llvm-project//mlir:MlirOptLib",
+        "@llvm-project//mlir:TosaDialect",
+    ],
+)
diff --ruN a/stablehlo/stablehlo/experimental/CMakeLists.txt b/stablehlo/stablehlo/experimental/CMakeLists.txt
--- stablehlo/stablehlo/experimental/CMakeLists.txt
+++ stablehlo/stablehlo/experimental/CMakeLists.txt
@@ -0,0 +1,18 @@
+# Copyright 2023 The StableHLO Authors.
+#
+# Licensed under the Apache License, Version 2.0 (the "License");
+# you may not use this file except in compliance with the License.
+# You may obtain a copy of the License at
+#
+#      https://www.apache.org/licenses/LICENSE-2.0
+#
+# Unless required by applicable law or agreed to in writing, software
+# distributed under the License is distributed on an "AS IS" BASIS,
+# WITHOUT WARRANTIES OR CONDITIONS OF ANY KIND, either express or implied.
+# See the License for the specific language governing permissions and
+# limitations under the License.
+
+add_subdirectory(dialect)
+add_subdirectory(tests)
+add_subdirectory(tools)
+add_subdirectory(transforms)
diff --ruN a/stablehlo/stablehlo/experimental/dialect/Base.cpp b/stablehlo/stablehlo/experimental/dialect/Base.cpp
--- stablehlo/stablehlo/experimental/dialect/Base.cpp
+++ stablehlo/stablehlo/experimental/dialect/Base.cpp
@@ -0,0 +1,39 @@
+/* Copyright 2020 The TensorFlow Authors. All Rights Reserved.
+   Copyright 2022 The StableHLO Authors.
+
+Licensed under the Apache License, Version 2.0 (the "License");
+you may not use this file except in compliance with the License.
+You may obtain a copy of the License at
+
+    http://www.apache.org/licenses/LICENSE-2.0
+
+Unless required by applicable law or agreed to in writing, software
+distributed under the License is distributed on an "AS IS" BASIS,
+WITHOUT WARRANTIES OR CONDITIONS OF ANY KIND, either express or implied.
+See the License for the specific language governing permissions and
+limitations under the License.
+==============================================================================*/
+
+#include "stablehlo/experimental/dialect/Base.h"
+
+#include "mlir/IR/BuiltinAttributes.h"
+#include "mlir/IR/BuiltinTypes.h"
+
+namespace mlir {
+namespace hlo {
+
+DenseIntElementsAttr getPaddingAttr(MLIRContext* context,
+                                    ArrayRef<int64_t> values) {
+  return DenseIntElementsAttr::get(
+      RankedTensorType::get({static_cast<int64_t>(values.size()) / 2, 2},
+                            IntegerType::get(context, 64)),
+      values);
+}
+
+DenseIntElementsAttr getPaddingAttr(Builder* builder,
+                                    ArrayRef<int64_t> values) {
+  return getPaddingAttr(builder->getContext(), values);
+}
+
+}  // namespace hlo
+}  // namespace mlir
diff --ruN a/stablehlo/stablehlo/experimental/dialect/Base.h b/stablehlo/stablehlo/experimental/dialect/Base.h
--- stablehlo/stablehlo/experimental/dialect/Base.h
+++ stablehlo/stablehlo/experimental/dialect/Base.h
@@ -0,0 +1,35 @@
+/* Copyright 2021 The TensorFlow Authors. All Rights Reserved.
+   Copyright 2022 The StableHLO Authors.
+
+Licensed under the Apache License, Version 2.0 (the "License");
+you may not use this file except in compliance with the License.
+You may obtain a copy of the License at
+
+    http://www.apache.org/licenses/LICENSE-2.0
+
+Unless required by applicable law or agreed to in writing, software
+distributed under the License is distributed on an "AS IS" BASIS,
+WITHOUT WARRANTIES OR CONDITIONS OF ANY KIND, either express or implied.
+See the License for the specific language governing permissions and
+limitations under the License.
+==============================================================================*/
+
+#ifndef STABLEHLO_EXPERIMENTAL_DIALECT_BASE_H
+#define STABLEHLO_EXPERIMENTAL_DIALECT_BASE_H
+
+#include "llvm/ADT/ArrayRef.h"
+#include "mlir/IR/Builders.h"
+#include "mlir/IR/BuiltinAttributes.h"
+#include "mlir/IR/MLIRContext.h"
+
+namespace mlir {
+namespace hlo {
+
+DenseIntElementsAttr getPaddingAttr(MLIRContext *context,
+                                    ArrayRef<int64_t> value);
+DenseIntElementsAttr getPaddingAttr(Builder *builder, ArrayRef<int64_t> value);
+
+}  // namespace hlo
+}  // namespace mlir
+
+#endif  // STABLEHLO_EXPERIMENTAL_DIALECT_BASE_H
diff --ruN a/stablehlo/stablehlo/experimental/dialect/CMakeLists.txt b/stablehlo/stablehlo/experimental/dialect/CMakeLists.txt
--- stablehlo/stablehlo/experimental/dialect/CMakeLists.txt
+++ stablehlo/stablehlo/experimental/dialect/CMakeLists.txt
@@ -0,0 +1,42 @@
+# Copyright 2020 The TensorFlow Authors. All Rights Reserved.
+# Copyright 2023 The StableHLO Authors.
+#
+# Licensed under the Apache License, Version 2.0 (the "License");
+# you may not use this file except in compliance with the License.
+# You may obtain a copy of the License at
+#
+#      https://www.apache.org/licenses/LICENSE-2.0
+#
+# Unless required by applicable law or agreed to in writing, software
+# distributed under the License is distributed on an "AS IS" BASIS,
+# WITHOUT WARRANTIES OR CONDITIONS OF ANY KIND, either express or implied.
+# See the License for the specific language governing permissions and
+# limitations under the License.
+
+add_mlir_library(ExperimentalStablehloBase
+  PARTIAL_SOURCES_INTENDED
+  Base.cpp
+
+  LINK_LIBS PUBLIC
+  MLIRIR
+)
+
+add_mlir_dialect_library(ExperimentalStablehloOps
+  PARTIAL_SOURCES_INTENDED
+  StablehloOps.cpp
+
+  DEPENDS
+  StablehloOpsIncGen
+
+  LINK_LIBS PUBLIC
+  ExperimentalStablehloBase
+  MLIRFuncDialect
+  MLIRIR
+  MLIRSupport
+  StablehloOps
+)
+
+target_include_directories(ExperimentalStablehloOps INTERFACE
+  $<BUILD_INTERFACE:${STABLEHLO_SOURCE_DIR}>
+  $<BUILD_INTERFACE:${STABLEHLO_BINARY_DIR}>
+)
diff --ruN a/stablehlo/stablehlo/experimental/dialect/StablehloOps.cpp b/stablehlo/stablehlo/experimental/dialect/StablehloOps.cpp
--- stablehlo/stablehlo/experimental/dialect/StablehloOps.cpp
+++ stablehlo/stablehlo/experimental/dialect/StablehloOps.cpp
@@ -0,0 +1,641 @@
+/* Copyright 2023 The StableHLO Authors.
+
+Licensed under the Apache License, Version 2.0 (the "License");
+you may not use this file except in compliance with the License.
+You may obtain a copy of the License at
+
+    http://www.apache.org/licenses/LICENSE-2.0
+
+Unless required by applicable law or agreed to in writing, software
+distributed under the License is distributed on an "AS IS" BASIS,
+WITHOUT WARRANTIES OR CONDITIONS OF ANY KIND, either express or implied.
+See the License for the specific language governing permissions and
+limitations under the License.
+==============================================================================*/
+
+#include "stablehlo/experimental/dialect/StablehloOps.h"
+
+#include <cstdint>
+#include <optional>
+
+#include "llvm/ADT/ArrayRef.h"
+#include "llvm/ADT/STLExtras.h"
+#include "mlir/Dialect/Func/IR/FuncOps.h"
+#include "mlir/IR/BuiltinAttributes.h"
+#include "mlir/IR/BuiltinOps.h"
+#include "mlir/IR/BuiltinTypeInterfaces.h"
+#include "mlir/IR/Types.h"
+
+namespace mlir {
+namespace stablehlo {
+namespace experimental {
+
+LogicalResult DynamicReduceWindowOpAdaptor::verify() {
+  // Before checking the constraints inherited from ReduceWindowOp,
+  // make sure that the operands and the attributes of the underlying custom
+  // call make sense.
+  if (op_->getNumOperands() != 2 * op_->getNumResults() + 5)
+    return op_.emitError("expects size(operands) = 2 * size(results) + 5");
+  if (op_->getNumResults() == 0)
+    return op_.emitError("expects size(results) > 0");
+  for (const auto& attr : op_->getAttrs()) {
+    // api_version and backend_config have default values.
+    // call_target_name should be "stablehlo.dynamic_reduce_window".
+    // called_computations carries the body.
+    if (attr.getName() != "api_version" && attr.getName() != "backend_config" &&
+        attr.getName() != "call_target_name" &&
+        attr.getName() != "called_computations")
+      return op_.emitError()
+             << attr.getName() << " is not a supported attribute";
+  }
+  if (!op_.getBackendConfig().empty())
+    return op_.emitError() << "expects an empty backend_config";
+  if (op_.getCallTargetName() != "stablehlo.dynamic_reduce_window")
+    return op_.emitError() << "expects @stablehlo.dynamic_reduce_window";
+
+  // Unpack operands and attributes of the underlying custom call into
+  // operation-specific inputs.
+  auto numInputs = getInputs().size();
+  auto inputs = op_.getInputs().slice(0, numInputs);
+  auto initValues = op_.getInputs().slice(numInputs, numInputs);
+  auto windowDimensions = op_.getInputs()[op_.getInputs().size() - 5];
+  auto windowStrides = op_.getInputs()[op_.getInputs().size() - 4];
+  auto baseDilations = op_.getInputs()[op_.getInputs().size() - 3];
+  auto windowDilations = op_.getInputs()[op_.getInputs().size() - 2];
+  auto padding = op_.getInputs()[op_.getInputs().size() - 1];
+  auto results = op_.getResults();
+
+  // reduce_window_c1
+  // This constraint hold automatically thanks to the checks that we have
+  // performed above.
+
+  // reduce_window_i1
+  SmallVector<ShapedType> inputTypes;
+  for (auto [index, input] : llvm::enumerate(inputs)) {
+    auto inputType = input.getType().dyn_cast<ShapedType>();
+    inputTypes.push_back(inputType);
+    if (!inputType)
+      return op_.emitError()
+             << "expects inputs (e.g. operand #" << index << ") to be tensors";
+  }
+
+  // reduce_window_i2
+  SmallVector<ShapedType> initValueTypes;
+  for (auto [index, initValue] : llvm::enumerate(initValues)) {
+    auto initValueType = initValue.getType().dyn_cast<ShapedType>();
+    initValueTypes.push_back(initValueType);
+    if (!initValueType || !initValueType.hasRank() ||
+        initValueType.getRank() != 0)
+      return op_.emitError() << "expects init_values (e.g. operand #"
+                             << numInputs + index << ") "
+                             << "to be 0-dimensional tensors";
+  }
+
+  // reduce_window_i3...reduce_window_i7
+  auto checkRank = [&](StringRef name, int64_t index, Value dynamicAttr,
+                       int64_t expectedRank) -> LogicalResult {
+    auto type = dynamicAttr.getType().dyn_cast<ShapedType>();
+    if (!type || !type.hasRank() || type.getRank() != expectedRank ||
+        !type.getElementType().isIntOrIndex()) {
+      if (index < 0) index += op_->getNumOperands();
+      return op_.emitError()
+             << "expects " << name << " (operand #" << index << ") "
+             << "to be a " << expectedRank << "-dimensional tensor "
+             << "of integer or index type";
+    }
+    return success();
+  };
+  if (failed(checkRank("window_dimensions", -5, windowDimensions, 1)) ||
+      failed(checkRank("window_strides", -4, windowStrides, 1)) ||
+      failed(checkRank("base_dilations", -3, baseDilations, 1)) ||
+      failed(checkRank("window_dilations", -2, windowDilations, 1)) ||
+      failed(checkRank("padding", -1, padding, 2)))
+    return failure();
+
+  // reduce_window_i7
+  auto paddingType = getPadding().getType().dyn_cast<ShapedType>();
+  if (!paddingType || !paddingType.hasRank() || paddingType.getRank() != 2 ||
+      paddingType.getDimSize(1) != 2 ||
+      !paddingType.getElementType().isIntOrIndex())
+    return op_.emitError()
+           << "expects padding_type (operand #" << op_.getNumOperands() - 1
+           << ") to be a 2-dimensional tensor of integer or index type";
+
+  // reduce_window_c2
+  std::optional<ArrayRef<int64_t>> inputShape;
+  for (auto inputType : inputTypes) {
+    if (!inputType.hasRank()) continue;
+    if (!inputShape) inputShape = inputType.getShape();
+    if (failed(verifyCompatibleShape(inputType.getShape(), *inputShape)))
+      return op_.emitError() << "expects all inputs (operands 0.." << numInputs
+                             << ") to have compatible shapes";
+  }
+
+  // reduce_window_c3
+  for (auto [inputType, initValueType] :
+       llvm::zip(inputTypes, initValueTypes)) {
+    if (inputType.getElementType() != initValueType.getElementType())
+      return op_.emitError() << "expects inputs (operands 0.." << numInputs
+                             << ") and init_values (operands " << numInputs
+                             << ".." << numInputs * 2 << ") to have pairwise "
+                             << "the same element types";
+  }
+
+  // reduce_window_c4...reduce_window_c12
+  // In this range, we only verify the constraints with even numbers.
+  // Verifying the constraints with odd numbers would require knowing the
+  // actual values of window_dimensions, window_strides, etc.
+  // While we certainly can try to check whether they are constants and
+  // verify them in that case, that seems like too much at this point.
+  auto checkShape = [&](StringRef name, int64_t index, Value dynamicAttr,
+                        ArrayRef<int64_t> expectedShape) -> LogicalResult {
+    auto type = dynamicAttr.getType().cast<ShapedType>();
+    if (type.getShape() != expectedShape) {
+      if (index < 0) index += op_->getNumOperands();
+      return op_.emitError()
+             << "expects " << name << " (operand #" << index << ") "
+             << "to have shape [" << expectedShape << "]";
+    }
+    return success();
+  };
+  if (inputShape) {
+    auto inputRank = static_cast<int64_t>(inputShape->size());
+    if (failed(checkShape("window_dimensions", -5, windowDimensions,
+                          {inputRank})) ||
+        failed(checkShape("window_strides", -4, windowStrides, {inputRank})) ||
+        failed(checkShape("base_dilations", -3, baseDilations, {inputRank})) ||
+        failed(
+            checkShape("window_dilations", -2, windowDilations, {inputRank})) ||
+        failed(checkShape("padding", -1, padding, {inputRank, 2})))
+      return failure();
+  }
+
+  // reduce_window_c13
+  if (op_.getCalledComputations().size() != 1)
+    return op_.emitError() << "expects called_computations to have 1 element";
+  auto bodyAttr = op_.getCalledComputations()[0].cast<FlatSymbolRefAttr>();
+  auto bodyFunc =
+      op_->getParentOfType<ModuleOp>().lookupSymbol<func::FuncOp>(bodyAttr);
+  if (!bodyFunc)
+    return op_.emitError() << "expects called_computations to refer to "
+                           << "a function that exists within a parent module";
+
+  // reduce_window_c13
+  SmallVector<Type> expectedBodyInputs;
+  llvm::append_range(expectedBodyInputs, initValueTypes);
+  llvm::append_range(expectedBodyInputs, initValueTypes);
+  SmallVector<Type> expectedBodyOutputs;
+  llvm::append_range(expectedBodyOutputs, initValueTypes);
+  auto expectedBodyType = FunctionType::get(
+      op_.getContext(), expectedBodyInputs, expectedBodyOutputs);
+  if (bodyFunc.getFunctionType() != expectedBodyType)
+    return op_.emitError() << "expects body to have type " << expectedBodyType;
+
+  // reduce_window_c14
+  SmallVector<ShapedType> resultTypes;
+  std::optional<ArrayRef<int64_t>> resultShape;
+  for (auto result : results) {
+    auto resultType = result.getType().dyn_cast<ShapedType>();
+    resultTypes.push_back(resultType);
+    if (!resultType) return op_.emitError() << "expects results to be tensors";
+
+    if (!resultType.hasRank()) continue;
+    if (!resultShape) resultShape = resultType.getShape();
+    if (failed(verifyCompatibleShape(resultType.getShape(), *resultShape)))
+      return op_.emitError() << "expects all results to have compatible shapes";
+  }
+
+  // reduce_window_c15
+  // Verifying this constraint would require knowing the actual values of
+  // window_dimensions, window_strides, etc.
+  // While we certainly can try to check whether they are constants and
+  // verify them in that case, that seems like too much at this point.
+
+  // reduce_window_c16
+  for (auto [resultType, initValueType] :
+       llvm::zip(resultTypes, initValueTypes)) {
+    if (resultType.getElementType() != initValueType.getElementType())
+      return op_.emitError() << "expects results and init_values (operands "
+                             << numInputs << ".." << numInputs * 2 << ") "
+                             << "to have pairwise the same element types";
+  }
+
+  return success();
+}
+
+ValueRange DynamicReduceWindowOpAdaptor::getInputs() {
+  auto numInputs = (op_.getInputs().size() - 5) / 2;
+  return op_.getInputs().slice(0, numInputs);
+}
+
+ValueRange DynamicReduceWindowOpAdaptor::getInitValues() {
+  auto numInputs = (op_.getInputs().size() - 5) / 2;
+  return op_.getInputs().slice(numInputs, numInputs);
+}
+
+TypedValue<ShapedType> DynamicReduceWindowOpAdaptor::getWindowDimensions() {
+  return op_.getInputs()[op_.getInputs().size() - 5]
+      .cast<TypedValue<ShapedType>>();
+}
+
+TypedValue<ShapedType> DynamicReduceWindowOpAdaptor::getWindowStrides() {
+  return op_.getInputs()[op_.getInputs().size() - 4]
+      .cast<TypedValue<ShapedType>>();
+}
+
+TypedValue<ShapedType> DynamicReduceWindowOpAdaptor::getBaseDilations() {
+  return op_.getInputs()[op_.getInputs().size() - 3]
+      .cast<TypedValue<ShapedType>>();
+}
+
+TypedValue<ShapedType> DynamicReduceWindowOpAdaptor::getWindowDilations() {
+  return op_.getInputs()[op_.getInputs().size() - 2]
+      .cast<TypedValue<ShapedType>>();
+}
+
+TypedValue<ShapedType> DynamicReduceWindowOpAdaptor::getPadding() {
+  return op_.getInputs()[op_.getInputs().size() - 1]
+      .cast<TypedValue<ShapedType>>();
+}
+
+Region& DynamicReduceWindowOpAdaptor::getBody() {
+  auto bodyAttr = op_.getCalledComputations()[0].cast<FlatSymbolRefAttr>();
+  auto bodyFunc =
+      op_->getParentOfType<ModuleOp>().lookupSymbol<func::FuncOp>(bodyAttr);
+  return bodyFunc.getBody();
+}
+
+ValueRange DynamicReduceWindowOpAdaptor::getResults() {
+  return op_.getResults();
+}
+
+std::optional<DynamicReduceWindowOpAdaptor> getDynamicReduceWindowOp(
+    CustomCallOp op) {
+  if (op.getCallTargetName() != "stablehlo.dynamic_reduce_window") return {};
+  return DynamicReduceWindowOpAdaptor(op);
+}
+
+LogicalResult DynamicRngBitGeneratorOpAdaptor::verify() {
+  // Before checking the constraints inherited from RngBitGeneratorOp,
+  // make sure that the operands and the attributes of the underlying custom
+  // call make sense.
+  if (op_->getNumOperands() != 2)
+    return op_.emitError("expects size(operands) = 2");
+  if (op_->getNumResults() != 2)
+    return op_.emitError("expects size(results) = 2");
+  for (const auto& attr : op_->getAttrs()) {
+    // api_version and backend_config have default values.
+    // call_target_name should be "stablehlo.dynamic_rng_bit_generator".
+    // rng_algorithm comes from the operation.
+    if (attr.getName() != "api_version" && attr.getName() != "backend_config" &&
+        attr.getName() != "call_target_name" &&
+        attr.getName() != "rng_algorithm")
+      return op_.emitError()
+             << attr.getName() << " is not a supported attribute";
+  }
+  if (!op_.getBackendConfig().empty())
+    return op_.emitError() << "expects an empty backend_config";
+  if (op_.getCallTargetName() != "stablehlo.dynamic_rng_bit_generator")
+    return op_.emitError() << "expects @stablehlo.dynamic_rng_bit_generator";
+  if (!op_->hasAttr("rng_algorithm"))
+    return op_.emitError() << "expects an rng_algorithm";
+
+  // Unpack operands and attributes of the underlying custom call into
+  // operation-specific inputs.
+  auto rngAlgorithmAttr = op_->getAttr("rng_algorithm");
+  auto initialState = op_.getInputs()[0];
+  auto outputShape = op_.getInputs()[1];
+  auto outputState = op_.getResults()[0];
+  auto output = op_.getResults()[1];
+
+  // dynamic_rng_bit_generator_i1
+  if (!rngAlgorithmAttr.isa<RngAlgorithmAttr>())
+    return op_.emitError()
+           << "expects a #stablehlo<rng_algorithm ...> rng_algorithm";
+
+  // dynamic_rng_bit_generator_i2
+  // TODO(#643): Clarify supported types for RngBitGeneratorOp.
+  auto initialStateType = initialState.getType().dyn_cast<ShapedType>();
+  if (!initialStateType || !initialStateType.getElementType().isIntOrFloat())
+    return op_.emitError()
+           << "expects initial_state (operand #0) "
+           << "to be a tensor of integer or floating-point type";
+
+  // dynamic_rng_bit_generator_i3
+  auto outputShapeType = outputShape.getType().dyn_cast<ShapedType>();
+  if (!outputShapeType || !outputShapeType.hasRank() ||
+      outputShapeType.getRank() != 1 ||
+      !outputShapeType.getElementType().isIntOrIndex())
+    return op_.emitError()
+           << "expects output_shape (operand #1) "
+           << "to be a 1-dimensional tensor of integer or index type";
+
+  // dynamic_rng_bit_generator_o1
+  // TODO(#643): Clarify supported types for RngBitGeneratorOp.
+  auto outputStateType = outputState.getType().dyn_cast<ShapedType>();
+  if (!outputStateType || !outputStateType.getElementType().isIntOrFloat())
+    return op_.emitError()
+           << "expects output_state (result #0) "
+           << "to be a tensor of integer or floating-point type";
+
+  // dynamic_rng_bit_generator_o2
+  auto outputType = output.getType().dyn_cast<ShapedType>();
+  if (!outputType || !outputType.getElementType().isIntOrFloat())
+    return op_.emitError()
+           << "expects output (result #1) "
+           << "to be a tensor of integer or floating-point type";
+
+  // dynamic_rng_bit_generator_c1
+  if (!hlo::isCompatibleForHloTypeInference(initialStateType, outputStateType))
+    return op_.emitError()
+           << "expects initial_state (operand #0) and output_state (result #0) "
+           << "to have compatible shapes";
+
+  // dynamic_rng_bit_generator_c2
+  // TODO(#486): Verify rng_algorithm in RngBitGeneratorOp.
+
+  // dynamic_rng_bit_generator_c3
+  if (!hlo::isCompatibleForHloTypeInference(outputShape, outputType))
+    return op_.emitError() << "expects output (result #1) to have shape  "
+                           << "compatible with output_shape (operand #2)";
+
+  return success();
+}
+
+RngAlgorithm DynamicRngBitGeneratorOpAdaptor::getRngAlgorithm() {
+  return op_->getAttr("rng_algorithm").cast<RngAlgorithmAttr>().getValue();
+}
+
+TypedValue<ShapedType> DynamicRngBitGeneratorOpAdaptor::getInitialState() {
+  return op_.getInputs()[0].cast<TypedValue<ShapedType>>();
+}
+
+TypedValue<ShapedType> DynamicRngBitGeneratorOpAdaptor::getOutputShape() {
+  return op_.getInputs()[1].cast<TypedValue<ShapedType>>();
+}
+
+TypedValue<ShapedType> DynamicRngBitGeneratorOpAdaptor::getOutputState() {
+  return op_.getResults()[0].cast<TypedValue<ShapedType>>();
+}
+
+TypedValue<ShapedType> DynamicRngBitGeneratorOpAdaptor::getOutput() {
+  return op_.getResults()[1].cast<TypedValue<ShapedType>>();
+}
+
+std::optional<DynamicRngBitGeneratorOpAdaptor> getDynamicRngBitGeneratorOp(
+    CustomCallOp op) {
+  if (op.getCallTargetName() != "stablehlo.dynamic_rng_bit_generator")
+    return {};
+  return DynamicRngBitGeneratorOpAdaptor(op);
+}
+
+LogicalResult DynamicTopKOpAdaptor::verify() {
+  if (op_->getNumOperands() != 2)
+    return op_.emitError("expects size(operands) = 2");
+  if (op_->getNumResults() != 2)
+    return op_.emitError("expects size(results) = 2");
+  for (const auto& attr : op_->getAttrs()) {
+    // api_version and backend_config have default values.
+    // call_target_name should be "stablehlo.dynamic_top_k".
+    if (attr.getName() != "api_version" && attr.getName() != "backend_config" &&
+        attr.getName() != "call_target_name")
+      return op_.emitError()
+             << attr.getName() << " is not a supported attribute";
+  }
+  if (!op_.getBackendConfig().empty())
+    return op_.emitError() << "expects an empty backend_config";
+  if (op_.getCallTargetName() != "stablehlo.dynamic_top_k")
+    return op_.emitError() << "expects @stablehlo.dynamic_top_k";
+
+  auto operand = op_.getInputs()[0];
+  auto k = op_.getInputs()[1];
+  auto values = op_.getResults()[0];
+  auto indices = op_.getResults()[1];
+
+  // dynamic_top_k_i1
+  auto operandType = operand.getType().dyn_cast<ShapedType>();
+  if (!operandType || !operandType.hasRank() || operandType.getRank() < 1 ||
+      !operandType.getElementType().isIntOrFloat())
+    return op_.emitError()
+           << "expects operand #0 "
+           << "to be a tensor of integer or floating-point type "
+           << "of rank at least 1";
+
+  // dynamic_top_k_i2
+  auto kType = k.getType().dyn_cast<ShapedType>();
+  if (!kType || !kType.hasRank() || kType.getRank() != 0 ||
+      !kType.getElementType().isIntOrIndex())
+    return op_.emitError()
+           << "expects k (operand #1) "
+           << "to be a 0-dimensional tensor of integer or index type";
+
+  // dynamic_top_k_o1
+  auto valuesType = values.getType().dyn_cast<ShapedType>();
+  if (!valuesType || !valuesType.hasRank() || valuesType.getRank() < 1 ||
+      !valuesType.getElementType().isIntOrFloat())
+    return op_.emitError()
+           << "expects values (result #0) "
+           << "to be a tensor of integer or floating-point type "
+           << "of rank at least 1";
+
+  // dynamic_top_k_o2
+  auto indicesType = indices.getType().dyn_cast<ShapedType>();
+  if (!indicesType || !indicesType.hasRank() || indicesType.getRank() < 1 ||
+      !indicesType.getElementType().isSignlessInteger(32))
+    return op_.emitError() << "expects indices (result #1) "
+                           << "to be a tensor of si32 of rank at least 1";
+
+  // dynamic_top_k_c1
+  auto operandLastDim = operandType.getRank() - 1;
+  SmallVector<int64_t> expectedValuesShape(operandType.getShape());
+  expectedValuesShape[operandLastDim] =
+      valuesType.getDimSize(valuesType.getRank() - 1);
+  if (failed(verifyCompatibleShape(expectedValuesShape, valuesType.getShape())))
+    return op_.emitError() << "expects the values shape to match the operand "
+                              "shape in all but the last dimension";
+
+  // dynamic_top_k_c2
+  if (valuesType.getElementType() != operandType.getElementType())
+    return op_.emitError()
+           << "expects the values element type to be the same as the operand "
+           << "element type";
+
+  // dynamic_top_k_c3
+  if (!operandType.isDynamicDim(operandLastDim) &&
+      !valuesType.isDynamicDim(operandLastDim) &&
+      operandType.getDimSize(operandLastDim) <
+          valuesType.getDimSize(operandLastDim))
+    return op_.emitError() << "expects the values last dimension to have size "
+                              "at least as large "
+                           << "as operand last dimension";
+
+  // dynamic_top_k_c4
+  if (failed(
+          verifyCompatibleShape(indicesType.getShape(), valuesType.getShape())))
+    return op_.emitError()
+           << "expects the indices shape to match the values shape";
+
+  return success();
+}
+
+TypedValue<ShapedType> DynamicTopKOpAdaptor::getOperand() {
+  return op_.getInputs()[0].cast<TypedValue<ShapedType>>();
+}
+
+TypedValue<ShapedType> DynamicTopKOpAdaptor::getK() {
+  return op_.getInputs()[1].cast<TypedValue<ShapedType>>();
+}
+
+TypedValue<ShapedType> DynamicTopKOpAdaptor::getValues() {
+  return op_.getResults()[0].cast<TypedValue<ShapedType>>();
+}
+
+TypedValue<ShapedType> DynamicTopKOpAdaptor::getIndices() {
+  return op_.getResults()[1].cast<TypedValue<ShapedType>>();
+}
+
+std::optional<DynamicTopKOpAdaptor> getDynamicTopKOp(CustomCallOp op) {
+  if (op.getCallTargetName() != "stablehlo.dynamic_top_k") return {};
+  return DynamicTopKOpAdaptor(op);
+}
+
+LogicalResult TopKOpAdaptor::verify() {
+  if (op_->getNumOperands() != 1)
+    return op_.emitError("expects size(operands) = 1");
+  if (op_->getNumResults() != 2)
+    return op_.emitError("expects size(results) = 2");
+  if (!op_.getBackendConfig().empty())
+    return op_.emitError() << "expects an empty backend_config";
+  if (op_.getCallTargetName() != "mhlo.topk")
+    return op_.emitError() << "expects @mhlo.topk";
+
+  auto operand = op_.getInputs()[0];
+  auto values = op_.getResults()[0];
+  auto indices = op_.getResults()[1];
+  DictionaryAttr topkAttributes =
+      op_->getAttrOfType<DictionaryAttr>("mhlo.attributes");
+  if (!topkAttributes) {
+    return op_.emitError()
+           << "mhlo.attributes missing or not a dictionary attribute";
+  }
+
+  IntegerAttr k_attr = topkAttributes.get("k").dyn_cast_or_null<IntegerAttr>();
+  if (!k_attr) {
+    return op_.emitError() << "mhlo.attributes.k not present or not an integer";
+  }
+  int64_t k = k_attr.getInt();
+
+  // mhlo.topk_c5
+  if (k < 0) return op_.emitError() << "expects k >= 0";
+
+  // mhlo.topk_i1
+  auto operandType = operand.getType().dyn_cast<ShapedType>();
+  if (!operandType || !operandType.hasRank() || operandType.getRank() < 1 ||
+      !operandType.getElementType().isIntOrFloat())
+    return op_.emitError()
+           << "expects operand #0 "
+           << "to be a tensor of integer or floating-point type "
+           << "of rank at least 1";
+
+  // mhlo.topk_o1
+  auto valuesType = values.getType().dyn_cast<ShapedType>();
+  if (!valuesType || !valuesType.hasRank() || valuesType.getRank() < 1 ||
+      !valuesType.getElementType().isIntOrFloat())
+    return op_.emitError()
+           << "expects values (result #0) "
+           << "to be a tensor of integer or floating-point type "
+           << "of rank at least 1";
+
+  // mhlo.topk_o2
+  auto indicesType = indices.getType().dyn_cast<ShapedType>();
+  if (!indicesType || !indicesType.hasRank() || indicesType.getRank() < 1 ||
+      !indicesType.getElementType().isSignlessInteger(32))
+    return op_.emitError() << "expects indices (result #1) "
+                           << "to be a tensor of si32 of rank at least 1";
+
+  // mhlo.topk_c1 && mhlo.topk_c2
+  auto operandLastDim = operandType.getRank() - 1;
+  SmallVector<int64_t> expectedValuesShape(operandType.getShape());
+  expectedValuesShape[operandLastDim] = k;
+  if (failed(verifyCompatibleShape(expectedValuesShape, valuesType.getShape())))
+    return op_.emitError() << "expects the values shape to match the operand "
+                              "shape in all but the last dimension, and "
+                              "that the last dimension of the values shape "
+                              "has a size k";
+
+  // mhlo.topk_c3
+  if (valuesType.getElementType() != operandType.getElementType())
+    return op_.emitError()
+           << "expects the values element type to be the same as the operand "
+           << "element type";
+
+  // mhlo.topk_c4
+  if (failed(
+          verifyCompatibleShape(indicesType.getShape(), valuesType.getShape())))
+    return op_.emitError()
+           << "expects the indices shape to match the values shape";
+
+  return success();
+}
+
+TypedValue<ShapedType> TopKOpAdaptor::getOperand() {
+  return op_.getInputs()[0].cast<TypedValue<ShapedType>>();
+}
+
+TypedValue<ShapedType> TopKOpAdaptor::getValues() {
+  return op_.getResults()[0].cast<TypedValue<ShapedType>>();
+}
+
+TypedValue<ShapedType> TopKOpAdaptor::getIndices() {
+  return op_.getResults()[1].cast<TypedValue<ShapedType>>();
+}
+
+int64_t TopKOpAdaptor::getK() {
+  DictionaryAttr topkAttributes =
+      op_->getAttrOfType<DictionaryAttr>("mhlo.attributes");
+  return topkAttributes.get("k").cast<mlir::IntegerAttr>().getInt();
+}
+
+bool TopKOpAdaptor::getLargest() {
+  DictionaryAttr topkAttributes =
+      op_->getAttrOfType<DictionaryAttr>("mhlo.attributes");
+  IntegerAttr largest =
+      topkAttributes.get("largest").dyn_cast_or_null<mlir::IntegerAttr>();
+
+  return (!largest) ? true : largest.getInt();
+}
+
+std::optional<TopKOpAdaptor> getTopKOp(CustomCallOp op) {
+  if (op.getCallTargetName() != "mhlo.topk") return {};
+  return TopKOpAdaptor(op);
+}
+
+LogicalResult TanOpAdaptor::verify() {
+  if (op_->getNumOperands() != 1)
+    return op_.emitError("expects size(operands) = 1");
+  if (op_->getNumResults() != 1)
+    return op_.emitError("expects size(results) = 1");
+  auto operand = op_.getInputs()[0];
+  auto result = op_.getResults()[0];
+
+  // tan_c1
+  auto operandType = operand.getType().dyn_cast<ShapedType>();
+  auto resultType = result.getType().dyn_cast<ShapedType>();
+  if (!hlo::isCompatibleForHloTypeInference(operandType, resultType))
+    return op_.emitError()
+           << "expects operand and result to have compatible shapes";
+  return success();
+}
+
+TypedValue<ShapedType> TanOpAdaptor::getOperand() {
+  return op_.getInputs()[0].cast<TypedValue<ShapedType>>();
+}
+
+std::optional<TanOpAdaptor> getTanOp(CustomCallOp op) {
+  if (op.getCallTargetName() != "mhlo.tan") return {};
+  return TanOpAdaptor(op);
+}
+
+}  // namespace experimental
+}  // namespace stablehlo
+}  // namespace mlir
diff --ruN a/stablehlo/stablehlo/experimental/dialect/StablehloOps.h b/stablehlo/stablehlo/experimental/dialect/StablehloOps.h
--- stablehlo/stablehlo/experimental/dialect/StablehloOps.h
+++ stablehlo/stablehlo/experimental/dialect/StablehloOps.h
@@ -0,0 +1,347 @@
+/* Copyright 2023 The StableHLO Authors.
+
+Licensed under the Apache License, Version 2.0 (the "License");
+you may not use this file except in compliance with the License.
+You may obtain a copy of the License at
+
+    http://www.apache.org/licenses/LICENSE-2.0
+
+Unless required by applicable law or agreed to in writing, software
+distributed under the License is distributed on an "AS IS" BASIS,
+WITHOUT WARRANTIES OR CONDITIONS OF ANY KIND, either express or implied.
+See the License for the specific language governing permissions and
+limitations under the License.
+==============================================================================*/
+
+#ifndef STABLEHLO_EXPERIMENTAL_DIALECT_STABLEHLO_OPS_H
+#define STABLEHLO_EXPERIMENTAL_DIALECT_STABLEHLO_OPS_H
+
+// This file supports XLA-specific experiments with the StableHLO opset.
+// These experiments are not yet ready to be upstreamed to openxla/stablehlo
+// and are incubating towards the respective StableHLO RFCs.
+//
+// Custom calls (which are the implementation vehicle of these experiments)
+// don't have compatibility guarantees within the StableHLO process, but
+// the StableHLO team at Google provides out-of-band guarantees for these
+// custom calls, with the same compatibility window as StableHLO upstream.
+
+#include "mlir/IR/Operation.h"
+#include "mlir/IR/Region.h"
+#include "mlir/IR/Value.h"
+#include "mlir/IR/ValueRange.h"
+#include "mlir/Support/LogicalResult.h"
+#include "stablehlo/dialect/StablehloOps.h"
+#include "stablehlo/experimental/dialect/Base.h"
+
+namespace mlir {
+namespace stablehlo {
+namespace experimental {
+
+// The DynamicReduceWindowOp experiment provides a dynamic version of
+// ReduceWindowOp. Once the dynamism RFC is figured out, we expect to have an
+// upstream representation for this notion.
+//
+// Within this experiment, DynamicReduceWindowOp is represented via the
+// `stablehlo.custom_call @stablehlo.dynamic_reduce_window` custom call.
+// This custom call has the following operands which represent a dynamic version
+// of operands and attributes of ReduceWindowOp:
+//   * [0:N]   => inputs
+//   * [N:2*N] => init_values
+//   * [-5]    => window_dimensions
+//   * [-4]    => window_strides
+//   * [-3]    => base_dilations
+//   * [-2]    => window_dilations
+//   * [-1]    => padding
+// Additionally, to represent the body of DynamicReduceWindowOp, the custom call
+// has a satellite function attached to the custom call via called_computations.
+//
+// Semantics of DynamicReduceWindowOp are inherited from semantics of
+// https://github.com/openxla/stablehlo/blob/main/docs/spec.md#reduce_window
+// with the following exceptions:
+//   1) All tensor constants, i.e. window_dimensions, window_strides,
+//      base_dilations, window_dilations and padding, become tensors of
+//      integer type.
+//   2) As a result, some of the constraints can no longer be validated
+//      statically. However, this operation still expects these constraints
+//      to hold dynamically, and if they don't hold, the behavior is undefined.
+class DynamicReduceWindowOpAdaptor {
+ public:
+  DynamicReduceWindowOpAdaptor(CustomCallOp op) : op_(op) {}
+  operator Operation*() { return op_; }
+  Operation* operator->() { return op_; }
+
+  // Same accessors as for stablehlo::ReduceWindowOp, except that all the
+  // std::optional<DenseIntElementsAttr> attributes have turned into values.
+  // These accessors assume that the operation is well-formed (i.e. that it
+  // can pass verification).
+  ValueRange getInputs();
+  ValueRange getInitValues();
+  TypedValue<ShapedType> getWindowDimensions();
+  TypedValue<ShapedType> getWindowStrides();
+  TypedValue<ShapedType> getBaseDilations();
+  TypedValue<ShapedType> getWindowDilations();
+  TypedValue<ShapedType> getPadding();
+  Region& getBody();
+  ValueRange getResults();
+
+  // Verifies the constraints documented above.
+  // Emits errors if errors are detected.
+  LogicalResult verify();
+
+ private:
+  CustomCallOp op_;
+};
+
+// Wraps a custom call in a DynamicReduceWindowOpAdaptor.
+// Fails if the call_target_name of the custom call doesn't match
+// "stablehlo.dynamic_reduce_window".
+std::optional<DynamicReduceWindowOpAdaptor> getDynamicReduceWindowOp(
+    CustomCallOp op);
+
+// The DynamicRngBitGeneratorOp experiment provides a dynamic version of
+// RngBitGeneratorOp. Once the dynamism RFC is figured out, we expect to have an
+// upstream representation for this notion.
+//
+// Within this experiment, DynamicRngBitGeneratorOp is represented via the
+// `stablehlo.custom_call @stablehlo.dynamic_rng_bit_generator` custom call.
+// This custom call has the regular operand of RngBitGeneratorOp plus an
+// additional `output_shape` operand that determines the shape of the output:
+//   * [0] => initial_state
+//   * [1] => output_shape
+//
+// Semantics of DynamicRngBitGeneratorOp are inherited from semantics of
+// https://github.com/openxla/stablehlo/blob/main/docs/spec.md#rng_bit_generator
+// extended with an additional input (I3) and an additional constraint (C3):
+//
+// #### Inputs
+//
+// | Label | Name            | Type                                         |
+// |-------|-----------------|----------------------------------------------|
+// | (I1)  | `rng_algorithm` | enum of `DEFAULT`, `THREE_FRY`, and `PHILOX` |
+// | (I2)  | `initial_state` | 1-dimensional tensor of type `ui64`          |
+// | (I3)  | `output_shape`  | 1-dimensional tensor of integer type         |
+//
+// #### Outputs
+//
+// | Name           | Type                                     |
+// |----------------|------------------------------------------|
+// | `output_state` | 1-dimensional tensor of type `ui64`      |
+// | `output`       | tensor of integer or floating-point type |
+//
+// #### Constraints
+//
+// * (C1) `type(initial_state) = type(output_state)`.
+// * (C2) `size(initial_state)` is defined as:
+//   * implementation-defined if `rng_algorithm = DEFAULT`.
+//   * `2` if `rng_algorithm = THREE_FRY`.
+//   * `2` or `3` if `rng_algorithm = PHILOX`.
+// * (C3) `shape(output) = output_shape`.
+class DynamicRngBitGeneratorOpAdaptor {
+ public:
+  DynamicRngBitGeneratorOpAdaptor(CustomCallOp op) : op_(op) {}
+  operator Operation*() { return op_; }
+  Operation* operator->() { return op_; }
+
+  // Same accessors as for stablehlo::RngBitGeneratorOp, extended with the
+  // additional `output_shape` operand.
+  // These accessors assume that the operation is well-formed (i.e. that it
+  // can pass verification).
+  RngAlgorithm getRngAlgorithm();
+  TypedValue<ShapedType> getInitialState();
+  TypedValue<ShapedType> getOutputShape();
+  TypedValue<ShapedType> getOutputState();
+  TypedValue<ShapedType> getOutput();
+
+  // Verifies the constraints documented above.
+  // Emits errors if errors are detected.
+  LogicalResult verify();
+
+ private:
+  CustomCallOp op_;
+};
+
+// Wraps a custom call in a DynamicRngBitGeneratorOpAdaptor.
+// Fails if the call_target_name of the custom call doesn't match
+// "stablehlo.dynamic_rng_bit_generator".
+std::optional<DynamicRngBitGeneratorOpAdaptor> getDynamicRngBitGeneratorOp(
+    CustomCallOp op);
+
+// The DynamicTopKOp experiment provides a dynamic version of
+// TopKOp. Once the dynamism RFC is figured out, we expect to have an
+// upstream representation for this notion.
+//
+// Within this experiment, DynamicTopKOp is represented via the
+// `stablehlo.custom_call @stablehlo.dynamic_top_k` custom call.
+// This custom call has the regular operand of TopKOp plus an
+// additional `k` operand that determines the shape of the output.
+//
+// Semantics of DynamicTopKOp are inherited from semantics of Chlo.TopKOp.
+//
+// #### Inputs
+//
+// | Label | Name            | Type                                         |
+// |-------|-----------------|----------------------------------------------|
+// | (I1)  | `operand`       | tensor of integer or floating-point type     |
+// | (I2)  | `k`             | 0-dimensional tensor of integer or index type|
+//
+// #### Outputs
+//
+// | Name           | Type                                     |
+// |----------------|------------------------------------------|
+// | `values`       | tensor of integer or floating-point type |
+// | `indices`      | tensor of si32 type                      |
+//
+// #### Constraints
+//
+// * (C1) `shape(values)[:-1] = shape(operand)[:-1]`
+// * (C2) `element_type(values) = element_type(operand)`
+// * (C3) `shape(values)[-1] <= shape(operand)[-1]`
+// * (C4) `shape(indices) = shape(values)`
+class DynamicTopKOpAdaptor {
+ public:
+  DynamicTopKOpAdaptor(CustomCallOp op) : op_(op) {}
+  operator Operation*() { return op_; }
+  Operation* operator->() { return op_; }
+
+  // These accessors assume that the operation is well-formed (i.e. that it
+  // can pass verification).
+  TypedValue<ShapedType> getOperand();
+  TypedValue<ShapedType> getK();
+  TypedValue<ShapedType> getValues();
+  TypedValue<ShapedType> getIndices();
+
+  // Verifies the constraints documented above.
+  // Emits errors if errors are detected.
+  LogicalResult verify();
+
+ private:
+  CustomCallOp op_;
+};
+
+// Wraps a custom call in a DynamicTopKOpAdaptor.
+// Fails if the call_target_name of the custom call doesn't match
+// "stablehlo.dynamic_top_k".
+std::optional<DynamicTopKOpAdaptor> getDynamicTopKOp(CustomCallOp op);
+
+///////////////////
+// MHLO Op Wrappers
+// There are some ops in MHLO which have experimental support in StableHLO
+// programs by representing them as custom_calls with the target `mhlo.op_name`.
+// The level of support of these ops is similar to the other custom_calls in
+// this file. Generally these ops will be added to StableHLO and their
+// experimental support can be deprecated in favor of op's type inference.
+///////////////////
+
+// The TopK experiment provides a StableHLO adapter to MHLO TopKOp.
+// In the future we expect stablehlo.top_k to be added which will use the same
+// refinement rules.
+//
+// Within this experiment, TopKOp is represented via the serialized MHLO
+// `stablehlo.custom_call @mhlo.topk` custom call.
+//
+// The semantics of experimental TopKOp are inherited from the semantics of
+// mhlo.topk.
+//
+// #### Inputs
+//
+// | Label | Name            | Type                                         |
+// |-------|-----------------|----------------------------------------------|
+// | (I1)  | `operand`       | tensor of integer or floating-point type     |
+// | (I2)  | `k`             | constant of type si64                        |
+// | (I3)  | `largest`       | constant of type i1                          |
+//
+// #### Outputs
+//
+// | Name           | Type                                     |
+// |----------------|------------------------------------------|
+// | `values`       | tensor of integer or floating-point type |
+// | `indices`      | tensor of si32 type                      |
+//
+// #### Constraints
+//
+// * (C1) `shape(values)[:-1] = shape(operand)[:-1]`
+// * (C2) `shape(values)[-1] = k`
+// * (C3) `element_type(values) = element_type(operand)`
+// * (C4) `shape(indices) = shape(values)`
+// * (C5) `k >= 0`
+//
+class TopKOpAdaptor {
+ public:
+  TopKOpAdaptor(CustomCallOp op) : op_(op) {}
+  operator Operation*() { return op_; }
+  Operation* operator->() { return op_; }
+
+  // These accessors assume that the operation is well-formed (i.e. that it
+  // can pass verification).
+  TypedValue<ShapedType> getOperand();
+  TypedValue<ShapedType> getValues();
+  TypedValue<ShapedType> getIndices();
+  int64_t getK();
+  bool getLargest();
+
+  // Verifies the constraints documented above.
+  // Emits errors if errors are detected.
+  LogicalResult verify();
+
+ private:
+  CustomCallOp op_;
+};
+
+// Wraps a custom call in a TopKOpAdaptor.
+// Fails if the call_target_name of the custom call doesn't match
+// "mhlo.topk".
+std::optional<TopKOpAdaptor> getTopKOp(CustomCallOp op);
+
+// The TanOp experiment provides a StableHLO adapter to MHLO TanOp.
+// In the future we expect stablehlo.tan to be added which will use the same
+// refinement rules.
+//
+// Within this experiment, TanOp is represented via the serialized MHLO
+// `stablehlo.custom_call @mhlo.tan` custom call. S
+//
+// Semantics of experimental TanOp are inherited from semantics of mhlo.tan.
+//
+// #### Inputs
+//
+// | Label | Name            | Type                                         |
+// |-------|-----------------|----------------------------------------------|
+// | (I1)  | `operand`       | tensor of floating-point or complex type     |
+//
+// #### Outputs
+//
+// | Name           | Type                                     |
+// |----------------|------------------------------------------|
+// | `result`       | tensor of floating-point or complex type |
+//
+// #### Constraints
+//
+// * (C1) baseline_type(operand) = baseline_type(result)
+//
+class TanOpAdaptor {
+ public:
+  TanOpAdaptor(CustomCallOp op) : op_(op) {}
+  operator Operation*() { return op_; }
+  Operation* operator->() { return op_; }
+
+  // These accessors assume that the operation is well-formed (i.e. that it
+  // can pass verification).
+  TypedValue<ShapedType> getOperand();
+
+  // Verifies the constraints documented above.
+  // Emits errors if errors are detected.
+  LogicalResult verify();
+
+ private:
+  CustomCallOp op_;
+};
+
+// Wraps a custom call in a TanOpAdaptor.
+// Fails if the call_target_name of the custom call doesn't match
+// "mhlo.tan".
+std::optional<TanOpAdaptor> getTanOp(CustomCallOp op);
+
+}  // namespace experimental
+}  // namespace stablehlo
+}  // namespace mlir
+
+#endif  // STABLEHLO_EXPERIMENTAL_DIALECT_STABLEHLO_OPS_H
diff --ruN a/stablehlo/stablehlo/experimental/tests/BUILD.bazel b/stablehlo/stablehlo/experimental/tests/BUILD.bazel
--- stablehlo/stablehlo/experimental/tests/BUILD.bazel
+++ stablehlo/stablehlo/experimental/tests/BUILD.bazel
@@ -0,0 +1,59 @@
+# Copyright 2023 The StableHLO Authors. All Rights Reserved.
+#
+# Licensed under the Apache License, Version 2.0 (the "License");
+# you may not use this file except in compliance with the License.
+# You may obtain a copy of the License at
+#
+#      https://www.apache.org/licenses/LICENSE-2.0
+#
+# Unless required by applicable law or agreed to in writing, software
+# distributed under the License is distributed on an "AS IS" BASIS,
+# WITHOUT WARRANTIES OR CONDITIONS OF ANY KIND, either express or implied.
+# See the License for the specific language governing permissions and
+# limitations under the License.
+load("@bazel_skylib//rules:expand_template.bzl", "expand_template")
+load("@llvm-project//llvm:lit_test.bzl", "lit_test", "package_path")
+
+package(
+    default_visibility = ["//visibility:public"],
+    licenses = ["notice"],
+)
+
+# Equivalent of configure_lit_site_cfg from CMakeLists.txt.
+expand_template(
+    name = "lit_site_cfg_py_gen",
+    testonly = True,
+    out = "lit.site.cfg.py",
+    substitutions = {
+        "@LIT_SITE_CFG_IN_HEADER@": "# Autogenerated, do not edit.",
+        "@LLVM_TOOLS_DIR@": package_path("@llvm-project//llvm:BUILD"),
+        "\"@STABLEHLO_TOOLS_DIR@\"": "os.path.join(os.environ['TEST_SRCDIR'], 'stablehlo')",
+        "\"@STABLEHLO_SOURCE_DIR@\"": "os.path.join(os.environ['TEST_SRCDIR'], 'stablehlo')",
+    },
+    template = "lit.site.cfg.py.in",
+)
+
+# Equivalent of add_lit_testsuite from CMakeLists.txt.
+[
+    lit_test(
+        name = "%s.test" % src,
+        size = "small",
+        srcs = [src],
+        data = [
+            "lit.cfg.py",
+            "lit.site.cfg.py",
+            "//:stablehlo-opt",
+            "//:stablehlo-translate",
+            "//stablehlo/experimental:experimental-stablehlo-opt",
+            "@llvm-project//llvm:FileCheck",
+            "@llvm-project//llvm:not",
+        ] + glob(["%s.bc" % src]),
+        tags = ["stablehlo_tests"],
+    )
+    for src in glob(["**/*.mlir"])
+]
+
+test_suite(
+    name = "experimental_stablehlo_tests",
+    tags = ["experimental_stablehlo_tests"],
+)
diff --ruN a/stablehlo/stablehlo/experimental/tests/CMakeLists.txt b/stablehlo/stablehlo/experimental/tests/CMakeLists.txt
--- stablehlo/stablehlo/experimental/tests/CMakeLists.txt
+++ stablehlo/stablehlo/experimental/tests/CMakeLists.txt
@@ -0,0 +1,29 @@
+# Copyright 2020 The TensorFlow Authors. All Rights Reserved.
+# Copyright 2023 The StableHLO Authors.
+#
+# Licensed under the Apache License, Version 2.0 (the "License");
+# you may not use this file except in compliance with the License.
+# You may obtain a copy of the License at
+#
+#      https://www.apache.org/licenses/LICENSE-2.0
+#
+# Unless required by applicable law or agreed to in writing, software
+# distributed under the License is distributed on an "AS IS" BASIS,
+# WITHOUT WARRANTIES OR CONDITIONS OF ANY KIND, either express or implied.
+# See the License for the specific language governing permissions and
+# limitations under the License.
+
+configure_lit_site_cfg(
+  ${CMAKE_CURRENT_SOURCE_DIR}/lit.site.cfg.py.in
+  ${CMAKE_CURRENT_BINARY_DIR}/lit.site.cfg.py
+  MAIN_CONFIG
+  ${CMAKE_CURRENT_SOURCE_DIR}/lit.cfg.py
+)
+add_lit_testsuite(check-experimental-stablehlo-tests "Running the experimental/tests/ suite"
+  ${CMAKE_CURRENT_BINARY_DIR}
+  DEPENDS
+  FileCheck
+  experimental-stablehlo-opt
+  stablehlo-translate
+)
+add_dependencies(check-stablehlo-quick check-experimental-stablehlo-tests)
diff --ruN a/stablehlo/stablehlo/experimental/tests/lit.cfg.py b/stablehlo/stablehlo/experimental/tests/lit.cfg.py
--- stablehlo/stablehlo/experimental/tests/lit.cfg.py
+++ stablehlo/stablehlo/experimental/tests/lit.cfg.py
@@ -0,0 +1,46 @@
+"""Lit configuration to drive test in this repo."""
+# Copyright 2020 The TensorFlow Authors. All Rights Reserved.
+# Copyright 2023 The StableHLO Authors.
+# Licensed under the Apache License, Version 2.0 (the "License");
+# you may not use this file except in compliance with the License.
+# You may obtain a copy of the License at
+#
+#     http://www.apache.org/licenses/LICENSE-2.0
+#
+# Unless required by applicable law or agreed to in writing, software
+# distributed under the License is distributed on an "AS IS" BASIS,
+# WITHOUT WARRANTIES OR CONDITIONS OF ANY KIND, either express or implied.
+# See the License for the specific language governing permissions and
+# limitations under the License.
+
+# -*- Python -*-
+# pylint: disable=undefined-variable
+
+import os
+
+import lit.formats
+from lit.llvm import llvm_config
+
+# Populate Lit configuration with the minimal required metadata.
+# Some metadata is populated in lit.site.cfg.py.in.
+config.name = 'STABLEHLO_TESTS_SUITE'
+config.test_format = lit.formats.ShTest(not llvm_config.use_lit_shell)
+config.suffixes = ['.mlir']
+config.test_source_root = os.path.dirname(__file__)
+
+# Disallow reusing variables across CHECK-LABEL matches.
+# A variable can eschew this (be made "global") by prefixing its name with $.
+config.environment['FILECHECK_OPTS'] = '-enable-var-scope'
+
+# Make LLVM and StableHLO tools available in RUN directives
+tools = [
+  'FileCheck',
+  'experimental-stablehlo-opt',
+  'stablehlo-translate',
+  'not',
+]
+tool_dirs = [
+  config.llvm_tools_dir,
+  config.stablehlo_tools_dir,
+]
+llvm_config.add_tool_substitutions(tools, tool_dirs)
diff --ruN a/stablehlo/stablehlo/experimental/tests/lit.site.cfg.py.in b/stablehlo/stablehlo/experimental/tests/lit.site.cfg.py.in
--- stablehlo/stablehlo/experimental/tests/lit.site.cfg.py.in
+++ stablehlo/stablehlo/experimental/tests/lit.site.cfg.py.in
@@ -0,0 +1,21 @@
+# Copyright 2020 The TensorFlow Authors. All Rights Reserved.
+# Copyright 2023 The StableHLO Authors.
+# Licensed under the Apache License, Version 2.0 (the "License");
+# you may not use this file except in compliance with the License.
+# You may obtain a copy of the License at
+#
+#     http://www.apache.org/licenses/LICENSE-2.0
+#
+# Unless required by applicable law or agreed to in writing, software
+# distributed under the License is distributed on an "AS IS" BASIS,
+# WITHOUT WARRANTIES OR CONDITIONS OF ANY KIND, either express or implied.
+# See the License for the specific language governing permissions and
+# limitations under the License.
+
+@LIT_SITE_CFG_IN_HEADER@
+
+import lit.llvm
+lit.llvm.initialize(lit_config, config)
+config.llvm_tools_dir = "@LLVM_TOOLS_DIR@"
+config.stablehlo_tools_dir = "@STABLEHLO_TOOLS_DIR@"
+lit_config.load_config(config, "@STABLEHLO_SOURCE_DIR@" + "/stablehlo/experimental/tests/lit.cfg.py")
diff --ruN a/stablehlo/stablehlo/experimental/tests/stablehlo_canonicalize_dynamism.mlir b/stablehlo/stablehlo/experimental/tests/stablehlo_canonicalize_dynamism.mlir
--- stablehlo/stablehlo/experimental/tests/stablehlo_canonicalize_dynamism.mlir
+++ stablehlo/stablehlo/experimental/tests/stablehlo_canonicalize_dynamism.mlir
@@ -0,0 +1,344 @@
+// RUN: experimental-stablehlo-opt --experimental-stablehlo-canonicalize-dynamism --split-input-file --verify-diagnostics %s | FileCheck %s
+
+// CHECK-LABEL: func @dynamic_reduce_window_success_static_result_type
+func.func @dynamic_reduce_window_success_static_result_type(%arg0: tensor<3x2xf32>, %arg1: tensor<f32>) -> tensor<2x2xf32> {
+  //           CHECK-NOT: stablehlo.dynamic_reduce_window
+  //               CHECK: "stablehlo.reduce_window"(%arg0, %arg1) ({
+  //          CHECK-NEXT:   ^[[BB:bb.*]](%[[ARG2:arg.*]]: tensor<f32>, %[[ARG3:arg.*]]: tensor<f32>):
+  //          CHECK-NEXT:     %[[VAL1:.*]] = stablehlo.add %arg2, %arg3 : tensor<f32>
+  //          CHECK-NEXT:     stablehlo.return %[[VAL1]] : tensor<f32>
+  //          CHECK-NEXT: }) {
+  //          CHECK-SAME:   base_dilations = array<i64: 2, 1>,
+  // CHECK-SAME{LITERAL}:   padding = dense<[[2, 1], [0, 0]]> : tensor<2x2xi64>,
+  //          CHECK-SAME:   window_dilations = array<i64: 3, 1>,
+  //          CHECK-SAME:   window_dimensions = array<i64: 2, 1>,
+  //          CHECK-SAME:   window_strides = array<i64: 4, 1>
+  //          CHECK-SAME: } : (tensor<3x2xf32>, tensor<f32>) -> tensor<2x2xf32>
+  %0 = stablehlo.constant dense<[2, 1]> : tensor<2xi64>
+  %1 = stablehlo.constant dense<[4, 1]> : tensor<2xi64>
+  %2 = stablehlo.constant dense<[2, 1]> : tensor<2xi64>
+  %3 = stablehlo.constant dense<[3, 1]> : tensor<2xi64>
+  %4 = stablehlo.constant dense<[[2, 1], [0, 0]]> : tensor<2x2xi64>
+  %5 = stablehlo.custom_call @stablehlo.dynamic_reduce_window(%arg0, %arg1, %0, %1, %2, %3, %4) {
+    called_computations = [@dynamic_reduce_window0]
+  } : (tensor<3x2xf32>, tensor<f32>, tensor<2xi64>, tensor<2xi64>, tensor<2xi64>, tensor<2xi64>, tensor<2x2xi64>) -> tensor<2x2xf32>
+  func.return %5 : tensor<2x2xf32>
+}
+
+func.func private @dynamic_reduce_window0(%arg0: tensor<f32>, %arg1: tensor<f32>) -> tensor<f32> {
+  %0 = stablehlo.add %arg0, %arg1 : tensor<f32>
+  func.return %0 : tensor<f32>
+}
+
+// -----
+
+// CHECK-LABEL: func @dynamic_reduce_window_success_dynamic_result_type
+func.func @dynamic_reduce_window_success_dynamic_result_type(%arg0: tensor<?x2xf32>, %arg1: tensor<f32>) -> tensor<?x2xf32> {
+  //           CHECK-NOT: stablehlo.dynamic_reduce_window
+  //               CHECK: "stablehlo.reduce_window"(%arg0, %arg1) ({
+  //          CHECK-NEXT:   ^[[BB:bb.*]](%[[ARG2:arg.*]]: tensor<f32>, %[[ARG3:arg.*]]: tensor<f32>):
+  //          CHECK-NEXT:     %[[VAL1:.*]] = stablehlo.add %arg2, %arg3 : tensor<f32>
+  //          CHECK-NEXT:     stablehlo.return %[[VAL1]] : tensor<f32>
+  //          CHECK-NEXT: }) {
+  //          CHECK-SAME:   base_dilations = array<i64: 2, 1>,
+  // CHECK-SAME{LITERAL}:   padding = dense<[[2, 1], [0, 0]]> : tensor<2x2xi64>,
+  //          CHECK-SAME:   window_dilations = array<i64: 3, 1>,
+  //          CHECK-SAME:   window_dimensions = array<i64: 2, 1>,
+  //          CHECK-SAME:   window_strides = array<i64: 4, 1>
+  //          CHECK-SAME: } : (tensor<?x2xf32>, tensor<f32>) -> tensor<?x2xf32>
+  %0 = stablehlo.constant dense<[2, 1]> : tensor<2xi64>
+  %1 = stablehlo.constant dense<[4, 1]> : tensor<2xi64>
+  %2 = stablehlo.constant dense<[2, 1]> : tensor<2xi64>
+  %3 = stablehlo.constant dense<[3, 1]> : tensor<2xi64>
+  %4 = stablehlo.constant dense<[[2, 1], [0, 0]]> : tensor<2x2xi64>
+  %5 = stablehlo.custom_call @stablehlo.dynamic_reduce_window(%arg0, %arg1, %0, %1, %2, %3, %4) {
+    called_computations = [@dynamic_reduce_window0]
+  } : (tensor<?x2xf32>, tensor<f32>, tensor<2xi64>, tensor<2xi64>, tensor<2xi64>, tensor<2xi64>, tensor<2x2xi64>) -> tensor<?x2xf32>
+  func.return %5 : tensor<?x2xf32>
+}
+
+func.func private @dynamic_reduce_window0(%arg0: tensor<f32>, %arg1: tensor<f32>) -> tensor<f32> {
+  %0 = stablehlo.add %arg0, %arg1 : tensor<f32>
+  func.return %0 : tensor<f32>
+}
+
+// TODO(burmako): Implement tests for verification failures for dynamic_reduce_window.
+
+// -----
+
+// CHECK-LABEL: func @dynamic_reduce_window_inapplicable_dynamic_window_dimensions
+func.func @dynamic_reduce_window_inapplicable_dynamic_window_dimensions(%arg0: tensor<3x2xf32>, %arg1: tensor<f32>, %arg2: tensor<2xi64>) -> tensor<2x2xf32> {
+  // CHECK: stablehlo.dynamic_reduce_window
+  %0 = stablehlo.constant dense<[4, 1]> : tensor<2xi64>
+  %1 = stablehlo.constant dense<[2, 1]> : tensor<2xi64>
+  %2 = stablehlo.constant dense<[3, 1]> : tensor<2xi64>
+  %3 = stablehlo.constant dense<[[2, 1], [0, 0]]> : tensor<2x2xi64>
+  %4 = stablehlo.custom_call @stablehlo.dynamic_reduce_window(%arg0, %arg1, %arg2, %0, %1, %2, %3) {
+    called_computations = [@dynamic_reduce_window0]
+  } : (tensor<3x2xf32>, tensor<f32>, tensor<2xi64>, tensor<2xi64>, tensor<2xi64>, tensor<2xi64>, tensor<2x2xi64>) -> tensor<2x2xf32>
+  func.return %4 : tensor<2x2xf32>
+}
+
+func.func private @dynamic_reduce_window0(%arg0: tensor<f32>, %arg1: tensor<f32>) -> tensor<f32> {
+  %0 = stablehlo.add %arg0, %arg1 : tensor<f32>
+  func.return %0 : tensor<f32>
+}
+
+// -----
+
+// CHECK-LABEL: func @dynamic_reduce_window_inapplicable_dynamic_window_strides
+func.func @dynamic_reduce_window_inapplicable_dynamic_window_strides(%arg0: tensor<3x2xf32>, %arg1: tensor<f32>, %arg2: tensor<2xi64>) -> tensor<2x2xf32> {
+  // CHECK: stablehlo.dynamic_reduce_window
+  %0 = stablehlo.constant dense<[2, 1]> : tensor<2xi64>
+  %1 = stablehlo.constant dense<[2, 1]> : tensor<2xi64>
+  %2 = stablehlo.constant dense<[3, 1]> : tensor<2xi64>
+  %3 = stablehlo.constant dense<[[2, 1], [0, 0]]> : tensor<2x2xi64>
+  %4 = stablehlo.custom_call @stablehlo.dynamic_reduce_window(%arg0, %arg1, %0, %arg2, %1, %2, %3) {
+    called_computations = [@dynamic_reduce_window0]
+  } : (tensor<3x2xf32>, tensor<f32>, tensor<2xi64>, tensor<2xi64>, tensor<2xi64>, tensor<2xi64>, tensor<2x2xi64>) -> tensor<2x2xf32>
+  func.return %4 : tensor<2x2xf32>
+}
+
+func.func private @dynamic_reduce_window0(%arg0: tensor<f32>, %arg1: tensor<f32>) -> tensor<f32> {
+  %0 = stablehlo.add %arg0, %arg1 : tensor<f32>
+  func.return %0 : tensor<f32>
+}
+
+// -----
+
+// CHECK-LABEL: func @dynamic_reduce_window_inapplicable_dynamic_base_dilations
+func.func @dynamic_reduce_window_inapplicable_dynamic_base_dilations(%arg0: tensor<3x2xf32>, %arg1: tensor<f32>, %arg2: tensor<2xi64>) -> tensor<2x2xf32> {
+  // CHECK: stablehlo.dynamic_reduce_window
+  %0 = stablehlo.constant dense<[2, 1]> : tensor<2xi64>
+  %1 = stablehlo.constant dense<[4, 1]> : tensor<2xi64>
+  %2 = stablehlo.constant dense<[3, 1]> : tensor<2xi64>
+  %3 = stablehlo.constant dense<[[2, 1], [0, 0]]> : tensor<2x2xi64>
+  %4 = stablehlo.custom_call @stablehlo.dynamic_reduce_window(%arg0, %arg1, %0, %1, %arg2, %2, %3) {
+    called_computations = [@dynamic_reduce_window0]
+  } : (tensor<3x2xf32>, tensor<f32>, tensor<2xi64>, tensor<2xi64>, tensor<2xi64>, tensor<2xi64>, tensor<2x2xi64>) -> tensor<2x2xf32>
+  func.return %4 : tensor<2x2xf32>
+}
+
+func.func private @dynamic_reduce_window0(%arg0: tensor<f32>, %arg1: tensor<f32>) -> tensor<f32> {
+  %0 = stablehlo.add %arg0, %arg1 : tensor<f32>
+  func.return %0 : tensor<f32>
+}
+
+// -----
+
+// CHECK-LABEL: func @dynamic_reduce_window_inapplicable_dynamic_window_dilations
+func.func @dynamic_reduce_window_inapplicable_dynamic_window_dilations(%arg0: tensor<3x2xf32>, %arg1: tensor<f32>, %arg2: tensor<2xi64>) -> tensor<2x2xf32> {
+  // CHECK: stablehlo.dynamic_reduce_window
+  %0 = stablehlo.constant dense<[2, 1]> : tensor<2xi64>
+  %1 = stablehlo.constant dense<[4, 1]> : tensor<2xi64>
+  %2 = stablehlo.constant dense<[2, 1]> : tensor<2xi64>
+  %3 = stablehlo.constant dense<[[2, 1], [0, 0]]> : tensor<2x2xi64>
+  %4 = stablehlo.custom_call @stablehlo.dynamic_reduce_window(%arg0, %arg1, %0, %1, %2, %arg2, %3) {
+    called_computations = [@dynamic_reduce_window0]
+  } : (tensor<3x2xf32>, tensor<f32>, tensor<2xi64>, tensor<2xi64>, tensor<2xi64>, tensor<2xi64>, tensor<2x2xi64>) -> tensor<2x2xf32>
+  func.return %4 : tensor<2x2xf32>
+}
+
+func.func private @dynamic_reduce_window0(%arg0: tensor<f32>, %arg1: tensor<f32>) -> tensor<f32> {
+  %0 = stablehlo.add %arg0, %arg1 : tensor<f32>
+  func.return %0 : tensor<f32>
+}
+
+// -----
+
+// CHECK-LABEL: func @dynamic_reduce_window_inapplicable_dynamic_padding
+func.func @dynamic_reduce_window_inapplicable_dynamic_padding(%arg0: tensor<3x2xf32>, %arg1: tensor<f32>, %arg2: tensor<2x2xi64>) -> tensor<2x2xf32> {
+  // CHECK: stablehlo.dynamic_reduce_window
+  %0 = stablehlo.constant dense<[2, 1]> : tensor<2xi64>
+  %1 = stablehlo.constant dense<[4, 1]> : tensor<2xi64>
+  %2 = stablehlo.constant dense<[2, 1]> : tensor<2xi64>
+  %3 = stablehlo.constant dense<[3, 1]> : tensor<2xi64>
+  %4 = stablehlo.custom_call @stablehlo.dynamic_reduce_window(%arg0, %arg1, %0, %1, %2, %3, %arg2) {
+    called_computations = [@dynamic_reduce_window0]
+  } : (tensor<3x2xf32>, tensor<f32>, tensor<2xi64>, tensor<2xi64>, tensor<2xi64>, tensor<2xi64>, tensor<2x2xi64>) -> tensor<2x2xf32>
+  func.return %4 : tensor<2x2xf32>
+}
+
+func.func private @dynamic_reduce_window0(%arg0: tensor<f32>, %arg1: tensor<f32>) -> tensor<f32> {
+  %0 = stablehlo.add %arg0, %arg1 : tensor<f32>
+  func.return %0 : tensor<f32>
+}
+
+// -----
+
+// CHECK-LABEL: func @dynamic_rng_bit_generator_success
+func.func @dynamic_rng_bit_generator_success(%arg0: tensor<2xui64>) -> tensor<1x4xf32> {
+  // CHECK-NOT: stablehlo.dynamic_rng_bit_generator
+  // CHECK: stablehlo.rng_bit_generator %arg0, algorithm = DEFAULT : (tensor<2xui64>) -> (tensor<2xui64>, tensor<1x4xf32>)
+  %0 = stablehlo.constant dense<[1, 4]> : tensor<2xi64>
+  %1:2 = stablehlo.custom_call @stablehlo.dynamic_rng_bit_generator(%arg0, %0) {
+    rng_algorithm = #stablehlo<rng_algorithm DEFAULT>
+  } : (tensor<2xui64>, tensor<2xi64>) -> (tensor<2xui64>, tensor<1x4xf32>)
+  return %1#1 : tensor<1x4xf32>
+}
+
+// TODO(burmako): Implement tests for verification failures for dynamic_rng_bit_generator.
+
+// -----
+
+// CHECK-LABEL: func @dynamic_rng_bit_generator_inapplicable_dynamic_output_shape
+func.func @dynamic_rng_bit_generator_inapplicable_dynamic_output_shape(%arg0: tensor<2xui64>, %arg1: tensor<2xi64>) -> tensor<1x4xf32> {
+  // CHECK: stablehlo.dynamic_rng_bit_generator
+  %1:2 = stablehlo.custom_call @stablehlo.dynamic_rng_bit_generator(%arg0, %arg1) {
+    rng_algorithm = #stablehlo<rng_algorithm DEFAULT>
+  } : (tensor<2xui64>, tensor<2xi64>) -> (tensor<2xui64>, tensor<1x4xf32>)
+  return %1#1 : tensor<1x4xf32>
+}
+
+// -----
+
+// CHECK-LABEL: func @dynamic_rng_bit_generator_inapplicable_dynamic_output_type
+func.func @dynamic_rng_bit_generator_inapplicable_dynamic_output_type(%arg0: tensor<2xui64>) -> tensor<?x?xf32> {
+  // CHECK: stablehlo.dynamic_rng_bit_generator
+  %0 = stablehlo.constant dense<[1, 4]> : tensor<2xi64>
+  %1:2 = stablehlo.custom_call @stablehlo.dynamic_rng_bit_generator(%arg0, %0) {
+    rng_algorithm = #stablehlo<rng_algorithm DEFAULT>
+  } : (tensor<2xui64>, tensor<2xi64>) -> (tensor<2xui64>, tensor<?x?xf32>)
+  return %1#1 : tensor<?x?xf32>
+}
+
+// -----
+
+// CHECK-LABEL: func @dynamic_top_k_success
+func.func @dynamic_top_k_success(%arg0: tensor<16xf32>) -> (tensor<3xf32>, tensor<3xi32>) {
+  // CHECK: chlo.top_k
+  %k = stablehlo.constant dense<3> : tensor<ui64>
+  %1:2 = stablehlo.custom_call @stablehlo.dynamic_top_k(%arg0, %k) : (tensor<16xf32>, tensor<ui64>) -> (tensor<3xf32>, tensor<3xi32>)
+  return %1#0, %1#1 : tensor<3xf32>, tensor<3xi32>
+}
+
+// -----
+
+// CHECK-LABEL: func @dynamic_top_k_failure_k_mismatch
+func.func @dynamic_top_k_failure_k_mismatch(%arg0: tensor<16xf32>) -> (tensor<3xf32>, tensor<3xi32>) {
+  // CHECK: @stablehlo.dynamic_top_k
+  %k = stablehlo.constant dense<4> : tensor<ui64>
+  %1:2 = stablehlo.custom_call @stablehlo.dynamic_top_k(%arg0, %k) : (tensor<16xf32>, tensor<ui64>) -> (tensor<3xf32>, tensor<3xi32>)
+  return %1#0, %1#1 : tensor<3xf32>, tensor<3xi32>
+}
+
+// -----
+
+// dynamic_top_k I1
+// CHECK-LABEL: func @dynamic_top_k_error_operand_not_float
+func.func @dynamic_top_k_error_operand_not_float(%arg0: tensor<16xcomplex<f64>>) -> (tensor<3xcomplex<f64>>, tensor<3xi32>) {
+  // expected-error@+2{{expects operand #0 to be a tensor of integer or floating-point type}}
+  %k = stablehlo.constant dense<3> : tensor<ui64>
+  %1:2 = stablehlo.custom_call @stablehlo.dynamic_top_k(%arg0, %k) : (tensor<16xcomplex<f64>>, tensor<ui64>) -> (tensor<3xcomplex<f64>>, tensor<3xi32>)
+  return %1#0, %1#1 : tensor<3xcomplex<f64>>, tensor<3xi32>
+}
+
+// -----
+
+// dynamic_top_k I1
+// CHECK-LABEL: func @dynamic_top_k_error_operand_unranked
+func.func @dynamic_top_k_error_operand_unranked(%arg0: tensor<*xf32>) -> (tensor<3xf32>, tensor<3xi32>) {
+  // expected-error@+2{{expects operand #0 to be a tensor of integer or floating-point type of rank at least 1}}
+  %k = stablehlo.constant dense<3> : tensor<ui64>
+  %1:2 = stablehlo.custom_call @stablehlo.dynamic_top_k(%arg0, %k) : (tensor<*xf32>, tensor<ui64>) -> (tensor<3xf32>, tensor<3xi32>)
+  return %1#0, %1#1 : tensor<3xf32>, tensor<3xi32>
+}
+
+// -----
+
+// dynamic_top_k I1
+// CHECK-LABEL: func @dynamic_top_k_error_scalar_operand
+func.func @dynamic_top_k_error_scalar_operand(%arg0: tensor<f32>) -> (tensor<3xf32>, tensor<3xi32>) {
+  // expected-error@+2{{expects operand #0 to be a tensor of integer or floating-point type of rank at least 1}}
+  %k = stablehlo.constant dense<3> : tensor<ui64>
+  %1:2 = stablehlo.custom_call @stablehlo.dynamic_top_k(%arg0, %k) : (tensor<f32>, tensor<ui64>) -> (tensor<3xf32>, tensor<3xi32>)
+  return %1#0, %1#1 : tensor<3xf32>, tensor<3xi32>
+}
+
+// -----
+
+// dynamic_top_k I2
+// CHECK-LABEL: func @dynamic_top_k_error_k_not_integer
+func.func @dynamic_top_k_error_k_not_integer(%arg0: tensor<16xf32>) -> (tensor<3xf32>, tensor<3xi32>) {
+  // expected-error@+2{{expects k (operand #1) to be a 0-dimensional tensor of integer or index type}}
+  %k = stablehlo.constant dense<3.> : tensor<f32>
+  %1:2 = stablehlo.custom_call @stablehlo.dynamic_top_k(%arg0, %k) : (tensor<16xf32>, tensor<f32>) -> (tensor<3xf32>, tensor<3xi32>)
+  return %1#0, %1#1 : tensor<3xf32>, tensor<3xi32>
+}
+
+// -----
+
+// dynamic_top_k I2
+// CHECK-LABEL: func @dynamic_top_k_error_k_not_scalar
+func.func @dynamic_top_k_error_k_not_scalar(%arg0: tensor<16xf32>) -> (tensor<3xf32>, tensor<3xi32>) {
+  // expected-error@+2{{expects k (operand #1) to be a 0-dimensional tensor of integer or index type}}
+  %k = stablehlo.constant dense<3> : tensor<1xui64>
+  %1:2 = stablehlo.custom_call @stablehlo.dynamic_top_k(%arg0, %k) : (tensor<16xf32>, tensor<1xui64>) -> (tensor<3xf32>, tensor<3xi32>)
+  return %1#0, %1#1 : tensor<3xf32>, tensor<3xi32>
+}
+
+// -----
+
+// dynamic_top_k O1
+// CHECK-LABEL: func @dynamic_top_k_error_values_not_float
+func.func @dynamic_top_k_error_values_not_float(%arg0: tensor<16xf32>) -> (tensor<3xcomplex<f64>>, tensor<3xi32>) {
+  // expected-error@+2{{expects values (result #0) to be a tensor of integer or floating-point type}}
+  %k = stablehlo.constant dense<3> : tensor<ui64>
+  %1:2 = stablehlo.custom_call @stablehlo.dynamic_top_k(%arg0, %k) : (tensor<16xf32>, tensor<ui64>) -> (tensor<3xcomplex<f64>>, tensor<3xi32>)
+  return %1#0, %1#1 : tensor<3xcomplex<f64>>, tensor<3xi32>
+}
+
+// -----
+
+// dynamic_top_k O2
+// CHECK-LABEL: func @dynamic_top_k_error_indices_not_i32
+func.func @dynamic_top_k_error_indices_not_i32(%arg0: tensor<16xf32>) -> (tensor<3xf32>, tensor<3xi64>) {
+  // expected-error@+2{{expects indices (result #1) to be a tensor of si32}}
+  %k = stablehlo.constant dense<3> : tensor<ui64>
+  %1:2 = stablehlo.custom_call @stablehlo.dynamic_top_k(%arg0, %k) : (tensor<16xf32>, tensor<ui64>) -> (tensor<3xf32>, tensor<3xi64>)
+  return %1#0, %1#1 : tensor<3xf32>, tensor<3xi64>
+}
+
+// -----
+
+// dynamic_top_k C1
+// CHECK-LABEL: func @dynamic_top_k_error_values_bad_rank
+func.func @dynamic_top_k_error_values_bad_rank(%arg0: tensor<16xf32>) -> (tensor<3x4xf32>, tensor<3xi32>) {
+  // expected-error@+2{{expects the values shape to match the operand shape in all but the last dimension}}
+  %k = stablehlo.constant dense<3> : tensor<ui64>
+  %1:2 = stablehlo.custom_call @stablehlo.dynamic_top_k(%arg0, %k) : (tensor<16xf32>, tensor<ui64>) -> (tensor<3x4xf32>, tensor<3xi32>)
+  return %1#0, %1#1 : tensor<3x4xf32>, tensor<3xi32>
+}
+
+// -----
+
+// dynamic_top_k C2
+// CHECK-LABEL: func @dynamic_top_k_error_values_bad_element_type
+func.func @dynamic_top_k_error_values_bad_element_type(%arg0: tensor<16xf32>) -> (tensor<3xf64>, tensor<3xi32>) {
+  // expected-error@+2{{expects the values element type to be the same as the operand element type}}
+  %k = stablehlo.constant dense<3> : tensor<ui64>
+  %1:2 = stablehlo.custom_call @stablehlo.dynamic_top_k(%arg0, %k) : (tensor<16xf32>, tensor<ui64>) -> (tensor<3xf64>, tensor<3xi32>)
+  return %1#0, %1#1 : tensor<3xf64>, tensor<3xi32>
+}
+
+// -----
+
+// dynamic_top_k C3
+// CHECK-LABEL: func @dynamic_top_k_error_values_last_dim_too_large
+func.func @dynamic_top_k_error_values_last_dim_too_large(%arg0: tensor<16xf32>) -> (tensor<17xf32>, tensor<3xi32>) {
+  // expected-error@+2{{expects the values last dimension to have size at least as large as operand last dimension}}
+  %k = stablehlo.constant dense<17> : tensor<ui64>
+  %1:2 = stablehlo.custom_call @stablehlo.dynamic_top_k(%arg0, %k) : (tensor<16xf32>, tensor<ui64>) -> (tensor<17xf32>, tensor<3xi32>)
+  return %1#0, %1#1 : tensor<17xf32>, tensor<3xi32>
+}
+
+// -----
+
+// dynamic_top_k C4
+// CHECK-LABEL: func @dynamic_top_k_error_indices_shape_mismatch
+func.func @dynamic_top_k_error_indices_shape_mismatch(%arg0: tensor<16xf32>) -> (tensor<3xf32>, tensor<4xi32>) {
+  // expected-error@+2{{expects the indices shape to match the values shape}}
+  %k = stablehlo.constant dense<3> : tensor<ui64>
+  %1:2 = stablehlo.custom_call @stablehlo.dynamic_top_k(%arg0, %k) : (tensor<16xf32>, tensor<ui64>) -> (tensor<3xf32>, tensor<4xi32>)
+  return %1#0, %1#1 : tensor<3xf32>, tensor<4xi32>
+}
diff --ruN a/stablehlo/stablehlo/experimental/tests/stablehlo_refine_shapes.mlir b/stablehlo/stablehlo/experimental/tests/stablehlo_refine_shapes.mlir
--- stablehlo/stablehlo/experimental/tests/stablehlo_refine_shapes.mlir
+++ stablehlo/stablehlo/experimental/tests/stablehlo_refine_shapes.mlir
@@ -0,0 +1,196 @@
+// RUN: experimental-stablehlo-opt --experimental-stablehlo-refine-shapes --split-input-file --verify-diagnostics %s | FileCheck %s
+
+// CHECK-LABEL: @main
+func.func @main(%arg0: tensor<3x2xf32>, %arg1: tensor<f32>) -> tensor<*xf32> {
+  // CHECK: stablehlo.dynamic_reduce_window{{.*}} -> tensor<2x2xf32>
+  %0 = stablehlo.constant dense<[2, 1]> : tensor<2xi64>
+  %1 = stablehlo.constant dense<[4, 1]> : tensor<2xi64>
+  %2 = stablehlo.constant dense<[2, 1]> : tensor<2xi64>
+  %3 = stablehlo.constant dense<[3, 1]> : tensor<2xi64>
+  %4 = stablehlo.constant dense<[[2, 1], [0, 0]]> : tensor<2x2xi64>
+  %5 = stablehlo.custom_call @stablehlo.dynamic_reduce_window(%arg0, %arg1, %0, %1, %2, %3, %4) {
+    called_computations = [@dynamic_reduce_window0]
+  } : (tensor<3x2xf32>, tensor<f32>, tensor<2xi64>, tensor<2xi64>, tensor<2xi64>, tensor<2xi64>, tensor<2x2xi64>) -> tensor<*xf32>
+  func.return %5 : tensor<*xf32>
+}
+
+func.func private @dynamic_reduce_window0(%arg0: tensor<f32>, %arg1: tensor<f32>) -> tensor<f32> {
+  %0 = stablehlo.add %arg0, %arg1 : tensor<f32>
+  func.return %0 : tensor<f32>
+}
+
+// -----
+
+// CHECK-LABEL: @refine_dynamic_rng_bit_generator
+func.func @refine_dynamic_rng_bit_generator(%arg0: tensor<2xui64>) -> (tensor<?xui64>, tensor<*xf32>) {
+  // CHECK: stablehlo.dynamic_rng_bit_generator{{.*}} -> (tensor<2xui64>, tensor<1x4xf32>)
+  %0 = stablehlo.constant dense<[1, 4]> : tensor<2xi64>
+  %1:2 = stablehlo.custom_call @stablehlo.dynamic_rng_bit_generator(%arg0, %0) {
+    rng_algorithm = #stablehlo<rng_algorithm DEFAULT>
+  } : (tensor<2xui64>, tensor<2xi64>) -> (tensor<?xui64>, tensor<*xf32>)
+  func.return %1#0, %1#1 : tensor<?xui64>, tensor<*xf32>
+}
+
+// -----
+
+// CHECK-LABEL: func @refine_dynamic_top_k
+func.func @refine_dynamic_top_k(%arg0: tensor<16xf32>) -> (tensor<?xf32>, tensor<?xi32>) {
+  // CHECK: stablehlo.dynamic_top_k{{.*}} -> (tensor<4xf32>, tensor<4xi32>)
+  %k = stablehlo.constant dense<4> : tensor<ui64>
+  %1:2 = stablehlo.custom_call @stablehlo.dynamic_top_k(%arg0, %k) : (tensor<16xf32>, tensor<ui64>) -> (tensor<?xf32>, tensor<?xi32>)
+  return %1#0, %1#1 : tensor<?xf32>, tensor<?xi32>
+}
+
+// -----
+
+// CHECK-LABEL: func @refine_mhlo_topk
+func.func @refine_mhlo_topk(%arg0: tensor<5x16xf32>) -> (tensor<?x?xf32>, tensor<?x?xi32>) {
+  // CHECK: mhlo.topk{{.*}} -> (tensor<5x4xf32>, tensor<5x4xi32>)
+  %0:2 = stablehlo.custom_call @mhlo.topk(%arg0) {
+    mhlo.attributes = { k = 4 : i64, largest = true}
+  } : (tensor<5x16xf32>) -> (tensor<?x?xf32>, tensor<?x?xi32>)
+  return %0#0, %0#1 : tensor<?x?xf32>, tensor<?x?xi32>
+}
+
+// -----
+
+// CHECK-LABEL: func @refine_mhlo_error_too_many_operands
+func.func @refine_mhlo_error_too_many_operands(%arg0: tensor<5x16xf32>) -> (tensor<?x?xf32>, tensor<?x?xi32>) {
+  // expected-error@+1{{expects size(operands) = 1}}
+  %0:2 = stablehlo.custom_call @mhlo.topk(%arg0, %arg0) {
+    mhlo.attributes = { k = 4 : i64, largest = true}
+  } : (tensor<5x16xf32>, tensor<5x16xf32>) -> (tensor<?x?xf32>, tensor<?x?xi32>)
+  return %0#0, %0#1 : tensor<?x?xf32>, tensor<?x?xi32>
+}
+
+// -----
+
+// CHECK-LABEL: func @refine_mhlo_error_too_few_results
+func.func @refine_mhlo_error_too_few_results(%arg0: tensor<5x16xf32>) -> (tensor<?x?xf32>) {
+  // expected-error@+1{{expects size(results) = 2}}
+  %0 = stablehlo.custom_call @mhlo.topk(%arg0) {
+    mhlo.attributes = { k = 4 : i64, largest = true}
+  } : (tensor<5x16xf32>) -> (tensor<?x?xf32>)
+  return %0 : tensor<?x?xf32>
+}
+
+// -----
+
+// CHECK-LABEL: func @refine_mhlo_error_wrong_output_1_type
+func.func @refine_mhlo_error_wrong_output_1_type(%arg0: tensor<5x16xf32>) -> (tensor<f32>, tensor<?x?xi32>) {
+  // expected-error@+1{{expects values (result #0) to be a tensor of integer or floating-point type of rank at least 1}}
+  %0:2 = stablehlo.custom_call @mhlo.topk(%arg0) {
+    mhlo.attributes = { k = 4 : i64, largest = true}
+  } : (tensor<5x16xf32>) -> (tensor<f32>, tensor<?x?xi32>)
+  return %0#0, %0#1 : tensor<f32>, tensor<?x?xi32>
+}
+
+// -----
+
+// CHECK-LABEL: func @refine_mhlo_error_wrong_output_2_type
+func.func @refine_mhlo_error_wrong_output_2_type(%arg0: tensor<5x16xf32>) -> (tensor<?x?xf32>, tensor<?x?xf32>) {
+  // expected-error@+1{{expects indices (result #1) to be a tensor of si32 of rank at least 1}}
+  %0:2 = stablehlo.custom_call @mhlo.topk(%arg0) {
+    mhlo.attributes = { k = 4 : i64, largest = true}
+  } : (tensor<5x16xf32>) -> (tensor<?x?xf32>, tensor<?x?xf32>)
+  return %0#0, %0#1 : tensor<?x?xf32>, tensor<?x?xf32>
+}
+
+// -----
+
+// CHECK-LABEL: func @refine_mhlo_error_c1_wrong_output_shape
+func.func @refine_mhlo_error_c1_wrong_output_shape(%arg0: tensor<5x16xf32>) -> (tensor<?x?x?xf32>, tensor<?x?xi32>) {
+  // expected-error@+1{{expects the values shape to match the operand}}
+  %0:2 = stablehlo.custom_call @mhlo.topk(%arg0) {
+    mhlo.attributes = { k = 4 : i64, largest = true}
+  } : (tensor<5x16xf32>) -> (tensor<?x?x?xf32>, tensor<?x?xi32>)
+  return %0#0, %0#1 : tensor<?x?x?xf32>, tensor<?x?xi32>
+}
+
+// -----
+
+// CHECK-LABEL: func @refine_mhlo_error_c2_last_dim_not_k
+func.func @refine_mhlo_error_c2_last_dim_not_k(%arg0: tensor<5x16xf32>) -> (tensor<?x5xf32>, tensor<?x?xi32>) {
+  // expected-error@+1{{expects the values shape to match the operand}}
+  %0:2 = stablehlo.custom_call @mhlo.topk(%arg0) {
+    mhlo.attributes = { k = 4 : i64, largest = true}
+  } : (tensor<5x16xf32>) -> (tensor<?x5xf32>, tensor<?x?xi32>)
+  return %0#0, %0#1 : tensor<?x5xf32>, tensor<?x?xi32>
+}
+
+// -----
+
+// CHECK-LABEL: func @refine_mhlo_error_c3_wrong_output_type
+func.func @refine_mhlo_error_c3_wrong_output_type(%arg0: tensor<5x16xf32>) -> (tensor<?x?xi32>, tensor<?x?xi32>) {
+  // expected-error@+1{{expects the values element type to be the same as the operand element type}}
+  %0:2 = stablehlo.custom_call @mhlo.topk(%arg0) {
+    mhlo.attributes = { k = 4 : i64, largest = true}
+  } : (tensor<5x16xf32>) -> (tensor<?x?xi32>, tensor<?x?xi32>)
+  return %0#0, %0#1 : tensor<?x?xi32>, tensor<?x?xi32>
+}
+
+// -----
+
+// CHECK-LABEL: func @refine_mhlo_error_c4_outputs_shape_mismatch
+func.func @refine_mhlo_error_c4_outputs_shape_mismatch(%arg0: tensor<5x16xf32>) -> (tensor<?x4xf32>, tensor<?x5xi32>) {
+  // expected-error@+1{{expects the indices shape to match the values shape}}
+  %0:2 = stablehlo.custom_call @mhlo.topk(%arg0) {
+    mhlo.attributes = { k = 4 : i64, largest = true}
+  } : (tensor<5x16xf32>) -> (tensor<?x4xf32>, tensor<?x5xi32>)
+  return %0#0, %0#1 : tensor<?x4xf32>, tensor<?x5xi32>
+}
+
+// -----
+
+// CHECK-LABEL: func @refine_mhlo_error_c5_negative_k
+func.func @refine_mhlo_error_c5_negative_k(%arg0: tensor<5x16xf32>) -> (tensor<?x?xf32>, tensor<?x?xi32>) {
+  // expected-error@+1{{expects k >= 0}}
+  %0:2 = stablehlo.custom_call @mhlo.topk(%arg0) {
+    mhlo.attributes = { k = -4 : i64, largest = true}
+  } : (tensor<5x16xf32>) -> (tensor<?x?xf32>, tensor<?x?xi32>)
+  return %0#0, %0#1 : tensor<?x?xf32>, tensor<?x?xi32>
+}
+
+
+// -----
+
+// CHECK-LABEL: @refine_tan
+func.func @refine_tan(%arg0: tensor<16xf32>) -> tensor<?xf32> {
+  // CHECK: mhlo.tan{{.*}} -> tensor<16xf32>
+  %0 = "stablehlo.custom_call"(%arg0) {
+    call_target_name = "mhlo.tan",
+    mhlo.attributes = {},
+    mhlo.version = 1 : i64
+  } : (tensor<16xf32>) -> tensor<?xf32>
+  func.return %0 : tensor<?xf32>
+}
+
+// -----
+
+// tan_op I1
+// CHECK-LABEL: func @tan_op_error_too_many_inputs
+func.func @tan_op_error_too_many_inputs(%arg0: tensor<1xf32>) -> (tensor<1xf32>) {
+  // expected-error@+1{{expects size(operands) = 1}}
+  %0 = "stablehlo.custom_call"(%arg0, %arg0) {call_target_name = "mhlo.tan", mhlo.attributes = {}, mhlo.version = 1 : i64} : (tensor<1xf32>, tensor<1xf32>) -> tensor<1xf32>
+  return %0 : tensor<1xf32>
+}
+
+// -----
+
+// tan_op O1
+// CHECK-LABEL: func @tan_op_error_too_many_outputs
+func.func @tan_op_error_too_many_outputs(%arg0: tensor<1xf32>) -> (tensor<1xf32>) {
+  // expected-error@+1{{expects size(results) = 1}}
+  %0:2 = "stablehlo.custom_call"(%arg0) {call_target_name = "mhlo.tan", mhlo.attributes = {}, mhlo.version = 1 : i64} : (tensor<1xf32>) -> (tensor<1xf32>, tensor<1xf32>)
+  return %0#1 : tensor<1xf32>
+}
+
+// -----
+
+// tan_op C1
+// CHECK-LABEL: func @tan_op_error_values_bad_element_type
+func.func @tan_op_error_values_bad_element_type(%arg0: tensor<1xf32>) -> (tensor<1xi32>) {
+  // expected-error@+1{{expects operand and result to have compatible shapes}}
+  %0 = "stablehlo.custom_call"(%arg0) {call_target_name = "mhlo.tan", mhlo.attributes = {}, mhlo.version = 1 : i64} : (tensor<1xf32>) -> tensor<1xi32>
+  return %0 : tensor<1xi32>
+}
diff --ruN a/stablehlo/stablehlo/experimental/tools/CMakeLists.txt b/stablehlo/stablehlo/experimental/tools/CMakeLists.txt
--- stablehlo/stablehlo/experimental/tools/CMakeLists.txt
+++ stablehlo/stablehlo/experimental/tools/CMakeLists.txt
@@ -0,0 +1,41 @@
+# Copyright 2020 The TensorFlow Authors. All Rights Reserved.
+# Copyright 2023 The StableHLO Authors.
+#
+# Licensed under the Apache License, Version 2.0 (the "License");
+# you may not use this file except in compliance with the License.
+# You may obtain a copy of the License at
+#
+#      https://www.apache.org/licenses/LICENSE-2.0
+#
+# Unless required by applicable law or agreed to in writing, software
+# distributed under the License is distributed on an "AS IS" BASIS,
+# WITHOUT WARRANTIES OR CONDITIONS OF ANY KIND, either express or implied.
+# See the License for the specific language governing permissions and
+# limitations under the License.
+
+set(LLVM_OPTIONAL_SOURCES
+  StablehloOptMain.cpp
+)
+
+# stablehlo-opt
+get_property(dialect_libs GLOBAL PROPERTY MLIR_DIALECT_LIBS)
+get_property(conversion_libs GLOBAL PROPERTY MLIR_CONVERSION_LIBS)
+get_property(extension_libs GLOBAL PROPERTY MLIR_EXTENSION_LIBS)
+set(LIBS
+        ${dialect_libs}
+        ${conversion_libs}
+        ${extension_libs}
+        ExperimentalStablehloPasses
+        MLIROptLib
+        StablehloRegister
+        StablehloTestUtils
+        StablehloPasses
+        InterpreterOps
+        StablehloTOSATransforms
+        )
+add_llvm_executable(experimental-stablehlo-opt StablehloOptMain.cpp)
+llvm_update_compile_flags(experimental-stablehlo-opt)
+target_link_libraries(experimental-stablehlo-opt PRIVATE ${LIBS})
+
+mlir_check_all_link_libraries(experimental-stablehlo-opt)
+
diff --ruN a/stablehlo/stablehlo/experimental/tools/StablehloOptMain.cpp b/stablehlo/stablehlo/experimental/tools/StablehloOptMain.cpp
--- stablehlo/stablehlo/experimental/tools/StablehloOptMain.cpp
+++ stablehlo/stablehlo/experimental/tools/StablehloOptMain.cpp
@@ -0,0 +1,46 @@
+/* Copyright 2023 The StableHLO Authors.
+
+Licensed under the Apache License, Version 2.0 (the "License");
+you may not use this file except in compliance with the License.
+You may obtain a copy of the License at
+
+    http://www.apache.org/licenses/LICENSE-2.0
+
+Unless required by applicable law or agreed to in writing, software
+distributed under the License is distributed on an "AS IS" BASIS,
+WITHOUT WARRANTIES OR CONDITIONS OF ANY KIND, either express or implied.
+See the License for the specific language governing permissions and
+limitations under the License.
+==============================================================================*/
+
+#include "mlir/Dialect/Tosa/IR/TosaOps.h"
+#include "mlir/Dialect/Tosa/Transforms/Passes.h"
+#include "mlir/InitAllDialects.h"
+#include "mlir/InitAllExtensions.h"
+#include "mlir/InitAllPasses.h"
+#include "mlir/Tools/mlir-opt/MlirOptMain.h"
+#include "stablehlo/conversions/tosa/transforms/Passes.h"
+#include "stablehlo/dialect/Register.h"
+#include "stablehlo/experimental/transforms/Passes.h"
+#include "stablehlo/reference/InterpreterOps.h"
+#include "stablehlo/tests/TestUtils.h"
+#include "stablehlo/transforms/Passes.h"
+
+int main(int argc, char **argv) {
+  mlir::registerAllPasses();
+  mlir::hlo::registerAllTestPasses();
+  mlir::stablehlo::registerPassPipelines();
+  mlir::stablehlo::registerPasses();
+  mlir::stablehlo::experimental::registerPasses();
+  mlir::tosa::registerStablehloLegalizeToTosaPassPass();
+  mlir::tosa::registerStablehloPrepareForTosaPassPass();
+
+  mlir::DialectRegistry registry;
+  mlir::registerAllDialects(registry);
+  mlir::registerAllExtensions(registry);
+  mlir::stablehlo::registerAllDialects(registry);
+  registry.insert<mlir::stablehlo::interpreter::InterpreterDialect>();
+
+  return failed(
+      mlir::MlirOptMain(argc, argv, "Experimental StableHLO optimizer driver\n", registry));
+}
diff --ruN a/stablehlo/stablehlo/experimental/transforms/CMakeLists.txt b/stablehlo/stablehlo/experimental/transforms/CMakeLists.txt
--- stablehlo/stablehlo/experimental/transforms/CMakeLists.txt
+++ stablehlo/stablehlo/experimental/transforms/CMakeLists.txt
@@ -0,0 +1,39 @@
+# Copyright 2023 The StableHLO Authors.
+#
+# Licensed under the Apache License, Version 2.0 (the "License");
+# you may not use this file except in compliance with the License.
+# You may obtain a copy of the License at
+#
+#      https://www.apache.org/licenses/LICENSE-2.0
+#
+# Unless required by applicable law or agreed to in writing, software
+# distributed under the License is distributed on an "AS IS" BASIS,
+# WITHOUT WARRANTIES OR CONDITIONS OF ANY KIND, either express or implied.
+# See the License for the specific language governing permissions and
+# limitations under the License.
+
+set(LLVM_TARGET_DEFINITIONS Passes.td)
+mlir_tablegen(Passes.h.inc -gen-pass-decls)
+add_public_tablegen_target(ExperimentalPassesIncGen)
+
+add_mlir_dialect_library(ExperimentalStablehloPasses
+  PARTIAL_SOURCES_INTENDED
+  StablehloCanonicalizeDynamism.cpp
+  StablehloRefineShapes.cpp
+
+  DEPENDS
+  ExperimentalPassesIncGen
+
+  LINK_LIBS PUBLIC
+  ChloOps
+  MLIRFuncDialect
+  MLIRIR
+  MLIRInferTypeOpInterface
+  MLIRSupport
+  MLIRTransformUtils
+  ExperimentalStablehloOps
+  StablehloBase
+  StablehloOps
+  StablehloPasses
+  StablehloTypeInference
+)
diff --ruN a/stablehlo/stablehlo/experimental/transforms/Passes.h b/stablehlo/stablehlo/experimental/transforms/Passes.h
--- stablehlo/stablehlo/experimental/transforms/Passes.h
+++ stablehlo/stablehlo/experimental/transforms/Passes.h
@@ -0,0 +1,37 @@
+/* Copyright 2023 The StableHLO Authors.
+
+Licensed under the Apache License, Version 2.0 (the "License");
+you may not use this file except in compliance with the License.
+You may obtain a copy of the License at
+
+    http://www.apache.org/licenses/LICENSE-2.0
+
+Unless required by applicable law or agreed to in writing, software
+distributed under the License is distributed on an "AS IS" BASIS,
+WITHOUT WARRANTIES OR CONDITIONS OF ANY KIND, either express or implied.
+See the License for the specific language governing permissions and
+limitations under the License.
+==============================================================================*/
+
+#ifndef STABLEHLO_EXPERIMENTAL_TRANSFORMS_PASSES_H
+#define STABLEHLO_EXPERIMENTAL_TRANSFORMS_PASSES_H
+
+#include <memory>
+
+#include "mlir/Pass/Pass.h"
+#include "mlir/Transforms/DialectConversion.h"
+
+namespace mlir {
+namespace stablehlo {
+namespace experimental {
+  
+#define GEN_PASS_DECL_STABLEHLOCANONICALIZEDYNAMISMPASS
+#define GEN_PASS_DECL_STABLEHLOREFINESHAPESPASS
+#define GEN_PASS_REGISTRATION
+#include "stablehlo/experimental/transforms/Passes.h.inc"
+
+}  // namespace experimental
+}  // namespace stablehlo
+}  // namespace mlir
+
+#endif  // STABLEHLO_EXPERIMENTAL_TRANSFORMS_PASSES_H
diff --ruN a/stablehlo/stablehlo/experimental/transforms/Passes.td b/stablehlo/stablehlo/experimental/transforms/Passes.td
--- stablehlo/stablehlo/experimental/transforms/Passes.td
+++ stablehlo/stablehlo/experimental/transforms/Passes.td
@@ -0,0 +1,31 @@
+/* Copyright 2023 The StableHLO Authors.
+
+Licensed under the Apache License, Version 2.0 (the "License");
+you may not use this file except in compliance with the License.
+You may obtain a copy of the License at
+
+    http://www.apache.org/licenses/LICENSE-2.0
+
+Unless required by applicable law or agreed to in writing, software
+distributed under the License is distributed on an "AS IS" BASIS,
+WITHOUT WARRANTIES OR CONDITIONS OF ANY KIND, either express or implied.
+See the License for the specific language governing permissions and
+limitations under the License.
+==============================================================================*/
+
+include "mlir/Pass/PassBase.td"
+
+def StablehloCanonicalizeDynamismPass : Pass<"experimental-stablehlo-canonicalize-dynamism", "func::FuncOp"> {
+  let summary = "(Experimental) Canonicalizes dynamic StableHLO ops into static ops.";
+  let description = [{
+    Experimental version of the --stablehlo-canonicalize-dynamism pass.
+  }];
…
     %1 = "stablehlo.add"(%arg2, %arg3) : (tensor<f64>, tensor<f64>) -> tensor<f64>
     "stablehlo.return"(%1) : (tensor<f64>) -> ()
 
-  }) {dimensions = dense<[0]> : tensor<1xi64>} : (tensor<4x4xf32>, tensor<f32>) -> tensor<4xf64>
+  }) {dimensions = array<i64: 0>} : (tensor<4x4xf32>, tensor<f32>) -> tensor<4xf64>
 
   func.return %0: tensor<4xf64>
 }
@@ -63,8 +63,8 @@
               "stablehlo.return"(%2,%3) : (tensor<f64>, tensor<f32>) -> ()
             })
          { padding = dense<[[2, 2], [0, 0]]> : tensor<2x2xi64>,
-           window_dimensions = dense<[5, 1]> : tensor<2xi64>,
-           window_strides = dense<[3, 1]> : tensor<2xi64> }
+           window_dimensions = array<i64: 5, 1>,
+           window_strides = array<i64: 3, 1> }
          : (tensor<4x2xf32>, tensor<4x2xf32>, tensor<f32>, tensor<f32>) ->
               (tensor<2x2xf64>, tensor<2x2xf32>)
   func.return %0#0, %0#1 : tensor<2x2xf64>, tensor<2x2xf32>
@@ -114,8 +114,8 @@
       %2 = stablehlo.add %arg3, %arg4 : tensor<f64>
       "stablehlo.return"(%2) : (tensor<f64>) -> ()
     }) {
-      window_dimensions = dense<[1, 2, 2, 1]> : tensor<4xi64>,
-      window_strides = dense<[1, 2, 2, 1]> : tensor<4xi64>,
+      window_dimensions = array<i64: 1, 2, 2, 1>,
+      window_strides = array<i64: 1, 2, 2, 1>,
       padding = dense<0> : tensor<4x2xi64>
     } : (tensor<10x24x24x64xf32>, tensor<10x12x12x64xf32>, tensor<f32>) ->
           tensor<10x24x24x64xf64>
diff --ruN a/stablehlo/stablehlo/transforms/StablehloCanonicalizeDynamism.cpp b/stablehlo/stablehlo/transforms/StablehloCanonicalizeDynamism.cpp
--- stablehlo/stablehlo/transforms/StablehloCanonicalizeDynamism.cpp
+++ stablehlo/stablehlo/transforms/StablehloCanonicalizeDynamism.cpp
@@ -153,7 +153,7 @@
       return rewriter.notifyMatchFailure(op, "expected static slice_sizes");
     rewriter.replaceOpWithNewOp<GatherOp>(
         op, op.getType(), op.getOperand(), op.getStartIndices(),
-        op.getDimensionNumbersAttr(), rewriter.getI64TensorAttr(sliceSizes),
+        op.getDimensionNumbersAttr(), rewriter.getDenseI64ArrayAttr(sliceSizes),
         op.getIndicesAreSortedAttr());
     return success();
   }
diff --ruN a/stablehlo/stablehlo/transforms/StablehloLegalizeToVhlo.cpp b/stablehlo/stablehlo/transforms/StablehloLegalizeToVhlo.cpp
--- stablehlo/stablehlo/transforms/StablehloLegalizeToVhlo.cpp
+++ stablehlo/stablehlo/transforms/StablehloLegalizeToVhlo.cpp
@@ -625,10 +625,11 @@
                 std::is_same<StablehloOpTy, stablehlo::DynamicConvOp>::value) {
     auto numSpatialDimensions = static_cast<int64_t>(
         stablehloOp.getDimensionNumbers().getInputSpatialDimensions().size());
-    if (!stablehloOp.getWindowStridesAttr())
+    if (!stablehloOp.getWindowStridesAttr()) {
       addDefaultAttr("window_strides",
-                     builder.getI64TensorAttr(
+                     builder.getDenseI64ArrayAttr(
                          SmallVector<int64_t>(numSpatialDimensions, 1ll)));
+    }
     if (!stablehloOp.getPaddingAttr())
       addDefaultAttr("padding",
                      DenseIntElementsAttr::get(
@@ -637,11 +638,11 @@
                          SmallVector<int64_t>(numSpatialDimensions * 2, 0ll)));
     if (!stablehloOp.getLhsDilationAttr())
       addDefaultAttr("lhs_dilation",
-                     builder.getI64TensorAttr(
+                     builder.getDenseI64ArrayAttr(
                          SmallVector<int64_t>(numSpatialDimensions, 1ll)));
     if (!stablehloOp.getRhsDilationAttr())
       addDefaultAttr("rhs_dilation",
-                     builder.getI64TensorAttr(
+                     builder.getDenseI64ArrayAttr(
                          SmallVector<int64_t>(numSpatialDimensions, 1ll)));
     if (!stablehloOp.getWindowReversalAttr())
       addDefaultAttr("window_reversal",
diff --ruN a/stablehlo/stablehlo/transforms/VhloLegalizeToStablehlo.cpp b/stablehlo/stablehlo/transforms/VhloLegalizeToStablehlo.cpp
--- stablehlo/stablehlo/transforms/VhloLegalizeToStablehlo.cpp
+++ stablehlo/stablehlo/transforms/VhloLegalizeToStablehlo.cpp
@@ -426,19 +426,21 @@
   return success();
 }
 
-SpecialResult convertDenseI64Array(
-    StringAttr vhloName, Attribute vhloAttr,
-    SmallVector<NamedAttribute>& stablehloAttrs) {
+template <typename T, typename Attr>
+SpecialResult convertDenseArray(StringAttr vhloName, Attribute vhloAttr,
+                                SmallVector<NamedAttribute>& stablehloAttrs) {
   auto tensorAttr = dyn_cast<vhlo::TensorV1Attr>(vhloAttr);
   if (!tensorAttr) return specialFailure();
 
-  if (tensorAttr.getData().size() % sizeof(int64_t) != 0)
-    return specialFailure();
-
-  auto data = ArrayRef<int64_t>(
-                  reinterpret_cast<const int64_t*>(tensorAttr.getData().data()),
-                  tensorAttr.getData().size() / sizeof(int64_t))
-                  .vec();
+  if (tensorAttr.getData().size() % sizeof(T) != 0) return specialFailure();
+
+  // Extracting the data in this way prevents misaligned memory issues.
+  auto vec =
+      ArrayRef<T>(reinterpret_cast<const T*>(tensorAttr.getData().data()),
+                  tensorAttr.getData().size() / sizeof(T))
+          .vec();
+  SmallVector<T> data;
+  for (T b : vec) data.push_back(b);
 
   // Handle splats
   if (data.size() == 1) {
@@ -449,9 +451,22 @@
     data.resize(size, data[0]);
   }
 
-  stablehloAttrs.emplace_back(
-      vhloName, DenseI64ArrayAttr::get(vhloAttr.getContext(), data));
+  stablehloAttrs.emplace_back(vhloName, Attr::get(vhloAttr.getContext(), data));
   return specialSuccess();
+}
+
+SpecialResult convertDenseI64Array(
+    StringAttr vhloName, Attribute vhloAttr,
+    SmallVector<NamedAttribute>& stablehloAttrs) {
+  return convertDenseArray<int64_t, DenseI64ArrayAttr>(vhloName, vhloAttr,
+                                                       stablehloAttrs);
+}
+
+SpecialResult convertDenseBoolArray(
+    StringAttr vhloName, Attribute vhloAttr,
+    SmallVector<NamedAttribute>& stablehloAttrs) {
+  return convertDenseArray<bool, DenseBoolArrayAttr>(vhloName, vhloAttr,
+                                                     stablehloAttrs);
 }
 
 template <typename VhloOpTy>
@@ -535,6 +550,32 @@
         vhloName == "known_expanding_dimensions" ||
         vhloName == "known_nonexpanding_dimensions")
       return convertDenseI64Array(vhloName, vhloAttr, stablehloAttrs);
+  }
+  if constexpr (std::is_same<VhloOpTy, vhlo::SelectAndScatterOpV1>::value) {
+    if (vhloName == "window_dimensions" || vhloName == "window_strides")
+      return convertDenseI64Array(vhloName, vhloAttr, stablehloAttrs);
+  }
+  if constexpr (std::is_same<VhloOpTy, vhlo::ReduceWindowOpV1>::value) {
+    if (vhloName == "window_dimensions" || vhloName == "window_strides" ||
+        vhloName == "base_dilations" || vhloName == "window_dilations")
+      return convertDenseI64Array(vhloName, vhloAttr, stablehloAttrs);
+  }
+  if constexpr (std::is_same<VhloOpTy, vhlo::MapOpV1>::value ||
+                std::is_same<VhloOpTy, vhlo::ReduceOpV1>::value) {
+    if (vhloName == "dimensions")
+      return convertDenseI64Array(vhloName, vhloAttr, stablehloAttrs);
+  }
+  if constexpr (std::is_same<VhloOpTy, vhlo::GatherOpV1>::value) {
+    if (vhloName == "slice_sizes")
+      return convertDenseI64Array(vhloName, vhloAttr, stablehloAttrs);
+  }
+  if constexpr (std::is_same<VhloOpTy, vhlo::ConvolutionOpV1>::value ||
+                std::is_same<VhloOpTy, vhlo::DynamicConvOpV1>::value) {
+    if (vhloName == "lhs_dilation" || vhloName == "rhs_dilation" ||
+        vhloName == "window_strides")
+      return convertDenseI64Array(vhloName, vhloAttr, stablehloAttrs);
+    if (vhloName == "window_reversal")
+      return convertDenseBoolArray(vhloName, vhloAttr, stablehloAttrs);
   }
   return notSpecial();
 }
diff --ruN a/stablehlo/stablehlo/transforms/VhloLegalizeToStablehlo.cpp.orig b/stablehlo/stablehlo/transforms/VhloLegalizeToStablehlo.cpp.orig
--- stablehlo/stablehlo/transforms/VhloLegalizeToStablehlo.cpp.orig
+++ stablehlo/stablehlo/transforms/VhloLegalizeToStablehlo.cpp.orig
@@ -0,0 +1,907 @@
+/* Copyright 2022 The StableHLO Authors.
+Licensed under the Apache License, Version 2.0 (the "License");
+you may not use this file except in compliance with the License.
+You may obtain a copy of the License at
+
+    http://www.apache.org/licenses/LICENSE-2.0
+
+Unless required by applicable law or agreed to in writing, software
+distributed under the License is distributed on an "AS IS" BASIS,
+WITHOUT WARRANTIES OR CONDITIONS OF ANY KIND, either express or implied.
+See the License for the specific language governing permissions and
+limitations under the License.
+==============================================================================*/
+
+#include "llvm/ADT/STLExtras.h"
+#include "llvm/ADT/SmallVector.h"
+#include "llvm/ADT/StringSet.h"
+#include "llvm/Support/Casting.h"
+#include "llvm/Support/Debug.h"
+#include "mlir/Dialect/Func/IR/FuncOps.h"
+#include "mlir/IR/Attributes.h"
+#include "mlir/IR/BuiltinAttributeInterfaces.h"
+#include "mlir/IR/BuiltinAttributes.h"
+#include "mlir/Transforms/DialectConversion.h"
+#include "stablehlo/dialect/StablehloOps.h"
+#include "stablehlo/dialect/VhloOps.h"
+#include "stablehlo/dialect/VhloTypes.h"
+#include "stablehlo/transforms/MapStablehloToVhlo.h"
+#include "stablehlo/transforms/Passes.h"
+
+#define DEBUG_TYPE "compat-passes"
+
+namespace mlir {
+namespace stablehlo {
+
+#define GEN_PASS_DEF_VHLOLEGALIZETOSTABLEHLOPASS
+#include "stablehlo/transforms/Passes.h.inc"
+
+namespace {
+
+//===----------------------------------------------------------------------===//
+// VHLO --> StableHLO types
+//===----------------------------------------------------------------------===//
+
+class VhloToStablehloTypeConverter : public vhlo::VhloTypeConverter {
+ public:
+  VhloToStablehloTypeConverter() : vhlo::VhloTypeConverter() {
+    addConversion([](Type type) -> Type { return type; });
+    addConversion([](vhlo::TokenV1Type token) -> Type {
+      LLVM_DEBUG(llvm::dbgs() << "Converting TokenType\n");
+      return stablehlo::TokenType::get(token.getContext());
+    });
+    addVhloToBuiltinConversions();
+  }
+
+  Attribute convertEncoding(Attribute attr) const final {
+    if (auto vhloAttr = attr.dyn_cast_or_null<vhlo::TypeExtensionsV1Attr>()) {
+      return stablehlo::TypeExtensionsAttr::get(vhloAttr.getContext(),
+                                                vhloAttr.getBounds());
+    }
+    // All encodings supported in StableHLO.
+    return attr;
+  }
+};
+
+//===----------------------------------------------------------------------===//
+// VHLO --> StableHLO attributes: 1) Generic case.
+// Applicable in areas where there is 1:1 mapping from VHLO to StableHLO.
+// This is the predominant case.
+//===----------------------------------------------------------------------===//
+
+#define RETURN_CONVERTED_ENUM_ATTR(Name, Version)                   \
+  auto vhloValue = vhlo::stringify##Name##Version(attr.getValue()); \
+  auto stablehloValue = stablehlo::symbolize##Name(vhloValue);      \
+  if (!stablehloValue.has_value()) return {};                       \
+  return stablehlo::Name##Attr::get(attr.getContext(), stablehloValue.value())
+
+Attribute convertGeneric(Attribute vhloAttr,
+                         const TypeConverter* typeConverter) {
+  LLVM_DEBUG(llvm::dbgs() << "Converting attr " << vhloAttr);
+  if (auto vhloAttrs = vhloAttr.dyn_cast<vhlo::ArrayV1Attr>()) {
+    SmallVector<Attribute> stablehloAttrs;
+    for (auto vhloAttr : vhloAttrs.getValue()) {
+      auto stablehloAttr = convertGeneric(vhloAttr, typeConverter);
+      if (!stablehloAttr) return {};
+      stablehloAttrs.push_back(stablehloAttr);
+    }
+    return ArrayAttr::get(vhloAttrs.getContext(), stablehloAttrs);
+  }
+  if (auto attr = vhloAttr.dyn_cast<vhlo::BooleanV1Attr>()) {
+    return BoolAttr::get(attr.getContext(), attr.getValue());
+  }
+  if (auto attr = vhloAttr.dyn_cast<vhlo::ComparisonDirectionV1Attr>()) {
+    RETURN_CONVERTED_ENUM_ATTR(ComparisonDirection, V1);
+  }
+  if (auto attr = vhloAttr.dyn_cast<vhlo::ComparisonTypeV1Attr>()) {
+    RETURN_CONVERTED_ENUM_ATTR(ComparisonType, V1);
+  }
+  if (auto attr = vhloAttr.dyn_cast<vhlo::CustomCallApiVersionV1Attr>()) {
+    RETURN_CONVERTED_ENUM_ATTR(CustomCallApiVersion, V1);
+  }
+  if (auto attr = vhloAttr.dyn_cast<vhlo::DictionaryV1Attr>()) {
+    SmallVector<NamedAttribute> vhloAttrs;
+    for (auto namedAttr : attr.getValue()) {
+      auto builtinName = convertGeneric(namedAttr.first, typeConverter)
+                             .dyn_cast_or_null<StringAttr>();
+      auto builtinValue = convertGeneric(namedAttr.second, typeConverter);
+      if (!builtinName || !builtinValue) return {};
+      vhloAttrs.push_back({builtinName, builtinValue});
+    }
+    return DictionaryAttr::get(attr.getContext(), vhloAttrs);
+  }
+  if (auto attr = vhloAttr.dyn_cast<vhlo::FftTypeV1Attr>()) {
+    RETURN_CONVERTED_ENUM_ATTR(FftType, V1);
+  }
+  if (auto attr = vhloAttr.dyn_cast<vhlo::FloatV1Attr>()) {
+    auto builtinFloatType = typeConverter->convertType(attr.getType());
+    if (!builtinFloatType) return {};
+    // FIXME: What is the proper way to reconstruct a attr?
+    return FloatAttr::get(builtinFloatType, attr.getValue().convertToDouble());
+  }
+  if (auto attr = vhloAttr.dyn_cast<vhlo::IntegerV1Attr>()) {
+    auto builtinIntegerType = typeConverter->convertType(attr.getType());
+    if (!builtinIntegerType) return {};
+    return IntegerAttr::get(builtinIntegerType, attr.getValue());
+  }
+  if (auto attr = vhloAttr.dyn_cast<vhlo::OutputOperandAliasV1Attr>()) {
+    return stablehlo::OutputOperandAliasAttr::get(
+        attr.getContext(), attr.getOutputTupleIndices(), attr.getOperandIndex(),
+        attr.getOperandTupleIndices());
+  }
+  if (auto attr = vhloAttr.dyn_cast<vhlo::PrecisionV1Attr>()) {
+    RETURN_CONVERTED_ENUM_ATTR(Precision, V1);
+  }
+  if (auto attr = vhloAttr.dyn_cast<vhlo::RngAlgorithmV1Attr>()) {
+    RETURN_CONVERTED_ENUM_ATTR(RngAlgorithm, V1);
+  }
+  if (auto attr = vhloAttr.dyn_cast<vhlo::RngDistributionV1Attr>()) {
+    RETURN_CONVERTED_ENUM_ATTR(RngDistribution, V1);
+  }
+  if (auto attr = vhloAttr.dyn_cast<vhlo::StringV1Attr>()) {
+    return StringAttr::get(attr.getContext(), attr.getValue());
+  }
+  if (auto attr = vhloAttr.dyn_cast<vhlo::TensorV1Attr>()) {
+    auto builtinType =
+        typeConverter->convertType(attr.getType()).cast<ShapedType>();
+    if (!builtinType) return {};
+    return DenseIntOrFPElementsAttr::getFromRawBuffer(builtinType,
+                                                      attr.getData());
+  }
+  if (auto attr = vhloAttr.dyn_cast<vhlo::TransposeV1Attr>()) {
+    RETURN_CONVERTED_ENUM_ATTR(Transpose, V1);
+  }
+  // NOTE: TypeExtensionsV1Attr is only used as a RankedTensorType's encoding,
+  // so it's handled during type conversion (see convertEncoding above).
+  if (auto attr = vhloAttr.dyn_cast<vhlo::TypeV1Attr>()) {
+    auto builtinType = typeConverter->convertType(attr.getValue());
+    if (!builtinType) return {};
+    return TypeAttr::get(builtinType);
+  }
+
+  // All VHLO Attributes must be converted by now.
+  if (vhloAttr.getDialect().getNamespace() ==
+      vhlo::VhloDialect::getDialectNamespace()) {
+    // All VHLO attributes must have counterparts in StableHLO.
+    return {};
+  }
+
+  // This should be unreachable unless program is a mix of VHLO and other
+  // dialects, e.g. due to user edits to textual assembly format.
+  return {};
+}
+
+//===----------------------------------------------------------------------===//
+// VHLO --> StableHLO attributes: 2) Special cases.
+// Applicable in areas where there is no 1:1 mapping from VHLO to StableHLO.
+// This is pretty infrequent.
+//===----------------------------------------------------------------------===//
+
+// Indicates the outcome of converting a potentially special case.
+// NOT_SPECIAL means that this wasn't actually a special case.
+// SPECIAL_FAILURE means that this was a special case and conversion failed.
+// SPECIAL_SUCCESS means that this was a special case and conversion succeeded.
+enum class SpecialResult {
+  SPECIAL_SUCCESS = 0,
+  SPECIAL_FAILURE = 1,
+  NOT_SPECIAL = 2,
+};
+
+SpecialResult specialSuccess() { return SpecialResult::SPECIAL_SUCCESS; }
+SpecialResult specialFailure() { return SpecialResult::SPECIAL_FAILURE; }
+SpecialResult notSpecial() { return SpecialResult::NOT_SPECIAL; }
+
+LogicalResult convertInt(Attribute vhloAttr, int64_t& result) {
+  auto vhloIntegerAttr = vhloAttr.dyn_cast<vhlo::IntegerV1Attr>();
+  if (!vhloIntegerAttr) return failure();
+  result = vhloIntegerAttr.getValue().getSExtValue();
+  return success();
+}
+
+LogicalResult convertInts(Attribute vhloAttr,
+                          const TypeConverter* typeConverter,
+                          SmallVector<int64_t>& result) {
+  auto vhloTensorAttr = vhloAttr.dyn_cast<vhlo::TensorV1Attr>();
+  if (!vhloTensorAttr) return failure();
+  auto stablehloAttr = convertGeneric(vhloAttr, typeConverter)
+                           .dyn_cast_or_null<DenseIntElementsAttr>();
+  if (!stablehloAttr) return failure();
+  llvm::append_range(result, stablehloAttr.getValues<int64_t>());
+  return success();
+}
+
+Attribute convertSymbol(Attribute vhloAttr,
+                        const TypeConverter* typeConverter) {
+  auto vhloStringAttr = vhloAttr.dyn_cast<vhlo::StringV1Attr>();
+  if (!vhloStringAttr) return {};
+  auto stablehloStringAttr = convertGeneric(vhloStringAttr, typeConverter)
+                                 .dyn_cast_or_null<StringAttr>();
+  if (!stablehloStringAttr) return {};
+  return FlatSymbolRefAttr::get(stablehloStringAttr);
+}
+
+template <typename OpType>
+Attribute convertChannelHandle(OpType vhloOp,
+                               const TypeConverter* typeConverter) {
+  int64_t channelId, channelType;
+  if (failed(convertInt(vhloOp.getChannelId(), channelId)) ||
+      failed(convertInt(vhloOp.getChannelType(), channelType)))
+    return {};
+  return stablehlo::ChannelHandleAttr::get(vhloOp.getContext(), channelId,
+                                           channelType);
+}
+
+Attribute convertChannelId(Attribute vhloAttr,
+                           const TypeConverter* typeConverter) {
+  int64_t channelId;
+  if (failed(convertInt(vhloAttr, channelId))) return {};
+  return stablehlo::ChannelHandleAttr::get(vhloAttr.getContext(), channelId,
+                                           /*channelType=*/0);
+}
+
+template <typename OpType>
+Attribute convertConvDimensionNumbers(OpType vhloOp,
+                                      const TypeConverter* typeConverter) {
+  int64_t stablehloInputBatchDimension, stablehloInputFeatureDimension;
+  SmallVector<int64_t> stablehloInputSpatialDimensions;
+  int64_t stablehloKernelInputFeatureDimension,
+      stablehloKernelOutputFeatureDimension;
+  SmallVector<int64_t> stablehloKernelSpatialDimensions;
+  int64_t stablehloOutputBatchDimension, stablehloOutputFeatureDimension;
+  SmallVector<int64_t> stablehloOutputSpatialDimensions;
+  if (failed(convertInt(vhloOp.getInputBatchDimension(),
+                        stablehloInputBatchDimension)) ||
+      failed(convertInt(vhloOp.getInputFeatureDimension(),
+                        stablehloInputFeatureDimension)) ||
+      failed(convertInts(vhloOp.getInputSpatialDimensions(), typeConverter,
+                         stablehloInputSpatialDimensions)) ||
+      failed(convertInt(vhloOp.getKernelInputFeatureDimension(),
+                        stablehloKernelInputFeatureDimension)) ||
+      failed(convertInt(vhloOp.getKernelOutputFeatureDimension(),
+                        stablehloKernelOutputFeatureDimension)) ||
+      failed(convertInts(vhloOp.getKernelSpatialDimensions(), typeConverter,
+                         stablehloKernelSpatialDimensions)) ||
+      failed(convertInt(vhloOp.getOutputBatchDimension(),
+                        stablehloOutputBatchDimension)) ||
+      failed(convertInt(vhloOp.getOutputFeatureDimension(),
+                        stablehloOutputFeatureDimension)) ||
+      failed(convertInts(vhloOp.getOutputSpatialDimensions(), typeConverter,
+                         stablehloOutputSpatialDimensions)))
+    return {};
+  return stablehlo::ConvDimensionNumbersAttr::get(
+      vhloOp.getContext(), stablehloInputBatchDimension,
+      stablehloInputFeatureDimension, stablehloInputSpatialDimensions,
+      stablehloKernelInputFeatureDimension,
+      stablehloKernelOutputFeatureDimension, stablehloKernelSpatialDimensions,
+      stablehloOutputBatchDimension, stablehloOutputFeatureDimension,
+      stablehloOutputSpatialDimensions);
+}
+
+Attribute convertCustomCallCalledComputations(
+    Attribute vhloAttr, const TypeConverter* typeConverter) {
+  if (auto vhloArrayAttr = vhloAttr.dyn_cast<vhlo::ArrayV1Attr>()) {
+    SmallVector<Attribute> stablehloAttrs;
+    for (auto vhloAttr : vhloArrayAttr.getValue()) {
+      auto stablehloAttr = convertSymbol(vhloAttr, typeConverter);
+      if (!stablehloAttr) return {};
+      stablehloAttrs.push_back(stablehloAttr);
+    }
+    return ArrayAttr::get(vhloAttr.getContext(), stablehloAttrs);
+  }
+  return {};
+}
+
+Attribute convertDotDimensionNumbers(vhlo::DotGeneralOpV1 vhloOp,
+                                     const TypeConverter* typeConverter) {
+  SmallVector<int64_t> stablehloLhsBatchingDimensions,
+      stablehloRhsBatchingDimensions, stablehloLhsContractingDimensions,
+      stablehloRhsContractingDimensions;
+  if (failed(convertInts(vhloOp.getLhsBatchingDimensions(), typeConverter,
+                         stablehloLhsBatchingDimensions)) ||
+      failed(convertInts(vhloOp.getRhsBatchingDimensions(), typeConverter,
+                         stablehloRhsBatchingDimensions)) ||
+      failed(convertInts(vhloOp.getLhsContractingDimensions(), typeConverter,
+                         stablehloLhsContractingDimensions)) ||
+      failed(convertInts(vhloOp.getRhsContractingDimensions(), typeConverter,
+                         stablehloRhsContractingDimensions)))
+    return {};
+  return stablehlo::DotDimensionNumbersAttr::get(
+      vhloOp.getContext(), stablehloLhsBatchingDimensions,
+      stablehloRhsBatchingDimensions, stablehloLhsContractingDimensions,
+      stablehloRhsContractingDimensions);
+}
+
+Attribute convertFuncCallee(Attribute vhloAttr,
+                            const TypeConverter* typeConverter) {
+  return convertSymbol(vhloAttr, typeConverter);
+}
+
+template <typename OpType>
+Attribute convertGatherDimensionNumbers(OpType vhloOp,
+                                        const TypeConverter* typeConverter) {
+  SmallVector<int64_t> stablehloOffsetDims, stablehloCollapsedSliceDims,
+      stablehloStartIndexMap;
+  int64_t stablehloIndexVectorDim;
+  if (failed(convertInts(vhloOp.getOffsetDims(), typeConverter,
+                         stablehloOffsetDims)) ||
+      failed(convertInts(vhloOp.getCollapsedSliceDims(), typeConverter,
+                         stablehloCollapsedSliceDims)) ||
+      failed(convertInts(vhloOp.getStartIndexMap(), typeConverter,
+                         stablehloStartIndexMap)) ||
+      failed(convertInt(vhloOp.getIndexVectorDim(), stablehloIndexVectorDim)))
+    return {};
+  return stablehlo::GatherDimensionNumbersAttr::get(
+      vhloOp.getContext(), stablehloOffsetDims, stablehloCollapsedSliceDims,
+      stablehloStartIndexMap, stablehloIndexVectorDim);
+}
+
+Attribute convertScatterDimensionNumbers(vhlo::ScatterOpV1 vhloOp,
+                                         const TypeConverter* typeConverter) {
+  SmallVector<int64_t> stablehloUpdateWindowDims, stablehloInsertedWindowDims,
+      stablehloScatterDimsToOperandDims;
+  int64_t stablehloIndexVectorDim;
+  if (failed(convertInts(vhloOp.getUpdateWindowDims(), typeConverter,
+                         stablehloUpdateWindowDims)) ||
+      failed(convertInts(vhloOp.getInsertedWindowDims(), typeConverter,
+                         stablehloInsertedWindowDims)) ||
+      failed(convertInts(vhloOp.getScatterDimsToOperandDims(), typeConverter,
+                         stablehloScatterDimsToOperandDims)) ||
+      failed(convertInt(vhloOp.getIndexVectorDim(), stablehloIndexVectorDim)))
+    return {};
+  return stablehlo::ScatterDimensionNumbersAttr::get(
+      vhloOp.getContext(), stablehloUpdateWindowDims,
+      stablehloInsertedWindowDims, stablehloScatterDimsToOperandDims,
+      stablehloIndexVectorDim);
+}
+
+#undef RETURN_CONVERTED_ENUM_ATTR
+
+template <typename... StringTy>
+void eraseAttrs(SmallVector<NamedAttribute>& attrs, StringTy... names) {
+  StringSet<llvm::MallocAllocator> nameSet({names...});
+  llvm::erase_if(attrs, [&](NamedAttribute attr) {
+    return nameSet.contains(attr.getName());
+  });
+}
+
+template <typename VhloOpTy>
+LogicalResult implodeSpecial(const OpConversionPattern<VhloOpTy>& pattern,
+                             VhloOpTy vhloOp,
+                             SmallVector<NamedAttribute>& vhloAttrs,
+                             SmallVector<NamedAttribute>& stablehloAttrs) {
+  if constexpr (std::is_same<VhloOpTy, vhlo::ConvolutionOpV1>::value ||
+                std::is_same<VhloOpTy, vhlo::DynamicConvOpV1>::value) {
+    auto stablehloAttr =
+        convertConvDimensionNumbers(vhloOp, pattern.getTypeConverter());
+    if (!stablehloAttr) return failure();
+    stablehloAttrs.emplace_back(
+        StringAttr::get(pattern.getContext(), "dimension_numbers"),
+        stablehloAttr);
+    eraseAttrs(vhloAttrs, "input_batch_dimension", "input_feature_dimension",
+               "input_spatial_dimensions", "kernel_input_feature_dimension",
+               "kernel_output_feature_dimension", "kernel_spatial_dimensions",
+               "output_batch_dimension", "output_feature_dimension",
+               "output_spatial_dimensions");
+  }
+  if constexpr (std::is_same<VhloOpTy, vhlo::DotGeneralOpV1>::value) {
+    auto stablehloAttr =
+        convertDotDimensionNumbers(vhloOp, pattern.getTypeConverter());
+    if (!stablehloAttr) return failure();
+    stablehloAttrs.emplace_back(
+        StringAttr::get(pattern.getContext(), "dot_dimension_numbers"),
+        stablehloAttr);
+    eraseAttrs(vhloAttrs, "lhs_batching_dimensions", "rhs_batching_dimensions",
+               "lhs_contracting_dimensions", "rhs_contracting_dimensions");
+  }
+  if constexpr (std::is_same<VhloOpTy, vhlo::DynamicGatherOpV1>::value ||
+                std::is_same<VhloOpTy, vhlo::GatherOpV1>::value) {
+    auto stablehloAttr =
+        convertGatherDimensionNumbers(vhloOp, pattern.getTypeConverter());
+    if (!stablehloAttr) return failure();
+    stablehloAttrs.emplace_back(
+        StringAttr::get(pattern.getContext(), "dimension_numbers"),
+        stablehloAttr);
+    eraseAttrs(vhloAttrs, "offset_dims", "collapsed_slice_dims",
+               "start_index_map", "index_vector_dim");
+  }
+  if constexpr (std::is_same<VhloOpTy, vhlo::ScatterOpV1>::value) {
+    auto stablehloAttr =
+        convertScatterDimensionNumbers(vhloOp, pattern.getTypeConverter());
+    if (!stablehloAttr) return failure();
+    stablehloAttrs.emplace_back(
+        StringAttr::get(pattern.getContext(), "scatter_dimension_numbers"),
+        stablehloAttr);
+    eraseAttrs(vhloAttrs, "update_window_dims", "inserted_window_dims",
+               "scatter_dims_to_operand_dims", "index_vector_dim");
+  }
+  if constexpr (std::is_same<VhloOpTy, vhlo::RecvOpV1>::value ||
+                std::is_same<VhloOpTy, vhlo::SendOpV1>::value) {
+    auto stablehloAttr =
+        convertChannelHandle(vhloOp, pattern.getTypeConverter());
+    if (!stablehloAttr) return failure();
+    stablehloAttrs.emplace_back(
+        StringAttr::get(pattern.getContext(), "channel_handle"), stablehloAttr);
+    eraseAttrs(vhloAttrs, "channel_id", "channel_type");
+  }
+  return success();
+}
+
+template <typename T, typename Attr>
+SpecialResult convertDenseArray(StringAttr vhloName, Attribute vhloAttr,
+                                SmallVector<NamedAttribute>& stablehloAttrs) {
+  auto tensorAttr = dyn_cast<vhlo::TensorV1Attr>(vhloAttr);
+  if (!tensorAttr) return specialFailure();
+
+  if (tensorAttr.getData().size() % sizeof(T) != 0) return specialFailure();
+
+  // Extracting the data in this way prevents misaligned memory issues.
+  auto vec =
+      ArrayRef<T>(reinterpret_cast<const T*>(tensorAttr.getData().data()),
+                  tensorAttr.getData().size() / sizeof(T))
+          .vec();
+  SmallVector<T> data;
+  for (T b : vec) data.push_back(b);
+
+  // Handle splats
+  if (data.size() == 1) {
+    auto tensorType = tensorAttr.getType().dyn_cast<vhlo::RankedTensorV1Type>();
+    if (!tensorType || (tensorType.getShape().size() != 1))
+      return specialFailure();
+    auto size = tensorType.getShape()[0];
+    data.resize(size, data[0]);
+  }
+
+  stablehloAttrs.emplace_back(vhloName, Attr::get(vhloAttr.getContext(), data));
+  return specialSuccess();
+}
+
+SpecialResult convertDenseI64Array(
+    StringAttr vhloName, Attribute vhloAttr,
+    SmallVector<NamedAttribute>& stablehloAttrs) {
+  return convertDenseArray<int64_t, DenseI64ArrayAttr>(vhloName, vhloAttr,
+                                                       stablehloAttrs);
+}
+
+SpecialResult convertDenseBoolArray(
+    StringAttr vhloName, Attribute vhloAttr,
+    SmallVector<NamedAttribute>& stablehloAttrs) {
+  return convertDenseArray<bool, DenseBoolArrayAttr>(vhloName, vhloAttr,
+                                                     stablehloAttrs);
+}
+
+template <typename VhloOpTy>
+SpecialResult convertSpecial(const OpConversionPattern<VhloOpTy>& pattern,
+                             StringAttr vhloName, Attribute vhloAttr,
+                             SmallVector<NamedAttribute>& stablehloAttrs) {
+  StringAttr stablehloName = vhloName;
+  Attribute stablehloAttr;
+  if constexpr (std::is_same<VhloOpTy, vhlo::AllGatherOpV1>::value ||
+                std::is_same<VhloOpTy, vhlo::AllReduceOpV1>::value ||
+                std::is_same<VhloOpTy, vhlo::AllToAllOpV1>::value ||
+                std::is_same<VhloOpTy, vhlo::CollectivePermuteOpV1>::value ||
+                std::is_same<VhloOpTy, vhlo::ReduceScatterOpV1>::value ||
+                std::is_same<VhloOpTy, vhlo::CollectiveBroadcastOpV1>::value) {
+    if (vhloName == "channel_id") {
+      stablehloName = StringAttr::get(pattern.getContext(), "channel_handle");
+      stablehloAttr = convertChannelId(vhloAttr, pattern.getTypeConverter());
+      if (!stablehloAttr) return specialFailure();
+    }
+    if (vhloName == "use_global_device_ids") {
+      auto vhloBooleanAttr = vhloAttr.dyn_cast<vhlo::BooleanV1Attr>();
+      if (!vhloBooleanAttr) return specialFailure();
+      if (!vhloBooleanAttr.getValue()) return specialSuccess();
+      stablehloAttr = UnitAttr::get(pattern.getContext());
+    }
+  }
+  if constexpr (std::is_same<VhloOpTy, vhlo::CustomCallOpV1>::value) {
+    if (vhloName == "called_computations") {
+      stablehloAttr = convertCustomCallCalledComputations(
+          vhloAttr, pattern.getTypeConverter());
+      if (!stablehloAttr) return specialFailure();
+    }
+  }
+  if constexpr (std::is_same<VhloOpTy, vhlo::CallOpV1>::value) {
+    if (vhloName == "callee") {
+      stablehloAttr = convertFuncCallee(vhloAttr, pattern.getTypeConverter());
+      if (!stablehloAttr) return specialFailure();
+    }
+  }
+  if (stablehloAttr) {
+    stablehloAttrs.emplace_back(stablehloName, stablehloAttr);
+    return specialSuccess();
+  }
+  if constexpr (std::is_same<VhloOpTy, vhlo::FftOpV1>::value) {
+    if (vhloName == "fft_length")
+      return convertDenseI64Array(vhloName, vhloAttr, stablehloAttrs);
+  }
+  if constexpr (std::is_same<VhloOpTy, vhlo::BroadcastOpV1>::value) {
+    if (vhloName == "broadcast_sizes")
+      return convertDenseI64Array(vhloName, vhloAttr, stablehloAttrs);
+  }
+  if constexpr (std::is_same<VhloOpTy, vhlo::DynamicSliceOpV1>::value) {
+    if (vhloName == "slice_sizes")
+      return convertDenseI64Array(vhloName, vhloAttr, stablehloAttrs);
+  }
+  if constexpr (std::is_same<VhloOpTy, vhlo::ReverseOpV1>::value) {
+    if (vhloName == "dimensions")
+      return convertDenseI64Array(vhloName, vhloAttr, stablehloAttrs);
+  }
+  if constexpr (std::is_same<VhloOpTy, vhlo::TransposeOpV1>::value) {
+    if (vhloName == "permutation")
+      return convertDenseI64Array(vhloName, vhloAttr, stablehloAttrs);
+  }
+  if constexpr (std::is_same<VhloOpTy, vhlo::PadOpV1>::value) {
+    if (vhloName == "edge_padding_low" || vhloName == "edge_padding_high" ||
+        vhloName == "interior_padding")
+      return convertDenseI64Array(vhloName, vhloAttr, stablehloAttrs);
+  }
+  if constexpr (std::is_same<VhloOpTy, vhlo::SliceOpV1>::value) {
+    if (vhloName == "start_indices" || vhloName == "limit_indices" ||
+        vhloName == "strides")
+      return convertDenseI64Array(vhloName, vhloAttr, stablehloAttrs);
+  }
+  if constexpr (std::is_same<VhloOpTy, vhlo::BroadcastInDimOpV1>::value) {
+    if (vhloName == "broadcast_dimensions")
+      return convertDenseI64Array(vhloName, vhloAttr, stablehloAttrs);
+  }
+  if constexpr (std::is_same<VhloOpTy,
+                             vhlo::DynamicBroadcastInDimOpV1>::value) {
+    if (vhloName == "broadcast_dimensions" ||
+        vhloName == "known_expanding_dimensions" ||
+        vhloName == "known_nonexpanding_dimensions")
+      return convertDenseI64Array(vhloName, vhloAttr, stablehloAttrs);
+  }
+  if constexpr (std::is_same<VhloOpTy, vhlo::SelectAndScatterOpV1>::value) {
+    if (vhloName == "window_dimensions" || vhloName == "window_strides")
+      return convertDenseI64Array(vhloName, vhloAttr, stablehloAttrs);
+  }
+  if constexpr (std::is_same<VhloOpTy, vhlo::ReduceWindowOpV1>::value) {
+    if (vhloName == "window_dimensions" || vhloName == "window_strides" ||
+        vhloName == "base_dilations" || vhloName == "window_dilations")
+      return convertDenseI64Array(vhloName, vhloAttr, stablehloAttrs);
+  }
+  if constexpr (std::is_same<VhloOpTy, vhlo::MapOpV1>::value ||
+                std::is_same<VhloOpTy, vhlo::ReduceOpV1>::value) {
+    if (vhloName == "dimensions")
+      return convertDenseI64Array(vhloName, vhloAttr, stablehloAttrs);
+  }
+  if constexpr (std::is_same<VhloOpTy, vhlo::GatherOpV1>::value) {
+    if (vhloName == "slice_sizes")
+      return convertDenseI64Array(vhloName, vhloAttr, stablehloAttrs);
+  }
+  if constexpr (std::is_same<VhloOpTy, vhlo::ConvolutionOpV1>::value ||
+                std::is_same<VhloOpTy, vhlo::DynamicConvOpV1>::value) {
+    if (vhloName == "lhs_dilation" || vhloName == "rhs_dilation" ||
+        vhloName == "window_strides")
+      return convertDenseI64Array(vhloName, vhloAttr, stablehloAttrs);
+    if (vhloName == "window_reversal")
+      return convertDenseBoolArray(vhloName, vhloAttr, stablehloAttrs);
+  }
+  return notSpecial();
+}
+
+//===----------------------------------------------------------------------===//
+// VHLO --> StableHLO attributes: 3) Default attributes.
+// Unlike StableHLO, VHLO doesn't have default attributes, so the corresponding
+// attributes are added explicitly during StableHLO --> VHLO conversion.
+// These attributes are removed here. (Strictly speaking, don't have to do this
+// but this makes eyeballing easier).
+//===----------------------------------------------------------------------===//
+
+bool isBoolean(Attribute vhloAttr, bool value) {
+  auto attr = vhloAttr.template dyn_cast_or_null<vhlo::BooleanV1Attr>();
+  return attr && attr.getValue() == value;
+}
+
+bool isEmptyArray(Attribute vhloAttr) {
+  auto attr = vhloAttr.dyn_cast_or_null<vhlo::ArrayV1Attr>();
+  return attr && attr.getValue().empty();
+}
+
+bool isEmptyString(Attribute vhloAttr) {
+  auto attr = vhloAttr.dyn_cast_or_null<vhlo::StringV1Attr>();
+  return attr && attr.getValue().empty();
+}
+
+bool isEmptyTensor(Attribute vhloAttr) {
+  auto attr = vhloAttr.dyn_cast_or_null<vhlo::TensorV1Attr>();
+  return attr && attr.getData().empty();
+}
+
+bool isEnum(Attribute vhloAttr, Attribute value) { return vhloAttr == value; }
+
+bool isInteger(Attribute vhloAttr, int64_t value) {
+  auto attr = vhloAttr.template dyn_cast_or_null<vhlo::IntegerV1Attr>();
+  return attr && attr.getValue().getSExtValue() == value;
+}
+
+bool isSplatArray(Attribute vhloAttr, Attribute splatValue) {
+  auto attr = vhloAttr.dyn_cast_or_null<vhlo::ArrayV1Attr>();
+  return attr && llvm::all_of(attr.getValue(), [&](Attribute attr) {
+           return attr == splatValue;
+         });
+}
+
+template <typename T>
+bool isSplatTensor(const ConversionPattern& pattern, Attribute vhloAttr,
+                   T splatValue) {
+  auto attr = convertGeneric(vhloAttr, pattern.getTypeConverter())
+                  .template dyn_cast_or_null<DenseElementsAttr>();
+  return attr && attr.isSplat() &&
+         attr.template getSplatValue<T>() == splatValue;
+}
+
+bool isString(Attribute vhloAttr, StringRef value) {
+  auto attr = vhloAttr.dyn_cast_or_null<vhlo::StringV1Attr>();
+  return attr && attr.getValue() == value;
+}
+
+// TODO(#1232): Also validate attributes before removing them.
+// Current logic assumes that these attributes are valid, but that might not
+// necessarily be the case because VHLO doesn't have verifiers.
+template <typename VhloOpTy>
+LogicalResult removeDefaults(const OpConversionPattern<VhloOpTy>& pattern,
+                             VhloOpTy vhloOp,
+                             SmallVector<NamedAttribute>& vhloAttrs) {
+  if constexpr (std::is_same<VhloOpTy, vhlo::FuncOpV1>::value) {
+    if (isString(vhloOp.getSymVisibilityAttr(), ""))
+      eraseAttrs(vhloAttrs, "sym_visibility");
+    if (isEmptyArray(vhloOp.getArgAttrsAttr()))
+      eraseAttrs(vhloAttrs, "arg_attrs");
+    if (isEmptyArray(vhloOp.getResAttrsAttr()))
+      eraseAttrs(vhloAttrs, "res_attrs");
+  }
+  if constexpr (std::is_same<VhloOpTy, vhlo::AllGatherOpV1>::value ||
+                std::is_same<VhloOpTy, vhlo::AllReduceOpV1>::value ||
+                std::is_same<VhloOpTy, vhlo::ReduceScatterOpV1>::value) {
+    if (isInteger(vhloOp.getChannelIdAttr(), 0))
+      eraseAttrs(vhloAttrs, "channel_id");
+    if (isBoolean(vhloOp.getUseGlobalDeviceIdsAttr(), false))
+      eraseAttrs(vhloAttrs, "use_global_device_ids");
+  }
+  if constexpr (std::is_same<VhloOpTy, vhlo::AllToAllOpV1>::value ||
+                std::is_same<VhloOpTy, vhlo::CollectivePermuteOpV1>::value ||
+                std::is_same<VhloOpTy, vhlo::CollectiveBroadcastOpV1>::value) {
+    if (isInteger(vhloOp.getChannelIdAttr(), 0))
+      eraseAttrs(vhloAttrs, "channel_id");
+  }
+  if constexpr (std::is_same<VhloOpTy, vhlo::CholeskyOpV1>::value) {
+    if (isBoolean(vhloOp.getLowerAttr(), false)) eraseAttrs(vhloAttrs, "lower");
+  }
+  if constexpr (std::is_same<VhloOpTy, vhlo::CompareOpV1>::value) {
+    if (isEnum(vhloOp.getCompareTypeAttr(),
+               vhlo::ComparisonTypeV1Attr::get(pattern.getContext(),
+                                               vhlo::ComparisonTypeV1::NOTYPE)))
+      eraseAttrs(vhloAttrs, "compare_type");
+  }
+  if constexpr (std::is_same<VhloOpTy, vhlo::ConvolutionOpV1>::value ||
+                std::is_same<VhloOpTy, vhlo::DynamicConvOpV1>::value) {
+    if (isSplatTensor(pattern, vhloOp.getWindowStridesAttr(), 1ll))
+      eraseAttrs(vhloAttrs, "window_strides");
+    if (isSplatTensor(pattern, vhloOp.getPaddingAttr(), 0ll))
+      eraseAttrs(vhloAttrs, "padding");
+    if (isSplatTensor(pattern, vhloOp.getLhsDilationAttr(), 1ll))
+      eraseAttrs(vhloAttrs, "lhs_dilation");
+    if (isSplatTensor(pattern, vhloOp.getRhsDilationAttr(), 1ll))
+      eraseAttrs(vhloAttrs, "rhs_dilation");
+    if (isSplatTensor(pattern, vhloOp.getWindowReversalAttr(), false))
+      eraseAttrs(vhloAttrs, "window_reversal");
+    if (isSplatArray(vhloOp.getPrecisionConfigAttr(),
+                     vhlo::PrecisionV1Attr::get(pattern.getContext(),
+                                                vhlo::PrecisionV1::DEFAULT)))
+      eraseAttrs(vhloAttrs, "precision_config");
+  }
+  if constexpr (std::is_same<VhloOpTy, vhlo::CustomCallOpV1>::value) {
+    if (isBoolean(vhloOp.getHasSideEffectAttr(), false))
+      eraseAttrs(vhloAttrs, "has_side_effect");
+    if (isEmptyString(vhloOp.getBackendConfigAttr()))
+      eraseAttrs(vhloAttrs, "backend_config");
+    if (isEnum(vhloOp.getApiVersionAttr(),
+               vhlo::CustomCallApiVersionV1Attr::get(
+                   pattern.getContext(),
+                   vhlo::CustomCallApiVersionV1::API_VERSION_ORIGINAL)))
+      eraseAttrs(vhloAttrs, "api_version");
+    if (isEmptyArray(vhloOp.getCalledComputations()))
+      eraseAttrs(vhloAttrs, "called_computations");
+    if (isEmptyArray(vhloOp.getOperandLayouts()))
+      eraseAttrs(vhloAttrs, "operand_layouts");
+    if (isEmptyArray(vhloOp.getResultLayouts()))
+      eraseAttrs(vhloAttrs, "result_layouts");
+    if (isEmptyArray(vhloOp.getOutputOperandAliases()))
+      eraseAttrs(vhloAttrs, "output_operand_aliases");
+  }
+  if constexpr (std::is_same<VhloOpTy, vhlo::DotGeneralOpV1>::value ||
+                std::is_same<VhloOpTy, vhlo::DotOpV1>::value) {
+    if (isSplatArray(vhloOp.getPrecisionConfigAttr(),
+                     vhlo::PrecisionV1Attr::get(pattern.getContext(),
+                                                vhlo::PrecisionV1::DEFAULT)))
+      eraseAttrs(vhloAttrs, "precision_config");
+  }
+  if constexpr (std::is_same<VhloOpTy,
+                             vhlo::DynamicBroadcastInDimOpV1>::value) {
+    if (isEmptyTensor(vhloOp.getKnownExpandingDimensionsAttr()))
+      eraseAttrs(vhloAttrs, "known_expanding_dimensions");
+    if (isEmptyTensor(vhloOp.getKnownNonexpandingDimensionsAttr()))
+      eraseAttrs(vhloAttrs, "known_nonexpanding_dimensions");
+  }
+  if constexpr (std::is_same<VhloOpTy, vhlo::DynamicGatherOpV1>::value ||
+                std::is_same<VhloOpTy, vhlo::GatherOpV1>::value) {
+    if (isBoolean(vhloOp.getIndicesAreSortedAttr(), false))
+      eraseAttrs(vhloAttrs, "indices_are_sorted");
+  }
+  if constexpr (std::is_same<VhloOpTy, vhlo::InfeedOpV1>::value) {
+    if (isEmptyString(vhloOp.getInfeedConfig()))
+      eraseAttrs(vhloAttrs, "infeed_config");
+    if (isEmptyArray(vhloOp.getLayout())) eraseAttrs(vhloAttrs, "layout");
+  }
+  if constexpr (std::is_same<VhloOpTy, vhlo::OutfeedOpV1>::value) {
+    if (isEmptyString(vhloOp.getOutfeedConfig()))
+      eraseAttrs(vhloAttrs, "outfeed_config");
+  }
+  if constexpr (std::is_same<VhloOpTy, vhlo::RecvOpV1>::value ||
+                std::is_same<VhloOpTy, vhlo::SendOpV1>::value) {
+    if (isBoolean(vhloOp.getIsHostTransferAttr(), false))
+      eraseAttrs(vhloAttrs, "is_host_transfer");
+  }
+  if constexpr (std::is_same<VhloOpTy, vhlo::ReduceWindowOpV1>::value) {
+    if (isSplatTensor(pattern, vhloOp.getWindowStridesAttr(), 1ll))
+      eraseAttrs(vhloAttrs, "window_strides");
+    if (isSplatTensor(pattern, vhloOp.getBaseDilationsAttr(), 1ll))
+      eraseAttrs(vhloAttrs, "base_dilations");
+    if (isSplatTensor(pattern, vhloOp.getWindowDilationsAttr(), 1ll))
+      eraseAttrs(vhloAttrs, "window_dilations");
+    if (isSplatTensor(pattern, vhloOp.getPaddingAttr(), 0ll))
+      eraseAttrs(vhloAttrs, "padding");
+  }
+  if constexpr (std::is_same<VhloOpTy, vhlo::ScatterOpV1>::value) {
+    if (isBoolean(vhloOp.getIndicesAreSortedAttr(), false))
+      eraseAttrs(vhloAttrs, "indices_are_sorted");
+    if (isBoolean(vhloOp.getUniqueIndicesAttr(), false))
+      eraseAttrs(vhloAttrs, "unique_indices");
+  }
+  if constexpr (std::is_same<VhloOpTy, vhlo::SelectAndScatterOpV1>::value) {
+    if (isSplatTensor(pattern, vhloOp.getWindowStridesAttr(), 1ll))
+      eraseAttrs(vhloAttrs, "window_strides");
+    if (isSplatTensor(pattern, vhloOp.getPaddingAttr(), 0ll))
+      eraseAttrs(vhloAttrs, "padding");
+  }
+  if constexpr (std::is_same<VhloOpTy, vhlo::SortOpV1>::value) {
+    if (isInteger(vhloOp.getDimensionAttr(), -1))
+      eraseAttrs(vhloAttrs, "dimension");
+    if (isBoolean(vhloOp.getIsStableAttr(), false))
+      eraseAttrs(vhloAttrs, "is_stable");
+  }
+  return success();
+}
+
+//===----------------------------------------------------------------------===//
+// VHLO --> StableHLO operations
+//===----------------------------------------------------------------------===//
+
+template <typename VhloOpTy>
+class VhloToStablehloOpConverter : public OpConversionPattern<VhloOpTy> {
+ public:
+  using OpConversionPattern<VhloOpTy>::OpConversionPattern;
+  LogicalResult matchAndRewrite(
+      VhloOpTy vhloOp, typename VhloOpTy::Adaptor adaptor,
+      ConversionPatternRewriter& rewriter) const final {
+    SmallVector<Type> stablehloTypes;
+    if (failed(this->getTypeConverter()->convertTypes(vhloOp->getResultTypes(),
+                                                      stablehloTypes)))
+      return failure();
+
+    // These operands have already been converted to StableHLO by
+    // the dialect conversion infrastructure.
+    ValueRange stablehloOperands = adaptor.getOperands();
+
+    // Convert VHLO attributes to StableHLO equivalents.
+    // There are two paths:
+    //   1) Generic path where default logic applies, and there is a 1:1
+    //      mapping from VHLO to StableHLO.
+    //   2) Special cases (currently, about a dozen) where there is not 1:1
+    //      mapping from VHLO to StableHLO.
+    SmallVector<NamedAttribute> vhloAttrs = to_vector(vhloOp->getAttrs());
+    SmallVector<NamedAttribute> stablehloAttrs;
+    if (failed(removeDefaults(*this, vhloOp, vhloAttrs))) return failure();
+    if (failed(implodeSpecial(*this, vhloOp, vhloAttrs, stablehloAttrs)))
+      return failure();
+    for (NamedAttribute vhloAttr : vhloAttrs) {
+      auto result = convertSpecial(*this, vhloAttr.getName(),
+                                   vhloAttr.getValue(), stablehloAttrs);
+      switch (result) {
+        case SpecialResult::SPECIAL_SUCCESS:
+          break;
+        case SpecialResult::SPECIAL_FAILURE:
+          return failure();
+        case SpecialResult::NOT_SPECIAL:
+          auto stablehloAttr =
+              convertGeneric(vhloAttr.getValue(), this->getTypeConverter());
+          if (!stablehloAttr) return failure();
+          stablehloAttrs.push_back({vhloAttr.getName(), stablehloAttr});
+          break;
+      }
+    }
+
+    // Replace vhlo.return --> func.return if direct parent is a func op.
+    if constexpr (std::is_same<VhloOpTy, vhlo::ReturnOpV1>::value) {
+      if (llvm::isa<vhlo::FuncOpV1, func::FuncOp>(vhloOp->getParentOp())) {
+        rewriter.replaceOpWithNewOp<func::ReturnOp>(
+            vhloOp, stablehloTypes, stablehloOperands, stablehloAttrs);
+        return success();
+      }
+    }
+
+    // Convert the VHLO operation to a StableHLO equivalent.
+    // This can almost be done in a generic fashion, except for
+    // vhlo.case that uses a variadic number of regions which means an
+    // additional argument for the generic builder.
+    VhloToStablehloOp<VhloOpTy> stablehloOp;
+    if constexpr (std::is_same<VhloOpTy, vhlo::CaseOpV1>::value) {
+      stablehloOp = rewriter.replaceOpWithNewOp<stablehlo::CaseOp>(
+          vhloOp, stablehloTypes, stablehloOperands, stablehloAttrs,
+          vhloOp.getBranches().size());
+    } else {
+      stablehloOp = rewriter.replaceOpWithNewOp<VhloToStablehloOp<VhloOpTy>>(
+          vhloOp, stablehloTypes, stablehloOperands, stablehloAttrs);
+    }
+
+    for (auto [vhloRegion, stablehloRegion] :
+         llvm::zip(vhloOp->getRegions(), stablehloOp->getRegions())) {
+      rewriter.inlineRegionBefore(vhloRegion, stablehloRegion,
+                                  stablehloRegion.end());
+      if (failed(rewriter.convertRegionTypes(&stablehloRegion,
+                                             *this->getTypeConverter(),
+                                             /*entryConversion=*/nullptr)))
+        return failure();
+    }
+    return success();
+  }
+};
+
+template <typename... StablehloOpTypes>
+void populateVhloToStablehloPatterns(RewritePatternSet* patterns,
+                                     TypeConverter* converter,
+                                     MLIRContext* context) {
+  patterns
+      ->add<VhloToStablehloOpConverter<StablehloToVhloOp<StablehloOpTypes>>...>(
+          *converter, context);
+}
+
+}  // namespace
+
+struct VhloLegalizeToStablehloPass
+    : public impl::VhloLegalizeToStablehloPassBase<
+          VhloLegalizeToStablehloPass> {
+  void runOnOperation() override {
+    ConversionTarget target(getContext());
+    target.addIllegalDialect<vhlo::VhloDialect>();
+    target.addLegalDialect<stablehlo::StablehloDialect>();
+    target.addLegalDialect<func::FuncDialect>();
+
+    VhloToStablehloTypeConverter converter;
+    RewritePatternSet patterns(&getContext());
+    stablehlo::populateVhloToStablehloPatterns(&patterns, &converter,
+                                               &getContext());
+
+    // Upgraded VHLO should always be convertible to StableHLO.
+    // Arbitrary VHLO might not be convertible if it uses deprecated features
+    // which are no longer available in StableHLO.
+    if (failed(applyPartialConversion(getOperation(), target,
+                                      std::move(patterns)))) {
+      return signalPassFailure();
+    }
+  }
+};
+
+void populateVhloToStablehloPatterns(RewritePatternSet* patterns,
+                                     TypeConverter* converter,
+                                     MLIRContext* context) {
+  populateVhloToStablehloPatterns<
+#define GET_OP_LIST
+#include "stablehlo/dialect/StablehloOps.cpp.inc"
+      , func::CallOp, func::FuncOp>(patterns, converter, context);
+  // Omit ReturnOp since it is handled during conversion of vhlo::ReturnOp
+}
+
+}  // namespace stablehlo
+}  // namespace mlir

