HloModule jit_t5_forward, entry_computation_layout={(s32[2,64]{1,0}, s32[2,64]{1,0}, s32[2,32]{1,0}, s32[2,32]{1,0})->f32[2,32,768]{2,1,0}}

_where.330 {
  Arg_0.326 = pred[2,64]{1,0} parameter(0)
  Arg_1.327 = s32[2,64]{1,0} parameter(1)
  Arg_2.328 = s32[2,64]{1,0} parameter(2)
  ROOT select.329 = s32[2,64]{1,0} select(Arg_0.326, Arg_1.327, Arg_2.328)
}

region_0.339 {
  Arg_0.336 = pred[] parameter(0)
  Arg_1.337 = pred[] parameter(1)
  ROOT and.338 = pred[] and(Arg_0.336, Arg_1.337)
}

_take.344 {
  Arg_1.312 = s32[2,64]{1,0} parameter(1)
  constant.322 = s32[] constant(0)
  broadcast.323 = s32[2,64]{1,0} broadcast(constant.322), dimensions={}
  compare.324 = pred[2,64]{1,0} compare(Arg_1.312, broadcast.323), direction=LT
  constant.319 = s32[] constant(32128)
  broadcast.320 = s32[2,64]{1,0} broadcast(constant.319), dimensions={}
  add.325 = s32[2,64]{1,0} add(Arg_1.312, broadcast.320)
  call.331 = s32[2,64]{1,0} call(compare.324, add.325, Arg_1.312), to_apply=_where.330
  reshape.332 = s32[2,64,1]{2,1,0} reshape(call.331)
  constant.317 = s32[] constant(0)
  broadcast.318 = s32[2,64,1]{2,1,0} broadcast(constant.317), dimensions={}
  compare.333 = pred[2,64,1]{2,1,0} compare(reshape.332, broadcast.318), direction=GE
  constant.315 = s32[] constant(32127)
  broadcast.316 = s32[2,64,1]{2,1,0} broadcast(constant.315), dimensions={}
  compare.334 = pred[2,64,1]{2,1,0} compare(reshape.332, broadcast.316), direction=LE
  and.335 = pred[2,64,1]{2,1,0} and(compare.333, compare.334)
  constant.321 = pred[] constant(true)
  reduce.340 = pred[2,64]{1,0} reduce(and.335, constant.321), dimensions={2}, to_apply=region_0.339
  broadcast.342 = pred[2,64,768]{2,1,0} broadcast(reduce.340), dimensions={0,1}
  Arg_0.311 = f32[32128,768]{1,0} parameter(0)
  gather.341 = f32[2,64,768]{2,1,0} gather(Arg_0.311, reshape.332), offset_dims={2}, collapsed_slice_dims={0}, start_index_map={0}, index_vector_dim=2, slice_sizes={1,768}
  constant.313 = f32[] constant(nan)
  broadcast.314 = f32[2,64,768]{2,1,0} broadcast(constant.313), dimensions={}
  ROOT select.343 = f32[2,64,768]{2,1,0} select(broadcast.342, gather.341, broadcast.314)
}

region_1.350 {
  Arg_0.347 = f32[] parameter(0)
  Arg_1.348 = f32[] parameter(1)
  ROOT add.349 = f32[] add(Arg_0.347, Arg_1.348)
}

clip.401 {
  Arg_1.397 = s32[] parameter(1)
  convert.398 = f32[] convert(Arg_1.397)
  broadcast.399 = f32[64,64]{1,0} broadcast(convert.398), dimensions={}
  Arg_0.396 = f32[64,64]{1,0} parameter(0)
  ROOT minimum.400 = f32[64,64]{1,0} minimum(broadcast.399, Arg_0.396)
}

_where_0.408 {
  Arg_0.403 = pred[64,64]{1,0} parameter(0)
  Arg_1.404 = s32[64,64]{1,0} parameter(1)
  convert.406 = f32[64,64]{1,0} convert(Arg_1.404)
  Arg_2.405 = f32[64,64]{1,0} parameter(2)
  ROOT select.407 = f32[64,64]{1,0} select(Arg_0.403, convert.406, Arg_2.405)
}

_where_2.432 {
  Arg_0.428 = pred[64,64]{1,0} parameter(0)
  Arg_1.429 = s32[64,64]{1,0} parameter(1)
  Arg_2.430 = s32[64,64]{1,0} parameter(2)
  ROOT select.431 = s32[64,64]{1,0} select(Arg_0.428, Arg_1.429, Arg_2.430)
}

region_2.441 {
  Arg_0.438 = pred[] parameter(0)
  Arg_1.439 = pred[] parameter(1)
  ROOT and.440 = pred[] and(Arg_0.438, Arg_1.439)
}

_take_1.446 {
  Arg_1.414 = s32[64,64]{1,0} parameter(1)
  constant.424 = s32[] constant(0)
  broadcast.425 = s32[64,64]{1,0} broadcast(constant.424), dimensions={}
  compare.426 = pred[64,64]{1,0} compare(Arg_1.414, broadcast.425), direction=LT
  constant.421 = s32[] constant(32)
  broadcast.422 = s32[64,64]{1,0} broadcast(constant.421), dimensions={}
  add.427 = s32[64,64]{1,0} add(Arg_1.414, broadcast.422)
  call.433 = s32[64,64]{1,0} call(compare.426, add.427, Arg_1.414), to_apply=_where_2.432
  reshape.434 = s32[64,64,1]{2,1,0} reshape(call.433)
  constant.419 = s32[] constant(0)
  broadcast.420 = s32[64,64,1]{2,1,0} broadcast(constant.419), dimensions={}
  compare.435 = pred[64,64,1]{2,1,0} compare(reshape.434, broadcast.420), direction=GE
  constant.417 = s32[] constant(31)
  broadcast.418 = s32[64,64,1]{2,1,0} broadcast(constant.417), dimensions={}
  compare.436 = pred[64,64,1]{2,1,0} compare(reshape.434, broadcast.418), direction=LE
  and.437 = pred[64,64,1]{2,1,0} and(compare.435, compare.436)
  constant.423 = pred[] constant(true)
  reduce.442 = pred[64,64]{1,0} reduce(and.437, constant.423), dimensions={2}, to_apply=region_2.441
  broadcast.444 = pred[64,64,12]{2,1,0} broadcast(reduce.442), dimensions={0,1}
  Arg_0.413 = f32[32,12]{1,0} parameter(0)
  gather.443 = f32[64,64,12]{2,1,0} gather(Arg_0.413, reshape.434), offset_dims={2}, collapsed_slice_dims={0}, start_index_map={0}, index_vector_dim=2, slice_sizes={1,12}
  constant.415 = f32[] constant(nan)
  broadcast.416 = f32[64,64,12]{2,1,0} broadcast(constant.415), dimensions={}
  ROOT select.445 = f32[64,64,12]{2,1,0} select(broadcast.444, gather.443, broadcast.416)
}

region_3.463 {
  Arg_0.460 = f32[] parameter(0)
  Arg_1.461 = f32[] parameter(1)
  ROOT maximum.462 = f32[] maximum(Arg_0.460, Arg_1.461)
}

region_4.475 {
  Arg_0.472 = f32[] parameter(0)
  Arg_1.473 = f32[] parameter(1)
  ROOT add.474 = f32[] add(Arg_0.472, Arg_1.473)
}

region_5.491 {
  Arg_0.488 = f32[] parameter(0)
  Arg_1.489 = f32[] parameter(1)
  ROOT add.490 = f32[] add(Arg_0.488, Arg_1.489)
}

relu.510 {
  Arg_0.506 = f32[2,64,3072]{2,1,0} parameter(0)
  constant.507 = f32[] constant(0)
  broadcast.508 = f32[2,64,3072]{2,1,0} broadcast(constant.507), dimensions={}
  ROOT maximum.509 = f32[2,64,3072]{2,1,0} maximum(Arg_0.506, broadcast.508)
}

region_6.518 {
  Arg_0.515 = f32[] parameter(0)
  Arg_1.516 = f32[] parameter(1)
  ROOT add.517 = f32[] add(Arg_0.515, Arg_1.516)
}

region_7.545 {
  Arg_0.542 = f32[] parameter(0)
  Arg_1.543 = f32[] parameter(1)
  ROOT maximum.544 = f32[] maximum(Arg_0.542, Arg_1.543)
}

region_8.557 {
  Arg_0.554 = f32[] parameter(0)
  Arg_1.555 = f32[] parameter(1)
  ROOT add.556 = f32[] add(Arg_0.554, Arg_1.555)
}

region_9.573 {
  Arg_0.570 = f32[] parameter(0)
  Arg_1.571 = f32[] parameter(1)
  ROOT add.572 = f32[] add(Arg_0.570, Arg_1.571)
}

region_10.595 {
  Arg_0.592 = f32[] parameter(0)
  Arg_1.593 = f32[] parameter(1)
  ROOT add.594 = f32[] add(Arg_0.592, Arg_1.593)
}

region_11.622 {
  Arg_0.619 = f32[] parameter(0)
  Arg_1.620 = f32[] parameter(1)
  ROOT maximum.621 = f32[] maximum(Arg_0.619, Arg_1.620)
}

region_12.634 {
  Arg_0.631 = f32[] parameter(0)
  Arg_1.632 = f32[] parameter(1)
  ROOT add.633 = f32[] add(Arg_0.631, Arg_1.632)
}

region_13.650 {
  Arg_0.647 = f32[] parameter(0)
  Arg_1.648 = f32[] parameter(1)
  ROOT add.649 = f32[] add(Arg_0.647, Arg_1.648)
}

region_14.672 {
  Arg_0.669 = f32[] parameter(0)
  Arg_1.670 = f32[] parameter(1)
  ROOT add.671 = f32[] add(Arg_0.669, Arg_1.670)
}

region_15.699 {
  Arg_0.696 = f32[] parameter(0)
  Arg_1.697 = f32[] parameter(1)
  ROOT maximum.698 = f32[] maximum(Arg_0.696, Arg_1.697)
}

region_16.711 {
  Arg_0.708 = f32[] parameter(0)
  Arg_1.709 = f32[] parameter(1)
  ROOT add.710 = f32[] add(Arg_0.708, Arg_1.709)
}

region_17.727 {
  Arg_0.724 = f32[] parameter(0)
  Arg_1.725 = f32[] parameter(1)
  ROOT add.726 = f32[] add(Arg_0.724, Arg_1.725)
}

region_18.749 {
  Arg_0.746 = f32[] parameter(0)
  Arg_1.747 = f32[] parameter(1)
  ROOT add.748 = f32[] add(Arg_0.746, Arg_1.747)
}

region_19.776 {
  Arg_0.773 = f32[] parameter(0)
  Arg_1.774 = f32[] parameter(1)
  ROOT maximum.775 = f32[] maximum(Arg_0.773, Arg_1.774)
}

region_20.788 {
  Arg_0.785 = f32[] parameter(0)
  Arg_1.786 = f32[] parameter(1)
  ROOT add.787 = f32[] add(Arg_0.785, Arg_1.786)
}

region_21.804 {
  Arg_0.801 = f32[] parameter(0)
  Arg_1.802 = f32[] parameter(1)
  ROOT add.803 = f32[] add(Arg_0.801, Arg_1.802)
}

region_22.826 {
  Arg_0.823 = f32[] parameter(0)
  Arg_1.824 = f32[] parameter(1)
  ROOT add.825 = f32[] add(Arg_0.823, Arg_1.824)
}

region_23.853 {
  Arg_0.850 = f32[] parameter(0)
  Arg_1.851 = f32[] parameter(1)
  ROOT maximum.852 = f32[] maximum(Arg_0.850, Arg_1.851)
}

region_24.865 {
  Arg_0.862 = f32[] parameter(0)
  Arg_1.863 = f32[] parameter(1)
  ROOT add.864 = f32[] add(Arg_0.862, Arg_1.863)
}

region_25.881 {
  Arg_0.878 = f32[] parameter(0)
  Arg_1.879 = f32[] parameter(1)
  ROOT add.880 = f32[] add(Arg_0.878, Arg_1.879)
}

region_26.903 {
  Arg_0.900 = f32[] parameter(0)
  Arg_1.901 = f32[] parameter(1)
  ROOT add.902 = f32[] add(Arg_0.900, Arg_1.901)
}

region_27.930 {
  Arg_0.927 = f32[] parameter(0)
  Arg_1.928 = f32[] parameter(1)
  ROOT maximum.929 = f32[] maximum(Arg_0.927, Arg_1.928)
}

region_28.942 {
  Arg_0.939 = f32[] parameter(0)
  Arg_1.940 = f32[] parameter(1)
  ROOT add.941 = f32[] add(Arg_0.939, Arg_1.940)
}

region_29.958 {
  Arg_0.955 = f32[] parameter(0)
  Arg_1.956 = f32[] parameter(1)
  ROOT add.957 = f32[] add(Arg_0.955, Arg_1.956)
}

region_30.980 {
  Arg_0.977 = f32[] parameter(0)
  Arg_1.978 = f32[] parameter(1)
  ROOT add.979 = f32[] add(Arg_0.977, Arg_1.978)
}

region_31.1007 {
  Arg_0.1004 = f32[] parameter(0)
  Arg_1.1005 = f32[] parameter(1)
  ROOT maximum.1006 = f32[] maximum(Arg_0.1004, Arg_1.1005)
}

region_32.1019 {
  Arg_0.1016 = f32[] parameter(0)
  Arg_1.1017 = f32[] parameter(1)
  ROOT add.1018 = f32[] add(Arg_0.1016, Arg_1.1017)
}

region_33.1035 {
  Arg_0.1032 = f32[] parameter(0)
  Arg_1.1033 = f32[] parameter(1)
  ROOT add.1034 = f32[] add(Arg_0.1032, Arg_1.1033)
}

region_34.1057 {
  Arg_0.1054 = f32[] parameter(0)
  Arg_1.1055 = f32[] parameter(1)
  ROOT add.1056 = f32[] add(Arg_0.1054, Arg_1.1055)
}

region_35.1084 {
  Arg_0.1081 = f32[] parameter(0)
  Arg_1.1082 = f32[] parameter(1)
  ROOT maximum.1083 = f32[] maximum(Arg_0.1081, Arg_1.1082)
}

region_36.1096 {
  Arg_0.1093 = f32[] parameter(0)
  Arg_1.1094 = f32[] parameter(1)
  ROOT add.1095 = f32[] add(Arg_0.1093, Arg_1.1094)
}

region_37.1112 {
  Arg_0.1109 = f32[] parameter(0)
  Arg_1.1110 = f32[] parameter(1)
  ROOT add.1111 = f32[] add(Arg_0.1109, Arg_1.1110)
}

region_38.1134 {
  Arg_0.1131 = f32[] parameter(0)
  Arg_1.1132 = f32[] parameter(1)
  ROOT add.1133 = f32[] add(Arg_0.1131, Arg_1.1132)
}

region_39.1161 {
  Arg_0.1158 = f32[] parameter(0)
  Arg_1.1159 = f32[] parameter(1)
  ROOT maximum.1160 = f32[] maximum(Arg_0.1158, Arg_1.1159)
}

region_40.1173 {
  Arg_0.1170 = f32[] parameter(0)
  Arg_1.1171 = f32[] parameter(1)
  ROOT add.1172 = f32[] add(Arg_0.1170, Arg_1.1171)
}

region_41.1189 {
  Arg_0.1186 = f32[] parameter(0)
  Arg_1.1187 = f32[] parameter(1)
  ROOT add.1188 = f32[] add(Arg_0.1186, Arg_1.1187)
}

region_42.1211 {
  Arg_0.1208 = f32[] parameter(0)
  Arg_1.1209 = f32[] parameter(1)
  ROOT add.1210 = f32[] add(Arg_0.1208, Arg_1.1209)
}

region_43.1238 {
  Arg_0.1235 = f32[] parameter(0)
  Arg_1.1236 = f32[] parameter(1)
  ROOT maximum.1237 = f32[] maximum(Arg_0.1235, Arg_1.1236)
}

region_44.1250 {
  Arg_0.1247 = f32[] parameter(0)
  Arg_1.1248 = f32[] parameter(1)
  ROOT add.1249 = f32[] add(Arg_0.1247, Arg_1.1248)
}

region_45.1266 {
  Arg_0.1263 = f32[] parameter(0)
  Arg_1.1264 = f32[] parameter(1)
  ROOT add.1265 = f32[] add(Arg_0.1263, Arg_1.1264)
}

region_46.1288 {
  Arg_0.1285 = f32[] parameter(0)
  Arg_1.1286 = f32[] parameter(1)
  ROOT add.1287 = f32[] add(Arg_0.1285, Arg_1.1286)
}

region_47.1315 {
  Arg_0.1312 = f32[] parameter(0)
  Arg_1.1313 = f32[] parameter(1)
  ROOT maximum.1314 = f32[] maximum(Arg_0.1312, Arg_1.1313)
}

region_48.1327 {
  Arg_0.1324 = f32[] parameter(0)
  Arg_1.1325 = f32[] parameter(1)
  ROOT add.1326 = f32[] add(Arg_0.1324, Arg_1.1325)
}

region_49.1343 {
  Arg_0.1340 = f32[] parameter(0)
  Arg_1.1341 = f32[] parameter(1)
  ROOT add.1342 = f32[] add(Arg_0.1340, Arg_1.1341)
}

region_50.1365 {
  Arg_0.1362 = f32[] parameter(0)
  Arg_1.1363 = f32[] parameter(1)
  ROOT add.1364 = f32[] add(Arg_0.1362, Arg_1.1363)
}

_where_4.1398 {
  Arg_0.1394 = pred[2,32]{1,0} parameter(0)
  Arg_1.1395 = s32[2,32]{1,0} parameter(1)
  Arg_2.1396 = s32[2,32]{1,0} parameter(2)
  ROOT select.1397 = s32[2,32]{1,0} select(Arg_0.1394, Arg_1.1395, Arg_2.1396)
}

region_51.1407 {
  Arg_0.1404 = pred[] parameter(0)
  Arg_1.1405 = pred[] parameter(1)
  ROOT and.1406 = pred[] and(Arg_0.1404, Arg_1.1405)
}

_take_3.1412 {
  Arg_1.1380 = s32[2,32]{1,0} parameter(1)
  constant.1390 = s32[] constant(0)
  broadcast.1391 = s32[2,32]{1,0} broadcast(constant.1390), dimensions={}
  compare.1392 = pred[2,32]{1,0} compare(Arg_1.1380, broadcast.1391), direction=LT
  constant.1387 = s32[] constant(32128)
  broadcast.1388 = s32[2,32]{1,0} broadcast(constant.1387), dimensions={}
  add.1393 = s32[2,32]{1,0} add(Arg_1.1380, broadcast.1388)
  call.1399 = s32[2,32]{1,0} call(compare.1392, add.1393, Arg_1.1380), to_apply=_where_4.1398
  reshape.1400 = s32[2,32,1]{2,1,0} reshape(call.1399)
  constant.1385 = s32[] constant(0)
  broadcast.1386 = s32[2,32,1]{2,1,0} broadcast(constant.1385), dimensions={}
  compare.1401 = pred[2,32,1]{2,1,0} compare(reshape.1400, broadcast.1386), direction=GE
  constant.1383 = s32[] constant(32127)
  broadcast.1384 = s32[2,32,1]{2,1,0} broadcast(constant.1383), dimensions={}
  compare.1402 = pred[2,32,1]{2,1,0} compare(reshape.1400, broadcast.1384), direction=LE
  and.1403 = pred[2,32,1]{2,1,0} and(compare.1401, compare.1402)
  constant.1389 = pred[] constant(true)
  reduce.1408 = pred[2,32]{1,0} reduce(and.1403, constant.1389), dimensions={2}, to_apply=region_51.1407
  broadcast.1410 = pred[2,32,768]{2,1,0} broadcast(reduce.1408), dimensions={0,1}
  Arg_0.1379 = f32[32128,768]{1,0} parameter(0)
  gather.1409 = f32[2,32,768]{2,1,0} gather(Arg_0.1379, reshape.1400), offset_dims={2}, collapsed_slice_dims={0}, start_index_map={0}, index_vector_dim=2, slice_sizes={1,768}
  constant.1381 = f32[] constant(nan)
  broadcast.1382 = f32[2,32,768]{2,1,0} broadcast(constant.1381), dimensions={}
  ROOT select.1411 = f32[2,32,768]{2,1,0} select(broadcast.1410, gather.1409, broadcast.1382)
}

region_52.1418 {
  Arg_0.1415 = f32[] parameter(0)
  Arg_1.1416 = f32[] parameter(1)
  ROOT add.1417 = f32[] add(Arg_0.1415, Arg_1.1416)
}

clip_5.1477 {
  Arg_1.1474 = s32[] parameter(1)
  broadcast.1475 = s32[32,32]{1,0} broadcast(Arg_1.1474), dimensions={}
  Arg_0.1473 = s32[32,32]{1,0} parameter(0)
  ROOT minimum.1476 = s32[32,32]{1,0} minimum(broadcast.1475, Arg_0.1473)
}

clip_6.1492 {
  Arg_1.1488 = s32[] parameter(1)
  convert.1489 = f32[] convert(Arg_1.1488)
  broadcast.1490 = f32[32,32]{1,0} broadcast(convert.1489), dimensions={}
  Arg_0.1487 = f32[32,32]{1,0} parameter(0)
  ROOT minimum.1491 = f32[32,32]{1,0} minimum(broadcast.1490, Arg_0.1487)
}

_where_7.1499 {
  Arg_0.1494 = pred[32,32]{1,0} parameter(0)
  Arg_1.1495 = s32[32,32]{1,0} parameter(1)
  convert.1497 = f32[32,32]{1,0} convert(Arg_1.1495)
  Arg_2.1496 = f32[32,32]{1,0} parameter(2)
  ROOT select.1498 = f32[32,32]{1,0} select(Arg_0.1494, convert.1497, Arg_2.1496)
}

_where_9.1521 {
  Arg_0.1517 = pred[32,32]{1,0} parameter(0)
  Arg_1.1518 = s32[32,32]{1,0} parameter(1)
  Arg_2.1519 = s32[32,32]{1,0} parameter(2)
  ROOT select.1520 = s32[32,32]{1,0} select(Arg_0.1517, Arg_1.1518, Arg_2.1519)
}

region_53.1530 {
  Arg_0.1527 = pred[] parameter(0)
  Arg_1.1528 = pred[] parameter(1)
  ROOT and.1529 = pred[] and(Arg_0.1527, Arg_1.1528)
}

_take_8.1535 {
  Arg_1.1503 = s32[32,32]{1,0} parameter(1)
  constant.1513 = s32[] constant(0)
  broadcast.1514 = s32[32,32]{1,0} broadcast(constant.1513), dimensions={}
  compare.1515 = pred[32,32]{1,0} compare(Arg_1.1503, broadcast.1514), direction=LT
  constant.1510 = s32[] constant(32)
  broadcast.1511 = s32[32,32]{1,0} broadcast(constant.1510), dimensions={}
  add.1516 = s32[32,32]{1,0} add(Arg_1.1503, broadcast.1511)
  call.1522 = s32[32,32]{1,0} call(compare.1515, add.1516, Arg_1.1503), to_apply=_where_9.1521
  reshape.1523 = s32[32,32,1]{2,1,0} reshape(call.1522)
  constant.1508 = s32[] constant(0)
  broadcast.1509 = s32[32,32,1]{2,1,0} broadcast(constant.1508), dimensions={}
  compare.1524 = pred[32,32,1]{2,1,0} compare(reshape.1523, broadcast.1509), direction=GE
  constant.1506 = s32[] constant(31)
  broadcast.1507 = s32[32,32,1]{2,1,0} broadcast(constant.1506), dimensions={}
  compare.1525 = pred[32,32,1]{2,1,0} compare(reshape.1523, broadcast.1507), direction=LE
  and.1526 = pred[32,32,1]{2,1,0} and(compare.1524, compare.1525)
  constant.1512 = pred[] constant(true)
  reduce.1531 = pred[32,32]{1,0} reduce(and.1526, constant.1512), dimensions={2}, to_apply=region_53.1530
  broadcast.1533 = pred[32,32,12]{2,1,0} broadcast(reduce.1531), dimensions={0,1}
  Arg_0.1502 = f32[32,12]{1,0} parameter(0)
  gather.1532 = f32[32,32,12]{2,1,0} gather(Arg_0.1502, reshape.1523), offset_dims={2}, collapsed_slice_dims={0}, start_index_map={0}, index_vector_dim=2, slice_sizes={1,12}
  constant.1504 = f32[] constant(nan)
  broadcast.1505 = f32[32,32,12]{2,1,0} broadcast(constant.1504), dimensions={}
  ROOT select.1534 = f32[32,32,12]{2,1,0} select(broadcast.1533, gather.1532, broadcast.1505)
}

region_54.1552 {
  Arg_0.1549 = f32[] parameter(0)
  Arg_1.1550 = f32[] parameter(1)
  ROOT maximum.1551 = f32[] maximum(Arg_0.1549, Arg_1.1550)
}

region_55.1564 {
  Arg_0.1561 = f32[] parameter(0)
  Arg_1.1562 = f32[] parameter(1)
  ROOT add.1563 = f32[] add(Arg_0.1561, Arg_1.1562)
}

region_56.1580 {
  Arg_0.1577 = f32[] parameter(0)
  Arg_1.1578 = f32[] parameter(1)
  ROOT add.1579 = f32[] add(Arg_0.1577, Arg_1.1578)
}

region_57.1613 {
  Arg_0.1610 = f32[] parameter(0)
  Arg_1.1611 = f32[] parameter(1)
  ROOT maximum.1612 = f32[] maximum(Arg_0.1610, Arg_1.1611)
}

region_58.1625 {
  Arg_0.1622 = f32[] parameter(0)
  Arg_1.1623 = f32[] parameter(1)
  ROOT add.1624 = f32[] add(Arg_0.1622, Arg_1.1623)
}

region_59.1641 {
  Arg_0.1638 = f32[] parameter(0)
  Arg_1.1639 = f32[] parameter(1)
  ROOT add.1640 = f32[] add(Arg_0.1638, Arg_1.1639)
}

relu_10.1660 {
  Arg_0.1656 = f32[2,32,3072]{2,1,0} parameter(0)
  constant.1657 = f32[] constant(0)
  broadcast.1658 = f32[2,32,3072]{2,1,0} broadcast(constant.1657), dimensions={}
  ROOT maximum.1659 = f32[2,32,3072]{2,1,0} maximum(Arg_0.1656, broadcast.1658)
}

region_60.1668 {
  Arg_0.1665 = f32[] parameter(0)
  Arg_1.1666 = f32[] parameter(1)
  ROOT add.1667 = f32[] add(Arg_0.1665, Arg_1.1666)
}

region_61.1695 {
  Arg_0.1692 = f32[] parameter(0)
  Arg_1.1693 = f32[] parameter(1)
  ROOT maximum.1694 = f32[] maximum(Arg_0.1692, Arg_1.1693)
}

region_62.1707 {
  Arg_0.1704 = f32[] parameter(0)
  Arg_1.1705 = f32[] parameter(1)
  ROOT add.1706 = f32[] add(Arg_0.1704, Arg_1.1705)
}

region_63.1723 {
  Arg_0.1720 = f32[] parameter(0)
  Arg_1.1721 = f32[] parameter(1)
  ROOT add.1722 = f32[] add(Arg_0.1720, Arg_1.1721)
}

region_64.1753 {
  Arg_0.1750 = f32[] parameter(0)
  Arg_1.1751 = f32[] parameter(1)
  ROOT maximum.1752 = f32[] maximum(Arg_0.1750, Arg_1.1751)
}

region_65.1765 {
  Arg_0.1762 = f32[] parameter(0)
  Arg_1.1763 = f32[] parameter(1)
  ROOT add.1764 = f32[] add(Arg_0.1762, Arg_1.1763)
}

region_66.1781 {
  Arg_0.1778 = f32[] parameter(0)
  Arg_1.1779 = f32[] parameter(1)
  ROOT add.1780 = f32[] add(Arg_0.1778, Arg_1.1779)
}

region_67.1803 {
  Arg_0.1800 = f32[] parameter(0)
  Arg_1.1801 = f32[] parameter(1)
  ROOT add.1802 = f32[] add(Arg_0.1800, Arg_1.1801)
}

region_68.1830 {
  Arg_0.1827 = f32[] parameter(0)
  Arg_1.1828 = f32[] parameter(1)
  ROOT maximum.1829 = f32[] maximum(Arg_0.1827, Arg_1.1828)
}

region_69.1842 {
  Arg_0.1839 = f32[] parameter(0)
  Arg_1.1840 = f32[] parameter(1)
  ROOT add.1841 = f32[] add(Arg_0.1839, Arg_1.1840)
}

region_70.1858 {
  Arg_0.1855 = f32[] parameter(0)
  Arg_1.1856 = f32[] parameter(1)
  ROOT add.1857 = f32[] add(Arg_0.1855, Arg_1.1856)
}

region_71.1888 {
  Arg_0.1885 = f32[] parameter(0)
  Arg_1.1886 = f32[] parameter(1)
  ROOT maximum.1887 = f32[] maximum(Arg_0.1885, Arg_1.1886)
}

region_72.1900 {
  Arg_0.1897 = f32[] parameter(0)
  Arg_1.1898 = f32[] parameter(1)
  ROOT add.1899 = f32[] add(Arg_0.1897, Arg_1.1898)
}

region_73.1916 {
  Arg_0.1913 = f32[] parameter(0)
  Arg_1.1914 = f32[] parameter(1)
  ROOT add.1915 = f32[] add(Arg_0.1913, Arg_1.1914)
}

region_74.1938 {
  Arg_0.1935 = f32[] parameter(0)
  Arg_1.1936 = f32[] parameter(1)
  ROOT add.1937 = f32[] add(Arg_0.1935, Arg_1.1936)
}

region_75.1965 {
  Arg_0.1962 = f32[] parameter(0)
  Arg_1.1963 = f32[] parameter(1)
  ROOT maximum.1964 = f32[] maximum(Arg_0.1962, Arg_1.1963)
}

region_76.1977 {
  Arg_0.1974 = f32[] parameter(0)
  Arg_1.1975 = f32[] parameter(1)
  ROOT add.1976 = f32[] add(Arg_0.1974, Arg_1.1975)
}

region_77.1993 {
  Arg_0.1990 = f32[] parameter(0)
  Arg_1.1991 = f32[] parameter(1)
  ROOT add.1992 = f32[] add(Arg_0.1990, Arg_1.1991)
}

region_78.2023 {
  Arg_0.2020 = f32[] parameter(0)
  Arg_1.2021 = f32[] parameter(1)
  ROOT maximum.2022 = f32[] maximum(Arg_0.2020, Arg_1.2021)
}

region_79.2035 {
  Arg_0.2032 = f32[] parameter(0)
  Arg_1.2033 = f32[] parameter(1)
  ROOT add.2034 = f32[] add(Arg_0.2032, Arg_1.2033)
}

region_80.2051 {
  Arg_0.2048 = f32[] parameter(0)
  Arg_1.2049 = f32[] parameter(1)
  ROOT add.2050 = f32[] add(Arg_0.2048, Arg_1.2049)
}

region_81.2073 {
  Arg_0.2070 = f32[] parameter(0)
  Arg_1.2071 = f32[] parameter(1)
  ROOT add.2072 = f32[] add(Arg_0.2070, Arg_1.2071)
}

region_82.2100 {
  Arg_0.2097 = f32[] parameter(0)
  Arg_1.2098 = f32[] parameter(1)
  ROOT maximum.2099 = f32[] maximum(Arg_0.2097, Arg_1.2098)
}

region_83.2112 {
  Arg_0.2109 = f32[] parameter(0)
  Arg_1.2110 = f32[] parameter(1)
  ROOT add.2111 = f32[] add(Arg_0.2109, Arg_1.2110)
}

region_84.2128 {
  Arg_0.2125 = f32[] parameter(0)
  Arg_1.2126 = f32[] parameter(1)
  ROOT add.2127 = f32[] add(Arg_0.2125, Arg_1.2126)
}

region_85.2158 {
  Arg_0.2155 = f32[] parameter(0)
  Arg_1.2156 = f32[] parameter(1)
  ROOT maximum.2157 = f32[] maximum(Arg_0.2155, Arg_1.2156)
}

region_86.2170 {
  Arg_0.2167 = f32[] parameter(0)
  Arg_1.2168 = f32[] parameter(1)
  ROOT add.2169 = f32[] add(Arg_0.2167, Arg_1.2168)
}

region_87.2186 {
  Arg_0.2183 = f32[] parameter(0)
  Arg_1.2184 = f32[] parameter(1)
  ROOT add.2185 = f32[] add(Arg_0.2183, Arg_1.2184)
}

region_88.2208 {
  Arg_0.2205 = f32[] parameter(0)
  Arg_1.2206 = f32[] parameter(1)
  ROOT add.2207 = f32[] add(Arg_0.2205, Arg_1.2206)
}

region_89.2235 {
  Arg_0.2232 = f32[] parameter(0)
  Arg_1.2233 = f32[] parameter(1)
  ROOT maximum.2234 = f32[] maximum(Arg_0.2232, Arg_1.2233)
}

region_90.2247 {
  Arg_0.2244 = f32[] parameter(0)
  Arg_1.2245 = f32[] parameter(1)
  ROOT add.2246 = f32[] add(Arg_0.2244, Arg_1.2245)
}

region_91.2263 {
  Arg_0.2260 = f32[] parameter(0)
  Arg_1.2261 = f32[] parameter(1)
  ROOT add.2262 = f32[] add(Arg_0.2260, Arg_1.2261)
}

region_92.2293 {
  Arg_0.2290 = f32[] parameter(0)
  Arg_1.2291 = f32[] parameter(1)
  ROOT maximum.2292 = f32[] maximum(Arg_0.2290, Arg_1.2291)
}

region_93.2305 {
  Arg_0.2302 = f32[] parameter(0)
  Arg_1.2303 = f32[] parameter(1)
  ROOT add.2304 = f32[] add(Arg_0.2302, Arg_1.2303)
}

region_94.2321 {
  Arg_0.2318 = f32[] parameter(0)
  Arg_1.2319 = f32[] parameter(1)
  ROOT add.2320 = f32[] add(Arg_0.2318, Arg_1.2319)
}

region_95.2343 {
  Arg_0.2340 = f32[] parameter(0)
  Arg_1.2341 = f32[] parameter(1)
  ROOT add.2342 = f32[] add(Arg_0.2340, Arg_1.2341)
}

region_96.2370 {
  Arg_0.2367 = f32[] parameter(0)
  Arg_1.2368 = f32[] parameter(1)
  ROOT maximum.2369 = f32[] maximum(Arg_0.2367, Arg_1.2368)
}

region_97.2382 {
  Arg_0.2379 = f32[] parameter(0)
  Arg_1.2380 = f32[] parameter(1)
  ROOT add.2381 = f32[] add(Arg_0.2379, Arg_1.2380)
}

region_98.2398 {
  Arg_0.2395 = f32[] parameter(0)
  Arg_1.2396 = f32[] parameter(1)
  ROOT add.2397 = f32[] add(Arg_0.2395, Arg_1.2396)
}

region_99.2428 {
  Arg_0.2425 = f32[] parameter(0)
  Arg_1.2426 = f32[] parameter(1)
  ROOT maximum.2427 = f32[] maximum(Arg_0.2425, Arg_1.2426)
}

region_100.2440 {
  Arg_0.2437 = f32[] parameter(0)
  Arg_1.2438 = f32[] parameter(1)
  ROOT add.2439 = f32[] add(Arg_0.2437, Arg_1.2438)
}

region_101.2456 {
  Arg_0.2453 = f32[] parameter(0)
  Arg_1.2454 = f32[] parameter(1)
  ROOT add.2455 = f32[] add(Arg_0.2453, Arg_1.2454)
}

region_102.2478 {
  Arg_0.2475 = f32[] parameter(0)
  Arg_1.2476 = f32[] parameter(1)
  ROOT add.2477 = f32[] add(Arg_0.2475, Arg_1.2476)
}

region_103.2505 {
  Arg_0.2502 = f32[] parameter(0)
  Arg_1.2503 = f32[] parameter(1)
  ROOT maximum.2504 = f32[] maximum(Arg_0.2502, Arg_1.2503)
}

region_104.2517 {
  Arg_0.2514 = f32[] parameter(0)
  Arg_1.2515 = f32[] parameter(1)
  ROOT add.2516 = f32[] add(Arg_0.2514, Arg_1.2515)
}

region_105.2533 {
  Arg_0.2530 = f32[] parameter(0)
  Arg_1.2531 = f32[] parameter(1)
  ROOT add.2532 = f32[] add(Arg_0.2530, Arg_1.2531)
}

region_106.2563 {
  Arg_0.2560 = f32[] parameter(0)
  Arg_1.2561 = f32[] parameter(1)
  ROOT maximum.2562 = f32[] maximum(Arg_0.2560, Arg_1.2561)
}

region_107.2575 {
  Arg_0.2572 = f32[] parameter(0)
  Arg_1.2573 = f32[] parameter(1)
  ROOT add.2574 = f32[] add(Arg_0.2572, Arg_1.2573)
}

region_108.2591 {
  Arg_0.2588 = f32[] parameter(0)
  Arg_1.2589 = f32[] parameter(1)
  ROOT add.2590 = f32[] add(Arg_0.2588, Arg_1.2589)
}

region_109.2613 {
  Arg_0.2610 = f32[] parameter(0)
  Arg_1.2611 = f32[] parameter(1)
  ROOT add.2612 = f32[] add(Arg_0.2610, Arg_1.2611)
}

region_110.2640 {
  Arg_0.2637 = f32[] parameter(0)
  Arg_1.2638 = f32[] parameter(1)
  ROOT maximum.2639 = f32[] maximum(Arg_0.2637, Arg_1.2638)
}

region_111.2652 {
  Arg_0.2649 = f32[] parameter(0)
  Arg_1.2650 = f32[] parameter(1)
  ROOT add.2651 = f32[] add(Arg_0.2649, Arg_1.2650)
}

region_112.2668 {
  Arg_0.2665 = f32[] parameter(0)
  Arg_1.2666 = f32[] parameter(1)
  ROOT add.2667 = f32[] add(Arg_0.2665, Arg_1.2666)
}

region_113.2698 {
  Arg_0.2695 = f32[] parameter(0)
  Arg_1.2696 = f32[] parameter(1)
  ROOT maximum.2697 = f32[] maximum(Arg_0.2695, Arg_1.2696)
}

region_114.2710 {
  Arg_0.2707 = f32[] parameter(0)
  Arg_1.2708 = f32[] parameter(1)
  ROOT add.2709 = f32[] add(Arg_0.2707, Arg_1.2708)
}

region_115.2726 {
  Arg_0.2723 = f32[] parameter(0)
  Arg_1.2724 = f32[] parameter(1)
  ROOT add.2725 = f32[] add(Arg_0.2723, Arg_1.2724)
}

region_116.2748 {
  Arg_0.2745 = f32[] parameter(0)
  Arg_1.2746 = f32[] parameter(1)
  ROOT add.2747 = f32[] add(Arg_0.2745, Arg_1.2746)
}

region_117.2775 {
  Arg_0.2772 = f32[] parameter(0)
  Arg_1.2773 = f32[] parameter(1)
  ROOT maximum.2774 = f32[] maximum(Arg_0.2772, Arg_1.2773)
}

region_118.2787 {
  Arg_0.2784 = f32[] parameter(0)
  Arg_1.2785 = f32[] parameter(1)
  ROOT add.2786 = f32[] add(Arg_0.2784, Arg_1.2785)
}

region_119.2803 {
  Arg_0.2800 = f32[] parameter(0)
  Arg_1.2801 = f32[] parameter(1)
  ROOT add.2802 = f32[] add(Arg_0.2800, Arg_1.2801)
}

region_120.2833 {
  Arg_0.2830 = f32[] parameter(0)
  Arg_1.2831 = f32[] parameter(1)
  ROOT maximum.2832 = f32[] maximum(Arg_0.2830, Arg_1.2831)
}

region_121.2845 {
  Arg_0.2842 = f32[] parameter(0)
  Arg_1.2843 = f32[] parameter(1)
  ROOT add.2844 = f32[] add(Arg_0.2842, Arg_1.2843)
}

region_122.2861 {
  Arg_0.2858 = f32[] parameter(0)
  Arg_1.2859 = f32[] parameter(1)
  ROOT add.2860 = f32[] add(Arg_0.2858, Arg_1.2859)
}

region_123.2883 {
  Arg_0.2880 = f32[] parameter(0)
  Arg_1.2881 = f32[] parameter(1)
  ROOT add.2882 = f32[] add(Arg_0.2880, Arg_1.2881)
}

region_124.2910 {
  Arg_0.2907 = f32[] parameter(0)
  Arg_1.2908 = f32[] parameter(1)
  ROOT maximum.2909 = f32[] maximum(Arg_0.2907, Arg_1.2908)
}

region_125.2922 {
  Arg_0.2919 = f32[] parameter(0)
  Arg_1.2920 = f32[] parameter(1)
  ROOT add.2921 = f32[] add(Arg_0.2919, Arg_1.2920)
}

region_126.2938 {
  Arg_0.2935 = f32[] parameter(0)
  Arg_1.2936 = f32[] parameter(1)
  ROOT add.2937 = f32[] add(Arg_0.2935, Arg_1.2936)
}

region_127.2968 {
  Arg_0.2965 = f32[] parameter(0)
  Arg_1.2966 = f32[] parameter(1)
  ROOT maximum.2967 = f32[] maximum(Arg_0.2965, Arg_1.2966)
}

region_128.2980 {
  Arg_0.2977 = f32[] parameter(0)
  Arg_1.2978 = f32[] parameter(1)
  ROOT add.2979 = f32[] add(Arg_0.2977, Arg_1.2978)
}

region_129.2996 {
  Arg_0.2993 = f32[] parameter(0)
  Arg_1.2994 = f32[] parameter(1)
  ROOT add.2995 = f32[] add(Arg_0.2993, Arg_1.2994)
}

region_130.3018 {
  Arg_0.3015 = f32[] parameter(0)
  Arg_1.3016 = f32[] parameter(1)
  ROOT add.3017 = f32[] add(Arg_0.3015, Arg_1.3016)
}

region_131.3045 {
  Arg_0.3042 = f32[] parameter(0)
  Arg_1.3043 = f32[] parameter(1)
  ROOT maximum.3044 = f32[] maximum(Arg_0.3042, Arg_1.3043)
}

region_132.3057 {
  Arg_0.3054 = f32[] parameter(0)
  Arg_1.3055 = f32[] parameter(1)
  ROOT add.3056 = f32[] add(Arg_0.3054, Arg_1.3055)
}

region_133.3073 {
  Arg_0.3070 = f32[] parameter(0)
  Arg_1.3071 = f32[] parameter(1)
  ROOT add.3072 = f32[] add(Arg_0.3070, Arg_1.3071)
}

region_134.3103 {
  Arg_0.3100 = f32[] parameter(0)
  Arg_1.3101 = f32[] parameter(1)
  ROOT maximum.3102 = f32[] maximum(Arg_0.3100, Arg_1.3101)
}

region_135.3115 {
  Arg_0.3112 = f32[] parameter(0)
  Arg_1.3113 = f32[] parameter(1)
  ROOT add.3114 = f32[] add(Arg_0.3112, Arg_1.3113)
}

region_136.3131 {
  Arg_0.3128 = f32[] parameter(0)
  Arg_1.3129 = f32[] parameter(1)
  ROOT add.3130 = f32[] add(Arg_0.3128, Arg_1.3129)
}

region_137.3153 {
  Arg_0.3150 = f32[] parameter(0)
  Arg_1.3151 = f32[] parameter(1)
  ROOT add.3152 = f32[] add(Arg_0.3150, Arg_1.3151)
}

ENTRY main.3167 {
  constant.5 = f32[1,1,768]{2,1,0} constant({...})
  broadcast.3163 = f32[1,1,768]{2,1,0} broadcast(constant.5), dimensions={0,1,2}
  reshape.3164 = f32[768]{0} reshape(broadcast.3163)
  broadcast.3165 = f32[2,32,768]{2,1,0} broadcast(reshape.3164), dimensions={2}
  constant.116 = f32[32128,768]{1,0} constant({...})
  Arg_2.3 = s32[2,32]{1,0} parameter(2)
  call.1413 = f32[2,32,768]{2,1,0} call(constant.116, Arg_2.3), to_apply=_take_3.1412
  constant.57 = f32[1,1,768]{2,1,0} constant({...})
  broadcast.1428 = f32[1,1,768]{2,1,0} broadcast(constant.57), dimensions={0,1,2}
  reshape.1429 = f32[768]{0} reshape(broadcast.1428)
  broadcast.1430 = f32[2,32,768]{2,1,0} broadcast(reshape.1429), dimensions={2}
  multiply.1414 = f32[2,32,768]{2,1,0} multiply(call.1413, call.1413)
  constant.115 = f32[] constant(0)
  reduce.1419 = f32[2,32]{1,0} reduce(multiply.1414, constant.115), dimensions={2}, to_apply=region_52.1418
  reshape.1420 = f32[2,32,1]{2,1,0} reshape(reduce.1419)
  constant.60 = f32[] constant(768)
  broadcast.61 = f32[2,32,1]{2,1,0} broadcast(constant.60), dimensions={}
  divide.1421 = f32[2,32,1]{2,1,0} divide(reshape.1420, broadcast.61)
  constant.58 = f32[] constant(1e-06)
  broadcast.59 = f32[2,32,1]{2,1,0} broadcast(constant.58), dimensions={}
  add.1422 = f32[2,32,1]{2,1,0} add(divide.1421, broadcast.59)
  sqrt.1423 = f32[2,32,1]{2,1,0} sqrt(add.1422)
  broadcast.1424 = f32[2,32,1]{2,1,0} broadcast(sqrt.1423), dimensions={0,1,2}
  reshape.1425 = f32[2,32]{1,0} reshape(broadcast.1424)
  broadcast.1426 = f32[2,32,768]{2,1,0} broadcast(reshape.1425), dimensions={0,1}
  divide.1427 = f32[2,32,768]{2,1,0} divide(call.1413, broadcast.1426)
  multiply.1431 = f32[2,32,768]{2,1,0} multiply(broadcast.1430, divide.1427)
  constant.192 = f32[768,768]{1,0} constant({...})
  dot.1434 = f32[2,32,768]{2,1,0} dot(multiply.1431, constant.192), lhs_contracting_dims={2}, rhs_contracting_dims={0}
  reshape.1437 = f32[2,32,12,64]{3,2,1,0} reshape(dot.1434)
  constant.190 = f32[768,768]{1,0} constant({...})
  dot.1432 = f32[2,32,768]{2,1,0} dot(multiply.1431, constant.190), lhs_contracting_dims={2}, rhs_contracting_dims={0}
  reshape.1435 = f32[2,32,12,64]{3,2,1,0} reshape(dot.1432)
  constant.55 = f32[] constant(8)
  broadcast.56 = f32[2,32,12,64]{3,2,1,0} broadcast(constant.55), dimensions={}
  multiply.1438 = f32[2,32,12,64]{3,2,1,0} multiply(reshape.1435, broadcast.56)
  divide.1546 = f32[2,32,12,64]{3,2,1,0} divide(multiply.1438, broadcast.56)
  constant.191 = f32[768,768]{1,0} constant({...})
  dot.1433 = f32[2,32,768]{2,1,0} dot(multiply.1431, constant.191), lhs_contracting_dims={2}, rhs_contracting_dims={0}
  reshape.1436 = f32[2,32,12,64]{3,2,1,0} reshape(dot.1433)
  dot.1547 = f32[2,12,32,32]{3,2,1,0} dot(divide.1546, reshape.1436), lhs_batch_dims={0,2}, lhs_contracting_dims={3}, rhs_batch_dims={0,2}, rhs_contracting_dims={3}
  constant.193 = f32[32,12]{1,0} constant({...})
  iota.1464 = s32[32]{0} iota(), iota_dimension=0
  reshape.1465 = s32[1,32]{1,0} reshape(iota.1464)
  broadcast.1466 = s32[1,32]{1,0} broadcast(reshape.1465), dimensions={0,1}
  reshape.1467 = s32[32]{0} reshape(broadcast.1466)
  broadcast.1468 = s32[32,32]{1,0} broadcast(reshape.1467), dimensions={1}
  iota.1462 = s32[32]{0} iota(), iota_dimension=0
  reshape.1463 = s32[32,1]{1,0} reshape(iota.1462)
  broadcast.1469 = s32[32,1]{1,0} broadcast(reshape.1463), dimensions={0,1}
  reshape.1470 = s32[32]{0} reshape(broadcast.1469)
  broadcast.1471 = s32[32,32]{1,0} broadcast(reshape.1470), dimensions={0}
  subtract.1472 = s32[32,32]{1,0} subtract(broadcast.1468, broadcast.1471)
  constant.114 = s32[] constant(0)
  call.1478 = s32[32,32]{1,0} call(subtract.1472, constant.114), to_apply=clip_5.1477
  negate.1479 = s32[32,32]{1,0} negate(call.1478)
  constant.47 = s32[] constant(16)
  broadcast.48 = s32[32,32]{1,0} broadcast(constant.47), dimensions={}
  compare.1480 = pred[32,32]{1,0} compare(negate.1479, broadcast.48), direction=LT
  convert.1481 = f32[32,32]{1,0} convert(negate.1479)
  constant.45 = f32[] constant(16)
  broadcast.46 = f32[32,32]{1,0} broadcast(constant.45), dimensions={}
  divide.1482 = f32[32,32]{1,0} divide(convert.1481, broadcast.46)
  log.1483 = f32[32,32]{1,0} log(divide.1482)
  constant.43 = f32[] constant(2.07944155)
  broadcast.44 = f32[32,32]{1,0} broadcast(constant.43), dimensions={}
  divide.1484 = f32[32,32]{1,0} divide(log.1483, broadcast.44)
  multiply.1485 = f32[32,32]{1,0} multiply(divide.1484, broadcast.46)
  add.1486 = f32[32,32]{1,0} add(multiply.1485, broadcast.46)
  constant.111 = s32[] constant(31)
  call.1493 = f32[32,32]{1,0} call(add.1486, constant.111), to_apply=clip_6.1492
  call.1500 = f32[32,32]{1,0} call(compare.1480, negate.1479, call.1493), to_apply=_where_7.1499
  convert.1501 = s32[32,32]{1,0} convert(call.1500)
  call.1536 = f32[32,32,12]{2,1,0} call(constant.193, convert.1501), to_apply=_take_8.1535
  transpose.1537 = f32[12,32,32]{0,2,1} transpose(call.1536), dimensions={2,0,1}
  reshape.1538 = f32[1,12,32,32]{3,2,1,0} reshape(transpose.1537)
  broadcast.1539 = f32[1,12,32,32]{3,2,1,0} broadcast(reshape.1538), dimensions={0,1,2,3}
  reshape.1540 = f32[12,32,32]{2,1,0} reshape(broadcast.1539)
  broadcast.1541 = f32[2,12,32,32]{3,2,1,0} broadcast(reshape.1540), dimensions={1,2,3}
  Arg_3.4 = s32[2,32]{1,0} parameter(3)
  reshape.1451 = s32[2,1,1,32]{3,2,1,0} reshape(Arg_3.4)
  broadcast.1452 = s32[2,1,1,32]{3,2,1,0} broadcast(reshape.1451), dimensions={0,1,2,3}
  reshape.1453 = s32[2,1,32]{2,1,0} reshape(broadcast.1452)
  broadcast.1454 = s32[2,1,32,32]{3,2,1,0} broadcast(reshape.1453), dimensions={0,1,3}
  constant.53 = s32[] constant(0)
  broadcast.54 = s32[2,1,32,32]{3,2,1,0} broadcast(constant.53), dimensions={}
  compare.1456 = pred[2,1,32,32]{3,2,1,0} compare(broadcast.1454, broadcast.54), direction=NE
  iota.1439 = s32[32]{0} iota(), iota_dimension=0
  broadcast.1440 = s32[2,32]{1,0} broadcast(iota.1439), dimensions={1}
  reshape.1441 = s32[2,32,1]{2,1,0} reshape(broadcast.1440)
  broadcast.1443 = s32[2,32,1]{2,1,0} broadcast(reshape.1441), dimensions={0,1,2}
  reshape.1444 = s32[2,32]{1,0} reshape(broadcast.1443)
  broadcast.1445 = s32[2,32,32]{2,1,0} broadcast(reshape.1444), dimensions={0,1}
  reshape.1442 = s32[2,1,32]{2,1,0} reshape(broadcast.1440)
  broadcast.1446 = s32[2,1,32]{2,1,0} broadcast(reshape.1442), dimensions={0,1,2}
  reshape.1447 = s32[2,32]{1,0} reshape(broadcast.1446)
  broadcast.1448 = s32[2,32,32]{2,1,0} broadcast(reshape.1447), dimensions={0,2}
  compare.1449 = pred[2,32,32]{2,1,0} compare(broadcast.1445, broadcast.1448), direction=GE
  reshape.1450 = pred[2,1,32,32]{3,2,1,0} reshape(compare.1449)
  convert.1455 = s32[2,1,32,32]{3,2,1,0} convert(reshape.1450)
  compare.1457 = pred[2,1,32,32]{3,2,1,0} compare(convert.1455, broadcast.54), direction=NE
  and.1458 = pred[2,1,32,32]{3,2,1,0} and(compare.1456, compare.1457)
  convert.1459 = f32[2,1,32,32]{3,2,1,0} convert(and.1458)
  constant.51 = f32[] constant(0)
  broadcast.52 = f32[2,1,32,32]{3,2,1,0} broadcast(constant.51), dimensions={}
  compare.1460 = pred[2,1,32,32]{3,2,1,0} compare(convert.1459, broadcast.52), direction=GT
  constant.49 = f32[] constant(-3.40282347e+38)
  broadcast.50 = f32[2,1,32,32]{3,2,1,0} broadcast(constant.49), dimensions={}
  select.1461 = f32[2,1,32,32]{3,2,1,0} select(compare.1460, broadcast.52, broadcast.50)
  broadcast.1542 = f32[2,1,32,32]{3,2,1,0} broadcast(select.1461), dimensions={0,1,2,3}
  reshape.1543 = f32[2,32,32]{2,1,0} reshape(broadcast.1542)
  broadcast.1544 = f32[2,12,32,32]{3,2,1,0} broadcast(reshape.1543), dimensions={0,2,3}
  add.1545 = f32[2,12,32,32]{3,2,1,0} add(broadcast.1541, broadcast.1544)
  add.1548 = f32[2,12,32,32]{3,2,1,0} add(dot.1547, add.1545)
  constant.112 = f32[] constant(-inf)
  reduce.1553 = f32[2,12,32]{2,1,0} reduce(add.1548, constant.112), dimensions={3}, to_apply=region_54.1552
  constant.41 = f32[] constant(-inf)
  broadcast.42 = f32[2,12,32]{2,1,0} broadcast(constant.41), dimensions={}
  maximum.1554 = f32[2,12,32]{2,1,0} maximum(reduce.1553, broadcast.42)
  reshape.1555 = f32[2,12,32,1]{3,2,1,0} reshape(maximum.1554)
  broadcast.1556 = f32[2,12,32,1]{3,2,1,0} broadcast(reshape.1555), dimensions={0,1,2,3}
  reshape.1557 = f32[2,12,32]{2,1,0} reshape(broadcast.1556)
  broadcast.1558 = f32[2,12,32,32]{3,2,1,0} broadcast(reshape.1557), dimensions={0,1,2}
  subtract.1559 = f32[2,12,32,32]{3,2,1,0} subtract(add.1548, broadcast.1558)
  exponential.1560 = f32[2,12,32,32]{3,2,1,0} exponential(subtract.1559)
  reduce.1565 = f32[2,12,32]{2,1,0} reduce(exponential.1560, constant.115), dimensions={3}, to_apply=region_55.1564
  reshape.1566 = f32[2,12,32,1]{3,2,1,0} reshape(reduce.1565)
  broadcast.1567 = f32[2,12,32,1]{3,2,1,0} broadcast(reshape.1566), dimensions={0,1,2,3}
  reshape.1568 = f32[2,12,32]{2,1,0} reshape(broadcast.1567)
  broadcast.1569 = f32[2,12,32,32]{3,2,1,0} broadcast(reshape.1568), dimensions={0,1,2}
  divide.1570 = f32[2,12,32,32]{3,2,1,0} divide(exponential.1560, broadcast.1569)
  dot.1571 = f32[2,12,64,32]{3,2,1,0} dot(reshape.1437, divide.1570), lhs_batch_dims={0,2}, lhs_contracting_dims={1}, rhs_batch_dims={0,1}, rhs_contracting_dims={3}
  transpose.1572 = f32[2,32,12,64]{1,3,2,0} transpose(dot.1571), dimensions={0,3,1,2}
  reshape.1573 = f32[2,32,768]{2,1,0} reshape(transpose.1572)
  constant.194 = f32[768,768]{1,0} constant({...})
  dot.1574 = f32[2,32,768]{2,1,0} dot(reshape.1573, constant.194), lhs_contracting_dims={2}, rhs_contracting_dims={0}
  add.1575 = f32[2,32,768]{2,1,0} add(call.1413, dot.1574)
  constant.62 = f32[1,1,768]{2,1,0} constant({...})
  broadcast.1375 = f32[1,1,768]{2,1,0} broadcast(constant.62), dimensions={0,1,2}
  reshape.1376 = f32[768]{0} reshape(broadcast.1375)
  broadcast.1377 = f32[2,64,768]{2,1,0} broadcast(reshape.1376), dimensions={2}
  Arg_0.1 = s32[2,64]{1,0} parameter(0)
  call.345 = f32[2,64,768]{2,1,0} call(constant.116, Arg_0.1), to_apply=_take.344
  constant.106 = f32[1,1,768]{2,1,0} constant({...})
  broadcast.360 = f32[1,1,768]{2,1,0} broadcast(constant.106), dimensions={0,1,2}
  reshape.361 = f32[768]{0} reshape(broadcast.360)
  broadcast.362 = f32[2,64,768]{2,1,0} broadcast(reshape.361), dimensions={2}
  multiply.346 = f32[2,64,768]{2,1,0} multiply(call.345, call.345)
  reduce.351 = f32[2,64]{1,0} reduce(multiply.346, constant.115), dimensions={2}, to_apply=region_1.350
  reshape.352 = f32[2,64,1]{2,1,0} reshape(reduce.351)
  constant.109 = f32[] constant(768)
  broadcast.110 = f32[2,64,1]{2,1,0} broadcast(constant.109), dimensions={}
  divide.353 = f32[2,64,1]{2,1,0} divide(reshape.352, broadcast.110)
  constant.107 = f32[] constant(1e-06)
  broadcast.108 = f32[2,64,1]{2,1,0} broadcast(constant.107), dimensions={}
  add.354 = f32[2,64,1]{2,1,0} add(divide.353, broadcast.108)
  sqrt.355 = f32[2,64,1]{2,1,0} sqrt(add.354)
  broadcast.356 = f32[2,64,1]{2,1,0} broadcast(sqrt.355), dimensions={0,1,2}
  reshape.357 = f32[2,64]{1,0} reshape(broadcast.356)
  broadcast.358 = f32[2,64,768]{2,1,0} broadcast(reshape.357), dimensions={0,1}
  divide.359 = f32[2,64,768]{2,1,0} divide(call.345, broadcast.358)
  multiply.363 = f32[2,64,768]{2,1,0} multiply(broadcast.362, divide.359)
  constant.119 = f32[768,768]{1,0} constant({...})
  dot.366 = f32[2,64,768]{2,1,0} dot(multiply.363, constant.119), lhs_contracting_dims={2}, rhs_contracting_dims={0}
  reshape.369 = f32[2,64,12,64]{3,2,1,0} reshape(dot.366)
  constant.117 = f32[768,768]{1,0} constant({...})
  dot.364 = f32[2,64,768]{2,1,0} dot(multiply.363, constant.117), lhs_contracting_dims={2}, rhs_contracting_dims={0}
  reshape.367 = f32[2,64,12,64]{3,2,1,0} reshape(dot.364)
  constant.104 = f32[] constant(8)
  broadcast.105 = f32[2,64,12,64]{3,2,1,0} broadcast(constant.104), dimensions={}
  multiply.370 = f32[2,64,12,64]{3,2,1,0} multiply(reshape.367, broadcast.105)
  divide.457 = f32[2,64,12,64]{3,2,1,0} divide(multiply.370, broadcast.105)
  constant.118 = f32[768,768]{1,0} constant({...})
  dot.365 = f32[2,64,768]{2,1,0} dot(multiply.363, constant.118), lhs_contracting_dims={2}, rhs_contracting_dims={0}
  reshape.368 = f32[2,64,12,64]{3,2,1,0} reshape(dot.365)
  dot.458 = f32[2,12,64,64]{3,2,1,0} dot(divide.457, reshape.368), lhs_batch_dims={0,2}, lhs_contracting_dims={3}, rhs_batch_dims={0,2}, rhs_contracting_dims={3}
  constant.120 = f32[32,12]{1,0} constant({...})
  iota.376 = s32[64]{0} iota(), iota_dimension=0
  reshape.377 = s32[1,64]{1,0} reshape(iota.376)
  broadcast.378 = s32[1,64]{1,0} broadcast(reshape.377), dimensions={0,1}
  reshape.379 = s32[64]{0} reshape(broadcast.378)
  broadcast.380 = s32[64,64]{1,0} broadcast(reshape.379), dimensions={1}
  iota.374 = s32[64]{0} iota(), iota_dimension=0
  reshape.375 = s32[64,1]{1,0} reshape(iota.374)
  broadcast.381 = s32[64,1]{1,0} broadcast(reshape.375), dimensions={0,1}
  reshape.382 = s32[64]{0} reshape(broadcast.381)
  broadcast.383 = s32[64,64]{1,0} broadcast(reshape.382), dimensions={0}
  subtract.384 = s32[64,64]{1,0} subtract(broadcast.380, broadcast.383)
  constant.96 = s32[] constant(0)
  broadcast.97 = s32[64,64]{1,0} broadcast(constant.96), dimensions={}
  compare.385 = pred[64,64]{1,0} compare(subtract.384, broadcast.97), direction=GT
  convert.386 = s32[64,64]{1,0} convert(compare.385)
  constant.94 = s32[] constant(16)
  broadcast.95 = s32[64,64]{1,0} broadcast(constant.94), dimensions={}
  multiply.387 = s32[64,64]{1,0} multiply(convert.386, broadcast.95)
  convert.410 = f32[64,64]{1,0} convert(multiply.387)
  abs.388 = s32[64,64]{1,0} abs(subtract.384)
  constant.92 = s32[] constant(8)
  broadcast.93 = s32[64,64]{1,0} broadcast(constant.92), dimensions={}
  compare.389 = pred[64,64]{1,0} compare(abs.388, broadcast.93), direction=LT
  convert.390 = f32[64,64]{1,0} convert(abs.388)
  constant.90 = f32[] constant(8)
  broadcast.91 = f32[64,64]{1,0} broadcast(constant.90), dimensions={}
  divide.391 = f32[64,64]{1,0} divide(convert.390, broadcast.91)
  log.392 = f32[64,64]{1,0} log(divide.391)
  constant.88 = f32[] constant(2.77258873)
  broadcast.89 = f32[64,64]{1,0} broadcast(constant.88), dimensions={}
  divide.393 = f32[64,64]{1,0} divide(log.392, broadcast.89)
  multiply.394 = f32[64,64]{1,0} multiply(divide.393, broadcast.91)
  add.395 = f32[64,64]{1,0} add(multiply.394, broadcast.91)
  constant.113 = s32[] constant(15)
  call.402 = f32[64,64]{1,0} call(add.395, constant.113), to_apply=clip.401
  call.409 = f32[64,64]{1,0} call(compare.389, abs.388, call.402), to_apply=_where_0.408
  add.411 = f32[64,64]{1,0} add(convert.410, call.409)
  convert.412 = s32[64,64]{1,0} convert(add.411)
  call.447 = f32[64,64,12]{2,1,0} call(constant.120, convert.412), to_apply=_take_1.446
  transpose.448 = f32[12,64,64]{0,2,1} transpose(call.447), dimensions={2,0,1}
  reshape.449 = f32[1,12,64,64]{3,2,1,0} reshape(transpose.448)
  broadcast.450 = f32[1,12,64,64]{3,2,1,0} broadcast(reshape.449), dimensions={0,1,2,3}
  reshape.451 = f32[12,64,64]{2,1,0} reshape(broadcast.450)
  broadcast.452 = f32[2,12,64,64]{3,2,1,0} broadcast(reshape.451), dimensions={1,2,3}
  Arg_1.2 = s32[2,64]{1,0} parameter(1)
  reshape.371 = s32[2,1,1,64]{3,2,1,0} reshape(Arg_1.2)
  constant.102 = s32[] constant(0)
  broadcast.103 = s32[2,1,1,64]{3,2,1,0} broadcast(constant.102), dimensions={}
  compare.372 = pred[2,1,1,64]{3,2,1,0} compare(reshape.371, broadcast.103), direction=GT
  constant.100 = f32[] constant(0)
  broadcast.101 = f32[2,1,1,64]{3,2,1,0} broadcast(constant.100), dimensions={}
  constant.98 = f32[] constant(-3.40282347e+38)
  broadcast.99 = f32[2,1,1,64]{3,2,1,0} broadcast(constant.98), dimensions={}
  select.373 = f32[2,1,1,64]{3,2,1,0} select(compare.372, broadcast.101, broadcast.99)
  broadcast.453 = f32[2,1,1,64]{3,2,1,0} broadcast(select.373), dimensions={0,1,2,3}
  reshape.454 = f32[2,64]{1,0} reshape(broadcast.453)
  broadcast.455 = f32[2,12,64,64]{3,2,1,0} broadcast(reshape.454), dimensions={0,3}
  add.456 = f32[2,12,64,64]{3,2,1,0} add(broadcast.452, broadcast.455)
  add.459 = f32[2,12,64,64]{3,2,1,0} add(dot.458, add.456)
  reduce.464 = f32[2,12,64]{2,1,0} reduce(add.459, constant.112), dimensions={3}, to_apply=region_3.463
  constant.86 = f32[] constant(-inf)
  broadcast.87 = f32[2,12,64]{2,1,0} broadcast(constant.86), dimensions={}
  maximum.465 = f32[2,12,64]{2,1,0} maximum(reduce.464, broadcast.87)
  reshape.466 = f32[2,12,64,1]{3,2,1,0} reshape(maximum.465)
  broadcast.467 = f32[2,12,64,1]{3,2,1,0} broadcast(reshape.466), dimensions={0,1,2,3}
  reshape.468 = f32[2,12,64]{2,1,0} reshape(broadcast.467)
  broadcast.469 = f32[2,12,64,64]{3,2,1,0} broadcast(reshape.468), dimensions={0,1,2}
  subtract.470 = f32[2,12,64,64]{3,2,1,0} subtract(add.459, broadcast.469)
  exponential.471 = f32[2,12,64,64]{3,2,1,0} exponential(subtract.470)
  reduce.476 = f32[2,12,64]{2,1,0} reduce(exponential.471, constant.115), dimensions={3}, to_apply=region_4.475
  reshape.477 = f32[2,12,64,1]{3,2,1,0} reshape(reduce.476)
  broadcast.478 = f32[2,12,64,1]{3,2,1,0} broadcast(reshape.477), dimensions={0,1,2,3}
  reshape.479 = f32[2,12,64]{2,1,0} reshape(broadcast.478)
  broadcast.480 = f32[2,12,64,64]{3,2,1,0} broadcast(reshape.479), dimensions={0,1,2}
  divide.481 = f32[2,12,64,64]{3,2,1,0} divide(exponential.471, broadcast.480)
  dot.482 = f32[2,12,64,64]{3,2,1,0} dot(reshape.369, divide.481), lhs_batch_dims={0,2}, lhs_contracting_dims={1}, rhs_batch_dims={0,1}, rhs_contracting_dims={3}
  transpose.483 = f32[2,64,12,64]{1,3,2,0} transpose(dot.482), dimensions={0,3,1,2}
  reshape.484 = f32[2,64,768]{2,1,0} reshape(transpose.483)
  constant.121 = f32[768,768]{1,0} constant({...})
  dot.485 = f32[2,64,768]{2,1,0} dot(reshape.484, constant.121), lhs_contracting_dims={2}, rhs_contracting_dims={0}
  add.486 = f32[2,64,768]{2,1,0} add(call.345, dot.485)
  constant.85 = f32[1,1,768]{2,1,0} constant({...})
  broadcast.501 = f32[1,1,768]{2,1,0} broadcast(constant.85), dimensions={0,1,2}
  reshape.502 = f32[768]{0} reshape(broadcast.501)
  broadcast.503 = f32[2,64,768]{2,1,0} broadcast(reshape.502), dimensions={2}
  multiply.487 = f32[2,64,768]{2,1,0} multiply(add.486, add.486)
  reduce.492 = f32[2,64]{1,0} reduce(multiply.487, constant.115), dimensions={2}, to_apply=region_5.491
  reshape.493 = f32[2,64,1]{2,1,0} reshape(reduce.492)
  divide.494 = f32[2,64,1]{2,1,0} divide(reshape.493, broadcast.110)
  add.495 = f32[2,64,1]{2,1,0} add(divide.494, broadcast.108)
  sqrt.496 = f32[2,64,1]{2,1,0} sqrt(add.495)
  broadcast.497 = f32[2,64,1]{2,1,0} broadcast(sqrt.496), dimensions={0,1,2}
  reshape.498 = f32[2,64]{1,0} reshape(broadcast.497)
  broadcast.499 = f32[2,64,768]{2,1,0} broadcast(reshape.498), dimensions={0,1}
  divide.500 = f32[2,64,768]{2,1,0} divide(add.486, broadcast.499)
  multiply.504 = f32[2,64,768]{2,1,0} multiply(broadcast.503, divide.500)
  constant.122 = f32[768,3072]{1,0} constant({...})
  dot.505 = f32[2,64,3072]{2,1,0} dot(multiply.504, constant.122), lhs_contracting_dims={2}, rhs_contracting_dims={0}
  call.511 = f32[2,64,3072]{2,1,0} call(dot.505), to_apply=relu.510
  constant.123 = f32[3072,768]{1,0} constant({...})
  dot.512 = f32[2,64,768]{2,1,0} dot(call.511, constant.123), lhs_contracting_dims={2}, rhs_contracting_dims={0}
  add.513 = f32[2,64,768]{2,1,0} add(add.486, dot.512)
  constant.84 = f32[1,1,768]{2,1,0} constant({...})
  broadcast.528 = f32[1,1,768]{2,1,0} broadcast(constant.84), dimensions={0,1,2}
  reshape.529 = f32[768]{0} reshape(broadcast.528)
  broadcast.530 = f32[2,64,768]{2,1,0} broadcast(reshape.529), dimensions={2}
  multiply.514 = f32[2,64,768]{2,1,0} multiply(add.513, add.513)
  reduce.519 = f32[2,64]{1,0} reduce(multiply.514, constant.115), dimensions={2}, to_apply=region_6.518
  reshape.520 = f32[2,64,1]{2,1,0} reshape(reduce.519)
  divide.521 = f32[2,64,1]{2,1,0} divide(reshape.520, broadcast.110)
  add.522 = f32[2,64,1]{2,1,0} add(divide.521, broadcast.108)
  sqrt.523 = f32[2,64,1]{2,1,0} sqrt(add.522)
  broadcast.524 = f32[2,64,1]{2,1,0} broadcast(sqrt.523), dimensions={0,1,2}
  reshape.525 = f32[2,64]{1,0} reshape(broadcast.524)
  broadcast.526 = f32[2,64,768]{2,1,0} broadcast(reshape.525), dimensions={0,1}
  divide.527 = f32[2,64,768]{2,1,0} divide(add.513, broadcast.526)
  multiply.531 = f32[2,64,768]{2,1,0} multiply(broadcast.530, divide.527)
  constant.126 = f32[768,768]{1,0} constant({...})
  dot.534 = f32[2,64,768]{2,1,0} dot(multiply.531, constant.126), lhs_contracting_dims={2}, rhs_contracting_dims={0}
  reshape.537 = f32[2,64,12,64]{3,2,1,0} reshape(dot.534)
  constant.124 = f32[768,768]{1,0} constant({...})
  dot.532 = f32[2,64,768]{2,1,0} dot(multiply.531, constant.124), lhs_contracting_dims={2}, rhs_contracting_dims={0}
  reshape.535 = f32[2,64,12,64]{3,2,1,0} reshape(dot.532)
  multiply.538 = f32[2,64,12,64]{3,2,1,0} multiply(reshape.535, broadcast.105)
  divide.539 = f32[2,64,12,64]{3,2,1,0} divide(multiply.538, broadcast.105)
  constant.125 = f32[768,768]{1,0} constant({...})
  dot.533 = f32[2,64,768]{2,1,0} dot(multiply.531, constant.125), lhs_contracting_dims={2}, rhs_contracting_dims={0}
  reshape.536 = f32[2,64,12,64]{3,2,1,0} reshape(dot.533)
  dot.540 = f32[2,12,64,64]{3,2,1,0} dot(divide.539, reshape.536), lhs_batch_dims={0,2}, lhs_contracting_dims={3}, rhs_batch_dims={0,2}, rhs_contracting_dims={3}
  add.541 = f32[2,12,64,64]{3,2,1,0} add(dot.540, add.456)
  reduce.546 = f32[2,12,64]{2,1,0} reduce(add.541, constant.112), dimensions={3}, to_apply=region_7.545
  maximum.547 = f32[2,12,64]{2,1,0} maximum(reduce.546, broadcast.87)
  reshape.548 = f32[2,12,64,1]{3,2,1,0} reshape(maximum.547)
  broadcast.549 = f32[2,12,64,1]{3,2,1,0} broadcast(reshape.548), dimensions={0,1,2,3}
  reshape.550 = f32[2,12,64]{2,1,0} reshape(broadcast.549)
  broadcast.551 = f32[2,12,64,64]{3,2,1,0} broadcast(reshape.550), dimensions={0,1,2}
  subtract.552 = f32[2,12,64,64]{3,2,1,0} subtract(add.541, broadcast.551)
  exponential.553 = f32[2,12,64,64]{3,2,1,0} exponential(subtract.552)
  reduce.558 = f32[2,12,64]{2,1,0} reduce(exponential.553, constant.115), dimensions={3}, to_apply=region_8.557
  reshape.559 = f32[2,12,64,1]{3,2,1,0} reshape(reduce.558)
  broadcast.560 = f32[2,12,64,1]{3,2,1,0} broadcast(reshape.559), dimensions={0,1,2,3}
  reshape.561 = f32[2,12,64]{2,1,0} reshape(broadcast.560)
  broadcast.562 = f32[2,12,64,64]{3,2,1,0} broadcast(reshape.561), dimensions={0,1,2}
  divide.563 = f32[2,12,64,64]{3,2,1,0} divide(exponential.553, broadcast.562)
  dot.564 = f32[2,12,64,64]{3,2,1,0} dot(reshape.537, divide.563), lhs_batch_dims={0,2}, lhs_contracting_dims={1}, rhs_batch_dims={0,1}, rhs_contracting_dims={3}
  transpose.565 = f32[2,64,12,64]{1,3,2,0} transpose(dot.564), dimensions={0,3,1,2}
  reshape.566 = f32[2,64,768]{2,1,0} reshape(transpose.565)
  constant.127 = f32[768,768]{1,0} constant({...})
  dot.567 = f32[2,64,768]{2,1,0} dot(reshape.566, constant.127), lhs_contracting_dims={2}, rhs_contracting_dims={0}
  add.568 = f32[2,64,768]{2,1,0} add(add.513, dot.567)
  constant.83 = f32[1,1,768]{2,1,0} constant({...})
  broadcast.583 = f32[1,1,768]{2,1,0} broadcast(constant.83), dimensions={0,1,2}
  reshape.584 = f32[768]{0} reshape(broadcast.583)
  broadcast.585 = f32[2,64,768]{2,1,0} broadcast(reshape.584), dimensions={2}
  multiply.569 = f32[2,64,768]{2,1,0} multiply(add.568, add.568)
  reduce.574 = f32[2,64]{1,0} reduce(multiply.569, constant.115), dimensions={2}, to_apply=region_9.573
  reshape.575 = f32[2,64,1]{2,1,0} reshape(reduce.574)
  divide.576 = f32[2,64,1]{2,1,0} divide(reshape.575, broadcast.110)
  add.577 = f32[2,64,1]{2,1,0} add(divide.576, broadcast.108)
  sqrt.578 = f32[2,64,1]{2,1,0} sqrt(add.577)
  broadcast.579 = f32[2,64,1]{2,1,0} broadcast(sqrt.578), dimensions={0,1,2}
  reshape.580 = f32[2,64]{1,0} reshape(broadcast.579)
  broadcast.581 = f32[2,64,768]{2,1,0} broadcast(reshape.580), dimensions={0,1}
  divide.582 = f32[2,64,768]{2,1,0} divide(add.568, broadcast.581)
  multiply.586 = f32[2,64,768]{2,1,0} multiply(broadcast.585, divide.582)
  constant.128 = f32[768,3072]{1,0} constant({...})
  dot.587 = f32[2,64,3072]{2,1,0} dot(multiply.586, constant.128), lhs_contracting_dims={2}, rhs_contracting_dims={0}
  call.588 = f32[2,64,3072]{2,1,0} call(dot.587), to_apply=relu.510
  constant.129 = f32[3072,768]{1,0} constant({...})
  dot.589 = f32[2,64,768]{2,1,0} dot(call.588, constant.129), lhs_contracting_dims={2}, rhs_contracting_dims={0}
  add.590 = f32[2,64,768]{2,1,0} add(add.568, dot.589)
  constant.82 = f32[1,1,768]{2,1,0} constant({...})
  broadcast.605 = f32[1,1,768]{2,1,0} broadcast(constant.82), dimensions={0,1,2}
  reshape.606 = f32[768]{0} reshape(broadcast.605)
  broadcast.607 = f32[2,64,768]{2,1,0} broadcast(reshape.606), dimensions={2}
  multiply.591 = f32[2,64,768]{2,1,0} multiply(add.590, add.590)
  reduce.596 = f32[2,64]{1,0} reduce(multiply.591, constant.115), dimensions={2}, to_apply=region_10.595
  reshape.597 = f32[2,64,1]{2,1,0} reshape(reduce.596)
  divide.598 = f32[2,64,1]{2,1,0} divide(reshape.597, broadcast.110)
  add.599 = f32[2,64,1]{2,1,0} add(divide.598, broadcast.108)
  sqrt.600 = f32[2,64,1]{2,1,0} sqrt(add.599)
  broadcast.601 = f32[2,64,1]{2,1,0} broadcast(sqrt.600), dimensions={0,1,2}
  reshape.602 = f32[2,64]{1,0} reshape(broadcast.601)
  broadcast.603 = f32[2,64,768]{2,1,0} broadcast(reshape.602), dimensions={0,1}
  divide.604 = f32[2,64,768]{2,1,0} divide(add.590, broadcast.603)
  multiply.608 = f32[2,64,768]{2,1,0} multiply(broadcast.607, divide.604)
  constant.132 = f32[768,768]{1,0} constant({...})
  dot.611 = f32[2,64,768]{2,1,0} dot(multiply.608, constant.132), lhs_contracting_dims={2}, rhs_contracting_dims={0}
  reshape.614 = f32[2,64,12,64]{3,2,1,0} reshape(dot.611)
  constant.130 = f32[768,768]{1,0} constant({...})
  dot.609 = f32[2,64,768]{2,1,0} dot(multiply.608, constant.130), lhs_contracting_dims={2}, rhs_contracting_dims={0}
  reshape.612 = f32[2,64,12,64]{3,2,1,0} reshape(dot.609)
  multiply.615 = f32[2,64,12,64]{3,2,1,0} multiply(reshape.612, broadcast.105)
  divide.616 = f32[2,64,12,64]{3,2,1,0} divide(multiply.615, broadcast.105)
  constant.131 = f32[768,768]{1,0} constant({...})
  dot.610 = f32[2,64,768]{2,1,0} dot(multiply.608, constant.131), lhs_contracting_dims={2}, rhs_contracting_dims={0}
  reshape.613 = f32[2,64,12,64]{3,2,1,0} reshape(dot.610)
  dot.617 = f32[2,12,64,64]{3,2,1,0} dot(divide.616, reshape.613), lhs_batch_dims={0,2}, lhs_contracting_dims={3}, rhs_batch_dims={0,2}, rhs_contracting_dims={3}
  add.618 = f32[2,12,64,64]{3,2,1,0} add(dot.617, add.456)
  reduce.623 = f32[2,12,64]{2,1,0} reduce(add.618, constant.112), dimensions={3}, to_apply=region_11.622
  maximum.624 = f32[2,12,64]{2,1,0} maximum(reduce.623, broadcast.87)
  reshape.625 = f32[2,12,64,1]{3,2,1,0} reshape(maximum.624)
  broadcast.626 = f32[2,12,64,1]{3,2,1,0} broadcast(reshape.625), dimensions={0,1,2,3}
  reshape.627 = f32[2,12,64]{2,1,0} reshape(broadcast.626)
  broadcast.628 = f32[2,12,64,64]{3,2,1,0} broadcast(reshape.627), dimensions={0,1,2}
  subtract.629 = f32[2,12,64,64]{3,2,1,0} subtract(add.618, broadcast.628)
  exponential.630 = f32[2,12,64,64]{3,2,1,0} exponential(subtract.629)
  reduce.635 = f32[2,12,64]{2,1,0} reduce(exponential.630, constant.115), dimensions={3}, to_apply=region_12.634
  reshape.636 = f32[2,12,64,1]{3,2,1,0} reshape(reduce.635)
  broadcast.637 = f32[2,12,64,1]{3,2,1,0} broadcast(reshape.636), dimensions={0,1,2,3}
  reshape.638 = f32[2,12,64]{2,1,0} reshape(broadcast.637)
  broadcast.639 = f32[2,12,64,64]{3,2,1,0} broadcast(reshape.638), dimensions={0,1,2}
  divide.640 = f32[2,12,64,64]{3,2,1,0} divide(exponential.630, broadcast.639)
  dot.641 = f32[2,12,64,64]{3,2,1,0} dot(reshape.614, divide.640), lhs_batch_dims={0,2}, lhs_contracting_dims={1}, rhs_batch_dims={0,1}, rhs_contracting_dims={3}
  transpose.642 = f32[2,64,12,64]{1,3,2,0} transpose(dot.641), dimensions={0,3,1,2}
  reshape.643 = f32[2,64,768]{2,1,0} reshape(transpose.642)
  constant.133 = f32[768,768]{1,0} constant({...})
  dot.644 = f32[2,64,768]{2,1,0} dot(reshape.643, constant.133), lhs_contracting_dims={2}, rhs_contracting_dims={0}
  add.645 = f32[2,64,768]{2,1,0} add(add.590, dot.644)
  constant.81 = f32[1,1,768]{2,1,0} constant({...})
  broadcast.660 = f32[1,1,768]{2,1,0} broadcast(constant.81), dimensions={0,1,2}
  reshape.661 = f32[768]{0} reshape(broadcast.660)
  broadcast.662 = f32[2,64,768]{2,1,0} broadcast(reshape.661), dimensions={2}
  multiply.646 = f32[2,64,768]{2,1,0} multiply(add.645, add.645)
  reduce.651 = f32[2,64]{1,0} reduce(multiply.646, constant.115), dimensions={2}, to_apply=region_13.650
  reshape.652 = f32[2,64,1]{2,1,0} reshape(reduce.651)
  divide.653 = f32[2,64,1]{2,1,0} divide(reshape.652, broadcast.110)
  add.654 = f32[2,64,1]{2,1,0} add(divide.653, broadcast.108)
  sqrt.655 = f32[2,64,1]{2,1,0} sqrt(add.654)
  broadcast.656 = f32[2,64,1]{2,1,0} broadcast(sqrt.655), dimensions={0,1,2}
  reshape.657 = f32[2,64]{1,0} reshape(broadcast.656)
  broadcast.658 = f32[2,64,768]{2,1,0} broadcast(reshape.657), dimensions={0,1}
  divide.659 = f32[2,64,768]{2,1,0} divide(add.645, broadcast.658)
  multiply.663 = f32[2,64,768]{2,1,0} multiply(broadcast.662, divide.659)
  constant.134 = f32[768,3072]{1,0} constant({...})
  dot.664 = f32[2,64,3072]{2,1,0} dot(multiply.663, constant.134), lhs_contracting_dims={2}, rhs_contracting_dims={0}
  call.665 = f32[2,64,3072]{2,1,0} call(dot.664), to_apply=relu.510
  constant.135 = f32[3072,768]{1,0} constant({...})
  dot.666 = f32[2,64,768]{2,1,0} dot(call.665, constant.135), lhs_contracting_dims={2}, rhs_contracting_dims={0}
  add.667 = f32[2,64,768]{2,1,0} add(add.645, dot.666)
  constant.80 = f32[1,1,768]{2,1,0} constant({...})
  broadcast.682 = f32[1,1,768]{2,1,0} broadcast(constant.80), dimensions={0,1,2}
  reshape.683 = f32[768]{0} reshape(broadcast.682)
  broadcast.684 = f32[2,64,768]{2,1,0} broadcast(reshape.683), dimensions={2}
  multiply.668 = f32[2,64,768]{2,1,0} multiply(add.667, add.667)
  reduce.673 = f32[2,64]{1,0} reduce(multiply.668, constant.115), dimensions={2}, to_apply=region_14.672
  reshape.674 = f32[2,64,1]{2,1,0} reshape(reduce.673)
  divide.675 = f32[2,64,1]{2,1,0} divide(reshape.674, broadcast.110)
  add.676 = f32[2,64,1]{2,1,0} add(divide.675, broadcast.108)
  sqrt.677 = f32[2,64,1]{2,1,0} sqrt(add.676)
  broadcast.678 = f32[2,64,1]{2,1,0} broadcast(sqrt.677), dimensions={0,1,2}
  reshape.679 = f32[2,64]{1,0} reshape(broadcast.678)
  broadcast.680 = f32[2,64,768]{2,1,0} broadcast(reshape.679), dimensions={0,1}
  divide.681 = f32[2,64,768]{2,1,0} divide(add.667, broadcast.680)
  multiply.685 = f32[2,64,768]{2,1,0} multiply(broadcast.684, divide.681)
  constant.138 = f32[768,768]{1,0} constant({...})
  dot.688 = f32[2,64,768]{2,1,0} dot(multiply.685, constant.138), lhs_contracting_dims={2}, rhs_contracting_dims={0}
  reshape.691 = f32[2,64,12,64]{3,2,1,0} reshape(dot.688)
  constant.136 = f32[768,768]{1,0} constant({...})
  dot.686 = f32[2,64,768]{2,1,0} dot(multiply.685, constant.136), lhs_contracting_dims={2}, rhs_contracting_dims={0}
  reshape.689 = f32[2,64,12,64]{3,2,1,0} reshape(dot.686)
  multiply.692 = f32[2,64,12,64]{3,2,1,0} multiply(reshape.689, broadcast.105)
  divide.693 = f32[2,64,12,64]{3,2,1,0} divide(multiply.692, broadcast.105)
  constant.137 = f32[768,768]{1,0} constant({...})
  dot.687 = f32[2,64,768]{2,1,0} dot(multiply.685, constant.137), lhs_contracting_dims={2}, rhs_contracting_dims={0}
  reshape.690 = f32[2,64,12,64]{3,2,1,0} reshape(dot.687)
  dot.694 = f32[2,12,64,64]{3,2,1,0} dot(divide.693, reshape.690), lhs_batch_dims={0,2}, lhs_contracting_dims={3}, rhs_batch_dims={0,2}, rhs_contracting_dims={3}
  add.695 = f32[2,12,64,64]{3,2,1,0} add(dot.694, add.456)
  reduce.700 = f32[2,12,64]{2,1,0} reduce(add.695, constant.112), dimensions={3}, to_apply=region_15.699
  maximum.701 = f32[2,12,64]{2,1,0} maximum(reduce.700, broadcast.87)
  reshape.702 = f32[2,12,64,1]{3,2,1,0} reshape(maximum.701)
  broadcast.703 = f32[2,12,64,1]{3,2,1,0} broadcast(reshape.702), dimensions={0,1,2,3}
  reshape.704 = f32[2,12,64]{2,1,0} reshape(broadcast.703)
  broadcast.705 = f32[2,12,64,64]{3,2,1,0} broadcast(reshape.704), dimensions={0,1,2}
  subtract.706 = f32[2,12,64,64]{3,2,1,0} subtract(add.695, broadcast.705)
  exponential.707 = f32[2,12,64,64]{3,2,1,0} exponential(subtract.706)
  reduce.712 = f32[2,12,64]{2,1,0} reduce(exponential.707, constant.115), dimensions={3}, to_apply=region_16.711
  reshape.713 = f32[2,12,64,1]{3,2,1,0} reshape(reduce.712)
  broadcast.714 = f32[2,12,64,1]{3,2,1,0} broadcast(reshape.713), dimensions={0,1,2,3}
  reshape.715 = f32[2,12,64]{2,1,0} reshape(broadcast.714)
  broadcast.716 = f32[2,12,64,64]{3,2,1,0} broadcast(reshape.715), dimensions={0,1,2}
  divide.717 = f32[2,12,64,64]{3,2,1,0} divide(exponential.707, broadcast.716)
  dot.718 = f32[2,12,64,64]{3,2,1,0} dot(reshape.691, divide.717), lhs_batch_dims={0,2}, lhs_contracting_dims={1}, rhs_batch_dims={0,1}, rhs_contracting_dims={3}
  transpose.719 = f32[2,64,12,64]{1,3,2,0} transpose(dot.718), dimensions={0,3,1,2}
  reshape.720 = f32[2,64,768]{2,1,0} reshape(transpose.719)
  constant.139 = f32[768,768]{1,0} constant({...})
  dot.721 = f32[2,64,768]{2,1,0} dot(reshape.720, constant.139), lhs_contracting_dims={2}, rhs_contracting_dims={0}
  add.722 = f32[2,64,768]{2,1,0} add(add.667, dot.721)
  constant.79 = f32[1,1,768]{2,1,0} constant({...})
  broadcast.737 = f32[1,1,768]{2,1,0} broadcast(constant.79), dimensions={0,1,2}
  reshape.738 = f32[768]{0} reshape(broadcast.737)
  broadcast.739 = f32[2,64,768]{2,1,0} broadcast(reshape.738), dimensions={2}
  multiply.723 = f32[2,64,768]{2,1,0} multiply(add.722, add.722)
  reduce.728 = f32[2,64]{1,0} reduce(multiply.723, constant.115), dimensions={2}, to_apply=region_17.727
  reshape.729 = f32[2,64,1]{2,1,0} reshape(reduce.728)
  divide.730 = f32[2,64,1]{2,1,0} divide(reshape.729, broadcast.110)
  add.731 = f32[2,64,1]{2,1,0} add(divide.730, broadcast.108)
  sqrt.732 = f32[2,64,1]{2,1,0} sqrt(add.731)
  broadcast.733 = f32[2,64,1]{2,1,0} broadcast(sqrt.732), dimensions={0,1,2}
  reshape.734 = f32[2,64]{1,0} reshape(broadcast.733)
  broadcast.735 = f32[2,64,768]{2,1,0} broadcast(reshape.734), dimensions={0,1}
  divide.736 = f32[2,64,768]{2,1,0} divide(add.722, broadcast.735)
  multiply.740 = f32[2,64,768]{2,1,0} multiply(broadcast.739, divide.736)
  constant.140 = f32[768,3072]{1,0} constant({...})
  dot.741 = f32[2,64,3072]{2,1,0} dot(multiply.740, constant.140), lhs_contracting_dims={2}, rhs_contracting_dims={0}
  call.742 = f32[2,64,3072]{2,1,0} call(dot.741), to_apply=relu.510
  constant.141 = f32[3072,768]{1,0} constant({...})
  dot.743 = f32[2,64,768]{2,1,0} dot(call.742, constant.141), lhs_contracting_dims={2}, rhs_contracting_dims={0}
  add.744 = f32[2,64,768]{2,1,0} add(add.722, dot.743)
  constant.78 = f32[1,1,768]{2,1,0} constant({...})
  broadcast.759 = f32[1,1,768]{2,1,0} broadcast(constant.78), dimensions={0,1,2}
  reshape.760 = f32[768]{0} reshape(broadcast.759)
  broadcast.761 = f32[2,64,768]{2,1,0} broadcast(reshape.760), dimensions={2}
  multiply.745 = f32[2,64,768]{2,1,0} multiply(add.744, add.744)
  reduce.750 = f32[2,64]{1,0} reduce(multiply.745, constant.115), dimensions={2}, to_apply=region_18.749
  reshape.751 = f32[2,64,1]{2,1,0} reshape(reduce.750)
  divide.752 = f32[2,64,1]{2,1,0} divide(reshape.751, broadcast.110)
  add.753 = f32[2,64,1]{2,1,0} add(divide.752, broadcast.108)
  sqrt.754 = f32[2,64,1]{2,1,0} sqrt(add.753)
  broadcast.755 = f32[2,64,1]{2,1,0} broadcast(sqrt.754), dimensions={0,1,2}
  reshape.756 = f32[2,64]{1,0} reshape(broadcast.755)
  broadcast.757 = f32[2,64,768]{2,1,0} broadcast(reshape.756), dimensions={0,1}
  divide.758 = f32[2,64,768]{2,1,0} divide(add.744, broadcast.757)
  multiply.762 = f32[2,64,768]{2,1,0} multiply(broadcast.761, divide.758)
  constant.144 = f32[768,768]{1,0} constant({...})
  dot.765 = f32[2,64,768]{2,1,0} dot(multiply.762, constant.144), lhs_contracting_dims={2}, rhs_contracting_dims={0}
  reshape.768 = f32[2,64,12,64]{3,2,1,0} reshape(dot.765)
  constant.142 = f32[768,768]{1,0} constant({...})
  dot.763 = f32[2,64,768]{2,1,0} dot(multiply.762, constant.142), lhs_contracting_dims={2}, rhs_contracting_dims={0}
  reshape.766 = f32[2,64,12,64]{3,2,1,0} reshape(dot.763)
  multiply.769 = f32[2,64,12,64]{3,2,1,0} multiply(reshape.766, broadcast.105)
  divide.770 = f32[2,64,12,64]{3,2,1,0} divide(multiply.769, broadcast.105)
  constant.143 = f32[768,768]{1,0} constant({...})
  dot.764 = f32[2,64,768]{2,1,0} dot(multiply.762, constant.143), lhs_contracting_dims={2}, rhs_contracting_dims={0}
  reshape.767 = f32[2,64,12,64]{3,2,1,0} reshape(dot.764)
  dot.771 = f32[2,12,64,64]{3,2,1,0} dot(divide.770, reshape.767), lhs_batch_dims={0,2}, lhs_contracting_dims={3}, rhs_batch_dims={0,2}, rhs_contracting_dims={3}
  add.772 = f32[2,12,64,64]{3,2,1,0} add(dot.771, add.456)
  reduce.777 = f32[2,12,64]{2,1,0} reduce(add.772, constant.112), dimensions={3}, to_apply=region_19.776
  maximum.778 = f32[2,12,64]{2,1,0} maximum(reduce.777, broadcast.87)
  reshape.779 = f32[2,12,64,1]{3,2,1,0} reshape(maximum.778)
  broadcast.780 = f32[2,12,64,1]{3,2,1,0} broadcast(reshape.779), dimensions={0,1,2,3}
  reshape.781 = f32[2,12,64]{2,1,0} reshape(broadcast.780)
  broadcast.782 = f32[2,12,64,64]{3,2,1,0} broadcast(reshape.781), dimensions={0,1,2}
  subtract.783 = f32[2,12,64,64]{3,2,1,0} subtract(add.772, broadcast.782)
  exponential.784 = f32[2,12,64,64]{3,2,1,0} exponential(subtract.783)
  reduce.789 = f32[2,12,64]{2,1,0} reduce(exponential.784, constant.115), dimensions={3}, to_apply=region_20.788
  reshape.790 = f32[2,12,64,1]{3,2,1,0} reshape(reduce.789)
  broadcast.791 = f32[2,12,64,1]{3,2,1,0} broadcast(reshape.790), dimensions={0,1,2,3}
  reshape.792 = f32[2,12,64]{2,1,0} reshape(broadcast.791)
  broadcast.793 = f32[2,12,64,64]{3,2,1,0} broadcast(reshape.792), dimensions={0,1,2}
  divide.794 = f32[2,12,64,64]{3,2,1,0} divide(exponential.784, broadcast.793)
  dot.795 = f32[2,12,64,64]{3,2,1,0} dot(reshape.768, divide.794), lhs_batch_dims={0,2}, lhs_contracting_dims={1}, rhs_batch_dims={0,1}, rhs_contracting_dims={3}
  transpose.796 = f32[2,64,12,64]{1,3,2,0} transpose(dot.795), dimensions={0,3,1,2}
  reshape.797 = f32[2,64,768]{2,1,0} reshape(transpose.796)
  constant.145 = f32[768,768]{1,0} constant({...})
  dot.798 = f32[2,64,768]{2,1,0} dot(reshape.797, constant.145), lhs_contracting_dims={2}, rhs_contracting_dims={0}
  add.799 = f32[2,64,768]{2,1,0} add(add.744, dot.798)
  constant.77 = f32[1,1,768]{2,1,0} constant({...})
  broadcast.814 = f32[1,1,768]{2,1,0} broadcast(constant.77), dimensions={0,1,2}
  reshape.815 = f32[768]{0} reshape(broadcast.814)
  broadcast.816 = f32[2,64,768]{2,1,0} broadcast(reshape.815), dimensions={2}
  multiply.800 = f32[2,64,768]{2,1,0} multiply(add.799, add.799)
  reduce.805 = f32[2,64]{1,0} reduce(multiply.800, constant.115), dimensions={2}, to_apply=region_21.804
  reshape.806 = f32[2,64,1]{2,1,0} reshape(reduce.805)
  divide.807 = f32[2,64,1]{2,1,0} divide(reshape.806, broadcast.110)
  add.808 = f32[2,64,1]{2,1,0} add(divide.807, broadcast.108)
  sqrt.809 = f32[2,64,1]{2,1,0} sqrt(add.808)
  broadcast.810 = f32[2,64,1]{2,1,0} broadcast(sqrt.809), dimensions={0,1,2}
  reshape.811 = f32[2,64]{1,0} reshape(broadcast.810)
  broadcast.812 = f32[2,64,768]{2,1,0} broadcast(reshape.811), dimensions={0,1}
  divide.813 = f32[2,64,768]{2,1,0} divide(add.799, broadcast.812)
  multiply.817 = f32[2,64,768]{2,1,0} multiply(broadcast.816, divide.813)
  constant.146 = f32[768,3072]{1,0} constant({...})
  dot.818 = f32[2,64,3072]{2,1,0} dot(multiply.817, constant.146), lhs_contracting_dims={2}, rhs_contracting_dims={0}
  call.819 = f32[2,64,3072]{2,1,0} call(dot.818), to_apply=relu.510
  constant.147 = f32[3072,768]{1,0} constant({...})
  dot.820 = f32[2,64,768]{2,1,0} dot(call.819, constant.147), lhs_contracting_dims={2}, rhs_contracting_dims={0}
  add.821 = f32[2,64,768]{2,1,0} add(add.799, dot.820)
  constant.76 = f32[1,1,768]{2,1,0} constant({...})
  broadcast.836 = f32[1,1,768]{2,1,0} broadcast(constant.76), dimensions={0,1,2}
  reshape.837 = f32[768]{0} reshape(broadcast.836)
  broadcast.838 = f32[2,64,768]{2,1,0} broadcast(reshape.837), dimensions={2}
  multiply.822 = f32[2,64,768]{2,1,0} multiply(add.821, add.821)
  reduce.827 = f32[2,64]{1,0} reduce(multiply.822, constant.115), dimensions={2}, to_apply=region_22.826
  reshape.828 = f32[2,64,1]{2,1,0} reshape(reduce.827)
  divide.829 = f32[2,64,1]{2,1,0} divide(reshape.828, broadcast.110)
  add.830 = f32[2,64,1]{2,1,0} add(divide.829, broadcast.108)
  sqrt.831 = f32[2,64,1]{2,1,0} sqrt(add.830)
  broadcast.832 = f32[2,64,1]{2,1,0} broadcast(sqrt.831), dimensions={0,1,2}
  reshape.833 = f32[2,64]{1,0} reshape(broadcast.832)
  broadcast.834 = f32[2,64,768]{2,1,0} broadcast(reshape.833), dimensions={0,1}
  divide.835 = f32[2,64,768]{2,1,0} divide(add.821, broadcast.834)
  multiply.839 = f32[2,64,768]{2,1,0} multiply(broadcast.838, divide.835)
  constant.150 = f32[768,768]{1,0} constant({...})
  dot.842 = f32[2,64,768]{2,1,0} dot(multiply.839, constant.150), lhs_contracting_dims={2}, rhs_contracting_dims={0}
  reshape.845 = f32[2,64,12,64]{3,2,1,0} reshape(dot.842)
  constant.148 = f32[768,768]{1,0} constant({...})
  dot.840 = f32[2,64,768]{2,1,0} dot(multiply.839, constant.148), lhs_contracting_dims={2}, rhs_contracting_dims={0}
  reshape.843 = f32[2,64,12,64]{3,2,1,0} reshape(dot.840)
  multiply.846 = f32[2,64,12,64]{3,2,1,0} multiply(reshape.843, broadcast.105)
  divide.847 = f32[2,64,12,64]{3,2,1,0} divide(multiply.846, broadcast.105)
  constant.149 = f32[768,768]{1,0} constant({...})
  dot.841 = f32[2,64,768]{2,1,0} dot(multiply.839, constant.149), lhs_contracting_dims={2}, rhs_contracting_dims={0}
  reshape.844 = f32[2,64,12,64]{3,2,1,0} reshape(dot.841)
  dot.848 = f32[2,12,64,64]{3,2,1,0} dot(divide.847, reshape.844), lhs_batch_dims={0,2}, lhs_contracting_dims={3}, rhs_batch_dims={0,2}, rhs_contracting_dims={3}
  add.849 = f32[2,12,64,64]{3,2,1,0} add(dot.848, add.456)
  reduce.854 = f32[2,12,64]{2,1,0} reduce(add.849, constant.112), dimensions={3}, to_apply=region_23.853
  maximum.855 = f32[2,12,64]{2,1,0} maximum(reduce.854, broadcast.87)
  reshape.856 = f32[2,12,64,1]{3,2,1,0} reshape(maximum.855)
  broadcast.857 = f32[2,12,64,1]{3,2,1,0} broadcast(reshape.856), dimensions={0,1,2,3}
  reshape.858 = f32[2,12,64]{2,1,0} reshape(broadcast.857)
  broadcast.859 = f32[2,12,64,64]{3,2,1,0} broadcast(reshape.858), dimensions={0,1,2}
  subtract.860 = f32[2,12,64,64]{3,2,1,0} subtract(add.849, broadcast.859)
  exponential.861 = f32[2,12,64,64]{3,2,1,0} exponential(subtract.860)
  reduce.866 = f32[2,12,64]{2,1,0} reduce(exponential.861, constant.115), dimensions={3}, to_apply=region_24.865
  reshape.867 = f32[2,12,64,1]{3,2,1,0} reshape(reduce.866)
  broadcast.868 = f32[2,12,64,1]{3,2,1,0} broadcast(reshape.867), dimensions={0,1,2,3}
  reshape.869 = f32[2,12,64]{2,1,0} reshape(broadcast.868)
  broadcast.870 = f32[2,12,64,64]{3,2,1,0} broadcast(reshape.869), dimensions={0,1,2}
  divide.871 = f32[2,12,64,64]{3,2,1,0} divide(exponential.861, broadcast.870)
  dot.872 = f32[2,12,64,64]{3,2,1,0} dot(reshape.845, divide.871), lhs_batch_dims={0,2}, lhs_contracting_dims={1}, rhs_batch_dims={0,1}, rhs_contracting_dims={3}
  transpose.873 = f32[2,64,12,64]{1,3,2,0} transpose(dot.872), dimensions={0,3,1,2}
  reshape.874 = f32[2,64,768]{2,1,0} reshape(transpose.873)
  constant.151 = f32[768,768]{1,0} constant({...})
  dot.875 = f32[2,64,768]{2,1,0} dot(reshape.874, constant.151), lhs_contracting_dims={2}, rhs_contracting_dims={0}
  add.876 = f32[2,64,768]{2,1,0} add(add.821, dot.875)
  constant.75 = f32[1,1,768]{2,1,0} constant({...})
  broadcast.891 = f32[1,1,768]{2,1,0} broadcast(constant.75), dimensions={0,1,2}
  reshape.892 = f32[768]{0} reshape(broadcast.891)
  broadcast.893 = f32[2,64,768]{2,1,0} broadcast(reshape.892), dimensions={2}
  multiply.877 = f32[2,64,768]{2,1,0} multiply(add.876, add.876)
  reduce.882 = f32[2,64]{1,0} reduce(multiply.877, constant.115), dimensions={2}, to_apply=region_25.881
  reshape.883 = f32[2,64,1]{2,1,0} reshape(reduce.882)
  divide.884 = f32[2,64,1]{2,1,0} divide(reshape.883, broadcast.110)
  add.885 = f32[2,64,1]{2,1,0} add(divide.884, broadcast.108)
  sqrt.886 = f32[2,64,1]{2,1,0} sqrt(add.885)
  broadcast.887 = f32[2,64,1]{2,1,0} broadcast(sqrt.886), dimensions={0,1,2}
  reshape.888 = f32[2,64]{1,0} reshape(broadcast.887)
  broadcast.889 = f32[2,64,768]{2,1,0} broadcast(reshape.888), dimensions={0,1}
  divide.890 = f32[2,64,768]{2,1,0} divide(add.876, broadcast.889)
  multiply.894 = f32[2,64,768]{2,1,0} multiply(broadcast.893, divide.890)
  constant.152 = f32[768,3072]{1,0} constant({...})
  dot.895 = f32[2,64,3072]{2,1,0} dot(multiply.894, constant.152), lhs_contracting_dims={2}, rhs_contracting_dims={0}
  call.896 = f32[2,64,3072]{2,1,0} call(dot.895), to_apply=relu.510
  constant.153 = f32[3072,768]{1,0} constant({...})
  dot.897 = f32[2,64,768]{2,1,0} dot(call.896, constant.153), lhs_contracting_dims={2}, rhs_contracting_dims={0}
  add.898 = f32[2,64,768]{2,1,0} add(add.876, dot.897)
  constant.74 = f32[1,1,768]{2,1,0} constant({...})
  broadcast.913 = f32[1,1,768]{2,1,0} broadcast(constant.74), dimensions={0,1,2}
  reshape.914 = f32[768]{0} reshape(broadcast.913)
  broadcast.915 = f32[2,64,768]{2,1,0} broadcast(reshape.914), dimensions={2}
  multiply.899 = f32[2,64,768]{2,1,0} multiply(add.898, add.898)
  reduce.904 = f32[2,64]{1,0} reduce(multiply.899, constant.115), dimensions={2}, to_apply=region_26.903
  reshape.905 = f32[2,64,1]{2,1,0} reshape(reduce.904)
  divide.906 = f32[2,64,1]{2,1,0} divide(reshape.905, broadcast.110)
  add.907 = f32[2,64,1]{2,1,0} add(divide.906, broadcast.108)
  sqrt.908 = f32[2,64,1]{2,1,0} sqrt(add.907)
  broadcast.909 = f32[2,64,1]{2,1,0} broadcast(sqrt.908), dimensions={0,1,2}
  reshape.910 = f32[2,64]{1,0} reshape(broadcast.909)
  broadcast.911 = f32[2,64,768]{2,1,0} broadcast(reshape.910), dimensions={0,1}
  divide.912 = f32[2,64,768]{2,1,0} divide(add.898, broadcast.911)
  multiply.916 = f32[2,64,768]{2,1,0} multiply(broadcast.915, divide.912)
  constant.156 = f32[768,768]{1,0} constant({...})
  dot.919 = f32[2,64,768]{2,1,0} dot(multiply.916, constant.156), lhs_contracting_dims={2}, rhs_contracting_dims={0}
  reshape.922 = f32[2,64,12,64]{3,2,1,0} reshape(dot.919)
  constant.154 = f32[768,768]{1,0} constant({...})
  dot.917 = f32[2,64,768]{2,1,0} dot(multiply.916, constant.154), lhs_contracting_dims={2}, rhs_contracting_dims={0}
  reshape.920 = f32[2,64,12,64]{3,2,1,0} reshape(dot.917)
  multiply.923 = f32[2,64,12,64]{3,2,1,0} multiply(reshape.920, broadcast.105)
  divide.924 = f32[2,64,12,64]{3,2,1,0} divide(multiply.923, broadcast.105)
  constant.155 = f32[768,768]{1,0} constant({...})
  dot.918 = f32[2,64,768]{2,1,0} dot(multiply.916, constant.155), lhs_contracting_dims={2}, rhs_contracting_dims={0}
  reshape.921 = f32[2,64,12,64]{3,2,1,0} reshape(dot.918)
  dot.925 = f32[2,12,64,64]{3,2,1,0} dot(divide.924, reshape.921), lhs_batch_dims={0,2}, lhs_contracting_dims={3}, rhs_batch_dims={0,2}, rhs_contracting_dims={3}
  add.926 = f32[2,12,64,64]{3,2,1,0} add(dot.925, add.456)
  reduce.931 = f32[2,12,64]{2,1,0} reduce(add.926, constant.112), dimensions={3}, to_apply=region_27.930
  maximum.932 = f32[2,12,64]{2,1,0} maximum(reduce.931, broadcast.87)
  reshape.933 = f32[2,12,64,1]{3,2,1,0} reshape(maximum.932)
  broadcast.934 = f32[2,12,64,1]{3,2,1,0} broadcast(reshape.933), dimensions={0,1,2,3}
  reshape.935 = f32[2,12,64]{2,1,0} reshape(broadcast.934)
  broadcast.936 = f32[2,12,64,64]{3,2,1,0} broadcast(reshape.935), dimensions={0,1,2}
  subtract.937 = f32[2,12,64,64]{3,2,1,0} subtract(add.926, broadcast.936)
  exponential.938 = f32[2,12,64,64]{3,2,1,0} exponential(subtract.937)
  reduce.943 = f32[2,12,64]{2,1,0} reduce(exponential.938, constant.115), dimensions={3}, to_apply=region_28.942
  reshape.944 = f32[2,12,64,1]{3,2,1,0} reshape(reduce.943)
  broadcast.945 = f32[2,12,64,1]{3,2,1,0} broadcast(reshape.944), dimensions={0,1,2,3}
  reshape.946 = f32[2,12,64]{2,1,0} reshape(broadcast.945)
  broadcast.947 = f32[2,12,64,64]{3,2,1,0} broadcast(reshape.946), dimensions={0,1,2}
  divide.948 = f32[2,12,64,64]{3,2,1,0} divide(exponential.938, broadcast.947)
  dot.949 = f32[2,12,64,64]{3,2,1,0} dot(reshape.922, divide.948), lhs_batch_dims={0,2}, lhs_contracting_dims={1}, rhs_batch_dims={0,1}, rhs_contracting_dims={3}
  transpose.950 = f32[2,64,12,64]{1,3,2,0} transpose(dot.949), dimensions={0,3,1,2}
  reshape.951 = f32[2,64,768]{2,1,0} reshape(transpose.950)
  constant.157 = f32[768,768]{1,0} constant({...})
  dot.952 = f32[2,64,768]{2,1,0} dot(reshape.951, constant.157), lhs_contracting_dims={2}, rhs_contracting_dims={0}
  add.953 = f32[2,64,768]{2,1,0} add(add.898, dot.952)
  constant.73 = f32[1,1,768]{2,1,0} constant({...})
  broadcast.968 = f32[1,1,768]{2,1,0} broadcast(constant.73), dimensions={0,1,2}
  reshape.969 = f32[768]{0} reshape(broadcast.968)
  broadcast.970 = f32[2,64,768]{2,1,0} broadcast(reshape.969), dimensions={2}
  multiply.954 = f32[2,64,768]{2,1,0} multiply(add.953, add.953)
  reduce.959 = f32[2,64]{1,0} reduce(multiply.954, constant.115), dimensions={2}, to_apply=region_29.958
  reshape.960 = f32[2,64,1]{2,1,0} reshape(reduce.959)
  divide.961 = f32[2,64,1]{2,1,0} divide(reshape.960, broadcast.110)
  add.962 = f32[2,64,1]{2,1,0} add(divide.961, broadcast.108)
  sqrt.963 = f32[2,64,1]{2,1,0} sqrt(add.962)
  broadcast.964 = f32[2,64,1]{2,1,0} broadcast(sqrt.963), dimensions={0,1,2}
  reshape.965 = f32[2,64]{1,0} reshape(broadcast.964)
  broadcast.966 = f32[2,64,768]{2,1,0} broadcast(reshape.965), dimensions={0,1}
  divide.967 = f32[2,64,768]{2,1,0} divide(add.953, broadcast.966)
  multiply.971 = f32[2,64,768]{2,1,0} multiply(broadcast.970, divide.967)
  constant.158 = f32[768,3072]{1,0} constant({...})
  dot.972 = f32[2,64,3072]{2,1,0} dot(multiply.971, constant.158), lhs_contracting_dims={2}, rhs_contracting_dims={0}
  call.973 = f32[2,64,3072]{2,1,0} call(dot.972), to_apply=relu.510
  constant.159 = f32[3072,768]{1,0} constant({...})
  dot.974 = f32[2,64,768]{2,1,0} dot(call.973, constant.159), lhs_contracting_dims={2}, rhs_contracting_dims={0}
  add.975 = f32[2,64,768]{2,1,0} add(add.953, dot.974)
  constant.72 = f32[1,1,768]{2,1,0} constant({...})
  broadcast.990 = f32[1,1,768]{2,1,0} broadcast(constant.72), dimensions={0,1,2}
  reshape.991 = f32[768]{0} reshape(broadcast.990)
  broadcast.992 = f32[2,64,768]{2,1,0} broadcast(reshape.991), dimensions={2}
  multiply.976 = f32[2,64,768]{2,1,0} multiply(add.975, add.975)
  reduce.981 = f32[2,64]{1,0} reduce(multiply.976, constant.115), dimensions={2}, to_apply=region_30.980
  reshape.982 = f32[2,64,1]{2,1,0} reshape(reduce.981)
  divide.983 = f32[2,64,1]{2,1,0} divide(reshape.982, broadcast.110)
  add.984 = f32[2,64,1]{2,1,0} add(divide.983, broadcast.108)
  sqrt.985 = f32[2,64,1]{2,1,0} sqrt(add.984)
  broadcast.986 = f32[2,64,1]{2,1,0} broadcast(sqrt.985), dimensions={0,1,2}
  reshape.987 = f32[2,64]{1,0} reshape(broadcast.986)
  broadcast.988 = f32[2,64,768]{2,1,0} broadcast(reshape.987), dimensions={0,1}
  divide.989 = f32[2,64,768]{2,1,0} divide(add.975, broadcast.988)
  multiply.993 = f32[2,64,768]{2,1,0} multiply(broadcast.992, divide.989)
  constant.162 = f32[768,768]{1,0} constant({...})
  dot.996 = f32[2,64,768]{2,1,0} dot(multiply.993, constant.162), lhs_contracting_dims={2}, rhs_contracting_dims={0}
  reshape.999 = f32[2,64,12,64]{3,2,1,0} reshape(dot.996)
  constant.160 = f32[768,768]{1,0} constant({...})
  dot.994 = f32[2,64,768]{2,1,0} dot(multiply.993, constant.160), lhs_contracting_dims={2}, rhs_contracting_dims={0}
  reshape.997 = f32[2,64,12,64]{3,2,1,0} reshape(dot.994)
  multiply.1000 = f32[2,64,12,64]{3,2,1,0} multiply(reshape.997, broadcast.105)
  divide.1001 = f32[2,64,12,64]{3,2,1,0} divide(multiply.1000, broadcast.105)
  constant.161 = f32[768,768]{1,0} constant({...})
  dot.995 = f32[2,64,768]{2,1,0} dot(multiply.993, constant.161), lhs_contracting_dims={2}, rhs_contracting_dims={0}
  reshape.998 = f32[2,64,12,64]{3,2,1,0} reshape(dot.995)
  dot.1002 = f32[2,12,64,64]{3,2,1,0} dot(divide.1001, reshape.998), lhs_batch_dims={0,2}, lhs_contracting_dims={3}, rhs_batch_dims={0,2}, rhs_contracting_dims={3}
  add.1003 = f32[2,12,64,64]{3,2,1,0} add(dot.1002, add.456)
  reduce.1008 = f32[2,12,64]{2,1,0} reduce(add.1003, constant.112), dimensions={3}, to_apply=region_31.1007
  maximum.1009 = f32[2,12,64]{2,1,0} maximum(reduce.1008, broadcast.87)
  reshape.1010 = f32[2,12,64,1]{3,2,1,0} reshape(maximum.1009)
  broadcast.1011 = f32[2,12,64,1]{3,2,1,0} broadcast(reshape.1010), dimensions={0,1,2,3}
  reshape.1012 = f32[2,12,64]{2,1,0} reshape(broadcast.1011)
  broadcast.1013 = f32[2,12,64,64]{3,2,1,0} broadcast(reshape.1012), dimensions={0,1,2}
  subtract.1014 = f32[2,12,64,64]{3,2,1,0} subtract(add.1003, broadcast.1013)
  exponential.1015 = f32[2,12,64,64]{3,2,1,0} exponential(subtract.1014)
  reduce.1020 = f32[2,12,64]{2,1,0} reduce(exponential.1015, constant.115), dimensions={3}, to_apply=region_32.1019
  reshape.1021 = f32[2,12,64,1]{3,2,1,0} reshape(reduce.1020)
  broadcast.1022 = f32[2,12,64,1]{3,2,1,0} broadcast(reshape.1021), dimensions={0,1,2,3}
  reshape.1023 = f32[2,12,64]{2,1,0} reshape(broadcast.1022)
  broadcast.1024 = f32[2,12,64,64]{3,2,1,0} broadcast(reshape.1023), dimensions={0,1,2}
  divide.1025 = f32[2,12,64,64]{3,2,1,0} divide(exponential.1015, broadcast.1024)
  dot.1026 = f32[2,12,64,64]{3,2,1,0} dot(reshape.999, divide.1025), lhs_batch_dims={0,2}, lhs_contracting_dims={1}, rhs_batch_dims={0,1}, rhs_contracting_dims={3}
  transpose.1027 = f32[2,64,12,64]{1,3,2,0} transpose(dot.1026), dimensions={0,3,1,2}
  reshape.1028 = f32[2,64,768]{2,1,0} reshape(transpose.1027)
  constant.163 = f32[768,768]{1,0} constant({...})
  dot.1029 = f32[2,64,768]{2,1,0} dot(reshape.1028, constant.163), lhs_contracting_dims={2}, rhs_contracting_dims={0}
  add.1030 = f32[2,64,768]{2,1,0} add(add.975, dot.1029)
  constant.71 = f32[1,1,768]{2,1,0} constant({...})
  broadcast.1045 = f32[1,1,768]{2,1,0} broadcast(constant.71), dimensions={0,1,2}
  reshape.1046 = f32[768]{0} reshape(broadcast.1045)
  broadcast.1047 = f32[2,64,768]{2,1,0} broadcast(reshape.1046), dimensions={2}
  multiply.1031 = f32[2,64,768]{2,1,0} multiply(add.1030, add.1030)
  reduce.1036 = f32[2,64]{1,0} reduce(multiply.1031, constant.115), dimensions={2}, to_apply=region_33.1035
  reshape.1037 = f32[2,64,1]{2,1,0} reshape(reduce.1036)
  divide.1038 = f32[2,64,1]{2,1,0} divide(reshape.1037, broadcast.110)
  add.1039 = f32[2,64,1]{2,1,0} add(divide.1038, broadcast.108)
  sqrt.1040 = f32[2,64,1]{2,1,0} sqrt(add.1039)
  broadcast.1041 = f32[2,64,1]{2,1,0} broadcast(sqrt.1040), dimensions={0,1,2}
  reshape.1042 = f32[2,64]{1,0} reshape(broadcast.1041)
  broadcast.1043 = f32[2,64,768]{2,1,0} broadcast(reshape.1042), dimensions={0,1}
  divide.1044 = f32[2,64,768]{2,1,0} divide(add.1030, broadcast.1043)
  multiply.1048 = f32[2,64,768]{2,1,0} multiply(broadcast.1047, divide.1044)
  constant.164 = f32[768,3072]{1,0} constant({...})
  dot.1049 = f32[2,64,3072]{2,1,0} dot(multiply.1048, constant.164), lhs_contracting_dims={2}, rhs_contracting_dims={0}
  call.1050 = f32[2,64,3072]{2,1,0} call(dot.1049), to_apply=relu.510
  constant.165 = f32[3072,768]{1,0} constant({...})
  dot.1051 = f32[2,64,768]{2,1,0} dot(call.1050, constant.165), lhs_contracting_dims={2}, rhs_contracting_dims={0}
  add.1052 = f32[2,64,768]{2,1,0} add(add.1030, dot.1051)
  constant.70 = f32[1,1,768]{2,1,0} constant({...})
  broadcast.1067 = f32[1,1,768]{2,1,0} broadcast(constant.70), dimensions={0,1,2}
  reshape.1068 = f32[768]{0} reshape(broadcast.1067)
  broadcast.1069 = f32[2,64,768]{2,1,0} broadcast(reshape.1068), dimensions={2}
  multiply.1053 = f32[2,64,768]{2,1,0} multiply(add.1052, add.1052)
  reduce.1058 = f32[2,64]{1,0} reduce(multiply.1053, constant.115), dimensions={2}, to_apply=region_34.1057
  reshape.1059 = f32[2,64,1]{2,1,0} reshape(reduce.1058)
  divide.1060 = f32[2,64,1]{2,1,0} divide(reshape.1059, broadcast.110)
  add.1061 = f32[2,64,1]{2,1,0} add(divide.1060, broadcast.108)
  sqrt.1062 = f32[2,64,1]{2,1,0} sqrt(add.1061)
  broadcast.1063 = f32[2,64,1]{2,1,0} broadcast(sqrt.1062), dimensions={0,1,2}
  reshape.1064 = f32[2,64]{1,0} reshape(broadcast.1063)
  broadcast.1065 = f32[2,64,768]{2,1,0} broadcast(reshape.1064), dimensions={0,1}
  divide.1066 = f32[2,64,768]{2,1,0} divide(add.1052, broadcast.1065)
  multiply.1070 = f32[2,64,768]{2,1,0} multiply(broadcast.1069, divide.1066)
  constant.168 = f32[768,768]{1,0} constant({...})
  dot.1073 = f32[2,64,768]{2,1,0} dot(multiply.1070, constant.168), lhs_contracting_dims={2}, rhs_contracting_dims={0}
  reshape.1076 = f32[2,64,12,64]{3,2,1,0} reshape(dot.1073)
  constant.166 = f32[768,768]{1,0} constant({...})
  dot.1071 = f32[2,64,768]{2,1,0} dot(multiply.1070, constant.166), lhs_contracting_dims={2}, rhs_contracting_dims={0}
  reshape.1074 = f32[2,64,12,64]{3,2,1,0} reshape(dot.1071)
  multiply.1077 = f32[2,64,12,64]{3,2,1,0} multiply(reshape.1074, broadcast.105)
  divide.1078 = f32[2,64,12,64]{3,2,1,0} divide(multiply.1077, broadcast.105)
  constant.167 = f32[768,768]{1,0} constant({...})
  dot.1072 = f32[2,64,768]{2,1,0} dot(multiply.1070, constant.167), lhs_contracting_dims={2}, rhs_contracting_dims={0}
  reshape.1075 = f32[2,64,12,64]{3,2,1,0} reshape(dot.1072)
  dot.1079 = f32[2,12,64,64]{3,2,1,0} dot(divide.1078, reshape.1075), lhs_batch_dims={0,2}, lhs_contracting_dims={3}, rhs_batch_dims={0,2}, rhs_contracting_dims={3}
  add.1080 = f32[2,12,64,64]{3,2,1,0} add(dot.1079, add.456)
  reduce.1085 = f32[2,12,64]{2,1,0} reduce(add.1080, constant.112), dimensions={3}, to_apply=region_35.1084
  maximum.1086 = f32[2,12,64]{2,1,0} maximum(reduce.1085, broadcast.87)
  reshape.1087 = f32[2,12,64,1]{3,2,1,0} reshape(maximum.1086)
  broadcast.1088 = f32[2,12,64,1]{3,2,1,0} broadcast(reshape.1087), dimensions={0,1,2,3}
  reshape.1089 = f32[2,12,64]{2,1,0} reshape(broadcast.1088)
  broadcast.1090 = f32[2,12,64,64]{3,2,1,0} broadcast(reshape.1089), dimensions={0,1,2}
  subtract.1091 = f32[2,12,64,64]{3,2,1,0} subtract(add.1080, broadcast.1090)
  exponential.1092 = f32[2,12,64,64]{3,2,1,0} exponential(subtract.1091)
  reduce.1097 = f32[2,12,64]{2,1,0} reduce(exponential.1092, constant.115), dimensions={3}, to_apply=region_36.1096
  reshape.1098 = f32[2,12,64,1]{3,2,1,0} reshape(reduce.1097)
  broadcast.1099 = f32[2,12,64,1]{3,2,1,0} broadcast(reshape.1098), dimensions={0,1,2,3}
  reshape.1100 = f32[2,12,64]{2,1,0} reshape(broadcast.1099)
  broadcast.1101 = f32[2,12,64,64]{3,2,1,0} broadcast(reshape.1100), dimensions={0,1,2}
  divide.1102 = f32[2,12,64,64]{3,2,1,0} divide(exponential.1092, broadcast.1101)
  dot.1103 = f32[2,12,64,64]{3,2,1,0} dot(reshape.1076, divide.1102), lhs_batch_dims={0,2}, lhs_contracting_dims={1}, rhs_batch_dims={0,1}, rhs_contracting_dims={3}
  transpose.1104 = f32[2,64,12,64]{1,3,2,0} transpose(dot.1103), dimensions={0,3,1,2}
  reshape.1105 = f32[2,64,768]{2,1,0} reshape(transpose.1104)
  constant.169 = f32[768,768]{1,0} constant({...})
  dot.1106 = f32[2,64,768]{2,1,0} dot(reshape.1105, constant.169), lhs_contracting_dims={2}, rhs_contracting_dims={0}
  add.1107 = f32[2,64,768]{2,1,0} add(add.1052, dot.1106)
  constant.69 = f32[1,1,768]{2,1,0} constant({...})
  broadcast.1122 = f32[1,1,768]{2,1,0} broadcast(constant.69), dimensions={0,1,2}
  reshape.1123 = f32[768]{0} reshape(broadcast.1122)
  broadcast.1124 = f32[2,64,768]{2,1,0} broadcast(reshape.1123), dimensions={2}
  multiply.1108 = f32[2,64,768]{2,1,0} multiply(add.1107, add.1107)
  reduce.1113 = f32[2,64]{1,0} reduce(multiply.1108, constant.115), dimensions={2}, to_apply=region_37.1112
  reshape.1114 = f32[2,64,1]{2,1,0} reshape(reduce.1113)
  divide.1115 = f32[2,64,1]{2,1,0} divide(reshape.1114, broadcast.110)
  add.1116 = f32[2,64,1]{2,1,0} add(divide.1115, broadcast.108)
  sqrt.1117 = f32[2,64,1]{2,1,0} sqrt(add.1116)
  broadcast.1118 = f32[2,64,1]{2,1,0} broadcast(sqrt.1117), dimensions={0,1,2}
  reshape.1119 = f32[2,64]{1,0} reshape(broadcast.1118)
  broadcast.1120 = f32[2,64,768]{2,1,0} broadcast(reshape.1119), dimensions={0,1}
  divide.1121 = f32[2,64,768]{2,1,0} divide(add.1107, broadcast.1120)
  multiply.1125 = f32[2,64,768]{2,1,0} multiply(broadcast.1124, divide.1121)
  constant.170 = f32[768,3072]{1,0} constant({...})
  dot.1126 = f32[2,64,3072]{2,1,0} dot(multiply.1125, constant.170), lhs_contracting_dims={2}, rhs_contracting_dims={0}
  call.1127 = f32[2,64,3072]{2,1,0} call(dot.1126), to_apply=relu.510
  constant.171 = f32[3072,768]{1,0} constant({...})
  dot.1128 = f32[2,64,768]{2,1,0} dot(call.1127, constant.171), lhs_contracting_dims={2}, rhs_contracting_dims={0}
  add.1129 = f32[2,64,768]{2,1,0} add(add.1107, dot.1128)
  constant.68 = f32[1,1,768]{2,1,0} constant({...})
  broadcast.1144 = f32[1,1,768]{2,1,0} broadcast(constant.68), dimensions={0,1,2}
  reshape.1145 = f32[768]{0} reshape(broadcast.1144)
  broadcast.1146 = f32[2,64,768]{2,1,0} broadcast(reshape.1145), dimensions={2}
  multiply.1130 = f32[2,64,768]{2,1,0} multiply(add.1129, add.1129)
  reduce.1135 = f32[2,64]{1,0} reduce(multiply.1130, constant.115), dimensions={2}, to_apply=region_38.1134
  reshape.1136 = f32[2,64,1]{2,1,0} reshape(reduce.1135)
  divide.1137 = f32[2,64,1]{2,1,0} divide(reshape.1136, broadcast.110)
  add.1138 = f32[2,64,1]{2,1,0} add(divide.1137, broadcast.108)
  sqrt.1139 = f32[2,64,1]{2,1,0} sqrt(add.1138)
  broadcast.1140 = f32[2,64,1]{2,1,0} broadcast(sqrt.1139), dimensions={0,1,2}
  reshape.1141 = f32[2,64]{1,0} reshape(broadcast.1140)
  broadcast.1142 = f32[2,64,768]{2,1,0} broadcast(reshape.1141), dimensions={0,1}
  divide.1143 = f32[2,64,768]{2,1,0} divide(add.1129, broadcast.1142)
  multiply.1147 = f32[2,64,768]{2,1,0} multiply(broadcast.1146, divide.1143)
  constant.174 = f32[768,768]{1,0} constant({...})
  dot.1150 = f32[2,64,768]{2,1,0} dot(multiply.1147, constant.174), lhs_contracting_dims={2}, rhs_contracting_dims={0}
  reshape.1153 = f32[2,64,12,64]{3,2,1,0} reshape(dot.1150)
  constant.172 = f32[768,768]{1,0} constant({...})
  dot.1148 = f32[2,64,768]{2,1,0} dot(multiply.1147, constant.172), lhs_contracting_dims={2}, rhs_contracting_dims={0}
  reshape.1151 = f32[2,64,12,64]{3,2,1,0} reshape(dot.1148)
  multiply.1154 = f32[2,64,12,64]{3,2,1,0} multiply(reshape.1151, broadcast.105)
  divide.1155 = f32[2,64,12,64]{3,2,1,0} divide(multiply.1154, broadcast.105)
  constant.173 = f32[768,768]{1,0} constant({...})
  dot.1149 = f32[2,64,768]{2,1,0} dot(multiply.1147, constant.173), lhs_contracting_dims={2}, rhs_contracting_dims={0}
  reshape.1152 = f32[2,64,12,64]{3,2,1,0} reshape(dot.1149)
  dot.1156 = f32[2,12,64,64]{3,2,1,0} dot(divide.1155, reshape.1152), lhs_batch_dims={0,2}, lhs_contracting_dims={3}, rhs_batch_dims={0,2}, rhs_contracting_dims={3}
  add.1157 = f32[2,12,64,64]{3,2,1,0} add(dot.1156, add.456)
  reduce.1162 = f32[2,12,64]{2,1,0} reduce(add.1157, constant.112), dimensions={3}, to_apply=region_39.1161
  maximum.1163 = f32[2,12,64]{2,1,0} maximum(reduce.1162, broadcast.87)
  reshape.1164 = f32[2,12,64,1]{3,2,1,0} reshape(maximum.1163)
  broadcast.1165 = f32[2,12,64,1]{3,2,1,0} broadcast(reshape.1164), dimensions={0,1,2,3}
  reshape.1166 = f32[2,12,64]{2,1,0} reshape(broadcast.1165)
  broadcast.1167 = f32[2,12,64,64]{3,2,1,0} broadcast(reshape.1166), dimensions={0,1,2}
  subtract.1168 = f32[2,12,64,64]{3,2,1,0} subtract(add.1157, broadcast.1167)
  exponential.1169 = f32[2,12,64,64]{3,2,1,0} exponential(subtract.1168)
  reduce.1174 = f32[2,12,64]{2,1,0} reduce(exponential.1169, constant.115), dimensions={3}, to_apply=region_40.1173
  reshape.1175 = f32[2,12,64,1]{3,2,1,0} reshape(reduce.1174)
  broadcast.1176 = f32[2,12,64,1]{3,2,1,0} broadcast(reshape.1175), dimensions={0,1,2,3}
  reshape.1177 = f32[2,12,64]{2,1,0} reshape(broadcast.1176)
  broadcast.1178 = f32[2,12,64,64]{3,2,1,0} broadcast(reshape.1177), dimensions={0,1,2}
  divide.1179 = f32[2,12,64,64]{3,2,1,0} divide(exponential.1169, broadcast.1178)
  dot.1180 = f32[2,12,64,64]{3,2,1,0} dot(reshape.1153, divide.1179), lhs_batch_dims={0,2}, lhs_contracting_dims={1}, rhs_batch_dims={0,1}, rhs_contracting_dims={3}
  transpose.1181 = f32[2,64,12,64]{1,3,2,0} transpose(dot.1180), dimensions={0,3,1,2}
  reshape.1182 = f32[2,64,768]{2,1,0} reshape(transpose.1181)
  constant.175 = f32[768,768]{1,0} constant({...})
  dot.1183 = f32[2,64,768]{2,1,0} dot(reshape.1182, constant.175), lhs_contracting_dims={2}, rhs_contracting_dims={0}
  add.1184 = f32[2,64,768]{2,1,0} add(add.1129, dot.1183)
  constant.67 = f32[1,1,768]{2,1,0} constant({...})
  broadcast.1199 = f32[1,1,768]{2,1,0} broadcast(constant.67), dimensions={0,1,2}
  reshape.1200 = f32[768]{0} reshape(broadcast.1199)
  broadcast.1201 = f32[2,64,768]{2,1,0} broadcast(reshape.1200), dimensions={2}
  multiply.1185 = f32[2,64,768]{2,1,0} multiply(add.1184, add.1184)
  reduce.1190 = f32[2,64]{1,0} reduce(multiply.1185, constant.115), dimensions={2}, to_apply=region_41.1189
  reshape.1191 = f32[2,64,1]{2,1,0} reshape(reduce.1190)
  divide.1192 = f32[2,64,1]{2,1,0} divide(reshape.1191, broadcast.110)
  add.1193 = f32[2,64,1]{2,1,0} add(divide.1192, broadcast.108)
  sqrt.1194 = f32[2,64,1]{2,1,0} sqrt(add.1193)
  broadcast.1195 = f32[2,64,1]{2,1,0} broadcast(sqrt.1194), dimensions={0,1,2}
  reshape.1196 = f32[2,64]{1,0} reshape(broadcast.1195)
  broadcast.1197 = f32[2,64,768]{2,1,0} broadcast(reshape.1196), dimensions={0,1}
  divide.1198 = f32[2,64,768]{2,1,0} divide(add.1184, broadcast.1197)
  multiply.1202 = f32[2,64,768]{2,1,0} multiply(broadcast.1201, divide.1198)
  constant.176 = f32[768,3072]{1,0} constant({...})
  dot.1203 = f32[2,64,3072]{2,1,0} dot(multiply.1202, constant.176), lhs_contracting_dims={2}, rhs_contracting_dims={0}
  call.1204 = f32[2,64,3072]{2,1,0} call(dot.1203), to_apply=relu.510
  constant.177 = f32[3072,768]{1,0} constant({...})
  dot.1205 = f32[2,64,768]{2,1,0} dot(call.1204, constant.177), lhs_contracting_dims={2}, rhs_contracting_dims={0}
  add.1206 = f32[2,64,768]{2,1,0} add(add.1184, dot.1205)
  constant.66 = f32[1,1,768]{2,1,0} constant({...})
  broadcast.1221 = f32[1,1,768]{2,1,0} broadcast(constant.66), dimensions={0,1,2}
  reshape.1222 = f32[768]{0} reshape(broadcast.1221)
  broadcast.1223 = f32[2,64,768]{2,1,0} broadcast(reshape.1222), dimensions={2}
  multiply.1207 = f32[2,64,768]{2,1,0} multiply(add.1206, add.1206)
  reduce.1212 = f32[2,64]{1,0} reduce(multiply.1207, constant.115), dimensions={2}, to_apply=region_42.1211
  reshape.1213 = f32[2,64,1]{2,1,0} reshape(reduce.1212)
  divide.1214 = f32[2,64,1]{2,1,0} divide(reshape.1213, broadcast.110)
  add.1215 = f32[2,64,1]{2,1,0} add(divide.1214, broadcast.108)
  sqrt.1216 = f32[2,64,1]{2,1,0} sqrt(add.1215)
  broadcast.1217 = f32[2,64,1]{2,1,0} broadcast(sqrt.1216), dimensions={0,1,2}
  reshape.1218 = f32[2,64]{1,0} reshape(broadcast.1217)
  broadcast.1219 = f32[2,64,768]{2,1,0} broadcast(reshape.1218), dimensions={0,1}
  divide.1220 = f32[2,64,768]{2,1,0} divide(add.1206, broadcast.1219)
  multiply.1224 = f32[2,64,768]{2,1,0} multiply(broadcast.1223, divide.1220)
  constant.180 = f32[768,768]{1,0} constant({...})
  dot.1227 = f32[2,64,768]{2,1,0} dot(multiply.1224, constant.180), lhs_contracting_dims={2}, rhs_contracting_dims={0}
  reshape.1230 = f32[2,64,12,64]{3,2,1,0} reshape(dot.1227)
  constant.178 = f32[768,768]{1,0} constant({...})
  dot.1225 = f32[2,64,768]{2,1,0} dot(multiply.1224, constant.178), lhs_contracting_dims={2}, rhs_contracting_dims={0}
  reshape.1228 = f32[2,64,12,64]{3,2,1,0} reshape(dot.1225)
  multiply.1231 = f32[2,64,12,64]{3,2,1,0} multiply(reshape.1228, broadcast.105)
  divide.1232 = f32[2,64,12,64]{3,2,1,0} divide(multiply.1231, broadcast.105)
  constant.179 = f32[768,768]{1,0} constant({...})
  dot.1226 = f32[2,64,768]{2,1,0} dot(multiply.1224, constant.179), lhs_contracting_dims={2}, rhs_contracting_dims={0}
  reshape.1229 = f32[2,64,12,64]{3,2,1,0} reshape(dot.1226)
  dot.1233 = f32[2,12,64,64]{3,2,1,0} dot(divide.1232, reshape.1229), lhs_batch_dims={0,2}, lhs_contracting_dims={3}, rhs_batch_dims={0,2}, rhs_contracting_dims={3}
  add.1234 = f32[2,12,64,64]{3,2,1,0} add(dot.1233, add.456)
  reduce.1239 = f32[2,12,64]{2,1,0} reduce(add.1234, constant.112), dimensions={3}, to_apply=region_43.1238
  maximum.1240 = f32[2,12,64]{2,1,0} maximum(reduce.1239, broadcast.87)
  reshape.1241 = f32[2,12,64,1]{3,2,1,0} reshape(maximum.1240)
  broadcast.1242 = f32[2,12,64,1]{3,2,1,0} broadcast(reshape.1241), dimensions={0,1,2,3}
  reshape.1243 = f32[2,12,64]{2,1,0} reshape(broadcast.1242)
  broadcast.1244 = f32[2,12,64,64]{3,2,1,0} broadcast(reshape.1243), dimensions={0,1,2}
  subtract.1245 = f32[2,12,64,64]{3,2,1,0} subtract(add.1234, broadcast.1244)
  exponential.1246 = f32[2,12,64,64]{3,2,1,0} exponential(subtract.1245)
  reduce.1251 = f32[2,12,64]{2,1,0} reduce(exponential.1246, constant.115), dimensions={3}, to_apply=region_44.1250
  reshape.1252 = f32[2,12,64,1]{3,2,1,0} reshape(reduce.1251)
  broadcast.1253 = f32[2,12,64,1]{3,2,1,0} broadcast(reshape.1252), dimensions={0,1,2,3}
  reshape.1254 = f32[2,12,64]{2,1,0} reshape(broadcast.1253)
  broadcast.1255 = f32[2,12,64,64]{3,2,1,0} broadcast(reshape.1254), dimensions={0,1,2}
  divide.1256 = f32[2,12,64,64]{3,2,1,0} divide(exponential.1246, broadcast.1255)
  dot.1257 = f32[2,12,64,64]{3,2,1,0} dot(reshape.1230, divide.1256), lhs_batch_dims={0,2}, lhs_contracting_dims={1}, rhs_batch_dims={0,1}, rhs_contracting_dims={3}
  transpose.1258 = f32[2,64,12,64]{1,3,2,0} transpose(dot.1257), dimensions={0,3,1,2}
  reshape.1259 = f32[2,64,768]{2,1,0} reshape(transpose.1258)
  constant.181 = f32[768,768]{1,0} constant({...})
  dot.1260 = f32[2,64,768]{2,1,0} dot(reshape.1259, constant.181), lhs_contracting_dims={2}, rhs_contracting_dims={0}
  add.1261 = f32[2,64,768]{2,1,0} add(add.1206, dot.1260)
  constant.65 = f32[1,1,768]{2,1,0} constant({...})
  broadcast.1276 = f32[1,1,768]{2,1,0} broadcast(constant.65), dimensions={0,1,2}
  reshape.1277 = f32[768]{0} reshape(broadcast.1276)
  broadcast.1278 = f32[2,64,768]{2,1,0} broadcast(reshape.1277), dimensions={2}
  multiply.1262 = f32[2,64,768]{2,1,0} multiply(add.1261, add.1261)
  reduce.1267 = f32[2,64]{1,0} reduce(multiply.1262, constant.115), dimensions={2}, to_apply=region_45.1266
  reshape.1268 = f32[2,64,1]{2,1,0} reshape(reduce.1267)
  divide.1269 = f32[2,64,1]{2,1,0} divide(reshape.1268, broadcast.110)
  add.1270 = f32[2,64,1]{2,1,0} add(divide.1269, broadcast.108)
  sqrt.1271 = f32[2,64,1]{2,1,0} sqrt(add.1270)
  broadcast.1272 = f32[2,64,1]{2,1,0} broadcast(sqrt.1271), dimensions={0,1,2}
  reshape.1273 = f32[2,64]{1,0} reshape(broadcast.1272)
  broadcast.1274 = f32[2,64,768]{2,1,0} broadcast(reshape.1273), dimensions={0,1}
  divide.1275 = f32[2,64,768]{2,1,0} divide(add.1261, broadcast.1274)
  multiply.1279 = f32[2,64,768]{2,1,0} multiply(broadcast.1278, divide.1275)
  constant.182 = f32[768,3072]{1,0} constant({...})
  dot.1280 = f32[2,64,3072]{2,1,0} dot(multiply.1279, constant.182), lhs_contracting_dims={2}, rhs_contracting_dims={0}
  call.1281 = f32[2,64,3072]{2,1,0} call(dot.1280), to_apply=relu.510
  constant.183 = f32[3072,768]{1,0} constant({...})
  dot.1282 = f32[2,64,768]{2,1,0} dot(call.1281, constant.183), lhs_contracting_dims={2}, rhs_contracting_dims={0}
  add.1283 = f32[2,64,768]{2,1,0} add(add.1261, dot.1282)
  constant.64 = f32[1,1,768]{2,1,0} constant({...})
  broadcast.1298 = f32[1,1,768]{2,1,0} broadcast(constant.64), dimensions={0,1,2}
  reshape.1299 = f32[768]{0} reshape(broadcast.1298)
  broadcast.1300 = f32[2,64,768]{2,1,0} broadcast(reshape.1299), dimensions={2}
  multiply.1284 = f32[2,64,768]{2,1,0} multiply(add.1283, add.1283)
  reduce.1289 = f32[2,64]{1,0} reduce(multiply.1284, constant.115), dimensions={2}, to_apply=region_46.1288
  reshape.1290 = f32[2,64,1]{2,1,0} reshape(reduce.1289)
  divide.1291 = f32[2,64,1]{2,1,0} divide(reshape.1290, broadcast.110)
  add.1292 = f32[2,64,1]{2,1,0} add(divide.1291, broadcast.108)
  sqrt.1293 = f32[2,64,1]{2,1,0} sqrt(add.1292)
  broadcast.1294 = f32[2,64,1]{2,1,0} broadcast(sqrt.1293), dimensions={0,1,2}
  reshape.1295 = f32[2,64]{1,0} reshape(broadcast.1294)
  broadcast.1296 = f32[2,64,768]{2,1,0} broadcast(reshape.1295), dimensions={0,1}
  divide.1297 = f32[2,64,768]{2,1,0} divide(add.1283, broadcast.1296)
  multiply.1301 = f32[2,64,768]{2,1,0} multiply(broadcast.1300, divide.1297)
  constant.186 = f32[768,768]{1,0} constant({...})
  dot.1304 = f32[2,64,768]{2,1,0} dot(multiply.1301, constant.186), lhs_contracting_dims={2}, rhs_contracting_dims={0}
  reshape.1307 = f32[2,64,12,64]{3,2,1,0} reshape(dot.1304)
  constant.184 = f32[768,768]{1,0} constant({...})
  dot.1302 = f32[2,64,768]{2,1,0} dot(multiply.1301, constant.184), lhs_contracting_dims={2}, rhs_contracting_dims={0}
  reshape.1305 = f32[2,64,12,64]{3,2,1,0} reshape(dot.1302)
  multiply.1308 = f32[2,64,12,64]{3,2,1,0} multiply(reshape.1305, broadcast.105)
  divide.1309 = f32[2,64,12,64]{3,2,1,0} divide(multiply.1308, broadcast.105)
  constant.185 = f32[768,768]{1,0} constant({...})
  dot.1303 = f32[2,64,768]{2,1,0} dot(multiply.1301, constant.185), lhs_contracting_dims={2}, rhs_contracting_dims={0}
  reshape.1306 = f32[2,64,12,64]{3,2,1,0} reshape(dot.1303)
  dot.1310 = f32[2,12,64,64]{3,2,1,0} dot(divide.1309, reshape.1306), lhs_batch_dims={0,2}, lhs_contracting_dims={3}, rhs_batch_dims={0,2}, rhs_contracting_dims={3}
  add.1311 = f32[2,12,64,64]{3,2,1,0} add(dot.1310, add.456)
  reduce.1316 = f32[2,12,64]{2,1,0} reduce(add.1311, constant.112), dimensions={3}, to_apply=region_47.1315
  maximum.1317 = f32[2,12,64]{2,1,0} maximum(reduce.1316, broadcast.87)
  reshape.1318 = f32[2,12,64,1]{3,2,1,0} reshape(maximum.1317)
  broadcast.1319 = f32[2,12,64,1]{3,2,1,0} broadcast(reshape.1318), dimensions={0,1,2,3}
  reshape.1320 = f32[2,12,64]{2,1,0} reshape(broadcast.1319)
  broadcast.1321 = f32[2,12,64,64]{3,2,1,0} broadcast(reshape.1320), dimensions={0,1,2}
  subtract.1322 = f32[2,12,64,64]{3,2,1,0} subtract(add.1311, broadcast.1321)
  exponential.1323 = f32[2,12,64,64]{3,2,1,0} exponential(subtract.1322)
  reduce.1328 = f32[2,12,64]{2,1,0} reduce(exponential.1323, constant.115), dimensions={3}, to_apply=region_48.1327
  reshape.1329 = f32[2,12,64,1]{3,2,1,0} reshape(reduce.1328)
  broadcast.1330 = f32[2,12,64,1]{3,2,1,0} broadcast(reshape.1329), dimensions={0,1,2,3}
  reshape.1331 = f32[2,12,64]{2,1,0} reshape(broadcast.1330)
  broadcast.1332 = f32[2,12,64,64]{3,2,1,0} broadcast(reshape.1331), dimensions={0,1,2}
  divide.1333 = f32[2,12,64,64]{3,2,1,0} divide(exponential.1323, broadcast.1332)
  dot.1334 = f32[2,12,64,64]{3,2,1,0} dot(reshape.1307, divide.1333), lhs_batch_dims={0,2}, lhs_contracting_dims={1}, rhs_batch_dims={0,1}, rhs_contracting_dims={3}
  transpose.1335 = f32[2,64,12,64]{1,3,2,0} transpose(dot.1334), dimensions={0,3,1,2}
  reshape.1336 = f32[2,64,768]{2,1,0} reshape(transpose.1335)
  constant.187 = f32[768,768]{1,0} constant({...})
  dot.1337 = f32[2,64,768]{2,1,0} dot(reshape.1336, constant.187), lhs_contracting_dims={2}, rhs_contracting_dims={0}
  add.1338 = f32[2,64,768]{2,1,0} add(add.1283, dot.1337)
  constant.63 = f32[1,1,768]{2,1,0} constant({...})
  broadcast.1353 = f32[1,1,768]{2,1,0} broadcast(constant.63), dimensions={0,1,2}
  reshape.1354 = f32[768]{0} reshape(broadcast.1353)
  broadcast.1355 = f32[2,64,768]{2,1,0} broadcast(reshape.1354), dimensions={2}
  multiply.1339 = f32[2,64,768]{2,1,0} multiply(add.1338, add.1338)
  reduce.1344 = f32[2,64]{1,0} reduce(multiply.1339, constant.115), dimensions={2}, to_apply=region_49.1343
  reshape.1345 = f32[2,64,1]{2,1,0} reshape(reduce.1344)
  divide.1346 = f32[2,64,1]{2,1,0} divide(reshape.1345, broadcast.110)
  add.1347 = f32[2,64,1]{2,1,0} add(divide.1346, broadcast.108)
  sqrt.1348 = f32[2,64,1]{2,1,0} sqrt(add.1347)
  broadcast.1349 = f32[2,64,1]{2,1,0} broadcast(sqrt.1348), dimensions={0,1,2}
  reshape.1350 = f32[2,64]{1,0} reshape(broadcast.1349)
  broadcast.1351 = f32[2,64,768]{2,1,0} broadcast(reshape.1350), dimensions={0,1}
  divide.1352 = f32[2,64,768]{2,1,0} divide(add.1338, broadcast.1351)
  multiply.1356 = f32[2,64,768]{2,1,0} multiply(broadcast.1355, divide.1352)
  constant.188 = f32[768,3072]{1,0} constant({...})
  dot.1357 = f32[2,64,3072]{2,1,0} dot(multiply.1356, constant.188), lhs_contracting_dims={2}, rhs_contracting_dims={0}
  call.1358 = f32[2,64,3072]{2,1,0} call(dot.1357), to_apply=relu.510
  constant.189 = f32[3072,768]{1,0} constant({...})
  dot.1359 = f32[2,64,768]{2,1,0} dot(call.1358, constant.189), lhs_contracting_dims={2}, rhs_contracting_dims={0}
  add.1360 = f32[2,64,768]{2,1,0} add(add.1338, dot.1359)
  multiply.1361 = f32[2,64,768]{2,1,0} multiply(add.1360, add.1360)
  reduce.1366 = f32[2,64]{1,0} reduce(multiply.1361, constant.115), dimensions={2}, to_apply=region_50.1365
  reshape.1367 = f32[2,64,1]{2,1,0} reshape(reduce.1366)
  divide.1368 = f32[2,64,1]{2,1,0} divide(reshape.1367, broadcast.110)
  add.1369 = f32[2,64,1]{2,1,0} add(divide.1368, broadcast.108)
  sqrt.1370 = f32[2,64,1]{2,1,0} sqrt(add.1369)
  broadcast.1371 = f32[2,64,1]{2,1,0} broadcast(sqrt.1370), dimensions={0,1,2}
  reshape.1372 = f32[2,64]{1,0} reshape(broadcast.1371)
  broadcast.1373 = f32[2,64,768]{2,1,0} broadcast(reshape.1372), dimensions={0,1}
  divide.1374 = f32[2,64,768]{2,1,0} divide(add.1360, broadcast.1373)
  multiply.1378 = f32[2,64,768]{2,1,0} multiply(broadcast.1377, divide.1374)
  constant.197 = f32[768,768]{1,0} constant({...})
  dot.1596 = f32[2,64,768]{2,1,0} dot(multiply.1378, constant.197), lhs_contracting_dims={2}, rhs_contracting_dims={0}
  reshape.1599 = f32[2,64,12,64]{3,2,1,0} reshape(dot.1596)
  constant.40 = f32[1,1,768]{2,1,0} constant({...})
  broadcast.1590 = f32[1,1,768]{2,1,0} broadcast(constant.40), dimensions={0,1,2}
  reshape.1591 = f32[768]{0} reshape(broadcast.1590)
  broadcast.1592 = f32[2,32,768]{2,1,0} broadcast(reshape.1591), dimensions={2}
  multiply.1576 = f32[2,32,768]{2,1,0} multiply(add.1575, add.1575)
  reduce.1581 = f32[2,32]{1,0} reduce(multiply.1576, constant.115), dimensions={2}, to_apply=region_56.1580
  reshape.1582 = f32[2,32,1]{2,1,0} reshape(reduce.1581)
  divide.1583 = f32[2,32,1]{2,1,0} divide(reshape.1582, broadcast.61)
  add.1584 = f32[2,32,1]{2,1,0} add(divide.1583, broadcast.59)
  sqrt.1585 = f32[2,32,1]{2,1,0} sqrt(add.1584)
  broadcast.1586 = f32[2,32,1]{2,1,0} broadcast(sqrt.1585), dimensions={0,1,2}
  reshape.1587 = f32[2,32]{1,0} reshape(broadcast.1586)
  broadcast.1588 = f32[2,32,768]{2,1,0} broadcast(reshape.1587), dimensions={0,1}
  divide.1589 = f32[2,32,768]{2,1,0} divide(add.1575, broadcast.1588)
  multiply.1593 = f32[2,32,768]{2,1,0} multiply(broadcast.1592, divide.1589)
  constant.195 = f32[768,768]{1,0} constant({...})
  dot.1594 = f32[2,32,768]{2,1,0} dot(multiply.1593, constant.195), lhs_contracting_dims={2}, rhs_contracting_dims={0}
  reshape.1597 = f32[2,32,12,64]{3,2,1,0} reshape(dot.1594)
  multiply.1600 = f32[2,32,12,64]{3,2,1,0} multiply(reshape.1597, broadcast.56)
  divide.1604 = f32[2,32,12,64]{3,2,1,0} divide(multiply.1600, broadcast.56)
  constant.196 = f32[768,768]{1,0} constant({...})
  dot.1595 = f32[2,64,768]{2,1,0} dot(multiply.1378, constant.196), lhs_contracting_dims={2}, rhs_contracting_dims={0}
  reshape.1598 = f32[2,64,12,64]{3,2,1,0} reshape(dot.1595)
  dot.1605 = f32[2,12,32,64]{3,2,1,0} dot(divide.1604, reshape.1598), lhs_batch_dims={0,2}, lhs_contracting_dims={3}, rhs_batch_dims={0,2}, rhs_contracting_dims={3}
  reshape.1601 = s32[2,1,1,64]{3,2,1,0} reshape(Arg_1.2)
  compare.1602 = pred[2,1,1,64]{3,2,1,0} compare(reshape.1601, broadcast.103), direction=GT
  select.1603 = f32[2,1,1,64]{3,2,1,0} select(compare.1602, broadcast.101, broadcast.99)
  broadcast.1606 = f32[2,1,1,64]{3,2,1,0} broadcast(select.1603), dimensions={0,1,2,3}
  reshape.1607 = f32[2,64]{1,0} reshape(broadcast.1606)
  broadcast.1608 = f32[2,12,32,64]{3,2,1,0} broadcast(reshape.1607), dimensions={0,3}
  add.1609 = f32[2,12,32,64]{3,2,1,0} add(dot.1605, broadcast.1608)
  reduce.1614 = f32[2,12,32]{2,1,0} reduce(add.1609, constant.112), dimensions={3}, to_apply=region_57.1613
  maximum.1615 = f32[2,12,32]{2,1,0} maximum(reduce.1614, broadcast.42)
  reshape.1616 = f32[2,12,32,1]{3,2,1,0} reshape(maximum.1615)
  broadcast.1617 = f32[2,12,32,1]{3,2,1,0} broadcast(reshape.1616), dimensions={0,1,2,3}
  reshape.1618 = f32[2,12,32]{2,1,0} reshape(broadcast.1617)
  broadcast.1619 = f32[2,12,32,64]{3,2,1,0} broadcast(reshape.1618), dimensions={0,1,2}
  subtract.1620 = f32[2,12,32,64]{3,2,1,0} subtract(add.1609, broadcast.1619)
  exponential.1621 = f32[2,12,32,64]{3,2,1,0} exponential(subtract.1620)
  reduce.1626 = f32[2,12,32]{2,1,0} reduce(exponential.1621, constant.115), dimensions={3}, to_apply=region_58.1625
  reshape.1627 = f32[2,12,32,1]{3,2,1,0} reshape(reduce.1626)
  broadcast.1628 = f32[2,12,32,1]{3,2,1,0} broadcast(reshape.1627), dimensions={0,1,2,3}
  reshape.1629 = f32[2,12,32]{2,1,0} reshape(broadcast.1628)
  broadcast.1630 = f32[2,12,32,64]{3,2,1,0} broadcast(reshape.1629), dimensions={0,1,2}
  divide.1631 = f32[2,12,32,64]{3,2,1,0} divide(exponential.1621, broadcast.1630)
  dot.1632 = f32[2,12,64,32]{3,2,1,0} dot(reshape.1599, divide.1631), lhs_batch_dims={0,2}, lhs_contracting_dims={1}, rhs_batch_dims={0,1}, rhs_contracting_dims={3}
  transpose.1633 = f32[2,32,12,64]{1,3,2,0} transpose(dot.1632), dimensions={0,3,1,2}
  reshape.1634 = f32[2,32,768]{2,1,0} reshape(transpose.1633)
  constant.198 = f32[768,768]{1,0} constant({...})
  dot.1635 = f32[2,32,768]{2,1,0} dot(reshape.1634, constant.198), lhs_contracting_dims={2}, rhs_contracting_dims={0}
  add.1636 = f32[2,32,768]{2,1,0} add(add.1575, dot.1635)
  constant.39 = f32[1,1,768]{2,1,0} constant({...})
  broadcast.1651 = f32[1,1,768]{2,1,0} broadcast(constant.39), dimensions={0,1,2}
  reshape.1652 = f32[768]{0} reshape(broadcast.1651)
  broadcast.1653 = f32[2,32,768]{2,1,0} broadcast(reshape.1652), dimensions={2}
  multiply.1637 = f32[2,32,768]{2,1,0} multiply(add.1636, add.1636)
  reduce.1642 = f32[2,32]{1,0} reduce(multiply.1637, constant.115), dimensions={2}, to_apply=region_59.1641
  reshape.1643 = f32[2,32,1]{2,1,0} reshape(reduce.1642)
  divide.1644 = f32[2,32,1]{2,1,0} divide(reshape.1643, broadcast.61)
  add.1645 = f32[2,32,1]{2,1,0} add(divide.1644, broadcast.59)
  sqrt.1646 = f32[2,32,1]{2,1,0} sqrt(add.1645)
  broadcast.1647 = f32[2,32,1]{2,1,0} broadcast(sqrt.1646), dimensions={0,1,2}
  reshape.1648 = f32[2,32]{1,0} reshape(broadcast.1647)
  broadcast.1649 = f32[2,32,768]{2,1,0} broadcast(reshape.1648), dimensions={0,1}
  divide.1650 = f32[2,32,768]{2,1,0} divide(add.1636, broadcast.1649)
  multiply.1654 = f32[2,32,768]{2,1,0} multiply(broadcast.1653, divide.1650)
  constant.199 = f32[768,3072]{1,0} constant({...})
  dot.1655 = f32[2,32,3072]{2,1,0} dot(multiply.1654, constant.199), lhs_contracting_dims={2}, rhs_contracting_dims={0}
  call.1661 = f32[2,32,3072]{2,1,0} call(dot.1655), to_apply=relu_10.1660
  constant.200 = f32[3072,768]{1,0} constant({...})
  dot.1662 = f32[2,32,768]{2,1,0} dot(call.1661, constant.200), lhs_contracting_dims={2}, rhs_contracting_dims={0}
  add.1663 = f32[2,32,768]{2,1,0} add(add.1636, dot.1662)
  constant.38 = f32[1,1,768]{2,1,0} constant({...})
  broadcast.1678 = f32[1,1,768]{2,1,0} broadcast(constant.38), dimensions={0,1,2}
  reshape.1679 = f32[768]{0} reshape(broadcast.1678)
  broadcast.1680 = f32[2,32,768]{2,1,0} broadcast(reshape.1679), dimensions={2}
  multiply.1664 = f32[2,32,768]{2,1,0} multiply(add.1663, add.1663)
  reduce.1669 = f32[2,32]{1,0} reduce(multiply.1664, constant.115), dimensions={2}, to_apply=region_60.1668
  reshape.1670 = f32[2,32,1]{2,1,0} reshape(reduce.1669)
  divide.1671 = f32[2,32,1]{2,1,0} divide(reshape.1670, broadcast.61)
  add.1672 = f32[2,32,1]{2,1,0} add(divide.1671, broadcast.59)
  sqrt.1673 = f32[2,32,1]{2,1,0} sqrt(add.1672)
  broadcast.1674 = f32[2,32,1]{2,1,0} broadcast(sqrt.1673), dimensions={0,1,2}
  reshape.1675 = f32[2,32]{1,0} reshape(broadcast.1674)
  broadcast.1676 = f32[2,32,768]{2,1,0} broadcast(reshape.1675), dimensions={0,1}
  divide.1677 = f32[2,32,768]{2,1,0} divide(add.1663, broadcast.1676)
  multiply.1681 = f32[2,32,768]{2,1,0} multiply(broadcast.1680, divide.1677)
  constant.203 = f32[768,768]{1,0} constant({...})
  dot.1684 = f32[2,32,768]{2,1,0} dot(multiply.1681, constant.203), lhs_contracting_dims={2}, rhs_contracting_dims={0}
  reshape.1687 = f32[2,32,12,64]{3,2,1,0} reshape(dot.1684)
  constant.201 = f32[768,768]{1,0} constant({...})
  dot.1682 = f32[2,32,768]{2,1,0} dot(multiply.1681, constant.201), lhs_contracting_dims={2}, rhs_contracting_dims={0}
  reshape.1685 = f32[2,32,12,64]{3,2,1,0} reshape(dot.1682)
  multiply.1688 = f32[2,32,12,64]{3,2,1,0} multiply(reshape.1685, broadcast.56)
  divide.1689 = f32[2,32,12,64]{3,2,1,0} divide(multiply.1688, broadcast.56)
  constant.202 = f32[768,768]{1,0} constant({...})
  dot.1683 = f32[2,32,768]{2,1,0} dot(multiply.1681, constant.202), lhs_contracting_dims={2}, rhs_contracting_dims={0}
  reshape.1686 = f32[2,32,12,64]{3,2,1,0} reshape(dot.1683)
  dot.1690 = f32[2,12,32,32]{3,2,1,0} dot(divide.1689, reshape.1686), lhs_batch_dims={0,2}, lhs_contracting_dims={3}, rhs_batch_dims={0,2}, rhs_contracting_dims={3}
  add.1691 = f32[2,12,32,32]{3,2,1,0} add(dot.1690, add.1545)
  reduce.1696 = f32[2,12,32]{2,1,0} reduce(add.1691, constant.112), dimensions={3}, to_apply=region_61.1695
  maximum.1697 = f32[2,12,32]{2,1,0} maximum(reduce.1696, broadcast.42)
  reshape.1698 = f32[2,12,32,1]{3,2,1,0} reshape(maximum.1697)
  broadcast.1699 = f32[2,12,32,1]{3,2,1,0} broadcast(reshape.1698), dimensions={0,1,2,3}
  reshape.1700 = f32[2,12,32]{2,1,0} reshape(broadcast.1699)
  broadcast.1701 = f32[2,12,32,32]{3,2,1,0} broadcast(reshape.1700), dimensions={0,1,2}
  subtract.1702 = f32[2,12,32,32]{3,2,1,0} subtract(add.1691, broadcast.1701)
  exponential.1703 = f32[2,12,32,32]{3,2,1,0} exponential(subtract.1702)
  reduce.1708 = f32[2,12,32]{2,1,0} reduce(exponential.1703, constant.115), dimensions={3}, to_apply=region_62.1707
  reshape.1709 = f32[2,12,32,1]{3,2,1,0} reshape(reduce.1708)
  broadcast.1710 = f32[2,12,32,1]{3,2,1,0} broadcast(reshape.1709), dimensions={0,1,2,3}
  reshape.1711 = f32[2,12,32]{2,1,0} reshape(broadcast.1710)
  broadcast.1712 = f32[2,12,32,32]{3,2,1,0} broadcast(reshape.1711), dimensions={0,1,2}
  divide.1713 = f32[2,12,32,32]{3,2,1,0} divide(exponential.1703, broadcast.1712)
  dot.1714 = f32[2,12,64,32]{3,2,1,0} dot(reshape.1687, divide.1713), lhs_batch_dims={0,2}, lhs_contracting_dims={1}, rhs_batch_dims={0,1}, rhs_contracting_dims={3}
  transpose.1715 = f32[2,32,12,64]{1,3,2,0} transpose(dot.1714), dimensions={0,3,1,2}
  reshape.1716 = f32[2,32,768]{2,1,0} reshape(transpose.1715)
  constant.204 = f32[768,768]{1,0} constant({...})
  dot.1717 = f32[2,32,768]{2,1,0} dot(reshape.1716, constant.204), lhs_contracting_dims={2}, rhs_contracting_dims={0}
  add.1718 = f32[2,32,768]{2,1,0} add(add.1663, dot.1717)
  constant.207 = f32[768,768]{1,0} constant({...})
  dot.1739 = f32[2,64,768]{2,1,0} dot(multiply.1378, constant.207), lhs_contracting_dims={2}, rhs_contracting_dims={0}
  reshape.1742 = f32[2,64,12,64]{3,2,1,0} reshape(dot.1739)
  constant.37 = f32[1,1,768]{2,1,0} constant({...})
  broadcast.1733 = f32[1,1,768]{2,1,0} broadcast(constant.37), dimensions={0,1,2}
  reshape.1734 = f32[768]{0} reshape(broadcast.1733)
  broadcast.1735 = f32[2,32,768]{2,1,0} broadcast(reshape.1734), dimensions={2}
  multiply.1719 = f32[2,32,768]{2,1,0} multiply(add.1718, add.1718)
  reduce.1724 = f32[2,32]{1,0} reduce(multiply.1719, constant.115), dimensions={2}, to_apply=region_63.1723
  reshape.1725 = f32[2,32,1]{2,1,0} reshape(reduce.1724)
  divide.1726 = f32[2,32,1]{2,1,0} divide(reshape.1725, broadcast.61)
  add.1727 = f32[2,32,1]{2,1,0} add(divide.1726, broadcast.59)
  sqrt.1728 = f32[2,32,1]{2,1,0} sqrt(add.1727)
  broadcast.1729 = f32[2,32,1]{2,1,0} broadcast(sqrt.1728), dimensions={0,1,2}
  reshape.1730 = f32[2,32]{1,0} reshape(broadcast.1729)
  broadcast.1731 = f32[2,32,768]{2,1,0} broadcast(reshape.1730), dimensions={0,1}
  divide.1732 = f32[2,32,768]{2,1,0} divide(add.1718, broadcast.1731)
  multiply.1736 = f32[2,32,768]{2,1,0} multiply(broadcast.1735, divide.1732)
  constant.205 = f32[768,768]{1,0} constant({...})
  dot.1737 = f32[2,32,768]{2,1,0} dot(multiply.1736, constant.205), lhs_contracting_dims={2}, rhs_contracting_dims={0}
  reshape.1740 = f32[2,32,12,64]{3,2,1,0} reshape(dot.1737)
  multiply.1743 = f32[2,32,12,64]{3,2,1,0} multiply(reshape.1740, broadcast.56)
  divide.1744 = f32[2,32,12,64]{3,2,1,0} divide(multiply.1743, broadcast.56)
  constant.206 = f32[768,768]{1,0} constant({...})
  dot.1738 = f32[2,64,768]{2,1,0} dot(multiply.1378, constant.206), lhs_contracting_dims={2}, rhs_contracting_dims={0}
  reshape.1741 = f32[2,64,12,64]{3,2,1,0} reshape(dot.1738)
  dot.1745 = f32[2,12,32,64]{3,2,1,0} dot(divide.1744, reshape.1741), lhs_batch_dims={0,2}, lhs_contracting_dims={3}, rhs_batch_dims={0,2}, rhs_contracting_dims={3}
  broadcast.1746 = f32[2,1,1,64]{3,2,1,0} broadcast(select.1603), dimensions={0,1,2,3}
  reshape.1747 = f32[2,64]{1,0} reshape(broadcast.1746)
  broadcast.1748 = f32[2,12,32,64]{3,2,1,0} broadcast(reshape.1747), dimensions={0,3}
  add.1749 = f32[2,12,32,64]{3,2,1,0} add(dot.1745, broadcast.1748)
  reduce.1754 = f32[2,12,32]{2,1,0} reduce(add.1749, constant.112), dimensions={3}, to_apply=region_64.1753
  maximum.1755 = f32[2,12,32]{2,1,0} maximum(reduce.1754, broadcast.42)
  reshape.1756 = f32[2,12,32,1]{3,2,1,0} reshape(maximum.1755)
  broadcast.1757 = f32[2,12,32,1]{3,2,1,0} broadcast(reshape.1756), dimensions={0,1,2,3}
  reshape.1758 = f32[2,12,32]{2,1,0} reshape(broadcast.1757)
  broadcast.1759 = f32[2,12,32,64]{3,2,1,0} broadcast(reshape.1758), dimensions={0,1,2}
  subtract.1760 = f32[2,12,32,64]{3,2,1,0} subtract(add.1749, broadcast.1759)
  exponential.1761 = f32[2,12,32,64]{3,2,1,0} exponential(subtract.1760)
  reduce.1766 = f32[2,12,32]{2,1,0} reduce(exponential.1761, constant.115), dimensions={3}, to_apply=region_65.1765
  reshape.1767 = f32[2,12,32,1]{3,2,1,0} reshape(reduce.1766)
  broadcast.1768 = f32[2,12,32,1]{3,2,1,0} broadcast(reshape.1767), dimensions={0,1,2,3}
  reshape.1769 = f32[2,12,32]{2,1,0} reshape(broadcast.1768)
  broadcast.1770 = f32[2,12,32,64]{3,2,1,0} broadcast(reshape.1769), dimensions={0,1,2}
  divide.1771 = f32[2,12,32,64]{3,2,1,0} divide(exponential.1761, broadcast.1770)
  dot.1772 = f32[2,12,64,32]{3,2,1,0} dot(reshape.1742, divide.1771), lhs_batch_dims={0,2}, lhs_contracting_dims={1}, rhs_batch_dims={0,1}, rhs_contracting_dims={3}
  transpose.1773 = f32[2,32,12,64]{1,3,2,0} transpose(dot.1772), dimensions={0,3,1,2}
  reshape.1774 = f32[2,32,768]{2,1,0} reshape(transpose.1773)
  constant.208 = f32[768,768]{1,0} constant({...})
  dot.1775 = f32[2,32,768]{2,1,0} dot(reshape.1774, constant.208), lhs_contracting_dims={2}, rhs_contracting_dims={0}
  add.1776 = f32[2,32,768]{2,1,0} add(add.1718, dot.1775)
  constant.36 = f32[1,1,768]{2,1,0} constant({...})
  broadcast.1791 = f32[1,1,768]{2,1,0} broadcast(constant.36), dimensions={0,1,2}
  reshape.1792 = f32[768]{0} reshape(broadcast.1791)
  broadcast.1793 = f32[2,32,768]{2,1,0} broadcast(reshape.1792), dimensions={2}
  multiply.1777 = f32[2,32,768]{2,1,0} multiply(add.1776, add.1776)
  reduce.1782 = f32[2,32]{1,0} reduce(multiply.1777, constant.115), dimensions={2}, to_apply=region_66.1781
  reshape.1783 = f32[2,32,1]{2,1,0} reshape(reduce.1782)
  divide.1784 = f32[2,32,1]{2,1,0} divide(reshape.1783, broadcast.61)
  add.1785 = f32[2,32,1]{2,1,0} add(divide.1784, broadcast.59)
  sqrt.1786 = f32[2,32,1]{2,1,0} sqrt(add.1785)
  broadcast.1787 = f32[2,32,1]{2,1,0} broadcast(sqrt.1786), dimensions={0,1,2}
  reshape.1788 = f32[2,32]{1,0} reshape(broadcast.1787)
  broadcast.1789 = f32[2,32,768]{2,1,0} broadcast(reshape.1788), dimensions={0,1}
  divide.1790 = f32[2,32,768]{2,1,0} divide(add.1776, broadcast.1789)
  multiply.1794 = f32[2,32,768]{2,1,0} multiply(broadcast.1793, divide.1790)
  constant.209 = f32[768,3072]{1,0} constant({...})
  dot.1795 = f32[2,32,3072]{2,1,0} dot(multiply.1794, constant.209), lhs_contracting_dims={2}, rhs_contracting_dims={0}
  call.1796 = f32[2,32,3072]{2,1,0} call(dot.1795), to_apply=relu_10.1660
  constant.210 = f32[3072,768]{1,0} constant({...})
  dot.1797 = f32[2,32,768]{2,1,0} dot(call.1796, constant.210), lhs_contracting_dims={2}, rhs_contracting_dims={0}
  add.1798 = f32[2,32,768]{2,1,0} add(add.1776, dot.1797)
  constant.35 = f32[1,1,768]{2,1,0} constant({...})
  broadcast.1813 = f32[1,1,768]{2,1,0} broadcast(constant.35), dimensions={0,1,2}
  reshape.1814 = f32[768]{0} reshape(broadcast.1813)
  broadcast.1815 = f32[2,32,768]{2,1,0} broadcast(reshape.1814), dimensions={2}
  multiply.1799 = f32[2,32,768]{2,1,0} multiply(add.1798, add.1798)
  reduce.1804 = f32[2,32]{1,0} reduce(multiply.1799, constant.115), dimensions={2}, to_apply=region_67.1803
  reshape.1805 = f32[2,32,1]{2,1,0} reshape(reduce.1804)
  divide.1806 = f32[2,32,1]{2,1,0} divide(reshape.1805, broadcast.61)
  add.1807 = f32[2,32,1]{2,1,0} add(divide.1806, broadcast.59)
  sqrt.1808 = f32[2,32,1]{2,1,0} sqrt(add.1807)
  broadcast.1809 = f32[2,32,1]{2,1,0} broadcast(sqrt.1808), dimensions={0,1,2}
  reshape.1810 = f32[2,32]{1,0} reshape(broadcast.1809)
  broadcast.1811 = f32[2,32,768]{2,1,0} broadcast(reshape.1810), dimensions={0,1}
  divide.1812 = f32[2,32,768]{2,1,0} divide(add.1798, broadcast.1811)
  multiply.1816 = f32[2,32,768]{2,1,0} multiply(broadcast.1815, divide.1812)
  constant.213 = f32[768,768]{1,0} constant({...})
  dot.1819 = f32[2,32,768]{2,1,0} dot(multiply.1816, constant.213), lhs_contracting_dims={2}, rhs_contracting_dims={0}
  reshape.1822 = f32[2,32,12,64]{3,2,1,0} reshape(dot.1819)
  constant.211 = f32[768,768]{1,0} constant({...})
  dot.1817 = f32[2,32,768]{2,1,0} dot(multiply.1816, constant.211), lhs_contracting_dims={2}, rhs_contracting_dims={0}
  reshape.1820 = f32[2,32,12,64]{3,2,1,0} reshape(dot.1817)
  multiply.1823 = f32[2,32,12,64]{3,2,1,0} multiply(reshape.1820, broadcast.56)
  divide.1824 = f32[2,32,12,64]{3,2,1,0} divide(multiply.1823, broadcast.56)
  constant.212 = f32[768,768]{1,0} constant({...})
  dot.1818 = f32[2,32,768]{2,1,0} dot(multiply.1816, constant.212), lhs_contracting_dims={2}, rhs_contracting_dims={0}
  reshape.1821 = f32[2,32,12,64]{3,2,1,0} reshape(dot.1818)
  dot.1825 = f32[2,12,32,32]{3,2,1,0} dot(divide.1824, reshape.1821), lhs_batch_dims={0,2}, lhs_contracting_dims={3}, rhs_batch_dims={0,2}, rhs_contracting_dims={3}
  add.1826 = f32[2,12,32,32]{3,2,1,0} add(dot.1825, add.1545)
  reduce.1831 = f32[2,12,32]{2,1,0} reduce(add.1826, constant.112), dimensions={3}, to_apply=region_68.1830
  maximum.1832 = f32[2,12,32]{2,1,0} maximum(reduce.1831, broadcast.42)
  reshape.1833 = f32[2,12,32,1]{3,2,1,0} reshape(maximum.1832)
  broadcast.1834 = f32[2,12,32,1]{3,2,1,0} broadcast(reshape.1833), dimensions={0,1,2,3}
  reshape.1835 = f32[2,12,32]{2,1,0} reshape(broadcast.1834)
  broadcast.1836 = f32[2,12,32,32]{3,2,1,0} broadcast(reshape.1835), dimensions={0,1,2}
  subtract.1837 = f32[2,12,32,32]{3,2,1,0} subtract(add.1826, broadcast.1836)
  exponential.1838 = f32[2,12,32,32]{3,2,1,0} exponential(subtract.1837)
  reduce.1843 = f32[2,12,32]{2,1,0} reduce(exponential.1838, constant.115), dimensions={3}, to_apply=region_69.1842
  reshape.1844 = f32[2,12,32,1]{3,2,1,0} reshape(reduce.1843)
  broadcast.1845 = f32[2,12,32,1]{3,2,1,0} broadcast(reshape.1844), dimensions={0,1,2,3}
  reshape.1846 = f32[2,12,32]{2,1,0} reshape(broadcast.1845)
  broadcast.1847 = f32[2,12,32,32]{3,2,1,0} broadcast(reshape.1846), dimensions={0,1,2}
  divide.1848 = f32[2,12,32,32]{3,2,1,0} divide(exponential.1838, broadcast.1847)
  dot.1849 = f32[2,12,64,32]{3,2,1,0} dot(reshape.1822, divide.1848), lhs_batch_dims={0,2}, lhs_contracting_dims={1}, rhs_batch_dims={0,1}, rhs_contracting_dims={3}
  transpose.1850 = f32[2,32,12,64]{1,3,2,0} transpose(dot.1849), dimensions={0,3,1,2}
  reshape.1851 = f32[2,32,768]{2,1,0} reshape(transpose.1850)
  constant.214 = f32[768,768]{1,0} constant({...})
  dot.1852 = f32[2,32,768]{2,1,0} dot(reshape.1851, constant.214), lhs_contracting_dims={2}, rhs_contracting_dims={0}
  add.1853 = f32[2,32,768]{2,1,0} add(add.1798, dot.1852)
  constant.217 = f32[768,768]{1,0} constant({...})
  dot.1874 = f32[2,64,768]{2,1,0} dot(multiply.1378, constant.217), lhs_contracting_dims={2}, rhs_contracting_dims={0}
  reshape.1877 = f32[2,64,12,64]{3,2,1,0} reshape(dot.1874)
  constant.34 = f32[1,1,768]{2,1,0} constant({...})
  broadcast.1868 = f32[1,1,768]{2,1,0} broadcast(constant.34), dimensions={0,1,2}
  reshape.1869 = f32[768]{0} reshape(broadcast.1868)
  broadcast.1870 = f32[2,32,768]{2,1,0} broadcast(reshape.1869), dimensions={2}
  multiply.1854 = f32[2,32,768]{2,1,0} multiply(add.1853, add.1853)
  reduce.1859 = f32[2,32]{1,0} reduce(multiply.1854, constant.115), dimensions={2}, to_apply=region_70.1858
  reshape.1860 = f32[2,32,1]{2,1,0} reshape(reduce.1859)
  divide.1861 = f32[2,32,1]{2,1,0} divide(reshape.1860, broadcast.61)
  add.1862 = f32[2,32,1]{2,1,0} add(divide.1861, broadcast.59)
  sqrt.1863 = f32[2,32,1]{2,1,0} sqrt(add.1862)
  broadcast.1864 = f32[2,32,1]{2,1,0} broadcast(sqrt.1863), dimensions={0,1,2}
  reshape.1865 = f32[2,32]{1,0} reshape(broadcast.1864)
  broadcast.1866 = f32[2,32,768]{2,1,0} broadcast(reshape.1865), dimensions={0,1}
  divide.1867 = f32[2,32,768]{2,1,0} divide(add.1853, broadcast.1866)
  multiply.1871 = f32[2,32,768]{2,1,0} multiply(broadcast.1870, divide.1867)
  constant.215 = f32[768,768]{1,0} constant({...})
  dot.1872 = f32[2,32,768]{2,1,0} dot(multiply.1871, constant.215), lhs_contracting_dims={2}, rhs_contracting_dims={0}
  reshape.1875 = f32[2,32,12,64]{3,2,1,0} reshape(dot.1872)
  multiply.1878 = f32[2,32,12,64]{3,2,1,0} multiply(reshape.1875, broadcast.56)
  divide.1879 = f32[2,32,12,64]{3,2,1,0} divide(multiply.1878, broadcast.56)
  constant.216 = f32[768,768]{1,0} constant({...})
  dot.1873 = f32[2,64,768]{2,1,0} dot(multiply.1378, constant.216), lhs_contracting_dims={2}, rhs_contracting_dims={0}
  reshape.1876 = f32[2,64,12,64]{3,2,1,0} reshape(dot.1873)
  dot.1880 = f32[2,12,32,64]{3,2,1,0} dot(divide.1879, reshape.1876), lhs_batch_dims={0,2}, lhs_contracting_dims={3}, rhs_batch_dims={0,2}, rhs_contracting_dims={3}
  broadcast.1881 = f32[2,1,1,64]{3,2,1,0} broadcast(select.1603), dimensions={0,1,2,3}
  reshape.1882 = f32[2,64]{1,0} reshape(broadcast.1881)
  broadcast.1883 = f32[2,12,32,64]{3,2,1,0} broadcast(reshape.1882), dimensions={0,3}
  add.1884 = f32[2,12,32,64]{3,2,1,0} add(dot.1880, broadcast.1883)
  reduce.1889 = f32[2,12,32]{2,1,0} reduce(add.1884, constant.112), dimensions={3}, to_apply=region_71.1888
  maximum.1890 = f32[2,12,32]{2,1,0} maximum(reduce.1889, broadcast.42)
  reshape.1891 = f32[2,12,32,1]{3,2,1,0} reshape(maximum.1890)
  broadcast.1892 = f32[2,12,32,1]{3,2,1,0} broadcast(reshape.1891), dimensions={0,1,2,3}
  reshape.1893 = f32[2,12,32]{2,1,0} reshape(broadcast.1892)
  broadcast.1894 = f32[2,12,32,64]{3,2,1,0} broadcast(reshape.1893), dimensions={0,1,2}
  subtract.1895 = f32[2,12,32,64]{3,2,1,0} subtract(add.1884, broadcast.1894)
  exponential.1896 = f32[2,12,32,64]{3,2,1,0} exponential(subtract.1895)
  reduce.1901 = f32[2,12,32]{2,1,0} reduce(exponential.1896, constant.115), dimensions={3}, to_apply=region_72.1900
  reshape.1902 = f32[2,12,32,1]{3,2,1,0} reshape(reduce.1901)
  broadcast.1903 = f32[2,12,32,1]{3,2,1,0} broadcast(reshape.1902), dimensions={0,1,2,3}
  reshape.1904 = f32[2,12,32]{2,1,0} reshape(broadcast.1903)
  broadcast.1905 = f32[2,12,32,64]{3,2,1,0} broadcast(reshape.1904), dimensions={0,1,2}
  divide.1906 = f32[2,12,32,64]{3,2,1,0} divide(exponential.1896, broadcast.1905)
  dot.1907 = f32[2,12,64,32]{3,2,1,0} dot(reshape.1877, divide.1906), lhs_batch_dims={0,2}, lhs_contracting_dims={1}, rhs_batch_dims={0,1}, rhs_contracting_dims={3}
  transpose.1908 = f32[2,32,12,64]{1,3,2,0} transpose(dot.1907), dimensions={0,3,1,2}
  reshape.1909 = f32[2,32,768]{2,1,0} reshape(transpose.1908)
  constant.218 = f32[768,768]{1,0} constant({...})
  dot.1910 = f32[2,32,768]{2,1,0} dot(reshape.1909, constant.218), lhs_contracting_dims={2}, rhs_contracting_dims={0}
  add.1911 = f32[2,32,768]{2,1,0} add(add.1853, dot.1910)
  constant.33 = f32[1,1,768]{2,1,0} constant({...})
  broadcast.1926 = f32[1,1,768]{2,1,0} broadcast(constant.33), dimensions={0,1,2}
  reshape.1927 = f32[768]{0} reshape(broadcast.1926)
  broadcast.1928 = f32[2,32,768]{2,1,0} broadcast(reshape.1927), dimensions={2}
  multiply.1912 = f32[2,32,768]{2,1,0} multiply(add.1911, add.1911)
  reduce.1917 = f32[2,32]{1,0} reduce(multiply.1912, constant.115), dimensions={2}, to_apply=region_73.1916
  reshape.1918 = f32[2,32,1]{2,1,0} reshape(reduce.1917)
  divide.1919 = f32[2,32,1]{2,1,0} divide(reshape.1918, broadcast.61)
  add.1920 = f32[2,32,1]{2,1,0} add(divide.1919, broadcast.59)
  sqrt.1921 = f32[2,32,1]{2,1,0} sqrt(add.1920)
  broadcast.1922 = f32[2,32,1]{2,1,0} broadcast(sqrt.1921), dimensions={0,1,2}
  reshape.1923 = f32[2,32]{1,0} reshape(broadcast.1922)
  broadcast.1924 = f32[2,32,768]{2,1,0} broadcast(reshape.1923), dimensions={0,1}
  divide.1925 = f32[2,32,768]{2,1,0} divide(add.1911, broadcast.1924)
  multiply.1929 = f32[2,32,768]{2,1,0} multiply(broadcast.1928, divide.1925)
  constant.219 = f32[768,3072]{1,0} constant({...})
  dot.1930 = f32[2,32,3072]{2,1,0} dot(multiply.1929, constant.219), lhs_contracting_dims={2}, rhs_contracting_dims={0}
  call.1931 = f32[2,32,3072]{2,1,0} call(dot.1930), to_apply=relu_10.1660
  constant.220 = f32[3072,768]{1,0} constant({...})
  dot.1932 = f32[2,32,768]{2,1,0} dot(call.1931, constant.220), lhs_contracting_dims={2}, rhs_contracting_dims={0}
  add.1933 = f32[2,32,768]{2,1,0} add(add.1911, dot.1932)
  constant.32 = f32[1,1,768]{2,1,0} constant({...})
  broadcast.1948 = f32[1,1,768]{2,1,0} broadcast(constant.32), dimensions={0,1,2}
  reshape.1949 = f32[768]{0} reshape(broadcast.1948)
  broadcast.1950 = f32[2,32,768]{2,1,0} broadcast(reshape.1949), dimensions={2}
  multiply.1934 = f32[2,32,768]{2,1,0} multiply(add.1933, add.1933)
  reduce.1939 = f32[2,32]{1,0} reduce(multiply.1934, constant.115), dimensions={2}, to_apply=region_74.1938
  reshape.1940 = f32[2,32,1]{2,1,0} reshape(reduce.1939)
  divide.1941 = f32[2,32,1]{2,1,0} divide(reshape.1940, broadcast.61)
  add.1942 = f32[2,32,1]{2,1,0} add(divide.1941, broadcast.59)
  sqrt.1943 = f32[2,32,1]{2,1,0} sqrt(add.1942)
  broadcast.1944 = f32[2,32,1]{2,1,0} broadcast(sqrt.1943), dimensions={0,1,2}
  reshape.1945 = f32[2,32]{1,0} reshape(broadcast.1944)
  broadcast.1946 = f32[2,32,768]{2,1,0} broadcast(reshape.1945), dimensions={0,1}
  divide.1947 = f32[2,32,768]{2,1,0} divide(add.1933, broadcast.1946)
  multiply.1951 = f32[2,32,768]{2,1,0} multiply(broadcast.1950, divide.1947)
  constant.223 = f32[768,768]{1,0} constant({...})
  dot.1954 = f32[2,32,768]{2,1,0} dot(multiply.1951, constant.223), lhs_contracting_dims={2}, rhs_contracting_dims={0}
  reshape.1957 = f32[2,32,12,64]{3,2,1,0} reshape(dot.1954)
  constant.221 = f32[768,768]{1,0} constant({...})
  dot.1952 = f32[2,32,768]{2,1,0} dot(multiply.1951, constant.221), lhs_contracting_dims={2}, rhs_contracting_dims={0}
  reshape.1955 = f32[2,32,12,64]{3,2,1,0} reshape(dot.1952)
  multiply.1958 = f32[2,32,12,64]{3,2,1,0} multiply(reshape.1955, broadcast.56)
  divide.1959 = f32[2,32,12,64]{3,2,1,0} divide(multiply.1958, broadcast.56)
  constant.222 = f32[768,768]{1,0} constant({...})
  dot.1953 = f32[2,32,768]{2,1,0} dot(multiply.1951, constant.222), lhs_contracting_dims={2}, rhs_contracting_dims={0}
  reshape.1956 = f32[2,32,12,64]{3,2,1,0} reshape(dot.1953)
  dot.1960 = f32[2,12,32,32]{3,2,1,0} dot(divide.1959, reshape.1956), lhs_batch_dims={0,2}, lhs_contracting_dims={3}, rhs_batch_dims={0,2}, rhs_contracting_dims={3}
  add.1961 = f32[2,12,32,32]{3,2,1,0} add(dot.1960, add.1545)
  reduce.1966 = f32[2,12,32]{2,1,0} reduce(add.1961, constant.112), dimensions={3}, to_apply=region_75.1965
  maximum.1967 = f32[2,12,32]{2,1,0} maximum(reduce.1966, broadcast.42)
  reshape.1968 = f32[2,12,32,1]{3,2,1,0} reshape(maximum.1967)
  broadcast.1969 = f32[2,12,32,1]{3,2,1,0} broadcast(reshape.1968), dimensions={0,1,2,3}
  reshape.1970 = f32[2,12,32]{2,1,0} reshape(broadcast.1969)
  broadcast.1971 = f32[2,12,32,32]{3,2,1,0} broadcast(reshape.1970), dimensions={0,1,2}
  subtract.1972 = f32[2,12,32,32]{3,2,1,0} subtract(add.1961, broadcast.1971)
  exponential.1973 = f32[2,12,32,32]{3,2,1,0} exponential(subtract.1972)
  reduce.1978 = f32[2,12,32]{2,1,0} reduce(exponential.1973, constant.115), dimensions={3}, to_apply=region_76.1977
  reshape.1979 = f32[2,12,32,1]{3,2,1,0} reshape(reduce.1978)
  broadcast.1980 = f32[2,12,32,1]{3,2,1,0} broadcast(reshape.1979), dimensions={0,1,2,3}
  reshape.1981 = f32[2,12,32]{2,1,0} reshape(broadcast.1980)
  broadcast.1982 = f32[2,12,32,32]{3,2,1,0} broadcast(reshape.1981), dimensions={0,1,2}
  divide.1983 = f32[2,12,32,32]{3,2,1,0} divide(exponential.1973, broadcast.1982)
  dot.1984 = f32[2,12,64,32]{3,2,1,0} dot(reshape.1957, divide.1983), lhs_batch_dims={0,2}, lhs_contracting_dims={1}, rhs_batch_dims={0,1}, rhs_contracting_dims={3}
  transpose.1985 = f32[2,32,12,64]{1,3,2,0} transpose(dot.1984), dimensions={0,3,1,2}
  reshape.1986 = f32[2,32,768]{2,1,0} reshape(transpose.1985)
  constant.224 = f32[768,768]{1,0} constant({...})
  dot.1987 = f32[2,32,768]{2,1,0} dot(reshape.1986, constant.224), lhs_contracting_dims={2}, rhs_contracting_dims={0}
  add.1988 = f32[2,32,768]{2,1,0} add(add.1933, dot.1987)
  constant.227 = f32[768,768]{1,0} constant({...})
  dot.2009 = f32[2,64,768]{2,1,0} dot(multiply.1378, constant.227), lhs_contracting_dims={2}, rhs_contracting_dims={0}
  reshape.2012 = f32[2,64,12,64]{3,2,1,0} reshape(dot.2009)
  constant.31 = f32[1,1,768]{2,1,0} constant({...})
  broadcast.2003 = f32[1,1,768]{2,1,0} broadcast(constant.31), dimensions={0,1,2}
  reshape.2004 = f32[768]{0} reshape(broadcast.2003)
  broadcast.2005 = f32[2,32,768]{2,1,0} broadcast(reshape.2004), dimensions={2}
  multiply.1989 = f32[2,32,768]{2,1,0} multiply(add.1988, add.1988)
  reduce.1994 = f32[2,32]{1,0} reduce(multiply.1989, constant.115), dimensions={2}, to_apply=region_77.1993
  reshape.1995 = f32[2,32,1]{2,1,0} reshape(reduce.1994)
  divide.1996 = f32[2,32,1]{2,1,0} divide(reshape.1995, broadcast.61)
  add.1997 = f32[2,32,1]{2,1,0} add(divide.1996, broadcast.59)
  sqrt.1998 = f32[2,32,1]{2,1,0} sqrt(add.1997)
  broadcast.1999 = f32[2,32,1]{2,1,0} broadcast(sqrt.1998), dimensions={0,1,2}
  reshape.2000 = f32[2,32]{1,0} reshape(broadcast.1999)
  broadcast.2001 = f32[2,32,768]{2,1,0} broadcast(reshape.2000), dimensions={0,1}
  divide.2002 = f32[2,32,768]{2,1,0} divide(add.1988, broadcast.2001)
  multiply.2006 = f32[2,32,768]{2,1,0} multiply(broadcast.2005, divide.2002)
  constant.225 = f32[768,768]{1,0} constant({...})
  dot.2007 = f32[2,32,768]{2,1,0} dot(multiply.2006, constant.225), lhs_contracting_dims={2}, rhs_contracting_dims={0}
  reshape.2010 = f32[2,32,12,64]{3,2,1,0} reshape(dot.2007)
  multiply.2013 = f32[2,32,12,64]{3,2,1,0} multiply(reshape.2010, broadcast.56)
  divide.2014 = f32[2,32,12,64]{3,2,1,0} divide(multiply.2013, broadcast.56)
  constant.226 = f32[768,768]{1,0} constant({...})
  dot.2008 = f32[2,64,768]{2,1,0} dot(multiply.1378, constant.226), lhs_contracting_dims={2}, rhs_contracting_dims={0}
  reshape.2011 = f32[2,64,12,64]{3,2,1,0} reshape(dot.2008)
  dot.2015 = f32[2,12,32,64]{3,2,1,0} dot(divide.2014, reshape.2011), lhs_batch_dims={0,2}, lhs_contracting_dims={3}, rhs_batch_dims={0,2}, rhs_contracting_dims={3}
  broadcast.2016 = f32[2,1,1,64]{3,2,1,0} broadcast(select.1603), dimensions={0,1,2,3}
  reshape.2017 = f32[2,64]{1,0} reshape(broadcast.2016)
  broadcast.2018 = f32[2,12,32,64]{3,2,1,0} broadcast(reshape.2017), dimensions={0,3}
  add.2019 = f32[2,12,32,64]{3,2,1,0} add(dot.2015, broadcast.2018)
  reduce.2024 = f32[2,12,32]{2,1,0} reduce(add.2019, constant.112), dimensions={3}, to_apply=region_78.2023
  maximum.2025 = f32[2,12,32]{2,1,0} maximum(reduce.2024, broadcast.42)
  reshape.2026 = f32[2,12,32,1]{3,2,1,0} reshape(maximum.2025)
  broadcast.2027 = f32[2,12,32,1]{3,2,1,0} broadcast(reshape.2026), dimensions={0,1,2,3}
  reshape.2028 = f32[2,12,32]{2,1,0} reshape(broadcast.2027)
  broadcast.2029 = f32[2,12,32,64]{3,2,1,0} broadcast(reshape.2028), dimensions={0,1,2}
  subtract.2030 = f32[2,12,32,64]{3,2,1,0} subtract(add.2019, broadcast.2029)
  exponential.2031 = f32[2,12,32,64]{3,2,1,0} exponential(subtract.2030)
  reduce.2036 = f32[2,12,32]{2,1,0} reduce(exponential.2031, constant.115), dimensions={3}, to_apply=region_79.2035
  reshape.2037 = f32[2,12,32,1]{3,2,1,0} reshape(reduce.2036)
  broadcast.2038 = f32[2,12,32,1]{3,2,1,0} broadcast(reshape.2037), dimensions={0,1,2,3}
  reshape.2039 = f32[2,12,32]{2,1,0} reshape(broadcast.2038)
  broadcast.2040 = f32[2,12,32,64]{3,2,1,0} broadcast(reshape.2039), dimensions={0,1,2}
  divide.2041 = f32[2,12,32,64]{3,2,1,0} divide(exponential.2031, broadcast.2040)
  dot.2042 = f32[2,12,64,32]{3,2,1,0} dot(reshape.2012, divide.2041), lhs_batch_dims={0,2}, lhs_contracting_dims={1}, rhs_batch_dims={0,1}, rhs_contracting_dims={3}
  transpose.2043 = f32[2,32,12,64]{1,3,2,0} transpose(dot.2042), dimensions={0,3,1,2}
  reshape.2044 = f32[2,32,768]{2,1,0} reshape(transpose.2043)
  constant.228 = f32[768,768]{1,0} constant({...})
  dot.2045 = f32[2,32,768]{2,1,0} dot(reshape.2044, constant.228), lhs_contracting_dims={2}, rhs_contracting_dims={0}
  add.2046 = f32[2,32,768]{2,1,0} add(add.1988, dot.2045)
  constant.30 = f32[1,1,768]{2,1,0} constant({...})
  broadcast.2061 = f32[1,1,768]{2,1,0} broadcast(constant.30), dimensions={0,1,2}
  reshape.2062 = f32[768]{0} reshape(broadcast.2061)
  broadcast.2063 = f32[2,32,768]{2,1,0} broadcast(reshape.2062), dimensions={2}
  multiply.2047 = f32[2,32,768]{2,1,0} multiply(add.2046, add.2046)
  reduce.2052 = f32[2,32]{1,0} reduce(multiply.2047, constant.115), dimensions={2}, to_apply=region_80.2051
  reshape.2053 = f32[2,32,1]{2,1,0} reshape(reduce.2052)
  divide.2054 = f32[2,32,1]{2,1,0} divide(reshape.2053, broadcast.61)
  add.2055 = f32[2,32,1]{2,1,0} add(divide.2054, broadcast.59)
  sqrt.2056 = f32[2,32,1]{2,1,0} sqrt(add.2055)
  broadcast.2057 = f32[2,32,1]{2,1,0} broadcast(sqrt.2056), dimensions={0,1,2}
  reshape.2058 = f32[2,32]{1,0} reshape(broadcast.2057)
  broadcast.2059 = f32[2,32,768]{2,1,0} broadcast(reshape.2058), dimensions={0,1}
  divide.2060 = f32[2,32,768]{2,1,0} divide(add.2046, broadcast.2059)
  multiply.2064 = f32[2,32,768]{2,1,0} multiply(broadcast.2063, divide.2060)
  constant.229 = f32[768,3072]{1,0} constant({...})
  dot.2065 = f32[2,32,3072]{2,1,0} dot(multiply.2064, constant.229), lhs_contracting_dims={2}, rhs_contracting_dims={0}
  call.2066 = f32[2,32,3072]{2,1,0} call(dot.2065), to_apply=relu_10.1660
  constant.230 = f32[3072,768]{1,0} constant({...})
  dot.2067 = f32[2,32,768]{2,1,0} dot(call.2066, constant.230), lhs_contracting_dims={2}, rhs_contracting_dims={0}
  add.2068 = f32[2,32,768]{2,1,0} add(add.2046, dot.2067)
  constant.29 = f32[1,1,768]{2,1,0} constant({...})
  broadcast.2083 = f32[1,1,768]{2,1,0} broadcast(constant.29), dimensions={0,1,2}
  reshape.2084 = f32[768]{0} reshape(broadcast.2083)
  broadcast.2085 = f32[2,32,768]{2,1,0} broadcast(reshape.2084), dimensions={2}
  multiply.2069 = f32[2,32,768]{2,1,0} multiply(add.2068, add.2068)
  reduce.2074 = f32[2,32]{1,0} reduce(multiply.2069, constant.115), dimensions={2}, to_apply=region_81.2073
  reshape.2075 = f32[2,32,1]{2,1,0} reshape(reduce.2074)
  divide.2076 = f32[2,32,1]{2,1,0} divide(reshape.2075, broadcast.61)
  add.2077 = f32[2,32,1]{2,1,0} add(divide.2076, broadcast.59)
  sqrt.2078 = f32[2,32,1]{2,1,0} sqrt(add.2077)
  broadcast.2079 = f32[2,32,1]{2,1,0} broadcast(sqrt.2078), dimensions={0,1,2}
  reshape.2080 = f32[2,32]{1,0} reshape(broadcast.2079)
  broadcast.2081 = f32[2,32,768]{2,1,0} broadcast(reshape.2080), dimensions={0,1}
  divide.2082 = f32[2,32,768]{2,1,0} divide(add.2068, broadcast.2081)
  multiply.2086 = f32[2,32,768]{2,1,0} multiply(broadcast.2085, divide.2082)
  constant.233 = f32[768,768]{1,0} constant({...})
  dot.2089 = f32[2,32,768]{2,1,0} dot(multiply.2086, constant.233), lhs_contracting_dims={2}, rhs_contracting_dims={0}
  reshape.2092 = f32[2,32,12,64]{3,2,1,0} reshape(dot.2089)
  constant.231 = f32[768,768]{1,0} constant({...})
  dot.2087 = f32[2,32,768]{2,1,0} dot(multiply.2086, constant.231), lhs_contracting_dims={2}, rhs_contracting_dims={0}
  reshape.2090 = f32[2,32,12,64]{3,2,1,0} reshape(dot.2087)
  multiply.2093 = f32[2,32,12,64]{3,2,1,0} multiply(reshape.2090, broadcast.56)
  divide.2094 = f32[2,32,12,64]{3,2,1,0} divide(multiply.2093, broadcast.56)
  constant.232 = f32[768,768]{1,0} constant({...})
  dot.2088 = f32[2,32,768]{2,1,0} dot(multiply.2086, constant.232), lhs_contracting_dims={2}, rhs_contracting_dims={0}
  reshape.2091 = f32[2,32,12,64]{3,2,1,0} reshape(dot.2088)
  dot.2095 = f32[2,12,32,32]{3,2,1,0} dot(divide.2094, reshape.2091), lhs_batch_dims={0,2}, lhs_contracting_dims={3}, rhs_batch_dims={0,2}, rhs_contracting_dims={3}
  add.2096 = f32[2,12,32,32]{3,2,1,0} add(dot.2095, add.1545)
  reduce.2101 = f32[2,12,32]{2,1,0} reduce(add.2096, constant.112), dimensions={3}, to_apply=region_82.2100
  maximum.2102 = f32[2,12,32]{2,1,0} maximum(reduce.2101, broadcast.42)
  reshape.2103 = f32[2,12,32,1]{3,2,1,0} reshape(maximum.2102)
  broadcast.2104 = f32[2,12,32,1]{3,2,1,0} broadcast(reshape.2103), dimensions={0,1,2,3}
  reshape.2105 = f32[2,12,32]{2,1,0} reshape(broadcast.2104)
  broadcast.2106 = f32[2,12,32,32]{3,2,1,0} broadcast(reshape.2105), dimensions={0,1,2}
  subtract.2107 = f32[2,12,32,32]{3,2,1,0} subtract(add.2096, broadcast.2106)
  exponential.2108 = f32[2,12,32,32]{3,2,1,0} exponential(subtract.2107)
  reduce.2113 = f32[2,12,32]{2,1,0} reduce(exponential.2108, constant.115), dimensions={3}, to_apply=region_83.2112
  reshape.2114 = f32[2,12,32,1]{3,2,1,0} reshape(reduce.2113)
  broadcast.2115 = f32[2,12,32,1]{3,2,1,0} broadcast(reshape.2114), dimensions={0,1,2,3}
  reshape.2116 = f32[2,12,32]{2,1,0} reshape(broadcast.2115)
  broadcast.2117 = f32[2,12,32,32]{3,2,1,0} broadcast(reshape.2116), dimensions={0,1,2}
  divide.2118 = f32[2,12,32,32]{3,2,1,0} divide(exponential.2108, broadcast.2117)
  dot.2119 = f32[2,12,64,32]{3,2,1,0} dot(reshape.2092, divide.2118), lhs_batch_dims={0,2}, lhs_contracting_dims={1}, rhs_batch_dims={0,1}, rhs_contracting_dims={3}
  transpose.2120 = f32[2,32,12,64]{1,3,2,0} transpose(dot.2119), dimensions={0,3,1,2}
  reshape.2121 = f32[2,32,768]{2,1,0} reshape(transpose.2120)
  constant.234 = f32[768,768]{1,0} constant({...})
  dot.2122 = f32[2,32,768]{2,1,0} dot(reshape.2121, constant.234), lhs_contracting_dims={2}, rhs_contracting_dims={0}
  add.2123 = f32[2,32,768]{2,1,0} add(add.2068, dot.2122)
  constant.237 = f32[768,768]{1,0} constant({...})
  dot.2144 = f32[2,64,768]{2,1,0} dot(multiply.1378, constant.237), lhs_contracting_dims={2}, rhs_contracting_dims={0}
  reshape.2147 = f32[2,64,12,64]{3,2,1,0} reshape(dot.2144)
  constant.28 = f32[1,1,768]{2,1,0} constant({...})
  broadcast.2138 = f32[1,1,768]{2,1,0} broadcast(constant.28), dimensions={0,1,2}
  reshape.2139 = f32[768]{0} reshape(broadcast.2138)
  broadcast.2140 = f32[2,32,768]{2,1,0} broadcast(reshape.2139), dimensions={2}
  multiply.2124 = f32[2,32,768]{2,1,0} multiply(add.2123, add.2123)
  reduce.2129 = f32[2,32]{1,0} reduce(multiply.2124, constant.115), dimensions={2}, to_apply=region_84.2128
  reshape.2130 = f32[2,32,1]{2,1,0} reshape(reduce.2129)
  divide.2131 = f32[2,32,1]{2,1,0} divide(reshape.2130, broadcast.61)
  add.2132 = f32[2,32,1]{2,1,0} add(divide.2131, broadcast.59)
  sqrt.2133 = f32[2,32,1]{2,1,0} sqrt(add.2132)
  broadcast.2134 = f32[2,32,1]{2,1,0} broadcast(sqrt.2133), dimensions={0,1,2}
  reshape.2135 = f32[2,32]{1,0} reshape(broadcast.2134)
  broadcast.2136 = f32[2,32,768]{2,1,0} broadcast(reshape.2135), dimensions={0,1}
  divide.2137 = f32[2,32,768]{2,1,0} divide(add.2123, broadcast.2136)
  multiply.2141 = f32[2,32,768]{2,1,0} multiply(broadcast.2140, divide.2137)
  constant.235 = f32[768,768]{1,0} constant({...})
  dot.2142 = f32[2,32,768]{2,1,0} dot(multiply.2141, constant.235), lhs_contracting_dims={2}, rhs_contracting_dims={0}
  reshape.2145 = f32[2,32,12,64]{3,2,1,0} reshape(dot.2142)
  multiply.2148 = f32[2,32,12,64]{3,2,1,0} multiply(reshape.2145, broadcast.56)
  divide.2149 = f32[2,32,12,64]{3,2,1,0} divide(multiply.2148, broadcast.56)
  constant.236 = f32[768,768]{1,0} constant({...})
  dot.2143 = f32[2,64,768]{2,1,0} dot(multiply.1378, constant.236), lhs_contracting_dims={2}, rhs_contracting_dims={0}
  reshape.2146 = f32[2,64,12,64]{3,2,1,0} reshape(dot.2143)
  dot.2150 = f32[2,12,32,64]{3,2,1,0} dot(divide.2149, reshape.2146), lhs_batch_dims={0,2}, lhs_contracting_dims={3}, rhs_batch_dims={0,2}, rhs_contracting_dims={3}
  broadcast.2151 = f32[2,1,1,64]{3,2,1,0} broadcast(select.1603), dimensions={0,1,2,3}
  reshape.2152 = f32[2,64]{1,0} reshape(broadcast.2151)
  broadcast.2153 = f32[2,12,32,64]{3,2,1,0} broadcast(reshape.2152), dimensions={0,3}
  add.2154 = f32[2,12,32,64]{3,2,1,0} add(dot.2150, broadcast.2153)
  reduce.2159 = f32[2,12,32]{2,1,0} reduce(add.2154, constant.112), dimensions={3}, to_apply=region_85.2158
  maximum.2160 = f32[2,12,32]{2,1,0} maximum(reduce.2159, broadcast.42)
  reshape.2161 = f32[2,12,32,1]{3,2,1,0} reshape(maximum.2160)
  broadcast.2162 = f32[2,12,32,1]{3,2,1,0} broadcast(reshape.2161), dimensions={0,1,2,3}
  reshape.2163 = f32[2,12,32]{2,1,0} reshape(broadcast.2162)
  broadcast.2164 = f32[2,12,32,64]{3,2,1,0} broadcast(reshape.2163), dimensions={0,1,2}
  subtract.2165 = f32[2,12,32,64]{3,2,1,0} subtract(add.2154, broadcast.2164)
  exponential.2166 = f32[2,12,32,64]{3,2,1,0} exponential(subtract.2165)
  reduce.2171 = f32[2,12,32]{2,1,0} reduce(exponential.2166, constant.115), dimensions={3}, to_apply=region_86.2170
  reshape.2172 = f32[2,12,32,1]{3,2,1,0} reshape(reduce.2171)
  broadcast.2173 = f32[2,12,32,1]{3,2,1,0} broadcast(reshape.2172), dimensions={0,1,2,3}
  reshape.2174 = f32[2,12,32]{2,1,0} reshape(broadcast.2173)
  broadcast.2175 = f32[2,12,32,64]{3,2,1,0} broadcast(reshape.2174), dimensions={0,1,2}
  divide.2176 = f32[2,12,32,64]{3,2,1,0} divide(exponential.2166, broadcast.2175)
  dot.2177 = f32[2,12,64,32]{3,2,1,0} dot(reshape.2147, divide.2176), lhs_batch_dims={0,2}, lhs_contracting_dims={1}, rhs_batch_dims={0,1}, rhs_contracting_dims={3}
  transpose.2178 = f32[2,32,12,64]{1,3,2,0} transpose(dot.2177), dimensions={0,3,1,2}
  reshape.2179 = f32[2,32,768]{2,1,0} reshape(transpose.2178)
  constant.238 = f32[768,768]{1,0} constant({...})
  dot.2180 = f32[2,32,768]{2,1,0} dot(reshape.2179, constant.238), lhs_contracting_dims={2}, rhs_contracting_dims={0}
  add.2181 = f32[2,32,768]{2,1,0} add(add.2123, dot.2180)
  constant.27 = f32[1,1,768]{2,1,0} constant({...})
  broadcast.2196 = f32[1,1,768]{2,1,0} broadcast(constant.27), dimensions={0,1,2}
  reshape.2197 = f32[768]{0} reshape(broadcast.2196)
  broadcast.2198 = f32[2,32,768]{2,1,0} broadcast(reshape.2197), dimensions={2}
  multiply.2182 = f32[2,32,768]{2,1,0} multiply(add.2181, add.2181)
  reduce.2187 = f32[2,32]{1,0} reduce(multiply.2182, constant.115), dimensions={2}, to_apply=region_87.2186
  reshape.2188 = f32[2,32,1]{2,1,0} reshape(reduce.2187)
  divide.2189 = f32[2,32,1]{2,1,0} divide(reshape.2188, broadcast.61)
  add.2190 = f32[2,32,1]{2,1,0} add(divide.2189, broadcast.59)
  sqrt.2191 = f32[2,32,1]{2,1,0} sqrt(add.2190)
  broadcast.2192 = f32[2,32,1]{2,1,0} broadcast(sqrt.2191), dimensions={0,1,2}
  reshape.2193 = f32[2,32]{1,0} reshape(broadcast.2192)
  broadcast.2194 = f32[2,32,768]{2,1,0} broadcast(reshape.2193), dimensions={0,1}
  divide.2195 = f32[2,32,768]{2,1,0} divide(add.2181, broadcast.2194)
  multiply.2199 = f32[2,32,768]{2,1,0} multiply(broadcast.2198, divide.2195)
  constant.239 = f32[768,3072]{1,0} constant({...})
  dot.2200 = f32[2,32,3072]{2,1,0} dot(multiply.2199, constant.239), lhs_contracting_dims={2}, rhs_contracting_dims={0}
  call.2201 = f32[2,32,3072]{2,1,0} call(dot.2200), to_apply=relu_10.1660
  constant.240 = f32[3072,768]{1,0} constant({...})
  dot.2202 = f32[2,32,768]{2,1,0} dot(call.2201, constant.240), lhs_contracting_dims={2}, rhs_contracting_dims={0}
  add.2203 = f32[2,32,768]{2,1,0} add(add.2181, dot.2202)
  constant.26 = f32[1,1,768]{2,1,0} constant({...})
  broadcast.2218 = f32[1,1,768]{2,1,0} broadcast(constant.26), dimensions={0,1,2}
  reshape.2219 = f32[768]{0} reshape(broadcast.2218)
…
  reduce.2441 = f32[2,12,32]{2,1,0} reduce(exponential.2436, constant.115), dimensions={3}, to_apply=region_100.2440
  reshape.2442 = f32[2,12,32,1]{3,2,1,0} reshape(reduce.2441)
  broadcast.2443 = f32[2,12,32,1]{3,2,1,0} broadcast(reshape.2442), dimensions={0,1,2,3}
  reshape.2444 = f32[2,12,32]{2,1,0} reshape(broadcast.2443)
  broadcast.2445 = f32[2,12,32,64]{3,2,1,0} broadcast(reshape.2444), dimensions={0,1,2}
  divide.2446 = f32[2,12,32,64]{3,2,1,0} divide(exponential.2436, broadcast.2445)
  dot.2447 = f32[2,12,64,32]{3,2,1,0} dot(reshape.2417, divide.2446), lhs_batch_dims={0,2}, lhs_contracting_dims={1}, rhs_batch_dims={0,1}, rhs_contracting_dims={3}
  transpose.2448 = f32[2,32,12,64]{1,3,2,0} transpose(dot.2447), dimensions={0,3,1,2}
  reshape.2449 = f32[2,32,768]{2,1,0} reshape(transpose.2448)
  constant.258 = f32[768,768]{1,0} constant({...})
  dot.2450 = f32[2,32,768]{2,1,0} dot(reshape.2449, constant.258), lhs_contracting_dims={2}, rhs_contracting_dims={0}
  add.2451 = f32[2,32,768]{2,1,0} add(add.2393, dot.2450)
  constant.21 = f32[1,1,768]{2,1,0} constant({...})
  broadcast.2466 = f32[1,1,768]{2,1,0} broadcast(constant.21), dimensions={0,1,2}
  reshape.2467 = f32[768]{0} reshape(broadcast.2466)
  broadcast.2468 = f32[2,32,768]{2,1,0} broadcast(reshape.2467), dimensions={2}
  multiply.2452 = f32[2,32,768]{2,1,0} multiply(add.2451, add.2451)
  reduce.2457 = f32[2,32]{1,0} reduce(multiply.2452, constant.115), dimensions={2}, to_apply=region_101.2456
  reshape.2458 = f32[2,32,1]{2,1,0} reshape(reduce.2457)
  divide.2459 = f32[2,32,1]{2,1,0} divide(reshape.2458, broadcast.61)
  add.2460 = f32[2,32,1]{2,1,0} add(divide.2459, broadcast.59)
  sqrt.2461 = f32[2,32,1]{2,1,0} sqrt(add.2460)
  broadcast.2462 = f32[2,32,1]{2,1,0} broadcast(sqrt.2461), dimensions={0,1,2}
  reshape.2463 = f32[2,32]{1,0} reshape(broadcast.2462)
  broadcast.2464 = f32[2,32,768]{2,1,0} broadcast(reshape.2463), dimensions={0,1}
  divide.2465 = f32[2,32,768]{2,1,0} divide(add.2451, broadcast.2464)
  multiply.2469 = f32[2,32,768]{2,1,0} multiply(broadcast.2468, divide.2465)
  constant.259 = f32[768,3072]{1,0} constant({...})
  dot.2470 = f32[2,32,3072]{2,1,0} dot(multiply.2469, constant.259), lhs_contracting_dims={2}, rhs_contracting_dims={0}
  call.2471 = f32[2,32,3072]{2,1,0} call(dot.2470), to_apply=relu_10.1660
  constant.260 = f32[3072,768]{1,0} constant({...})
  dot.2472 = f32[2,32,768]{2,1,0} dot(call.2471, constant.260), lhs_contracting_dims={2}, rhs_contracting_dims={0}
  add.2473 = f32[2,32,768]{2,1,0} add(add.2451, dot.2472)
  constant.20 = f32[1,1,768]{2,1,0} constant({...})
  broadcast.2488 = f32[1,1,768]{2,1,0} broadcast(constant.20), dimensions={0,1,2}
  reshape.2489 = f32[768]{0} reshape(broadcast.2488)
  broadcast.2490 = f32[2,32,768]{2,1,0} broadcast(reshape.2489), dimensions={2}
  multiply.2474 = f32[2,32,768]{2,1,0} multiply(add.2473, add.2473)
  reduce.2479 = f32[2,32]{1,0} reduce(multiply.2474, constant.115), dimensions={2}, to_apply=region_102.2478
  reshape.2480 = f32[2,32,1]{2,1,0} reshape(reduce.2479)
  divide.2481 = f32[2,32,1]{2,1,0} divide(reshape.2480, broadcast.61)
  add.2482 = f32[2,32,1]{2,1,0} add(divide.2481, broadcast.59)
  sqrt.2483 = f32[2,32,1]{2,1,0} sqrt(add.2482)
  broadcast.2484 = f32[2,32,1]{2,1,0} broadcast(sqrt.2483), dimensions={0,1,2}
  reshape.2485 = f32[2,32]{1,0} reshape(broadcast.2484)
  broadcast.2486 = f32[2,32,768]{2,1,0} broadcast(reshape.2485), dimensions={0,1}
  divide.2487 = f32[2,32,768]{2,1,0} divide(add.2473, broadcast.2486)
  multiply.2491 = f32[2,32,768]{2,1,0} multiply(broadcast.2490, divide.2487)
  constant.263 = f32[768,768]{1,0} constant({...})
  dot.2494 = f32[2,32,768]{2,1,0} dot(multiply.2491, constant.263), lhs_contracting_dims={2}, rhs_contracting_dims={0}
  reshape.2497 = f32[2,32,12,64]{3,2,1,0} reshape(dot.2494)
  constant.261 = f32[768,768]{1,0} constant({...})
  dot.2492 = f32[2,32,768]{2,1,0} dot(multiply.2491, constant.261), lhs_contracting_dims={2}, rhs_contracting_dims={0}
  reshape.2495 = f32[2,32,12,64]{3,2,1,0} reshape(dot.2492)
  multiply.2498 = f32[2,32,12,64]{3,2,1,0} multiply(reshape.2495, broadcast.56)
  divide.2499 = f32[2,32,12,64]{3,2,1,0} divide(multiply.2498, broadcast.56)
  constant.262 = f32[768,768]{1,0} constant({...})
  dot.2493 = f32[2,32,768]{2,1,0} dot(multiply.2491, constant.262), lhs_contracting_dims={2}, rhs_contracting_dims={0}
  reshape.2496 = f32[2,32,12,64]{3,2,1,0} reshape(dot.2493)
  dot.2500 = f32[2,12,32,32]{3,2,1,0} dot(divide.2499, reshape.2496), lhs_batch_dims={0,2}, lhs_contracting_dims={3}, rhs_batch_dims={0,2}, rhs_contracting_dims={3}
  add.2501 = f32[2,12,32,32]{3,2,1,0} add(dot.2500, add.1545)
  reduce.2506 = f32[2,12,32]{2,1,0} reduce(add.2501, constant.112), dimensions={3}, to_apply=region_103.2505
  maximum.2507 = f32[2,12,32]{2,1,0} maximum(reduce.2506, broadcast.42)
  reshape.2508 = f32[2,12,32,1]{3,2,1,0} reshape(maximum.2507)
  broadcast.2509 = f32[2,12,32,1]{3,2,1,0} broadcast(reshape.2508), dimensions={0,1,2,3}
  reshape.2510 = f32[2,12,32]{2,1,0} reshape(broadcast.2509)
  broadcast.2511 = f32[2,12,32,32]{3,2,1,0} broadcast(reshape.2510), dimensions={0,1,2}
  subtract.2512 = f32[2,12,32,32]{3,2,1,0} subtract(add.2501, broadcast.2511)
  exponential.2513 = f32[2,12,32,32]{3,2,1,0} exponential(subtract.2512)
  reduce.2518 = f32[2,12,32]{2,1,0} reduce(exponential.2513, constant.115), dimensions={3}, to_apply=region_104.2517
  reshape.2519 = f32[2,12,32,1]{3,2,1,0} reshape(reduce.2518)
  broadcast.2520 = f32[2,12,32,1]{3,2,1,0} broadcast(reshape.2519), dimensions={0,1,2,3}
  reshape.2521 = f32[2,12,32]{2,1,0} reshape(broadcast.2520)
  broadcast.2522 = f32[2,12,32,32]{3,2,1,0} broadcast(reshape.2521), dimensions={0,1,2}
  divide.2523 = f32[2,12,32,32]{3,2,1,0} divide(exponential.2513, broadcast.2522)
  dot.2524 = f32[2,12,64,32]{3,2,1,0} dot(reshape.2497, divide.2523), lhs_batch_dims={0,2}, lhs_contracting_dims={1}, rhs_batch_dims={0,1}, rhs_contracting_dims={3}
  transpose.2525 = f32[2,32,12,64]{1,3,2,0} transpose(dot.2524), dimensions={0,3,1,2}
  reshape.2526 = f32[2,32,768]{2,1,0} reshape(transpose.2525)
  constant.264 = f32[768,768]{1,0} constant({...})
  dot.2527 = f32[2,32,768]{2,1,0} dot(reshape.2526, constant.264), lhs_contracting_dims={2}, rhs_contracting_dims={0}
  add.2528 = f32[2,32,768]{2,1,0} add(add.2473, dot.2527)
  constant.267 = f32[768,768]{1,0} constant({...})
  dot.2549 = f32[2,64,768]{2,1,0} dot(multiply.1378, constant.267), lhs_contracting_dims={2}, rhs_contracting_dims={0}
  reshape.2552 = f32[2,64,12,64]{3,2,1,0} reshape(dot.2549)
  constant.19 = f32[1,1,768]{2,1,0} constant({...})
  broadcast.2543 = f32[1,1,768]{2,1,0} broadcast(constant.19), dimensions={0,1,2}
  reshape.2544 = f32[768]{0} reshape(broadcast.2543)
  broadcast.2545 = f32[2,32,768]{2,1,0} broadcast(reshape.2544), dimensions={2}
  multiply.2529 = f32[2,32,768]{2,1,0} multiply(add.2528, add.2528)
  reduce.2534 = f32[2,32]{1,0} reduce(multiply.2529, constant.115), dimensions={2}, to_apply=region_105.2533
  reshape.2535 = f32[2,32,1]{2,1,0} reshape(reduce.2534)
  divide.2536 = f32[2,32,1]{2,1,0} divide(reshape.2535, broadcast.61)
  add.2537 = f32[2,32,1]{2,1,0} add(divide.2536, broadcast.59)
  sqrt.2538 = f32[2,32,1]{2,1,0} sqrt(add.2537)
  broadcast.2539 = f32[2,32,1]{2,1,0} broadcast(sqrt.2538), dimensions={0,1,2}
  reshape.2540 = f32[2,32]{1,0} reshape(broadcast.2539)
  broadcast.2541 = f32[2,32,768]{2,1,0} broadcast(reshape.2540), dimensions={0,1}
  divide.2542 = f32[2,32,768]{2,1,0} divide(add.2528, broadcast.2541)
  multiply.2546 = f32[2,32,768]{2,1,0} multiply(broadcast.2545, divide.2542)
  constant.265 = f32[768,768]{1,0} constant({...})
  dot.2547 = f32[2,32,768]{2,1,0} dot(multiply.2546, constant.265), lhs_contracting_dims={2}, rhs_contracting_dims={0}
  reshape.2550 = f32[2,32,12,64]{3,2,1,0} reshape(dot.2547)
  multiply.2553 = f32[2,32,12,64]{3,2,1,0} multiply(reshape.2550, broadcast.56)
  divide.2554 = f32[2,32,12,64]{3,2,1,0} divide(multiply.2553, broadcast.56)
  constant.266 = f32[768,768]{1,0} constant({...})
  dot.2548 = f32[2,64,768]{2,1,0} dot(multiply.1378, constant.266), lhs_contracting_dims={2}, rhs_contracting_dims={0}
  reshape.2551 = f32[2,64,12,64]{3,2,1,0} reshape(dot.2548)
  dot.2555 = f32[2,12,32,64]{3,2,1,0} dot(divide.2554, reshape.2551), lhs_batch_dims={0,2}, lhs_contracting_dims={3}, rhs_batch_dims={0,2}, rhs_contracting_dims={3}
  broadcast.2556 = f32[2,1,1,64]{3,2,1,0} broadcast(select.1603), dimensions={0,1,2,3}
  reshape.2557 = f32[2,64]{1,0} reshape(broadcast.2556)
  broadcast.2558 = f32[2,12,32,64]{3,2,1,0} broadcast(reshape.2557), dimensions={0,3}
  add.2559 = f32[2,12,32,64]{3,2,1,0} add(dot.2555, broadcast.2558)
  reduce.2564 = f32[2,12,32]{2,1,0} reduce(add.2559, constant.112), dimensions={3}, to_apply=region_106.2563
  maximum.2565 = f32[2,12,32]{2,1,0} maximum(reduce.2564, broadcast.42)
  reshape.2566 = f32[2,12,32,1]{3,2,1,0} reshape(maximum.2565)
  broadcast.2567 = f32[2,12,32,1]{3,2,1,0} broadcast(reshape.2566), dimensions={0,1,2,3}
  reshape.2568 = f32[2,12,32]{2,1,0} reshape(broadcast.2567)
  broadcast.2569 = f32[2,12,32,64]{3,2,1,0} broadcast(reshape.2568), dimensions={0,1,2}
  subtract.2570 = f32[2,12,32,64]{3,2,1,0} subtract(add.2559, broadcast.2569)
  exponential.2571 = f32[2,12,32,64]{3,2,1,0} exponential(subtract.2570)
  reduce.2576 = f32[2,12,32]{2,1,0} reduce(exponential.2571, constant.115), dimensions={3}, to_apply=region_107.2575
  reshape.2577 = f32[2,12,32,1]{3,2,1,0} reshape(reduce.2576)
  broadcast.2578 = f32[2,12,32,1]{3,2,1,0} broadcast(reshape.2577), dimensions={0,1,2,3}
  reshape.2579 = f32[2,12,32]{2,1,0} reshape(broadcast.2578)
  broadcast.2580 = f32[2,12,32,64]{3,2,1,0} broadcast(reshape.2579), dimensions={0,1,2}
  divide.2581 = f32[2,12,32,64]{3,2,1,0} divide(exponential.2571, broadcast.2580)
  dot.2582 = f32[2,12,64,32]{3,2,1,0} dot(reshape.2552, divide.2581), lhs_batch_dims={0,2}, lhs_contracting_dims={1}, rhs_batch_dims={0,1}, rhs_contracting_dims={3}
  transpose.2583 = f32[2,32,12,64]{1,3,2,0} transpose(dot.2582), dimensions={0,3,1,2}
  reshape.2584 = f32[2,32,768]{2,1,0} reshape(transpose.2583)
  constant.268 = f32[768,768]{1,0} constant({...})
  dot.2585 = f32[2,32,768]{2,1,0} dot(reshape.2584, constant.268), lhs_contracting_dims={2}, rhs_contracting_dims={0}
  add.2586 = f32[2,32,768]{2,1,0} add(add.2528, dot.2585)
  constant.18 = f32[1,1,768]{2,1,0} constant({...})
  broadcast.2601 = f32[1,1,768]{2,1,0} broadcast(constant.18), dimensions={0,1,2}
  reshape.2602 = f32[768]{0} reshape(broadcast.2601)
  broadcast.2603 = f32[2,32,768]{2,1,0} broadcast(reshape.2602), dimensions={2}
  multiply.2587 = f32[2,32,768]{2,1,0} multiply(add.2586, add.2586)
  reduce.2592 = f32[2,32]{1,0} reduce(multiply.2587, constant.115), dimensions={2}, to_apply=region_108.2591
  reshape.2593 = f32[2,32,1]{2,1,0} reshape(reduce.2592)
  divide.2594 = f32[2,32,1]{2,1,0} divide(reshape.2593, broadcast.61)
  add.2595 = f32[2,32,1]{2,1,0} add(divide.2594, broadcast.59)
  sqrt.2596 = f32[2,32,1]{2,1,0} sqrt(add.2595)
  broadcast.2597 = f32[2,32,1]{2,1,0} broadcast(sqrt.2596), dimensions={0,1,2}
  reshape.2598 = f32[2,32]{1,0} reshape(broadcast.2597)
  broadcast.2599 = f32[2,32,768]{2,1,0} broadcast(reshape.2598), dimensions={0,1}
  divide.2600 = f32[2,32,768]{2,1,0} divide(add.2586, broadcast.2599)
  multiply.2604 = f32[2,32,768]{2,1,0} multiply(broadcast.2603, divide.2600)
  constant.269 = f32[768,3072]{1,0} constant({...})
  dot.2605 = f32[2,32,3072]{2,1,0} dot(multiply.2604, constant.269), lhs_contracting_dims={2}, rhs_contracting_dims={0}
  call.2606 = f32[2,32,3072]{2,1,0} call(dot.2605), to_apply=relu_10.1660
  constant.270 = f32[3072,768]{1,0} constant({...})
  dot.2607 = f32[2,32,768]{2,1,0} dot(call.2606, constant.270), lhs_contracting_dims={2}, rhs_contracting_dims={0}
  add.2608 = f32[2,32,768]{2,1,0} add(add.2586, dot.2607)
  constant.17 = f32[1,1,768]{2,1,0} constant({...})
  broadcast.2623 = f32[1,1,768]{2,1,0} broadcast(constant.17), dimensions={0,1,2}
  reshape.2624 = f32[768]{0} reshape(broadcast.2623)
  broadcast.2625 = f32[2,32,768]{2,1,0} broadcast(reshape.2624), dimensions={2}
  multiply.2609 = f32[2,32,768]{2,1,0} multiply(add.2608, add.2608)
  reduce.2614 = f32[2,32]{1,0} reduce(multiply.2609, constant.115), dimensions={2}, to_apply=region_109.2613
  reshape.2615 = f32[2,32,1]{2,1,0} reshape(reduce.2614)
  divide.2616 = f32[2,32,1]{2,1,0} divide(reshape.2615, broadcast.61)
  add.2617 = f32[2,32,1]{2,1,0} add(divide.2616, broadcast.59)
  sqrt.2618 = f32[2,32,1]{2,1,0} sqrt(add.2617)
  broadcast.2619 = f32[2,32,1]{2,1,0} broadcast(sqrt.2618), dimensions={0,1,2}
  reshape.2620 = f32[2,32]{1,0} reshape(broadcast.2619)
  broadcast.2621 = f32[2,32,768]{2,1,0} broadcast(reshape.2620), dimensions={0,1}
  divide.2622 = f32[2,32,768]{2,1,0} divide(add.2608, broadcast.2621)
  multiply.2626 = f32[2,32,768]{2,1,0} multiply(broadcast.2625, divide.2622)
  constant.273 = f32[768,768]{1,0} constant({...})
  dot.2629 = f32[2,32,768]{2,1,0} dot(multiply.2626, constant.273), lhs_contracting_dims={2}, rhs_contracting_dims={0}
  reshape.2632 = f32[2,32,12,64]{3,2,1,0} reshape(dot.2629)
  constant.271 = f32[768,768]{1,0} constant({...})
  dot.2627 = f32[2,32,768]{2,1,0} dot(multiply.2626, constant.271), lhs_contracting_dims={2}, rhs_contracting_dims={0}
  reshape.2630 = f32[2,32,12,64]{3,2,1,0} reshape(dot.2627)
  multiply.2633 = f32[2,32,12,64]{3,2,1,0} multiply(reshape.2630, broadcast.56)
  divide.2634 = f32[2,32,12,64]{3,2,1,0} divide(multiply.2633, broadcast.56)
  constant.272 = f32[768,768]{1,0} constant({...})
  dot.2628 = f32[2,32,768]{2,1,0} dot(multiply.2626, constant.272), lhs_contracting_dims={2}, rhs_contracting_dims={0}
  reshape.2631 = f32[2,32,12,64]{3,2,1,0} reshape(dot.2628)
  dot.2635 = f32[2,12,32,32]{3,2,1,0} dot(divide.2634, reshape.2631), lhs_batch_dims={0,2}, lhs_contracting_dims={3}, rhs_batch_dims={0,2}, rhs_contracting_dims={3}
  add.2636 = f32[2,12,32,32]{3,2,1,0} add(dot.2635, add.1545)
  reduce.2641 = f32[2,12,32]{2,1,0} reduce(add.2636, constant.112), dimensions={3}, to_apply=region_110.2640
  maximum.2642 = f32[2,12,32]{2,1,0} maximum(reduce.2641, broadcast.42)
  reshape.2643 = f32[2,12,32,1]{3,2,1,0} reshape(maximum.2642)
  broadcast.2644 = f32[2,12,32,1]{3,2,1,0} broadcast(reshape.2643), dimensions={0,1,2,3}
  reshape.2645 = f32[2,12,32]{2,1,0} reshape(broadcast.2644)
  broadcast.2646 = f32[2,12,32,32]{3,2,1,0} broadcast(reshape.2645), dimensions={0,1,2}
  subtract.2647 = f32[2,12,32,32]{3,2,1,0} subtract(add.2636, broadcast.2646)
  exponential.2648 = f32[2,12,32,32]{3,2,1,0} exponential(subtract.2647)
  reduce.2653 = f32[2,12,32]{2,1,0} reduce(exponential.2648, constant.115), dimensions={3}, to_apply=region_111.2652
  reshape.2654 = f32[2,12,32,1]{3,2,1,0} reshape(reduce.2653)
  broadcast.2655 = f32[2,12,32,1]{3,2,1,0} broadcast(reshape.2654), dimensions={0,1,2,3}
  reshape.2656 = f32[2,12,32]{2,1,0} reshape(broadcast.2655)
  broadcast.2657 = f32[2,12,32,32]{3,2,1,0} broadcast(reshape.2656), dimensions={0,1,2}
  divide.2658 = f32[2,12,32,32]{3,2,1,0} divide(exponential.2648, broadcast.2657)
  dot.2659 = f32[2,12,64,32]{3,2,1,0} dot(reshape.2632, divide.2658), lhs_batch_dims={0,2}, lhs_contracting_dims={1}, rhs_batch_dims={0,1}, rhs_contracting_dims={3}
  transpose.2660 = f32[2,32,12,64]{1,3,2,0} transpose(dot.2659), dimensions={0,3,1,2}
  reshape.2661 = f32[2,32,768]{2,1,0} reshape(transpose.2660)
  constant.274 = f32[768,768]{1,0} constant({...})
  dot.2662 = f32[2,32,768]{2,1,0} dot(reshape.2661, constant.274), lhs_contracting_dims={2}, rhs_contracting_dims={0}
  add.2663 = f32[2,32,768]{2,1,0} add(add.2608, dot.2662)
  constant.277 = f32[768,768]{1,0} constant({...})
  dot.2684 = f32[2,64,768]{2,1,0} dot(multiply.1378, constant.277), lhs_contracting_dims={2}, rhs_contracting_dims={0}
  reshape.2687 = f32[2,64,12,64]{3,2,1,0} reshape(dot.2684)
  constant.16 = f32[1,1,768]{2,1,0} constant({...})
  broadcast.2678 = f32[1,1,768]{2,1,0} broadcast(constant.16), dimensions={0,1,2}
  reshape.2679 = f32[768]{0} reshape(broadcast.2678)
  broadcast.2680 = f32[2,32,768]{2,1,0} broadcast(reshape.2679), dimensions={2}
  multiply.2664 = f32[2,32,768]{2,1,0} multiply(add.2663, add.2663)
  reduce.2669 = f32[2,32]{1,0} reduce(multiply.2664, constant.115), dimensions={2}, to_apply=region_112.2668
  reshape.2670 = f32[2,32,1]{2,1,0} reshape(reduce.2669)
  divide.2671 = f32[2,32,1]{2,1,0} divide(reshape.2670, broadcast.61)
  add.2672 = f32[2,32,1]{2,1,0} add(divide.2671, broadcast.59)
  sqrt.2673 = f32[2,32,1]{2,1,0} sqrt(add.2672)
  broadcast.2674 = f32[2,32,1]{2,1,0} broadcast(sqrt.2673), dimensions={0,1,2}
  reshape.2675 = f32[2,32]{1,0} reshape(broadcast.2674)
  broadcast.2676 = f32[2,32,768]{2,1,0} broadcast(reshape.2675), dimensions={0,1}
  divide.2677 = f32[2,32,768]{2,1,0} divide(add.2663, broadcast.2676)
  multiply.2681 = f32[2,32,768]{2,1,0} multiply(broadcast.2680, divide.2677)
  constant.275 = f32[768,768]{1,0} constant({...})
  dot.2682 = f32[2,32,768]{2,1,0} dot(multiply.2681, constant.275), lhs_contracting_dims={2}, rhs_contracting_dims={0}
  reshape.2685 = f32[2,32,12,64]{3,2,1,0} reshape(dot.2682)
  multiply.2688 = f32[2,32,12,64]{3,2,1,0} multiply(reshape.2685, broadcast.56)
  divide.2689 = f32[2,32,12,64]{3,2,1,0} divide(multiply.2688, broadcast.56)
  constant.276 = f32[768,768]{1,0} constant({...})
  dot.2683 = f32[2,64,768]{2,1,0} dot(multiply.1378, constant.276), lhs_contracting_dims={2}, rhs_contracting_dims={0}
  reshape.2686 = f32[2,64,12,64]{3,2,1,0} reshape(dot.2683)
  dot.2690 = f32[2,12,32,64]{3,2,1,0} dot(divide.2689, reshape.2686), lhs_batch_dims={0,2}, lhs_contracting_dims={3}, rhs_batch_dims={0,2}, rhs_contracting_dims={3}
  broadcast.2691 = f32[2,1,1,64]{3,2,1,0} broadcast(select.1603), dimensions={0,1,2,3}
  reshape.2692 = f32[2,64]{1,0} reshape(broadcast.2691)
  broadcast.2693 = f32[2,12,32,64]{3,2,1,0} broadcast(reshape.2692), dimensions={0,3}
  add.2694 = f32[2,12,32,64]{3,2,1,0} add(dot.2690, broadcast.2693)
  reduce.2699 = f32[2,12,32]{2,1,0} reduce(add.2694, constant.112), dimensions={3}, to_apply=region_113.2698
  maximum.2700 = f32[2,12,32]{2,1,0} maximum(reduce.2699, broadcast.42)
  reshape.2701 = f32[2,12,32,1]{3,2,1,0} reshape(maximum.2700)
  broadcast.2702 = f32[2,12,32,1]{3,2,1,0} broadcast(reshape.2701), dimensions={0,1,2,3}
  reshape.2703 = f32[2,12,32]{2,1,0} reshape(broadcast.2702)
  broadcast.2704 = f32[2,12,32,64]{3,2,1,0} broadcast(reshape.2703), dimensions={0,1,2}
  subtract.2705 = f32[2,12,32,64]{3,2,1,0} subtract(add.2694, broadcast.2704)
  exponential.2706 = f32[2,12,32,64]{3,2,1,0} exponential(subtract.2705)
  reduce.2711 = f32[2,12,32]{2,1,0} reduce(exponential.2706, constant.115), dimensions={3}, to_apply=region_114.2710
  reshape.2712 = f32[2,12,32,1]{3,2,1,0} reshape(reduce.2711)
  broadcast.2713 = f32[2,12,32,1]{3,2,1,0} broadcast(reshape.2712), dimensions={0,1,2,3}
  reshape.2714 = f32[2,12,32]{2,1,0} reshape(broadcast.2713)
  broadcast.2715 = f32[2,12,32,64]{3,2,1,0} broadcast(reshape.2714), dimensions={0,1,2}
  divide.2716 = f32[2,12,32,64]{3,2,1,0} divide(exponential.2706, broadcast.2715)
  dot.2717 = f32[2,12,64,32]{3,2,1,0} dot(reshape.2687, divide.2716), lhs_batch_dims={0,2}, lhs_contracting_dims={1}, rhs_batch_dims={0,1}, rhs_contracting_dims={3}
  transpose.2718 = f32[2,32,12,64]{1,3,2,0} transpose(dot.2717), dimensions={0,3,1,2}
  reshape.2719 = f32[2,32,768]{2,1,0} reshape(transpose.2718)
  constant.278 = f32[768,768]{1,0} constant({...})
  dot.2720 = f32[2,32,768]{2,1,0} dot(reshape.2719, constant.278), lhs_contracting_dims={2}, rhs_contracting_dims={0}
  add.2721 = f32[2,32,768]{2,1,0} add(add.2663, dot.2720)
  constant.15 = f32[1,1,768]{2,1,0} constant({...})
  broadcast.2736 = f32[1,1,768]{2,1,0} broadcast(constant.15), dimensions={0,1,2}
  reshape.2737 = f32[768]{0} reshape(broadcast.2736)
  broadcast.2738 = f32[2,32,768]{2,1,0} broadcast(reshape.2737), dimensions={2}
  multiply.2722 = f32[2,32,768]{2,1,0} multiply(add.2721, add.2721)
  reduce.2727 = f32[2,32]{1,0} reduce(multiply.2722, constant.115), dimensions={2}, to_apply=region_115.2726
  reshape.2728 = f32[2,32,1]{2,1,0} reshape(reduce.2727)
  divide.2729 = f32[2,32,1]{2,1,0} divide(reshape.2728, broadcast.61)
  add.2730 = f32[2,32,1]{2,1,0} add(divide.2729, broadcast.59)
  sqrt.2731 = f32[2,32,1]{2,1,0} sqrt(add.2730)
  broadcast.2732 = f32[2,32,1]{2,1,0} broadcast(sqrt.2731), dimensions={0,1,2}
  reshape.2733 = f32[2,32]{1,0} reshape(broadcast.2732)
  broadcast.2734 = f32[2,32,768]{2,1,0} broadcast(reshape.2733), dimensions={0,1}
  divide.2735 = f32[2,32,768]{2,1,0} divide(add.2721, broadcast.2734)
  multiply.2739 = f32[2,32,768]{2,1,0} multiply(broadcast.2738, divide.2735)
  constant.279 = f32[768,3072]{1,0} constant({...})
  dot.2740 = f32[2,32,3072]{2,1,0} dot(multiply.2739, constant.279), lhs_contracting_dims={2}, rhs_contracting_dims={0}
  call.2741 = f32[2,32,3072]{2,1,0} call(dot.2740), to_apply=relu_10.1660
  constant.280 = f32[3072,768]{1,0} constant({...})
  dot.2742 = f32[2,32,768]{2,1,0} dot(call.2741, constant.280), lhs_contracting_dims={2}, rhs_contracting_dims={0}
  add.2743 = f32[2,32,768]{2,1,0} add(add.2721, dot.2742)
  constant.14 = f32[1,1,768]{2,1,0} constant({...})
  broadcast.2758 = f32[1,1,768]{2,1,0} broadcast(constant.14), dimensions={0,1,2}
  reshape.2759 = f32[768]{0} reshape(broadcast.2758)
  broadcast.2760 = f32[2,32,768]{2,1,0} broadcast(reshape.2759), dimensions={2}
  multiply.2744 = f32[2,32,768]{2,1,0} multiply(add.2743, add.2743)
  reduce.2749 = f32[2,32]{1,0} reduce(multiply.2744, constant.115), dimensions={2}, to_apply=region_116.2748
  reshape.2750 = f32[2,32,1]{2,1,0} reshape(reduce.2749)
  divide.2751 = f32[2,32,1]{2,1,0} divide(reshape.2750, broadcast.61)
  add.2752 = f32[2,32,1]{2,1,0} add(divide.2751, broadcast.59)
  sqrt.2753 = f32[2,32,1]{2,1,0} sqrt(add.2752)
  broadcast.2754 = f32[2,32,1]{2,1,0} broadcast(sqrt.2753), dimensions={0,1,2}
  reshape.2755 = f32[2,32]{1,0} reshape(broadcast.2754)
  broadcast.2756 = f32[2,32,768]{2,1,0} broadcast(reshape.2755), dimensions={0,1}
  divide.2757 = f32[2,32,768]{2,1,0} divide(add.2743, broadcast.2756)
  multiply.2761 = f32[2,32,768]{2,1,0} multiply(broadcast.2760, divide.2757)
  constant.283 = f32[768,768]{1,0} constant({...})
  dot.2764 = f32[2,32,768]{2,1,0} dot(multiply.2761, constant.283), lhs_contracting_dims={2}, rhs_contracting_dims={0}
  reshape.2767 = f32[2,32,12,64]{3,2,1,0} reshape(dot.2764)
  constant.281 = f32[768,768]{1,0} constant({...})
  dot.2762 = f32[2,32,768]{2,1,0} dot(multiply.2761, constant.281), lhs_contracting_dims={2}, rhs_contracting_dims={0}
  reshape.2765 = f32[2,32,12,64]{3,2,1,0} reshape(dot.2762)
  multiply.2768 = f32[2,32,12,64]{3,2,1,0} multiply(reshape.2765, broadcast.56)
  divide.2769 = f32[2,32,12,64]{3,2,1,0} divide(multiply.2768, broadcast.56)
  constant.282 = f32[768,768]{1,0} constant({...})
  dot.2763 = f32[2,32,768]{2,1,0} dot(multiply.2761, constant.282), lhs_contracting_dims={2}, rhs_contracting_dims={0}
  reshape.2766 = f32[2,32,12,64]{3,2,1,0} reshape(dot.2763)
  dot.2770 = f32[2,12,32,32]{3,2,1,0} dot(divide.2769, reshape.2766), lhs_batch_dims={0,2}, lhs_contracting_dims={3}, rhs_batch_dims={0,2}, rhs_contracting_dims={3}
  add.2771 = f32[2,12,32,32]{3,2,1,0} add(dot.2770, add.1545)
  reduce.2776 = f32[2,12,32]{2,1,0} reduce(add.2771, constant.112), dimensions={3}, to_apply=region_117.2775
  maximum.2777 = f32[2,12,32]{2,1,0} maximum(reduce.2776, broadcast.42)
  reshape.2778 = f32[2,12,32,1]{3,2,1,0} reshape(maximum.2777)
  broadcast.2779 = f32[2,12,32,1]{3,2,1,0} broadcast(reshape.2778), dimensions={0,1,2,3}
  reshape.2780 = f32[2,12,32]{2,1,0} reshape(broadcast.2779)
  broadcast.2781 = f32[2,12,32,32]{3,2,1,0} broadcast(reshape.2780), dimensions={0,1,2}
  subtract.2782 = f32[2,12,32,32]{3,2,1,0} subtract(add.2771, broadcast.2781)
  exponential.2783 = f32[2,12,32,32]{3,2,1,0} exponential(subtract.2782)
  reduce.2788 = f32[2,12,32]{2,1,0} reduce(exponential.2783, constant.115), dimensions={3}, to_apply=region_118.2787
  reshape.2789 = f32[2,12,32,1]{3,2,1,0} reshape(reduce.2788)
  broadcast.2790 = f32[2,12,32,1]{3,2,1,0} broadcast(reshape.2789), dimensions={0,1,2,3}
  reshape.2791 = f32[2,12,32]{2,1,0} reshape(broadcast.2790)
  broadcast.2792 = f32[2,12,32,32]{3,2,1,0} broadcast(reshape.2791), dimensions={0,1,2}
  divide.2793 = f32[2,12,32,32]{3,2,1,0} divide(exponential.2783, broadcast.2792)
  dot.2794 = f32[2,12,64,32]{3,2,1,0} dot(reshape.2767, divide.2793), lhs_batch_dims={0,2}, lhs_contracting_dims={1}, rhs_batch_dims={0,1}, rhs_contracting_dims={3}
  transpose.2795 = f32[2,32,12,64]{1,3,2,0} transpose(dot.2794), dimensions={0,3,1,2}
  reshape.2796 = f32[2,32,768]{2,1,0} reshape(transpose.2795)
  constant.284 = f32[768,768]{1,0} constant({...})
  dot.2797 = f32[2,32,768]{2,1,0} dot(reshape.2796, constant.284), lhs_contracting_dims={2}, rhs_contracting_dims={0}
  add.2798 = f32[2,32,768]{2,1,0} add(add.2743, dot.2797)
  constant.287 = f32[768,768]{1,0} constant({...})
  dot.2819 = f32[2,64,768]{2,1,0} dot(multiply.1378, constant.287), lhs_contracting_dims={2}, rhs_contracting_dims={0}
  reshape.2822 = f32[2,64,12,64]{3,2,1,0} reshape(dot.2819)
  constant.13 = f32[1,1,768]{2,1,0} constant({...})
  broadcast.2813 = f32[1,1,768]{2,1,0} broadcast(constant.13), dimensions={0,1,2}
  reshape.2814 = f32[768]{0} reshape(broadcast.2813)
  broadcast.2815 = f32[2,32,768]{2,1,0} broadcast(reshape.2814), dimensions={2}
  multiply.2799 = f32[2,32,768]{2,1,0} multiply(add.2798, add.2798)
  reduce.2804 = f32[2,32]{1,0} reduce(multiply.2799, constant.115), dimensions={2}, to_apply=region_119.2803
  reshape.2805 = f32[2,32,1]{2,1,0} reshape(reduce.2804)
  divide.2806 = f32[2,32,1]{2,1,0} divide(reshape.2805, broadcast.61)
  add.2807 = f32[2,32,1]{2,1,0} add(divide.2806, broadcast.59)
  sqrt.2808 = f32[2,32,1]{2,1,0} sqrt(add.2807)
  broadcast.2809 = f32[2,32,1]{2,1,0} broadcast(sqrt.2808), dimensions={0,1,2}
  reshape.2810 = f32[2,32]{1,0} reshape(broadcast.2809)
  broadcast.2811 = f32[2,32,768]{2,1,0} broadcast(reshape.2810), dimensions={0,1}
  divide.2812 = f32[2,32,768]{2,1,0} divide(add.2798, broadcast.2811)
  multiply.2816 = f32[2,32,768]{2,1,0} multiply(broadcast.2815, divide.2812)
  constant.285 = f32[768,768]{1,0} constant({...})
  dot.2817 = f32[2,32,768]{2,1,0} dot(multiply.2816, constant.285), lhs_contracting_dims={2}, rhs_contracting_dims={0}
  reshape.2820 = f32[2,32,12,64]{3,2,1,0} reshape(dot.2817)
  multiply.2823 = f32[2,32,12,64]{3,2,1,0} multiply(reshape.2820, broadcast.56)
  divide.2824 = f32[2,32,12,64]{3,2,1,0} divide(multiply.2823, broadcast.56)
  constant.286 = f32[768,768]{1,0} constant({...})
  dot.2818 = f32[2,64,768]{2,1,0} dot(multiply.1378, constant.286), lhs_contracting_dims={2}, rhs_contracting_dims={0}
  reshape.2821 = f32[2,64,12,64]{3,2,1,0} reshape(dot.2818)
  dot.2825 = f32[2,12,32,64]{3,2,1,0} dot(divide.2824, reshape.2821), lhs_batch_dims={0,2}, lhs_contracting_dims={3}, rhs_batch_dims={0,2}, rhs_contracting_dims={3}
  broadcast.2826 = f32[2,1,1,64]{3,2,1,0} broadcast(select.1603), dimensions={0,1,2,3}
  reshape.2827 = f32[2,64]{1,0} reshape(broadcast.2826)
  broadcast.2828 = f32[2,12,32,64]{3,2,1,0} broadcast(reshape.2827), dimensions={0,3}
  add.2829 = f32[2,12,32,64]{3,2,1,0} add(dot.2825, broadcast.2828)
  reduce.2834 = f32[2,12,32]{2,1,0} reduce(add.2829, constant.112), dimensions={3}, to_apply=region_120.2833
  maximum.2835 = f32[2,12,32]{2,1,0} maximum(reduce.2834, broadcast.42)
  reshape.2836 = f32[2,12,32,1]{3,2,1,0} reshape(maximum.2835)
  broadcast.2837 = f32[2,12,32,1]{3,2,1,0} broadcast(reshape.2836), dimensions={0,1,2,3}
  reshape.2838 = f32[2,12,32]{2,1,0} reshape(broadcast.2837)
  broadcast.2839 = f32[2,12,32,64]{3,2,1,0} broadcast(reshape.2838), dimensions={0,1,2}
  subtract.2840 = f32[2,12,32,64]{3,2,1,0} subtract(add.2829, broadcast.2839)
  exponential.2841 = f32[2,12,32,64]{3,2,1,0} exponential(subtract.2840)
  reduce.2846 = f32[2,12,32]{2,1,0} reduce(exponential.2841, constant.115), dimensions={3}, to_apply=region_121.2845
  reshape.2847 = f32[2,12,32,1]{3,2,1,0} reshape(reduce.2846)
  broadcast.2848 = f32[2,12,32,1]{3,2,1,0} broadcast(reshape.2847), dimensions={0,1,2,3}
  reshape.2849 = f32[2,12,32]{2,1,0} reshape(broadcast.2848)
  broadcast.2850 = f32[2,12,32,64]{3,2,1,0} broadcast(reshape.2849), dimensions={0,1,2}
  divide.2851 = f32[2,12,32,64]{3,2,1,0} divide(exponential.2841, broadcast.2850)
  dot.2852 = f32[2,12,64,32]{3,2,1,0} dot(reshape.2822, divide.2851), lhs_batch_dims={0,2}, lhs_contracting_dims={1}, rhs_batch_dims={0,1}, rhs_contracting_dims={3}
  transpose.2853 = f32[2,32,12,64]{1,3,2,0} transpose(dot.2852), dimensions={0,3,1,2}
  reshape.2854 = f32[2,32,768]{2,1,0} reshape(transpose.2853)
  constant.288 = f32[768,768]{1,0} constant({...})
  dot.2855 = f32[2,32,768]{2,1,0} dot(reshape.2854, constant.288), lhs_contracting_dims={2}, rhs_contracting_dims={0}
  add.2856 = f32[2,32,768]{2,1,0} add(add.2798, dot.2855)
  constant.12 = f32[1,1,768]{2,1,0} constant({...})
  broadcast.2871 = f32[1,1,768]{2,1,0} broadcast(constant.12), dimensions={0,1,2}
  reshape.2872 = f32[768]{0} reshape(broadcast.2871)
  broadcast.2873 = f32[2,32,768]{2,1,0} broadcast(reshape.2872), dimensions={2}
  multiply.2857 = f32[2,32,768]{2,1,0} multiply(add.2856, add.2856)
  reduce.2862 = f32[2,32]{1,0} reduce(multiply.2857, constant.115), dimensions={2}, to_apply=region_122.2861
  reshape.2863 = f32[2,32,1]{2,1,0} reshape(reduce.2862)
  divide.2864 = f32[2,32,1]{2,1,0} divide(reshape.2863, broadcast.61)
  add.2865 = f32[2,32,1]{2,1,0} add(divide.2864, broadcast.59)
  sqrt.2866 = f32[2,32,1]{2,1,0} sqrt(add.2865)
  broadcast.2867 = f32[2,32,1]{2,1,0} broadcast(sqrt.2866), dimensions={0,1,2}
  reshape.2868 = f32[2,32]{1,0} reshape(broadcast.2867)
  broadcast.2869 = f32[2,32,768]{2,1,0} broadcast(reshape.2868), dimensions={0,1}
  divide.2870 = f32[2,32,768]{2,1,0} divide(add.2856, broadcast.2869)
  multiply.2874 = f32[2,32,768]{2,1,0} multiply(broadcast.2873, divide.2870)
  constant.289 = f32[768,3072]{1,0} constant({...})
  dot.2875 = f32[2,32,3072]{2,1,0} dot(multiply.2874, constant.289), lhs_contracting_dims={2}, rhs_contracting_dims={0}
  call.2876 = f32[2,32,3072]{2,1,0} call(dot.2875), to_apply=relu_10.1660
  constant.290 = f32[3072,768]{1,0} constant({...})
  dot.2877 = f32[2,32,768]{2,1,0} dot(call.2876, constant.290), lhs_contracting_dims={2}, rhs_contracting_dims={0}
  add.2878 = f32[2,32,768]{2,1,0} add(add.2856, dot.2877)
  constant.11 = f32[1,1,768]{2,1,0} constant({...})
  broadcast.2893 = f32[1,1,768]{2,1,0} broadcast(constant.11), dimensions={0,1,2}
  reshape.2894 = f32[768]{0} reshape(broadcast.2893)
  broadcast.2895 = f32[2,32,768]{2,1,0} broadcast(reshape.2894), dimensions={2}
  multiply.2879 = f32[2,32,768]{2,1,0} multiply(add.2878, add.2878)
  reduce.2884 = f32[2,32]{1,0} reduce(multiply.2879, constant.115), dimensions={2}, to_apply=region_123.2883
  reshape.2885 = f32[2,32,1]{2,1,0} reshape(reduce.2884)
  divide.2886 = f32[2,32,1]{2,1,0} divide(reshape.2885, broadcast.61)
  add.2887 = f32[2,32,1]{2,1,0} add(divide.2886, broadcast.59)
  sqrt.2888 = f32[2,32,1]{2,1,0} sqrt(add.2887)
  broadcast.2889 = f32[2,32,1]{2,1,0} broadcast(sqrt.2888), dimensions={0,1,2}
  reshape.2890 = f32[2,32]{1,0} reshape(broadcast.2889)
  broadcast.2891 = f32[2,32,768]{2,1,0} broadcast(reshape.2890), dimensions={0,1}
  divide.2892 = f32[2,32,768]{2,1,0} divide(add.2878, broadcast.2891)
  multiply.2896 = f32[2,32,768]{2,1,0} multiply(broadcast.2895, divide.2892)
  constant.293 = f32[768,768]{1,0} constant({...})
  dot.2899 = f32[2,32,768]{2,1,0} dot(multiply.2896, constant.293), lhs_contracting_dims={2}, rhs_contracting_dims={0}
  reshape.2902 = f32[2,32,12,64]{3,2,1,0} reshape(dot.2899)
  constant.291 = f32[768,768]{1,0} constant({...})
  dot.2897 = f32[2,32,768]{2,1,0} dot(multiply.2896, constant.291), lhs_contracting_dims={2}, rhs_contracting_dims={0}
  reshape.2900 = f32[2,32,12,64]{3,2,1,0} reshape(dot.2897)
  multiply.2903 = f32[2,32,12,64]{3,2,1,0} multiply(reshape.2900, broadcast.56)
  divide.2904 = f32[2,32,12,64]{3,2,1,0} divide(multiply.2903, broadcast.56)
  constant.292 = f32[768,768]{1,0} constant({...})
  dot.2898 = f32[2,32,768]{2,1,0} dot(multiply.2896, constant.292), lhs_contracting_dims={2}, rhs_contracting_dims={0}
  reshape.2901 = f32[2,32,12,64]{3,2,1,0} reshape(dot.2898)
  dot.2905 = f32[2,12,32,32]{3,2,1,0} dot(divide.2904, reshape.2901), lhs_batch_dims={0,2}, lhs_contracting_dims={3}, rhs_batch_dims={0,2}, rhs_contracting_dims={3}
  add.2906 = f32[2,12,32,32]{3,2,1,0} add(dot.2905, add.1545)
  reduce.2911 = f32[2,12,32]{2,1,0} reduce(add.2906, constant.112), dimensions={3}, to_apply=region_124.2910
  maximum.2912 = f32[2,12,32]{2,1,0} maximum(reduce.2911, broadcast.42)
  reshape.2913 = f32[2,12,32,1]{3,2,1,0} reshape(maximum.2912)
  broadcast.2914 = f32[2,12,32,1]{3,2,1,0} broadcast(reshape.2913), dimensions={0,1,2,3}
  reshape.2915 = f32[2,12,32]{2,1,0} reshape(broadcast.2914)
  broadcast.2916 = f32[2,12,32,32]{3,2,1,0} broadcast(reshape.2915), dimensions={0,1,2}
  subtract.2917 = f32[2,12,32,32]{3,2,1,0} subtract(add.2906, broadcast.2916)
  exponential.2918 = f32[2,12,32,32]{3,2,1,0} exponential(subtract.2917)
  reduce.2923 = f32[2,12,32]{2,1,0} reduce(exponential.2918, constant.115), dimensions={3}, to_apply=region_125.2922
  reshape.2924 = f32[2,12,32,1]{3,2,1,0} reshape(reduce.2923)
  broadcast.2925 = f32[2,12,32,1]{3,2,1,0} broadcast(reshape.2924), dimensions={0,1,2,3}
  reshape.2926 = f32[2,12,32]{2,1,0} reshape(broadcast.2925)
  broadcast.2927 = f32[2,12,32,32]{3,2,1,0} broadcast(reshape.2926), dimensions={0,1,2}
  divide.2928 = f32[2,12,32,32]{3,2,1,0} divide(exponential.2918, broadcast.2927)
  dot.2929 = f32[2,12,64,32]{3,2,1,0} dot(reshape.2902, divide.2928), lhs_batch_dims={0,2}, lhs_contracting_dims={1}, rhs_batch_dims={0,1}, rhs_contracting_dims={3}
  transpose.2930 = f32[2,32,12,64]{1,3,2,0} transpose(dot.2929), dimensions={0,3,1,2}
  reshape.2931 = f32[2,32,768]{2,1,0} reshape(transpose.2930)
  constant.294 = f32[768,768]{1,0} constant({...})
  dot.2932 = f32[2,32,768]{2,1,0} dot(reshape.2931, constant.294), lhs_contracting_dims={2}, rhs_contracting_dims={0}
  add.2933 = f32[2,32,768]{2,1,0} add(add.2878, dot.2932)
  constant.297 = f32[768,768]{1,0} constant({...})
  dot.2954 = f32[2,64,768]{2,1,0} dot(multiply.1378, constant.297), lhs_contracting_dims={2}, rhs_contracting_dims={0}
  reshape.2957 = f32[2,64,12,64]{3,2,1,0} reshape(dot.2954)
  constant.10 = f32[1,1,768]{2,1,0} constant({...})
  broadcast.2948 = f32[1,1,768]{2,1,0} broadcast(constant.10), dimensions={0,1,2}
  reshape.2949 = f32[768]{0} reshape(broadcast.2948)
  broadcast.2950 = f32[2,32,768]{2,1,0} broadcast(reshape.2949), dimensions={2}
  multiply.2934 = f32[2,32,768]{2,1,0} multiply(add.2933, add.2933)
  reduce.2939 = f32[2,32]{1,0} reduce(multiply.2934, constant.115), dimensions={2}, to_apply=region_126.2938
  reshape.2940 = f32[2,32,1]{2,1,0} reshape(reduce.2939)
  divide.2941 = f32[2,32,1]{2,1,0} divide(reshape.2940, broadcast.61)
  add.2942 = f32[2,32,1]{2,1,0} add(divide.2941, broadcast.59)
  sqrt.2943 = f32[2,32,1]{2,1,0} sqrt(add.2942)
  broadcast.2944 = f32[2,32,1]{2,1,0} broadcast(sqrt.2943), dimensions={0,1,2}
  reshape.2945 = f32[2,32]{1,0} reshape(broadcast.2944)
  broadcast.2946 = f32[2,32,768]{2,1,0} broadcast(reshape.2945), dimensions={0,1}
  divide.2947 = f32[2,32,768]{2,1,0} divide(add.2933, broadcast.2946)
  multiply.2951 = f32[2,32,768]{2,1,0} multiply(broadcast.2950, divide.2947)
  constant.295 = f32[768,768]{1,0} constant({...})
  dot.2952 = f32[2,32,768]{2,1,0} dot(multiply.2951, constant.295), lhs_contracting_dims={2}, rhs_contracting_dims={0}
  reshape.2955 = f32[2,32,12,64]{3,2,1,0} reshape(dot.2952)
  multiply.2958 = f32[2,32,12,64]{3,2,1,0} multiply(reshape.2955, broadcast.56)
  divide.2959 = f32[2,32,12,64]{3,2,1,0} divide(multiply.2958, broadcast.56)
  constant.296 = f32[768,768]{1,0} constant({...})
  dot.2953 = f32[2,64,768]{2,1,0} dot(multiply.1378, constant.296), lhs_contracting_dims={2}, rhs_contracting_dims={0}
  reshape.2956 = f32[2,64,12,64]{3,2,1,0} reshape(dot.2953)
  dot.2960 = f32[2,12,32,64]{3,2,1,0} dot(divide.2959, reshape.2956), lhs_batch_dims={0,2}, lhs_contracting_dims={3}, rhs_batch_dims={0,2}, rhs_contracting_dims={3}
  broadcast.2961 = f32[2,1,1,64]{3,2,1,0} broadcast(select.1603), dimensions={0,1,2,3}
  reshape.2962 = f32[2,64]{1,0} reshape(broadcast.2961)
  broadcast.2963 = f32[2,12,32,64]{3,2,1,0} broadcast(reshape.2962), dimensions={0,3}
  add.2964 = f32[2,12,32,64]{3,2,1,0} add(dot.2960, broadcast.2963)
  reduce.2969 = f32[2,12,32]{2,1,0} reduce(add.2964, constant.112), dimensions={3}, to_apply=region_127.2968
  maximum.2970 = f32[2,12,32]{2,1,0} maximum(reduce.2969, broadcast.42)
  reshape.2971 = f32[2,12,32,1]{3,2,1,0} reshape(maximum.2970)
  broadcast.2972 = f32[2,12,32,1]{3,2,1,0} broadcast(reshape.2971), dimensions={0,1,2,3}
  reshape.2973 = f32[2,12,32]{2,1,0} reshape(broadcast.2972)
  broadcast.2974 = f32[2,12,32,64]{3,2,1,0} broadcast(reshape.2973), dimensions={0,1,2}
  subtract.2975 = f32[2,12,32,64]{3,2,1,0} subtract(add.2964, broadcast.2974)
  exponential.2976 = f32[2,12,32,64]{3,2,1,0} exponential(subtract.2975)
  reduce.2981 = f32[2,12,32]{2,1,0} reduce(exponential.2976, constant.115), dimensions={3}, to_apply=region_128.2980
  reshape.2982 = f32[2,12,32,1]{3,2,1,0} reshape(reduce.2981)
  broadcast.2983 = f32[2,12,32,1]{3,2,1,0} broadcast(reshape.2982), dimensions={0,1,2,3}
  reshape.2984 = f32[2,12,32]{2,1,0} reshape(broadcast.2983)
  broadcast.2985 = f32[2,12,32,64]{3,2,1,0} broadcast(reshape.2984), dimensions={0,1,2}
  divide.2986 = f32[2,12,32,64]{3,2,1,0} divide(exponential.2976, broadcast.2985)
  dot.2987 = f32[2,12,64,32]{3,2,1,0} dot(reshape.2957, divide.2986), lhs_batch_dims={0,2}, lhs_contracting_dims={1}, rhs_batch_dims={0,1}, rhs_contracting_dims={3}
  transpose.2988 = f32[2,32,12,64]{1,3,2,0} transpose(dot.2987), dimensions={0,3,1,2}
  reshape.2989 = f32[2,32,768]{2,1,0} reshape(transpose.2988)
  constant.298 = f32[768,768]{1,0} constant({...})
  dot.2990 = f32[2,32,768]{2,1,0} dot(reshape.2989, constant.298), lhs_contracting_dims={2}, rhs_contracting_dims={0}
  add.2991 = f32[2,32,768]{2,1,0} add(add.2933, dot.2990)
  constant.9 = f32[1,1,768]{2,1,0} constant({...})
  broadcast.3006 = f32[1,1,768]{2,1,0} broadcast(constant.9), dimensions={0,1,2}
  reshape.3007 = f32[768]{0} reshape(broadcast.3006)
  broadcast.3008 = f32[2,32,768]{2,1,0} broadcast(reshape.3007), dimensions={2}
  multiply.2992 = f32[2,32,768]{2,1,0} multiply(add.2991, add.2991)
  reduce.2997 = f32[2,32]{1,0} reduce(multiply.2992, constant.115), dimensions={2}, to_apply=region_129.2996
  reshape.2998 = f32[2,32,1]{2,1,0} reshape(reduce.2997)
  divide.2999 = f32[2,32,1]{2,1,0} divide(reshape.2998, broadcast.61)
  add.3000 = f32[2,32,1]{2,1,0} add(divide.2999, broadcast.59)
  sqrt.3001 = f32[2,32,1]{2,1,0} sqrt(add.3000)
  broadcast.3002 = f32[2,32,1]{2,1,0} broadcast(sqrt.3001), dimensions={0,1,2}
  reshape.3003 = f32[2,32]{1,0} reshape(broadcast.3002)
  broadcast.3004 = f32[2,32,768]{2,1,0} broadcast(reshape.3003), dimensions={0,1}
  divide.3005 = f32[2,32,768]{2,1,0} divide(add.2991, broadcast.3004)
  multiply.3009 = f32[2,32,768]{2,1,0} multiply(broadcast.3008, divide.3005)
  constant.299 = f32[768,3072]{1,0} constant({...})
  dot.3010 = f32[2,32,3072]{2,1,0} dot(multiply.3009, constant.299), lhs_contracting_dims={2}, rhs_contracting_dims={0}
  call.3011 = f32[2,32,3072]{2,1,0} call(dot.3010), to_apply=relu_10.1660
  constant.300 = f32[3072,768]{1,0} constant({...})
  dot.3012 = f32[2,32,768]{2,1,0} dot(call.3011, constant.300), lhs_contracting_dims={2}, rhs_contracting_dims={0}
  add.3013 = f32[2,32,768]{2,1,0} add(add.2991, dot.3012)
  constant.8 = f32[1,1,768]{2,1,0} constant({...})
  broadcast.3028 = f32[1,1,768]{2,1,0} broadcast(constant.8), dimensions={0,1,2}
  reshape.3029 = f32[768]{0} reshape(broadcast.3028)
  broadcast.3030 = f32[2,32,768]{2,1,0} broadcast(reshape.3029), dimensions={2}
  multiply.3014 = f32[2,32,768]{2,1,0} multiply(add.3013, add.3013)
  reduce.3019 = f32[2,32]{1,0} reduce(multiply.3014, constant.115), dimensions={2}, to_apply=region_130.3018
  reshape.3020 = f32[2,32,1]{2,1,0} reshape(reduce.3019)
  divide.3021 = f32[2,32,1]{2,1,0} divide(reshape.3020, broadcast.61)
  add.3022 = f32[2,32,1]{2,1,0} add(divide.3021, broadcast.59)
  sqrt.3023 = f32[2,32,1]{2,1,0} sqrt(add.3022)
  broadcast.3024 = f32[2,32,1]{2,1,0} broadcast(sqrt.3023), dimensions={0,1,2}
  reshape.3025 = f32[2,32]{1,0} reshape(broadcast.3024)
  broadcast.3026 = f32[2,32,768]{2,1,0} broadcast(reshape.3025), dimensions={0,1}
  divide.3027 = f32[2,32,768]{2,1,0} divide(add.3013, broadcast.3026)
  multiply.3031 = f32[2,32,768]{2,1,0} multiply(broadcast.3030, divide.3027)
  constant.303 = f32[768,768]{1,0} constant({...})
  dot.3034 = f32[2,32,768]{2,1,0} dot(multiply.3031, constant.303), lhs_contracting_dims={2}, rhs_contracting_dims={0}
  reshape.3037 = f32[2,32,12,64]{3,2,1,0} reshape(dot.3034)
  constant.301 = f32[768,768]{1,0} constant({...})
  dot.3032 = f32[2,32,768]{2,1,0} dot(multiply.3031, constant.301), lhs_contracting_dims={2}, rhs_contracting_dims={0}
  reshape.3035 = f32[2,32,12,64]{3,2,1,0} reshape(dot.3032)
  multiply.3038 = f32[2,32,12,64]{3,2,1,0} multiply(reshape.3035, broadcast.56)
  divide.3039 = f32[2,32,12,64]{3,2,1,0} divide(multiply.3038, broadcast.56)
  constant.302 = f32[768,768]{1,0} constant({...})
  dot.3033 = f32[2,32,768]{2,1,0} dot(multiply.3031, constant.302), lhs_contracting_dims={2}, rhs_contracting_dims={0}
  reshape.3036 = f32[2,32,12,64]{3,2,1,0} reshape(dot.3033)
  dot.3040 = f32[2,12,32,32]{3,2,1,0} dot(divide.3039, reshape.3036), lhs_batch_dims={0,2}, lhs_contracting_dims={3}, rhs_batch_dims={0,2}, rhs_contracting_dims={3}
  add.3041 = f32[2,12,32,32]{3,2,1,0} add(dot.3040, add.1545)
  reduce.3046 = f32[2,12,32]{2,1,0} reduce(add.3041, constant.112), dimensions={3}, to_apply=region_131.3045
  maximum.3047 = f32[2,12,32]{2,1,0} maximum(reduce.3046, broadcast.42)
  reshape.3048 = f32[2,12,32,1]{3,2,1,0} reshape(maximum.3047)
  broadcast.3049 = f32[2,12,32,1]{3,2,1,0} broadcast(reshape.3048), dimensions={0,1,2,3}
  reshape.3050 = f32[2,12,32]{2,1,0} reshape(broadcast.3049)
  broadcast.3051 = f32[2,12,32,32]{3,2,1,0} broadcast(reshape.3050), dimensions={0,1,2}
  subtract.3052 = f32[2,12,32,32]{3,2,1,0} subtract(add.3041, broadcast.3051)
  exponential.3053 = f32[2,12,32,32]{3,2,1,0} exponential(subtract.3052)
  reduce.3058 = f32[2,12,32]{2,1,0} reduce(exponential.3053, constant.115), dimensions={3}, to_apply=region_132.3057
  reshape.3059 = f32[2,12,32,1]{3,2,1,0} reshape(reduce.3058)
  broadcast.3060 = f32[2,12,32,1]{3,2,1,0} broadcast(reshape.3059), dimensions={0,1,2,3}
  reshape.3061 = f32[2,12,32]{2,1,0} reshape(broadcast.3060)
  broadcast.3062 = f32[2,12,32,32]{3,2,1,0} broadcast(reshape.3061), dimensions={0,1,2}
  divide.3063 = f32[2,12,32,32]{3,2,1,0} divide(exponential.3053, broadcast.3062)
  dot.3064 = f32[2,12,64,32]{3,2,1,0} dot(reshape.3037, divide.3063), lhs_batch_dims={0,2}, lhs_contracting_dims={1}, rhs_batch_dims={0,1}, rhs_contracting_dims={3}
  transpose.3065 = f32[2,32,12,64]{1,3,2,0} transpose(dot.3064), dimensions={0,3,1,2}
  reshape.3066 = f32[2,32,768]{2,1,0} reshape(transpose.3065)
  constant.304 = f32[768,768]{1,0} constant({...})
  dot.3067 = f32[2,32,768]{2,1,0} dot(reshape.3066, constant.304), lhs_contracting_dims={2}, rhs_contracting_dims={0}
  add.3068 = f32[2,32,768]{2,1,0} add(add.3013, dot.3067)
  constant.307 = f32[768,768]{1,0} constant({...})
  dot.3089 = f32[2,64,768]{2,1,0} dot(multiply.1378, constant.307), lhs_contracting_dims={2}, rhs_contracting_dims={0}
  reshape.3092 = f32[2,64,12,64]{3,2,1,0} reshape(dot.3089)
  constant.7 = f32[1,1,768]{2,1,0} constant({...})
  broadcast.3083 = f32[1,1,768]{2,1,0} broadcast(constant.7), dimensions={0,1,2}
  reshape.3084 = f32[768]{0} reshape(broadcast.3083)
  broadcast.3085 = f32[2,32,768]{2,1,0} broadcast(reshape.3084), dimensions={2}
  multiply.3069 = f32[2,32,768]{2,1,0} multiply(add.3068, add.3068)
  reduce.3074 = f32[2,32]{1,0} reduce(multiply.3069, constant.115), dimensions={2}, to_apply=region_133.3073
  reshape.3075 = f32[2,32,1]{2,1,0} reshape(reduce.3074)
  divide.3076 = f32[2,32,1]{2,1,0} divide(reshape.3075, broadcast.61)
  add.3077 = f32[2,32,1]{2,1,0} add(divide.3076, broadcast.59)
  sqrt.3078 = f32[2,32,1]{2,1,0} sqrt(add.3077)
  broadcast.3079 = f32[2,32,1]{2,1,0} broadcast(sqrt.3078), dimensions={0,1,2}
  reshape.3080 = f32[2,32]{1,0} reshape(broadcast.3079)
  broadcast.3081 = f32[2,32,768]{2,1,0} broadcast(reshape.3080), dimensions={0,1}
  divide.3082 = f32[2,32,768]{2,1,0} divide(add.3068, broadcast.3081)
  multiply.3086 = f32[2,32,768]{2,1,0} multiply(broadcast.3085, divide.3082)
  constant.305 = f32[768,768]{1,0} constant({...})
  dot.3087 = f32[2,32,768]{2,1,0} dot(multiply.3086, constant.305), lhs_contracting_dims={2}, rhs_contracting_dims={0}
  reshape.3090 = f32[2,32,12,64]{3,2,1,0} reshape(dot.3087)
  multiply.3093 = f32[2,32,12,64]{3,2,1,0} multiply(reshape.3090, broadcast.56)
  divide.3094 = f32[2,32,12,64]{3,2,1,0} divide(multiply.3093, broadcast.56)
  constant.306 = f32[768,768]{1,0} constant({...})
  dot.3088 = f32[2,64,768]{2,1,0} dot(multiply.1378, constant.306), lhs_contracting_dims={2}, rhs_contracting_dims={0}
  reshape.3091 = f32[2,64,12,64]{3,2,1,0} reshape(dot.3088)
  dot.3095 = f32[2,12,32,64]{3,2,1,0} dot(divide.3094, reshape.3091), lhs_batch_dims={0,2}, lhs_contracting_dims={3}, rhs_batch_dims={0,2}, rhs_contracting_dims={3}
  broadcast.3096 = f32[2,1,1,64]{3,2,1,0} broadcast(select.1603), dimensions={0,1,2,3}
  reshape.3097 = f32[2,64]{1,0} reshape(broadcast.3096)
  broadcast.3098 = f32[2,12,32,64]{3,2,1,0} broadcast(reshape.3097), dimensions={0,3}
  add.3099 = f32[2,12,32,64]{3,2,1,0} add(dot.3095, broadcast.3098)
  reduce.3104 = f32[2,12,32]{2,1,0} reduce(add.3099, constant.112), dimensions={3}, to_apply=region_134.3103
  maximum.3105 = f32[2,12,32]{2,1,0} maximum(reduce.3104, broadcast.42)
  reshape.3106 = f32[2,12,32,1]{3,2,1,0} reshape(maximum.3105)
  broadcast.3107 = f32[2,12,32,1]{3,2,1,0} broadcast(reshape.3106), dimensions={0,1,2,3}
  reshape.3108 = f32[2,12,32]{2,1,0} reshape(broadcast.3107)
  broadcast.3109 = f32[2,12,32,64]{3,2,1,0} broadcast(reshape.3108), dimensions={0,1,2}
  subtract.3110 = f32[2,12,32,64]{3,2,1,0} subtract(add.3099, broadcast.3109)
  exponential.3111 = f32[2,12,32,64]{3,2,1,0} exponential(subtract.3110)
  reduce.3116 = f32[2,12,32]{2,1,0} reduce(exponential.3111, constant.115), dimensions={3}, to_apply=region_135.3115
  reshape.3117 = f32[2,12,32,1]{3,2,1,0} reshape(reduce.3116)
  broadcast.3118 = f32[2,12,32,1]{3,2,1,0} broadcast(reshape.3117), dimensions={0,1,2,3}
  reshape.3119 = f32[2,12,32]{2,1,0} reshape(broadcast.3118)
  broadcast.3120 = f32[2,12,32,64]{3,2,1,0} broadcast(reshape.3119), dimensions={0,1,2}
  divide.3121 = f32[2,12,32,64]{3,2,1,0} divide(exponential.3111, broadcast.3120)
  dot.3122 = f32[2,12,64,32]{3,2,1,0} dot(reshape.3092, divide.3121), lhs_batch_dims={0,2}, lhs_contracting_dims={1}, rhs_batch_dims={0,1}, rhs_contracting_dims={3}
  transpose.3123 = f32[2,32,12,64]{1,3,2,0} transpose(dot.3122), dimensions={0,3,1,2}
  reshape.3124 = f32[2,32,768]{2,1,0} reshape(transpose.3123)
  constant.308 = f32[768,768]{1,0} constant({...})
  dot.3125 = f32[2,32,768]{2,1,0} dot(reshape.3124, constant.308), lhs_contracting_dims={2}, rhs_contracting_dims={0}
  add.3126 = f32[2,32,768]{2,1,0} add(add.3068, dot.3125)
  constant.6 = f32[1,1,768]{2,1,0} constant({...})
  broadcast.3141 = f32[1,1,768]{2,1,0} broadcast(constant.6), dimensions={0,1,2}
  reshape.3142 = f32[768]{0} reshape(broadcast.3141)
  broadcast.3143 = f32[2,32,768]{2,1,0} broadcast(reshape.3142), dimensions={2}
  multiply.3127 = f32[2,32,768]{2,1,0} multiply(add.3126, add.3126)
  reduce.3132 = f32[2,32]{1,0} reduce(multiply.3127, constant.115), dimensions={2}, to_apply=region_136.3131
  reshape.3133 = f32[2,32,1]{2,1,0} reshape(reduce.3132)
  divide.3134 = f32[2,32,1]{2,1,0} divide(reshape.3133, broadcast.61)
  add.3135 = f32[2,32,1]{2,1,0} add(divide.3134, broadcast.59)
  sqrt.3136 = f32[2,32,1]{2,1,0} sqrt(add.3135)
  broadcast.3137 = f32[2,32,1]{2,1,0} broadcast(sqrt.3136), dimensions={0,1,2}
  reshape.3138 = f32[2,32]{1,0} reshape(broadcast.3137)
  broadcast.3139 = f32[2,32,768]{2,1,0} broadcast(reshape.3138), dimensions={0,1}
  divide.3140 = f32[2,32,768]{2,1,0} divide(add.3126, broadcast.3139)
  multiply.3144 = f32[2,32,768]{2,1,0} multiply(broadcast.3143, divide.3140)
  constant.309 = f32[768,3072]{1,0} constant({...})
  dot.3145 = f32[2,32,3072]{2,1,0} dot(multiply.3144, constant.309), lhs_contracting_dims={2}, rhs_contracting_dims={0}
  call.3146 = f32[2,32,3072]{2,1,0} call(dot.3145), to_apply=relu_10.1660
  constant.310 = f32[3072,768]{1,0} constant({...})
  dot.3147 = f32[2,32,768]{2,1,0} dot(call.3146, constant.310), lhs_contracting_dims={2}, rhs_contracting_dims={0}
  add.3148 = f32[2,32,768]{2,1,0} add(add.3126, dot.3147)
  multiply.3149 = f32[2,32,768]{2,1,0} multiply(add.3148, add.3148)
  reduce.3154 = f32[2,32]{1,0} reduce(multiply.3149, constant.115), dimensions={2}, to_apply=region_137.3153
  reshape.3155 = f32[2,32,1]{2,1,0} reshape(reduce.3154)
  divide.3156 = f32[2,32,1]{2,1,0} divide(reshape.3155, broadcast.61)
  add.3157 = f32[2,32,1]{2,1,0} add(divide.3156, broadcast.59)
  sqrt.3158 = f32[2,32,1]{2,1,0} sqrt(add.3157)
  broadcast.3159 = f32[2,32,1]{2,1,0} broadcast(sqrt.3158), dimensions={0,1,2}
  reshape.3160 = f32[2,32]{1,0} reshape(broadcast.3159)
  broadcast.3161 = f32[2,32,768]{2,1,0} broadcast(reshape.3160), dimensions={0,1}
  divide.3162 = f32[2,32,768]{2,1,0} divide(add.3148, broadcast.3161)
  ROOT multiply.3166 = f32[2,32,768]{2,1,0} multiply(broadcast.3165, divide.3162)
}

