HloModule jit_train_step, input_output_alias={ {0}: (0, {}, may-alias), {1}: (1, {}, may-alias), {2}: (2, {}, may-alias), {3}: (3, {}, may-alias), {4}: (4, {}, may-alias), {5}: (5, {}, may-alias), {6}: (6, {}, may-alias), {7}: (7, {}, may-alias), {8}: (8, {}, may-alias), {9}: (9, {}, may-alias), {10}: (10, {}, may-alias), {11}: (11, {}, may-alias), {12}: (12, {}, may-alias), {13}: (13, {}, may-alias), {14}: (14, {}, may-alias), {15}: (15, {}, may-alias), {16}: (16, {}, may-alias), {17}: (17, {}, may-alias), {18}: (18, {}, may-alias), {19}: (19, {}, may-alias), {20}: (20, {}, may-alias), {21}: (21, {}, may-alias), {22}: (22, {}, may-alias), {23}: (23, {}, may-alias), {24}: (24, {}, may-alias), {25}: (25, {}, may-alias), {26}: (26, {}, may-alias), {27}: (27, {}, may-alias), {28}: (28, {}, may-alias), {29}: (29, {}, may-alias), {30}: (30, {}, may-alias), {31}: (31, {}, may-alias), {32}: (32, {}, may-alias), {33}: (33, {}, may-alias), {34}: (34, {}, may-alias), {35}: (35, {}, may-alias), {36}: (36, {}, may-alias), {37}: (37, {}, may-alias), {38}: (38, {}, may-alias) }, entry_computation_layout={(s32[], f32[4096]{0}, f32[1024,32,14336]{2,1,0}, f32[1024,32,14336]{2,1,0}, f32[14336,32,1024]{2,1,0}, /*index=5*/f32[4096,32]{1,0}, f32[4096,32]{1,0}, f32[1024,32,8,128]{3,2,1,0}, f32[32,32,128,1024]{3,2,1,0}, f32[1024,32,32,128]{3,2,1,0}, /*index=10*/f32[1024,32,8,128]{3,2,1,0}, f32[1024,128256]{1,0}, f32[128256,1024]{1,0}, s32[], f32[4096]{0}, /*index=15*/f32[1024,32,14336]{2,1,0}, f32[1024,32,14336]{2,1,0}, f32[14336,32,1024]{2,1,0}, f32[4096,32]{1,0}, f32[4096,32]{1,0}, /*index=20*/f32[1024,32,8,128]{3,2,1,0}, f32[32,32,128,1024]{3,2,1,0}, f32[1024,32,32,128]{3,2,1,0}, f32[1024,32,8,128]{3,2,1,0}, f32[1024,128256]{1,0}, /*index=25*/f32[128256,1024]{1,0}, f32[4096]{0}, f32[1024,32,14336]{2,1,0}, f32[1024,32,14336]{2,1,0}, f32[14336,32,1024]{2,1,0}, /*index=30*/f32[4096,32]{1,0}, f32[4096,32]{1,0}, f32[1024,32,8,128]{3,2,1,0}, f32[32,32,128,1024]{3,2,1,0}, f32[1024,32,32,128]{3,2,1,0}, /*index=35*/f32[1024,32,8,128]{3,2,1,0}, f32[1024,128256]{1,0}, f32[128256,1024]{1,0}, s32[], s32[4,2048]{1,0}, /*index=40*/s32[4,2048]{1,0}, s32[4,2048]{1,0}, s32[4,2048]{1,0})->(s32[], f32[4096]{0}, f32[1024,32,14336]{2,1,0}, f32[1024,32,14336]{2,1,0}, f32[14336,32,1024]{2,1,0}, /*index=5*/f32[4096,32]{1,0}, f32[4096,32]{1,0}, f32[1024,32,8,128]{3,2,1,0}, f32[32,32,128,1024]{3,2,1,0}, f32[1024,32,32,128]{3,2,1,0}, /*index=10*/f32[1024,32,8,128]{3,2,1,0}, f32[1024,128256]{1,0}, f32[128256,1024]{1,0}, s32[], f32[4096]{0}, /*index=15*/f32[1024,32,14336]{2,1,0}, f32[1024,32,14336]{2,1,0}, f32[14336,32,1024]{2,1,0}, f32[4096,32]{1,0}, f32[4096,32]{1,0}, /*index=20*/f32[1024,32,8,128]{3,2,1,0}, f32[32,32,128,1024]{3,2,1,0}, f32[1024,32,32,128]{3,2,1,0}, f32[1024,32,8,128]{3,2,1,0}, f32[1024,128256]{1,0}, /*index=25*/f32[128256,1024]{1,0}, f32[4096]{0}, f32[1024,32,14336]{2,1,0}, f32[1024,32,14336]{2,1,0}, f32[14336,32,1024]{2,1,0}, /*index=30*/f32[4096,32]{1,0}, f32[4096,32]{1,0}, f32[1024,32,8,128]{3,2,1,0}, f32[32,32,128,1024]{3,2,1,0}, f32[1024,32,32,128]{3,2,1,0}, /*index=35*/f32[1024,32,8,128]{3,2,1,0}, f32[1024,128256]{1,0}, f32[128256,1024]{1,0}, s32[], f32[], /*index=40*/f32[], f32[], f32[], f32[], f32[], /*index=45*/s32[])}, allow_spmd_sharding_propagation_to_parameters={false,false,false,false,false,false,false,false,false,false,false,false,false,false,false,false,false,false,false,false,false,false,false,false,false,false,false,false,false,false,false,false,false,false,false,false,false,false,false,false,false,false,false}, allow_spmd_sharding_propagation_to_output={false,false,false,false,false,false,false,false,false,false,false,false,false,false,false,false,false,false,false,false,false,false,false,false,false,false,false,false,false,false,false,false,false,false,false,false,false,false,false,true,true,true,true,true,true,true}, num_partitions=4

%region_53.54 (reduce_sum.345: f32[], reduce_sum.346: f32[]) -> f32[] {
  %reduce_sum.345 = f32[] parameter(0), metadata={op_name="jit(train_step)/reduce_sum"}
  %reduce_sum.346 = f32[] parameter(1), metadata={op_name="jit(train_step)/reduce_sum"}
  ROOT %reduce_sum.225 = f32[] add(%reduce_sum.345, %reduce_sum.346), metadata={op_name="jit(train_step)/reduce_sum" source_file="/opt/maxtext/src/MaxText/max_utils.py" source_line=69 source_end_line=69 source_column=61 source_end_column=61}
}

%region_54.55 (reduce_sum.352: f32[], reduce_sum.353: f32[]) -> f32[] {
  %reduce_sum.352 = f32[] parameter(0), metadata={op_name="jit(train_step)/reduce_sum"}
  %reduce_sum.353 = f32[] parameter(1), metadata={op_name="jit(train_step)/reduce_sum"}
  ROOT %reduce_sum.231 = f32[] add(%reduce_sum.352, %reduce_sum.353), metadata={op_name="jit(train_step)/reduce_sum" source_file="/opt/maxtext/src/MaxText/max_utils.py" source_line=69 source_end_line=69 source_column=61 source_end_column=61}
}

%region_55.56 (reduce_sum.359: f32[], reduce_sum.360: f32[]) -> f32[] {
  %reduce_sum.359 = f32[] parameter(0), metadata={op_name="jit(train_step)/reduce_sum"}
  %reduce_sum.360 = f32[] parameter(1), metadata={op_name="jit(train_step)/reduce_sum"}
  ROOT %reduce_sum.232 = f32[] add(%reduce_sum.359, %reduce_sum.360), metadata={op_name="jit(train_step)/reduce_sum" source_file="/opt/maxtext/src/MaxText/max_utils.py" source_line=69 source_end_line=69 source_column=61 source_end_column=61}
}

%region_56.57 (reduce_sum.366: f32[], reduce_sum.367: f32[]) -> f32[] {
  %reduce_sum.366 = f32[] parameter(0), metadata={op_name="jit(train_step)/reduce_sum"}
  %reduce_sum.367 = f32[] parameter(1), metadata={op_name="jit(train_step)/reduce_sum"}
  ROOT %reduce_sum.238 = f32[] add(%reduce_sum.366, %reduce_sum.367), metadata={op_name="jit(train_step)/reduce_sum" source_file="/opt/maxtext/src/MaxText/max_utils.py" source_line=69 source_end_line=69 source_column=61 source_end_column=61}
}

%region_57.58 (reduce_sum.373: f32[], reduce_sum.374: f32[]) -> f32[] {
  %reduce_sum.373 = f32[] parameter(0), metadata={op_name="jit(train_step)/reduce_sum"}
  %reduce_sum.374 = f32[] parameter(1), metadata={op_name="jit(train_step)/reduce_sum"}
  ROOT %reduce_sum.239 = f32[] add(%reduce_sum.373, %reduce_sum.374), metadata={op_name="jit(train_step)/reduce_sum" source_file="/opt/maxtext/src/MaxText/max_utils.py" source_line=69 source_end_line=69 source_column=61 source_end_column=61}
}

%region_58.59 (reduce_sum.380: f32[], reduce_sum.381: f32[]) -> f32[] {
  %reduce_sum.380 = f32[] parameter(0), metadata={op_name="jit(train_step)/reduce_sum"}
  %reduce_sum.381 = f32[] parameter(1), metadata={op_name="jit(train_step)/reduce_sum"}
  ROOT %reduce_sum.245 = f32[] add(%reduce_sum.380, %reduce_sum.381), metadata={op_name="jit(train_step)/reduce_sum" source_file="/opt/maxtext/src/MaxText/max_utils.py" source_line=69 source_end_line=69 source_column=61 source_end_column=61}
}

%region_59.60 (reduce_sum.387: f32[], reduce_sum.388: f32[]) -> f32[] {
  %reduce_sum.387 = f32[] parameter(0), metadata={op_name="jit(train_step)/reduce_sum"}
  %reduce_sum.388 = f32[] parameter(1), metadata={op_name="jit(train_step)/reduce_sum"}
  ROOT %reduce_sum.246 = f32[] add(%reduce_sum.387, %reduce_sum.388), metadata={op_name="jit(train_step)/reduce_sum" source_file="/opt/maxtext/src/MaxText/max_utils.py" source_line=69 source_end_line=69 source_column=61 source_end_column=61}
}

%region_60.61 (reduce_sum.394: f32[], reduce_sum.395: f32[]) -> f32[] {
  %reduce_sum.394 = f32[] parameter(0), metadata={op_name="jit(train_step)/reduce_sum"}
  %reduce_sum.395 = f32[] parameter(1), metadata={op_name="jit(train_step)/reduce_sum"}
  ROOT %reduce_sum.252 = f32[] add(%reduce_sum.394, %reduce_sum.395), metadata={op_name="jit(train_step)/reduce_sum" source_file="/opt/maxtext/src/MaxText/max_utils.py" source_line=69 source_end_line=69 source_column=61 source_end_column=61}
}

%region_61.62 (reduce_sum.401: f32[], reduce_sum.402: f32[]) -> f32[] {
  %reduce_sum.401 = f32[] parameter(0), metadata={op_name="jit(train_step)/reduce_sum"}
  %reduce_sum.402 = f32[] parameter(1), metadata={op_name="jit(train_step)/reduce_sum"}
  ROOT %reduce_sum.253 = f32[] add(%reduce_sum.401, %reduce_sum.402), metadata={op_name="jit(train_step)/reduce_sum" source_file="/opt/maxtext/src/MaxText/max_utils.py" source_line=69 source_end_line=69 source_column=61 source_end_column=61}
}

%region_62.63 (reduce_sum.408: f32[], reduce_sum.409: f32[]) -> f32[] {
  %reduce_sum.408 = f32[] parameter(0), metadata={op_name="jit(train_step)/reduce_sum"}
  %reduce_sum.409 = f32[] parameter(1), metadata={op_name="jit(train_step)/reduce_sum"}
  ROOT %reduce_sum.259 = f32[] add(%reduce_sum.408, %reduce_sum.409), metadata={op_name="jit(train_step)/reduce_sum" source_file="/opt/maxtext/src/MaxText/max_utils.py" source_line=69 source_end_line=69 source_column=61 source_end_column=61}
}

%region_63.64 (reduce_sum.415: f32[], reduce_sum.416: f32[]) -> f32[] {
  %reduce_sum.415 = f32[] parameter(0), metadata={op_name="jit(train_step)/reduce_sum"}
  %reduce_sum.416 = f32[] parameter(1), metadata={op_name="jit(train_step)/reduce_sum"}
  ROOT %reduce_sum.260 = f32[] add(%reduce_sum.415, %reduce_sum.416), metadata={op_name="jit(train_step)/reduce_sum" source_file="/opt/maxtext/src/MaxText/max_utils.py" source_line=69 source_end_line=69 source_column=61 source_end_column=61}
}

%region_64.65 (reduce_sum.422: f32[], reduce_sum.423: f32[]) -> f32[] {
  %reduce_sum.422 = f32[] parameter(0), metadata={op_name="jit(train_step)/reduce_sum"}
  %reduce_sum.423 = f32[] parameter(1), metadata={op_name="jit(train_step)/reduce_sum"}
  ROOT %reduce_sum.266 = f32[] add(%reduce_sum.422, %reduce_sum.423), metadata={op_name="jit(train_step)/reduce_sum" source_file="/opt/maxtext/src/MaxText/max_utils.py" source_line=69 source_end_line=69 source_column=61 source_end_column=61}
}

%region_0.1 (reduce_sum.16: s32[], reduce_sum.17: s32[]) -> s32[] {
  %reduce_sum.16 = s32[] parameter(0), metadata={op_name="jit(train_step)/jvp()/reduce_sum"}
  %reduce_sum.17 = s32[] parameter(1), metadata={op_name="jit(train_step)/jvp()/reduce_sum"}
  ROOT %reduce_sum.18 = s32[] add(%reduce_sum.16, %reduce_sum.17), metadata={op_name="jit(train_step)/jvp()/reduce_sum" source_file="/opt/maxtext/src/MaxText/train.py" source_line=174 source_end_line=174 source_column=18 source_end_column=18}
}

%region_0.1.clone (reduce_sum.413: s32[], reduce_sum.414: s32[]) -> s32[] {
  %reduce_sum.413 = s32[] parameter(0), metadata={op_name="jit(train_step)/jvp()/reduce_sum"}
  %reduce_sum.414 = s32[] parameter(1), metadata={op_name="jit(train_step)/jvp()/reduce_sum"}
  ROOT %reduce_sum.420 = s32[] add(%reduce_sum.413, %reduce_sum.414), metadata={op_name="jit(train_step)/jvp()/reduce_sum" source_file="/opt/maxtext/src/MaxText/train.py" source_line=174 source_end_line=174 source_column=18 source_end_column=18}
}

%region_2.0 (reduce_sum.22: f32[], reduce_sum.23: f32[]) -> f32[] {
  %reduce_sum.22 = f32[] parameter(0), metadata={op_name="jit(train_step)/jvp(TransformerLinenPure.apply)/TransformerLinenPure/decoder/while/body/closed_call/layers/reduce_sum"}
  %reduce_sum.23 = f32[] parameter(1), metadata={op_name="jit(train_step)/jvp(TransformerLinenPure.apply)/TransformerLinenPure/decoder/while/body/closed_call/layers/reduce_sum"}
  ROOT %reduce_sum.24 = f32[] add(%reduce_sum.22, %reduce_sum.23), metadata={op_name="layers/reduce_sum" source_file="/opt/maxtext/src/MaxText/layers/normalizations.py" source_line=67 source_end_line=67 source_column=12 source_end_column=12}
}

%region_0.3._custom_call_lowering_rule (reduce_window_sum.3: s32[], reduce_window_sum.4: s32[]) -> s32[] {
  %reduce_window_sum.3 = s32[] parameter(0), metadata={op_name="reduce_window_sum"}
  %reduce_window_sum.4 = s32[] parameter(1), metadata={op_name="reduce_window_sum"}
  ROOT %reduce_window_sum.5 = s32[] add(%reduce_window_sum.3, %reduce_window_sum.4), metadata={op_name="reduce_window_sum" source_file="/usr/local/lib/python3.12/dist-packages/transformer_engine/jax/cpp_extensions/attention.py" source_line=246 source_end_line=246 source_column=16 source_end_column=71}
}

%region_1.6._custom_call_lowering_rule (arg_empty_tuple.1: ()) -> (bf16[2,2048,32,128], f32[2,32,2048,1]) {
  %arg_empty_tuple.1 = () parameter(0)
  %constant.111 = bf16[] constant(0)
  %broadcast.194 = bf16[2,2048,32,128]{3,2,1,0} broadcast(%constant.111), dimensions={}
  %constant.110 = f32[] constant(-inf)
  %broadcast.193 = f32[2,32,2048,1]{3,2,1,0} broadcast(%constant.110), dimensions={}
  ROOT %tuple.13 = (bf16[2,2048,32,128]{3,2,1,0}, f32[2,32,2048,1]{3,2,1,0}) tuple(%broadcast.194, %broadcast.193)
}

%region_2.7._custom_call_lowering_rule (arg_tuple.8: (s32[2], s32[2], bf16[2,2048,32,128], bf16[2,2048,2,8,128], bf16[0], /*index=5*/u32[2], f32[0], f32[0], f32[0], f32[0], /*index=10*/f32[0], f32[0])) -> (bf16[2,2048,32,128], f32[2,32,2048,1]) {
  %arg_tuple.8 = (s32[2]{0}, s32[2]{0}, bf16[2,2048,32,128]{3,2,1,0}, bf16[2,2048,2,8,128]{4,3,2,1,0}, bf16[0]{0}, /*index=5*/u32[2]{0}, f32[0]{0}, f32[0]{0}, f32[0]{0}, f32[0]{0}, /*index=10*/f32[0]{0}, f32[0]{0}) parameter(0)
  %get-tuple-element.154 = bf16[2,2048,32,128]{3,2,1,0} get-tuple-element(%arg_tuple.8), index=2
  %get-tuple-element.155 = bf16[2,2048,2,8,128]{4,3,2,1,0} get-tuple-element(%arg_tuple.8), index=3
  %constant.112 = bf16[0]{0} constant({})
  %get-tuple-element.156 = bf16[0]{0} get-tuple-element(%arg_tuple.8), index=4
  %get-tuple-element.157 = u32[2]{0} get-tuple-element(%arg_tuple.8), index=5
  %constant.113 = s32[1]{0} constant({0})
  %get-tuple-element.152 = s32[2]{0} get-tuple-element(%arg_tuple.8), index=0
  %constant.114 = s32[] constant(2048)
  %broadcast.196 = s32[2]{0} broadcast(%constant.114), dimensions={}
  %sub.44 = s32[2]{0} subtract(%get-tuple-element.152, %broadcast.196), metadata={op_name="tmp_xla_computation/cond/branch_0_fun/cond/branch_1_fun/sub" source_file="/usr/local/lib/python3.12/dist-packages/transformer_engine/jax/cpp_extensions/attention.py" source_line=1927 source_end_line=1929 source_column=60 source_end_column=21}
  %constant.115 = s32[] constant(0)
  %broadcast.195 = s32[2]{0} broadcast(%constant.115), dimensions={}
  %lt.12 = pred[2]{0} compare(%sub.44, %broadcast.195), direction=LT, metadata={op_name="tmp_xla_computation/cond/branch_0_fun/cond/branch_1_fun/lt" source_file="/usr/local/lib/python3.12/dist-packages/transformer_engine/jax/cpp_extensions/attention.py" source_line=1927 source_end_line=1929 source_column=60 source_end_column=21}
  %select_n.54 = s32[2]{0} select(%lt.12, %broadcast.195, %sub.44), metadata={op_name="tmp_xla_computation/cond/branch_0_fun/cond/branch_1_fun/jit(_where)/select_n" source_file="/usr/local/lib/python3.12/dist-packages/transformer_engine/jax/cpp_extensions/attention.py" source_line=1756 source_end_line=1756 source_column=30 source_end_column=88}
  %lt.13 = pred[2]{0} compare(%select_n.54, %broadcast.196), direction=LT, metadata={op_name="tmp_xla_computation/cond/branch_0_fun/cond/branch_1_fun/lt" source_file="/usr/local/lib/python3.12/dist-packages/transformer_engine/jax/cpp_extensions/attention.py" source_line=1927 source_end_line=1929 source_column=60 source_end_column=21}
  %select_n.55 = s32[2]{0} select(%lt.13, %select_n.54, %broadcast.196), metadata={op_name="tmp_xla_computation/cond/branch_0_fun/cond/branch_1_fun/jit(_where)/select_n" source_file="/usr/local/lib/python3.12/dist-packages/transformer_engine/jax/cpp_extensions/attention.py" source_line=1757 source_end_line=1759 source_column=26 source_end_column=9}
  %lt.16 = pred[2]{0} compare(%select_n.55, %broadcast.195), direction=LT, metadata={op_name="tmp_xla_computation/cond/branch_0_fun/cond/branch_1_fun/lt" source_file="/usr/local/lib/python3.12/dist-packages/transformer_engine/jax/cpp_extensions/attention.py" source_line=1927 source_end_line=1929 source_column=60 source_end_column=21}
  %select_n.56 = s32[2]{0} select(%lt.16, %broadcast.195, %select_n.55), metadata={op_name="tmp_xla_computation/cond/branch_0_fun/cond/branch_1_fun/jit(_where)/select_n" source_file="/usr/local/lib/python3.12/dist-packages/transformer_engine/jax/cpp_extensions/attention.py" source_line=1756 source_end_line=1756 source_column=30 source_end_column=88}
  %reduce_window_sum.1 = s32[2]{0} reduce-window(%select_n.56, %constant.115), window={size=2 pad=1_0}, to_apply=%region_0.3._custom_call_lowering_rule, metadata={op_name="tmp_xla_computation/cond/branch_0_fun/cond/branch_1_fun/jit(_cumsum_with_promotion)/generate_cu_seqlen/reduce_window_sum" source_file="/usr/local/lib/python3.12/dist-packages/transformer_engine/jax/cpp_extensions/attention.py" source_line=246 source_end_line=246 source_column=16 source_end_column=71}
  %concatenate.18 = s32[3]{0} concatenate(%constant.113, %reduce_window_sum.1), dimensions={0}, metadata={op_name="tmp_xla_computation/cond/branch_0_fun/cond/branch_1_fun/concatenate" source_file="/usr/local/lib/python3.12/dist-packages/transformer_engine/jax/cpp_extensions/attention.py" source_line=1927 source_end_line=1929 source_column=60 source_end_column=21}
  %get-tuple-element.153 = s32[2]{0} get-tuple-element(%arg_tuple.8), index=1
  %sub.45 = s32[2]{0} subtract(%get-tuple-element.153, %broadcast.196), metadata={op_name="tmp_xla_computation/cond/branch_0_fun/cond/branch_1_fun/sub" source_file="/usr/local/lib/python3.12/dist-packages/transformer_engine/jax/cpp_extensions/attention.py" source_line=1927 source_end_line=1929 source_column=60 source_end_column=21}
  %lt.14 = pred[2]{0} compare(%sub.45, %broadcast.195), direction=LT, metadata={op_name="tmp_xla_computation/cond/branch_0_fun/cond/branch_1_fun/lt" source_file="/usr/local/lib/python3.12/dist-packages/transformer_engine/jax/cpp_extensions/attention.py" source_line=1927 source_end_line=1929 source_column=60 source_end_column=21}
  %select_n.57 = s32[2]{0} select(%lt.14, %broadcast.195, %sub.45), metadata={op_name="tmp_xla_computation/cond/branch_0_fun/cond/branch_1_fun/jit(_where)/select_n" source_file="/usr/local/lib/python3.12/dist-packages/transformer_engine/jax/cpp_extensions/attention.py" source_line=1756 source_end_line=1756 source_column=30 source_end_column=88}
  %lt.15 = pred[2]{0} compare(%select_n.57, %broadcast.196), direction=LT, metadata={op_name="tmp_xla_computation/cond/branch_0_fun/cond/branch_1_fun/lt" source_file="/usr/local/lib/python3.12/dist-packages/transformer_engine/jax/cpp_extensions/attention.py" source_line=1927 source_end_line=1929 source_column=60 source_end_column=21}
  %select_n.58 = s32[2]{0} select(%lt.15, %select_n.57, %broadcast.196), metadata={op_name="tmp_xla_computation/cond/branch_0_fun/cond/branch_1_fun/jit(_where)/select_n" source_file="/usr/local/lib/python3.12/dist-packages/transformer_engine/jax/cpp_extensions/attention.py" source_line=1757 source_end_line=1759 source_column=26 source_end_column=9}
  %lt.17 = pred[2]{0} compare(%select_n.58, %broadcast.195), direction=LT, metadata={op_name="tmp_xla_computation/cond/branch_0_fun/cond/branch_1_fun/lt" source_file="/usr/local/lib/python3.12/dist-packages/transformer_engine/jax/cpp_extensions/attention.py" source_line=1927 source_end_line=1929 source_column=60 source_end_column=21}
  %select_n.59 = s32[2]{0} select(%lt.17, %broadcast.195, %select_n.58), metadata={op_name="tmp_xla_computation/cond/branch_0_fun/cond/branch_1_fun/jit(_where)/select_n" source_file="/usr/local/lib/python3.12/dist-packages/transformer_engine/jax/cpp_extensions/attention.py" source_line=1756 source_end_line=1756 source_column=30 source_end_column=88}
  %reduce_window_sum.2 = s32[2]{0} reduce-window(%select_n.59, %constant.115), window={size=2 pad=1_0}, to_apply=%region_0.3._custom_call_lowering_rule, metadata={op_name="tmp_xla_computation/cond/branch_0_fun/cond/branch_1_fun/jit(_cumsum_with_promotion)/generate_cu_seqlen/reduce_window_sum" source_file="/usr/local/lib/python3.12/dist-packages/transformer_engine/jax/cpp_extensions/attention.py" source_line=246 source_end_line=246 source_column=16 source_end_column=71}
  %concatenate.19 = s32[3]{0} concatenate(%constant.113, %reduce_window_sum.2), dimensions={0}, metadata={op_name="tmp_xla_computation/cond/branch_0_fun/cond/branch_1_fun/concatenate" source_file="/usr/local/lib/python3.12/dist-packages/transformer_engine/jax/cpp_extensions/attention.py" source_line=1927 source_end_line=1929 source_column=60 source_end_column=21}
  %get-tuple-element.158 = f32[0]{0} get-tuple-element(%arg_tuple.8), index=6
  %get-tuple-element.159 = f32[0]{0} get-tuple-element(%arg_tuple.8), index=7
  %get-tuple-element.160 = f32[0]{0} get-tuple-element(%arg_tuple.8), index=8
  %get-tuple-element.161 = f32[0]{0} get-tuple-element(%arg_tuple.8), index=9
  %get-tuple-element.162 = f32[0]{0} get-tuple-element(%arg_tuple.8), index=10
  %get-tuple-element.163 = f32[0]{0} get-tuple-element(%arg_tuple.8), index=11
  %te_fused_attn_forward_ffi.10 = (bf16[2,2048,32,128]{3,2,1,0}, f32[2,32,2048,1]{3,2,1,0}, u32[2,4]{1,0}, u8[1]{0}) custom-call(%get-tuple-element.154, %get-tuple-element.155, %constant.112, %get-tuple-element.156, %get-tuple-element.157, /*index=5*/%concatenate.18, %concatenate.19, %get-tuple-element.158, %get-tuple-element.159, %get-tuple-element.160, /*index=10*/%get-tuple-element.161, %get-tuple-element.162, %get-tuple-element.163), custom_call_target="te_fused_attn_forward_ffi", operand_layout_constraints={bf16[2,2048,32,128]{3,2,1,0}, bf16[2,2048,2,8,128]{4,3,2,1,0}, bf16[0]{0}, bf16[0]{0}, u32[2]{0}, s32[3]{0}, s32[3]{0}, f32[0]{0}, f32[0]{0}, f32[0]{0}, f32[0]{0}, f32[0]{0}, f32[0]{0}}, api_version=API_VERSION_TYPED_FFI, metadata={op_name="tmp_xla_computation/cond/branch_0_fun/cond/branch_1_fun/te_fused_attn_forward_ffi" source_file="/usr/local/lib/python3.12/dist-packages/transformer_engine/jax/cpp_extensions/attention.py" source_line=1927 source_end_line=1929 source_column=60 source_end_column=21}, backend_config={attn_heads = 32 : i64, bias_batch = 0 : i64, bias_heads = 0 : i64, bias_type = 0 : i64, deterministic = false, dropout_probability = 0.000000e+00 : f64, input_batch = 2 : i64, is_training = true, kv_max_seqlen = 2048 : i64, mask_type = 0 : i64, max_segments_per_seq = 1 : i64, num_gqa_groups = 8 : i64, q_max_seqlen = 2048 : i64, qk_head_dim = 128 : i64, qkv_layout = 7 : i64, scaling_factor = 1.000000e+00 : f64, v_head_dim = 128 : i64, window_size_left = -1 : i64, window_size_right = -1 : i64}
  %te_fused_attn_forward_ffi.11 = bf16[2,2048,32,128]{3,2,1,0} get-tuple-element(%te_fused_attn_forward_ffi.10), index=0, metadata={op_name="tmp_xla_computation/cond/branch_0_fun/cond/branch_1_fun/te_fused_attn_forward_ffi" source_file="/usr/local/lib/python3.12/dist-packages/transformer_engine/jax/cpp_extensions/attention.py" source_line=1927 source_end_line=1929 source_column=60 source_end_column=21}
  %te_fused_attn_forward_ffi.12 = f32[2,32,2048,1]{3,2,1,0} get-tuple-element(%te_fused_attn_forward_ffi.10), index=1, metadata={op_name="tmp_xla_computation/cond/branch_0_fun/cond/branch_1_fun/te_fused_attn_forward_ffi" source_file="/usr/local/lib/python3.12/dist-packages/transformer_engine/jax/cpp_extensions/attention.py" source_line=1927 source_end_line=1929 source_column=60 source_end_column=21}
  ROOT %tuple.14 = (bf16[2,2048,32,128]{3,2,1,0}, f32[2,32,2048,1]{3,2,1,0}) tuple(%te_fused_attn_forward_ffi.11, %te_fused_attn_forward_ffi.12)
}

%region_3.10._custom_call_lowering_rule (arg_empty_tuple.3: ()) -> (bf16[2,2048,32,128], f32[2,32,2048,1]) {
  %arg_empty_tuple.3 = () parameter(0)
  %constant.218 = bf16[] constant(0)
  %broadcast.198 = bf16[2,2048,32,128]{3,2,1,0} broadcast(%constant.218), dimensions={}
  %constant.217 = f32[] constant(-inf)
  %broadcast.197 = f32[2,32,2048,1]{3,2,1,0} broadcast(%constant.217), dimensions={}
  ROOT %tuple.15 = (bf16[2,2048,32,128]{3,2,1,0}, f32[2,32,2048,1]{3,2,1,0}) tuple(%broadcast.198, %broadcast.197)
}

%region_4.11._custom_call_lowering_rule (arg_tuple.9: (s32[2], s32[2], bf16[2,2048,32,128], bf16[2,2048,2,8,128], bf16[0], /*index=5*/u32[2], f32[0], f32[0], f32[0], f32[0], /*index=10*/f32[0], f32[0])) -> (bf16[2,2048,32,128], f32[2,32,2048,1]) {
  %arg_tuple.9 = (s32[2]{0}, s32[2]{0}, bf16[2,2048,32,128]{3,2,1,0}, bf16[2,2048,2,8,128]{4,3,2,1,0}, bf16[0]{0}, /*index=5*/u32[2]{0}, f32[0]{0}, f32[0]{0}, f32[0]{0}, f32[0]{0}, /*index=10*/f32[0]{0}, f32[0]{0}) parameter(0)
  %get-tuple-element.166 = bf16[2,2048,32,128]{3,2,1,0} get-tuple-element(%arg_tuple.9), index=2
  %get-tuple-element.167 = bf16[2,2048,2,8,128]{4,3,2,1,0} get-tuple-element(%arg_tuple.9), index=3
  %constant.219 = bf16[0]{0} constant({})
  %get-tuple-element.168 = bf16[0]{0} get-tuple-element(%arg_tuple.9), index=4
  %get-tuple-element.169 = u32[2]{0} get-tuple-element(%arg_tuple.9), index=5
  %constant.220 = s32[1]{0} constant({0})
  %get-tuple-element.164 = s32[2]{0} get-tuple-element(%arg_tuple.9), index=0
  %constant.225 = s32[] constant(4096)
  %broadcast.201 = s32[2]{0} broadcast(%constant.225), dimensions={}
  %sub.46 = s32[2]{0} subtract(%get-tuple-element.164, %broadcast.201), metadata={op_name="tmp_xla_computation/cond/branch_0_fun/cond/branch_1_fun/sub" source_file="/usr/local/lib/python3.12/dist-packages/transformer_engine/jax/cpp_extensions/attention.py" source_line=1927 source_end_line=1929 source_column=60 source_end_column=21}
  %constant.223 = s32[] constant(0)
  %broadcast.200 = s32[2]{0} broadcast(%constant.223), dimensions={}
  %lt.24 = pred[2]{0} compare(%sub.46, %broadcast.200), direction=LT, metadata={op_name="tmp_xla_computation/cond/branch_0_fun/cond/branch_1_fun/lt" source_file="/usr/local/lib/python3.12/dist-packages/transformer_engine/jax/cpp_extensions/attention.py" source_line=1927 source_end_line=1929 source_column=60 source_end_column=21}
  %select_n.60 = s32[2]{0} select(%lt.24, %broadcast.200, %sub.46), metadata={op_name="tmp_xla_computation/cond/branch_0_fun/cond/branch_1_fun/jit(_where)/select_n" source_file="/usr/local/lib/python3.12/dist-packages/transformer_engine/jax/cpp_extensions/attention.py" source_line=1756 source_end_line=1756 source_column=30 source_end_column=88}
  %constant.221 = s32[] constant(2048)
  %broadcast.199 = s32[2]{0} broadcast(%constant.221), dimensions={}
  %lt.25 = pred[2]{0} compare(%select_n.60, %broadcast.199), direction=LT, metadata={op_name="tmp_xla_computation/cond/branch_0_fun/cond/branch_1_fun/lt" source_file="/usr/local/lib/python3.12/dist-packages/transformer_engine/jax/cpp_extensions/attention.py" source_line=1927 source_end_line=1929 source_column=60 source_end_column=21}
  %select_n.61 = s32[2]{0} select(%lt.25, %select_n.60, %broadcast.199), metadata={op_name="tmp_xla_computation/cond/branch_0_fun/cond/branch_1_fun/jit(_where)/select_n" source_file="/usr/local/lib/python3.12/dist-packages/transformer_engine/jax/cpp_extensions/attention.py" source_line=1757 source_end_line=1759 source_column=26 source_end_column=9}
  %lt.28 = pred[2]{0} compare(%select_n.61, %broadcast.200), direction=LT, metadata={op_name="tmp_xla_computation/cond/branch_0_fun/cond/branch_1_fun/lt" source_file="/usr/local/lib/python3.12/dist-packages/transformer_engine/jax/cpp_extensions/attention.py" source_line=1927 source_end_line=1929 source_column=60 source_end_column=21}
  %select_n.62 = s32[2]{0} select(%lt.28, %broadcast.200, %select_n.61), metadata={op_name="tmp_xla_computation/cond/branch_0_fun/cond/branch_1_fun/jit(_where)/select_n" source_file="/usr/local/lib/python3.12/dist-packages/transformer_engine/jax/cpp_extensions/attention.py" source_line=1756 source_end_line=1756 source_column=30 source_end_column=88}
  %reduce_window_sum.6 = s32[2]{0} reduce-window(%select_n.62, %constant.223), window={size=2 pad=1_0}, to_apply=%region_0.3._custom_call_lowering_rule, metadata={op_name="tmp_xla_computation/cond/branch_0_fun/cond/branch_1_fun/jit(_cumsum_with_promotion)/generate_cu_seqlen/reduce_window_sum" source_file="/usr/local/lib/python3.12/dist-packages/transformer_engine/jax/cpp_extensions/attention.py" source_line=246 source_end_line=246 source_column=16 source_end_column=71}
  %concatenate.20 = s32[3]{0} concatenate(%constant.220, %reduce_window_sum.6), dimensions={0}, metadata={op_name="tmp_xla_computation/cond/branch_0_fun/cond/branch_1_fun/concatenate" source_file="/usr/local/lib/python3.12/dist-packages/transformer_engine/jax/cpp_extensions/attention.py" source_line=1927 source_end_line=1929 source_column=60 source_end_column=21}
  %get-tuple-element.165 = s32[2]{0} get-tuple-element(%arg_tuple.9), index=1
  %sub.47 = s32[2]{0} subtract(%get-tuple-element.165, %broadcast.201), metadata={op_name="tmp_xla_computation/cond/branch_0_fun/cond/branch_1_fun/sub" source_file="/usr/local/lib/python3.12/dist-packages/transformer_engine/jax/cpp_extensions/attention.py" source_line=1927 source_end_line=1929 source_column=60 source_end_column=21}
  %lt.26 = pred[2]{0} compare(%sub.47, %broadcast.200), direction=LT, metadata={op_name="tmp_xla_computation/cond/branch_0_fun/cond/branch_1_fun/lt" source_file="/usr/local/lib/python3.12/dist-packages/transformer_engine/jax/cpp_extensions/attention.py" source_line=1927 source_end_line=1929 source_column=60 source_end_column=21}
  %select_n.63 = s32[2]{0} select(%lt.26, %broadcast.200, %sub.47), metadata={op_name="tmp_xla_computation/cond/branch_0_fun/cond/branch_1_fun/jit(_where)/select_n" source_file="/usr/local/lib/python3.12/dist-packages/transformer_engine/jax/cpp_extensions/attention.py" source_line=1756 source_end_line=1756 source_column=30 source_end_column=88}
  %lt.27 = pred[2]{0} compare(%select_n.63, %broadcast.199), direction=LT, metadata={op_name="tmp_xla_computation/cond/branch_0_fun/cond/branch_1_fun/lt" source_file="/usr/local/lib/python3.12/dist-packages/transformer_engine/jax/cpp_extensions/attention.py" source_line=1927 source_end_line=1929 source_column=60 source_end_column=21}
  %select_n.64 = s32[2]{0} select(%lt.27, %select_n.63, %broadcast.199), metadata={op_name="tmp_xla_computation/cond/branch_0_fun/cond/branch_1_fun/jit(_where)/select_n" source_file="/usr/local/lib/python3.12/dist-packages/transformer_engine/jax/cpp_extensions/attention.py" source_line=1757 source_end_line=1759 source_column=26 source_end_column=9}
  %lt.29 = pred[2]{0} compare(%select_n.64, %broadcast.200), direction=LT, metadata={op_name="tmp_xla_computation/cond/branch_0_fun/cond/branch_1_fun/lt" source_file="/usr/local/lib/python3.12/dist-packages/transformer_engine/jax/cpp_extensions/attention.py" source_line=1927 source_end_line=1929 source_column=60 source_end_column=21}
  %select_n.65 = s32[2]{0} select(%lt.29, %broadcast.200, %select_n.64), metadata={op_name="tmp_xla_computation/cond/branch_0_fun/cond/branch_1_fun/jit(_where)/select_n" source_file="/usr/local/lib/python3.12/dist-packages/transformer_engine/jax/cpp_extensions/attention.py" source_line=1756 source_end_line=1756 source_column=30 source_end_column=88}
  %reduce_window_sum.8 = s32[2]{0} reduce-window(%select_n.65, %constant.223), window={size=2 pad=1_0}, to_apply=%region_0.3._custom_call_lowering_rule, metadata={op_name="tmp_xla_computation/cond/branch_0_fun/cond/branch_1_fun/jit(_cumsum_with_promotion)/generate_cu_seqlen/reduce_window_sum" source_file="/usr/local/lib/python3.12/dist-packages/transformer_engine/jax/cpp_extensions/attention.py" source_line=246 source_end_line=246 source_column=16 source_end_column=71}
  %concatenate.21 = s32[3]{0} concatenate(%constant.220, %reduce_window_sum.8), dimensions={0}, metadata={op_name="tmp_xla_computation/cond/branch_0_fun/cond/branch_1_fun/concatenate" source_file="/usr/local/lib/python3.12/dist-packages/transformer_engine/jax/cpp_extensions/attention.py" source_line=1927 source_end_line=1929 source_column=60 source_end_column=21}
  %get-tuple-element.170 = f32[0]{0} get-tuple-element(%arg_tuple.9), index=6
  %get-tuple-element.171 = f32[0]{0} get-tuple-element(%arg_tuple.9), index=7
  %get-tuple-element.172 = f32[0]{0} get-tuple-element(%arg_tuple.9), index=8
  %get-tuple-element.173 = f32[0]{0} get-tuple-element(%arg_tuple.9), index=9
  %get-tuple-element.174 = f32[0]{0} get-tuple-element(%arg_tuple.9), index=10
  %get-tuple-element.175 = f32[0]{0} get-tuple-element(%arg_tuple.9), index=11
  %te_fused_attn_forward_ffi.20 = (bf16[2,2048,32,128]{3,2,1,0}, f32[2,32,2048,1]{3,2,1,0}, u32[2,4]{1,0}, u8[1]{0}) custom-call(%get-tuple-element.166, %get-tuple-element.167, %constant.219, %get-tuple-element.168, %get-tuple-element.169, /*index=5*/%concatenate.20, %concatenate.21, %get-tuple-element.170, %get-tuple-element.171, %get-tuple-element.172, /*index=10*/%get-tuple-element.173, %get-tuple-element.174, %get-tuple-element.175), custom_call_target="te_fused_attn_forward_ffi", operand_layout_constraints={bf16[2,2048,32,128]{3,2,1,0}, bf16[2,2048,2,8,128]{4,3,2,1,0}, bf16[0]{0}, bf16[0]{0}, u32[2]{0}, s32[3]{0}, s32[3]{0}, f32[0]{0}, f32[0]{0}, f32[0]{0}, f32[0]{0}, f32[0]{0}, f32[0]{0}}, api_version=API_VERSION_TYPED_FFI, metadata={op_name="tmp_xla_computation/cond/branch_0_fun/cond/branch_1_fun/te_fused_attn_forward_ffi" source_file="/usr/local/lib/python3.12/dist-packages/transformer_engine/jax/cpp_extensions/attention.py" source_line=1927 source_end_line=1929 source_column=60 source_end_column=21}, backend_config={attn_heads = 32 : i64, bias_batch = 0 : i64, bias_heads = 0 : i64, bias_type = 0 : i64, deterministic = false, dropout_probability = 0.000000e+00 : f64, input_batch = 2 : i64, is_training = true, kv_max_seqlen = 2048 : i64, mask_type = 0 : i64, max_segments_per_seq = 1 : i64, num_gqa_groups = 8 : i64, q_max_seqlen = 2048 : i64, qk_head_dim = 128 : i64, qkv_layout = 7 : i64, scaling_factor = 1.000000e+00 : f64, v_head_dim = 128 : i64, window_size_left = -1 : i64, window_size_right = -1 : i64}
  %te_fused_attn_forward_ffi.21 = bf16[2,2048,32,128]{3,2,1,0} get-tuple-element(%te_fused_attn_forward_ffi.20), index=0, metadata={op_name="tmp_xla_computation/cond/branch_0_fun/cond/branch_1_fun/te_fused_attn_forward_ffi" source_file="/usr/local/lib/python3.12/dist-packages/transformer_engine/jax/cpp_extensions/attention.py" source_line=1927 source_end_line=1929 source_column=60 source_end_column=21}
  %te_fused_attn_forward_ffi.22 = f32[2,32,2048,1]{3,2,1,0} get-tuple-element(%te_fused_attn_forward_ffi.20), index=1, metadata={op_name="tmp_xla_computation/cond/branch_0_fun/cond/branch_1_fun/te_fused_attn_forward_ffi" source_file="/usr/local/lib/python3.12/dist-packages/transformer_engine/jax/cpp_extensions/attention.py" source_line=1927 source_end_line=1929 source_column=60 source_end_column=21}
  ROOT %tuple.16 = (bf16[2,2048,32,128]{3,2,1,0}, f32[2,32,2048,1]{3,2,1,0}) tuple(%te_fused_attn_forward_ffi.21, %te_fused_attn_forward_ffi.22)
}

%region_5.12._custom_call_lowering_rule (arg_empty_tuple.5: ()) -> (bf16[2,2048,32,128], f32[2,32,2048,1]) {
  %arg_empty_tuple.5 = () parameter(0)
  %constant.229 = bf16[] constant(0)
  %broadcast.203 = bf16[2,2048,32,128]{3,2,1,0} broadcast(%constant.229), dimensions={}
  %constant.228 = f32[] constant(-inf)
  %broadcast.202 = f32[2,32,2048,1]{3,2,1,0} broadcast(%constant.228), dimensions={}
  ROOT %tuple.17 = (bf16[2,2048,32,128]{3,2,1,0}, f32[2,32,2048,1]{3,2,1,0}) tuple(%broadcast.203, %broadcast.202)
}

%region_6.13._custom_call_lowering_rule (arg_tuple.10: (s32[2], s32[2], bf16[2,2048,32,128], bf16[2,2048,2,8,128], bf16[0], /*index=5*/u32[2], f32[0], f32[0], f32[0], f32[0], /*index=10*/f32[0], f32[0])) -> (bf16[2,2048,32,128], f32[2,32,2048,1]) {
  %arg_tuple.10 = (s32[2]{0}, s32[2]{0}, bf16[2,2048,32,128]{3,2,1,0}, bf16[2,2048,2,8,128]{4,3,2,1,0}, bf16[0]{0}, /*index=5*/u32[2]{0}, f32[0]{0}, f32[0]{0}, f32[0]{0}, f32[0]{0}, /*index=10*/f32[0]{0}, f32[0]{0}) parameter(0)
  %get-tuple-element.178 = bf16[2,2048,32,128]{3,2,1,0} get-tuple-element(%arg_tuple.10), index=2
  %get-tuple-element.179 = bf16[2,2048,2,8,128]{4,3,2,1,0} get-tuple-element(%arg_tuple.10), index=3
  %constant.230 = bf16[0]{0} constant({})
  %get-tuple-element.180 = bf16[0]{0} get-tuple-element(%arg_tuple.10), index=4
  %get-tuple-element.181 = u32[2]{0} get-tuple-element(%arg_tuple.10), index=5
  %constant.231 = s32[1]{0} constant({0})
  %get-tuple-element.176 = s32[2]{0} get-tuple-element(%arg_tuple.10), index=0
  %constant.236 = s32[] constant(6144)
  %broadcast.206 = s32[2]{0} broadcast(%constant.236), dimensions={}
  %sub.48 = s32[2]{0} subtract(%get-tuple-element.176, %broadcast.206), metadata={op_name="tmp_xla_computation/cond/branch_0_fun/cond/branch_1_fun/sub" source_file="/usr/local/lib/python3.12/dist-packages/transformer_engine/jax/cpp_extensions/attention.py" source_line=1927 source_end_line=1929 source_column=60 source_end_column=21}
  %constant.234 = s32[] constant(0)
  %broadcast.205 = s32[2]{0} broadcast(%constant.234), dimensions={}
  %lt.36 = pred[2]{0} compare(%sub.48, %broadcast.205), direction=LT, metadata={op_name="tmp_xla_computation/cond/branch_0_fun/cond/branch_1_fun/lt" source_file="/usr/local/lib/python3.12/dist-packages/transformer_engine/jax/cpp_extensions/attention.py" source_line=1927 source_end_line=1929 source_column=60 source_end_column=21}
  %select_n.66 = s32[2]{0} select(%lt.36, %broadcast.205, %sub.48), metadata={op_name="tmp_xla_computation/cond/branch_0_fun/cond/branch_1_fun/jit(_where)/select_n" source_file="/usr/local/lib/python3.12/dist-packages/transformer_engine/jax/cpp_extensions/attention.py" source_line=1756 source_end_line=1756 source_column=30 source_end_column=88}
  %constant.232 = s32[] constant(2048)
  %broadcast.204 = s32[2]{0} broadcast(%constant.232), dimensions={}
  %lt.37 = pred[2]{0} compare(%select_n.66, %broadcast.204), direction=LT, metadata={op_name="tmp_xla_computation/cond/branch_0_fun/cond/branch_1_fun/lt" source_file="/usr/local/lib/python3.12/dist-packages/transformer_engine/jax/cpp_extensions/attention.py" source_line=1927 source_end_line=1929 source_column=60 source_end_column=21}
  %select_n.67 = s32[2]{0} select(%lt.37, %select_n.66, %broadcast.204), metadata={op_name="tmp_xla_computation/cond/branch_0_fun/cond/branch_1_fun/jit(_where)/select_n" source_file="/usr/local/lib/python3.12/dist-packages/transformer_engine/jax/cpp_extensions/attention.py" source_line=1757 source_end_line=1759 source_column=26 source_end_column=9}
  %lt.40 = pred[2]{0} compare(%select_n.67, %broadcast.205), direction=LT, metadata={op_name="tmp_xla_computation/cond/branch_0_fun/cond/branch_1_fun/lt" source_file="/usr/local/lib/python3.12/dist-packages/transformer_engine/jax/cpp_extensions/attention.py" source_line=1927 source_end_line=1929 source_column=60 source_end_column=21}
  %select_n.68 = s32[2]{0} select(%lt.40, %broadcast.205, %select_n.67), metadata={op_name="tmp_xla_computation/cond/branch_0_fun/cond/branch_1_fun/jit(_where)/select_n" source_file="/usr/local/lib/python3.12/dist-packages/transformer_engine/jax/cpp_extensions/attention.py" source_line=1756 source_end_line=1756 source_column=30 source_end_column=88}
  %reduce_window_sum.9 = s32[2]{0} reduce-window(%select_n.68, %constant.234), window={size=2 pad=1_0}, to_apply=%region_0.3._custom_call_lowering_rule, metadata={op_name="tmp_xla_computation/cond/branch_0_fun/cond/branch_1_fun/jit(_cumsum_with_promotion)/generate_cu_seqlen/reduce_window_sum" source_file="/usr/local/lib/python3.12/dist-packages/transformer_engine/jax/cpp_extensions/attention.py" source_line=246 source_end_line=246 source_column=16 source_end_column=71}
  %concatenate.22 = s32[3]{0} concatenate(%constant.231, %reduce_window_sum.9), dimensions={0}, metadata={op_name="tmp_xla_computation/cond/branch_0_fun/cond/branch_1_fun/concatenate" source_file="/usr/local/lib/python3.12/dist-packages/transformer_engine/jax/cpp_extensions/attention.py" source_line=1927 source_end_line=1929 source_column=60 source_end_column=21}
  %get-tuple-element.177 = s32[2]{0} get-tuple-element(%arg_tuple.10), index=1
  %sub.49 = s32[2]{0} subtract(%get-tuple-element.177, %broadcast.206), metadata={op_name="tmp_xla_computation/cond/branch_0_fun/cond/branch_1_fun/sub" source_file="/usr/local/lib/python3.12/dist-packages/transformer_engine/jax/cpp_extensions/attention.py" source_line=1927 source_end_line=1929 source_column=60 source_end_column=21}
  %lt.38 = pred[2]{0} compare(%sub.49, %broadcast.205), direction=LT, metadata={op_name="tmp_xla_computation/cond/branch_0_fun/cond/branch_1_fun/lt" source_file="/usr/local/lib/python3.12/dist-packages/transformer_engine/jax/cpp_extensions/attention.py" source_line=1927 source_end_line=1929 source_column=60 source_end_column=21}
  %select_n.69 = s32[2]{0} select(%lt.38, %broadcast.205, %sub.49), metadata={op_name="tmp_xla_computation/cond/branch_0_fun/cond/branch_1_fun/jit(_where)/select_n" source_file="/usr/local/lib/python3.12/dist-packages/transformer_engine/jax/cpp_extensions/attention.py" source_line=1756 source_end_line=1756 source_column=30 source_end_column=88}
  %lt.39 = pred[2]{0} compare(%select_n.69, %broadcast.204), direction=LT, metadata={op_name="tmp_xla_computation/cond/branch_0_fun/cond/branch_1_fun/lt" source_file="/usr/local/lib/python3.12/dist-packages/transformer_engine/jax/cpp_extensions/attention.py" source_line=1927 source_end_line=1929 source_column=60 source_end_column=21}
  %select_n.70 = s32[2]{0} select(%lt.39, %select_n.69, %broadcast.204), metadata={op_name="tmp_xla_computation/cond/branch_0_fun/cond/branch_1_fun/jit(_where)/select_n" source_file="/usr/local/lib/python3.12/dist-packages/transformer_engine/jax/cpp_extensions/attention.py" source_line=1757 source_end_line=1759 source_column=26 source_end_column=9}
  %lt.41 = pred[2]{0} compare(%select_n.70, %broadcast.205), direction=LT, metadata={op_name="tmp_xla_computation/cond/branch_0_fun/cond/branch_1_fun/lt" source_file="/usr/local/lib/python3.12/dist-packages/transformer_engine/jax/cpp_extensions/attention.py" source_line=1927 source_end_line=1929 source_column=60 source_end_column=21}
  %select_n.71 = s32[2]{0} select(%lt.41, %broadcast.205, %select_n.70), metadata={op_name="tmp_xla_computation/cond/branch_0_fun/cond/branch_1_fun/jit(_where)/select_n" source_file="/usr/local/lib/python3.12/dist-packages/transformer_engine/jax/cpp_extensions/attention.py" source_line=1756 source_end_line=1756 source_column=30 source_end_column=88}
  %reduce_window_sum.10 = s32[2]{0} reduce-window(%select_n.71, %constant.234), window={size=2 pad=1_0}, to_apply=%region_0.3._custom_call_lowering_rule, metadata={op_name="tmp_xla_computation/cond/branch_0_fun/cond/branch_1_fun/jit(_cumsum_with_promotion)/generate_cu_seqlen/reduce_window_sum" source_file="/usr/local/lib/python3.12/dist-packages/transformer_engine/jax/cpp_extensions/attention.py" source_line=246 source_end_line=246 source_column=16 source_end_column=71}
  %concatenate.23 = s32[3]{0} concatenate(%constant.231, %reduce_window_sum.10), dimensions={0}, metadata={op_name="tmp_xla_computation/cond/branch_0_fun/cond/branch_1_fun/concatenate" source_file="/usr/local/lib/python3.12/dist-packages/transformer_engine/jax/cpp_extensions/attention.py" source_line=1927 source_end_line=1929 source_column=60 source_end_column=21}
  %get-tuple-element.182 = f32[0]{0} get-tuple-element(%arg_tuple.10), index=6
  %get-tuple-element.183 = f32[0]{0} get-tuple-element(%arg_tuple.10), index=7
  %get-tuple-element.184 = f32[0]{0} get-tuple-element(%arg_tuple.10), index=8
  %get-tuple-element.185 = f32[0]{0} get-tuple-element(%arg_tuple.10), index=9
  %get-tuple-element.186 = f32[0]{0} get-tuple-element(%arg_tuple.10), index=10
  %get-tuple-element.187 = f32[0]{0} get-tuple-element(%arg_tuple.10), index=11
  %te_fused_attn_forward_ffi.30 = (bf16[2,2048,32,128]{3,2,1,0}, f32[2,32,2048,1]{3,2,1,0}, u32[2,4]{1,0}, u8[1]{0}) custom-call(%get-tuple-element.178, %get-tuple-element.179, %constant.230, %get-tuple-element.180, %get-tuple-element.181, /*index=5*/%concatenate.22, %concatenate.23, %get-tuple-element.182, %get-tuple-element.183, %get-tuple-element.184, /*index=10*/%get-tuple-element.185, %get-tuple-element.186, %get-tuple-element.187), custom_call_target="te_fused_attn_forward_ffi", operand_layout_constraints={bf16[2,2048,32,128]{3,2,1,0}, bf16[2,2048,2,8,128]{4,3,2,1,0}, bf16[0]{0}, bf16[0]{0}, u32[2]{0}, s32[3]{0}, s32[3]{0}, f32[0]{0}, f32[0]{0}, f32[0]{0}, f32[0]{0}, f32[0]{0}, f32[0]{0}}, api_version=API_VERSION_TYPED_FFI, metadata={op_name="tmp_xla_computation/cond/branch_0_fun/cond/branch_1_fun/te_fused_attn_forward_ffi" source_file="/usr/local/lib/python3.12/dist-packages/transformer_engine/jax/cpp_extensions/attention.py" source_line=1927 source_end_line=1929 source_column=60 source_end_column=21}, backend_config={attn_heads = 32 : i64, bias_batch = 0 : i64, bias_heads = 0 : i64, bias_type = 0 : i64, deterministic = false, dropout_probability = 0.000000e+00 : f64, input_batch = 2 : i64, is_training = true, kv_max_seqlen = 2048 : i64, mask_type = 0 : i64, max_segments_per_seq = 1 : i64, num_gqa_groups = 8 : i64, q_max_seqlen = 2048 : i64, qk_head_dim = 128 : i64, qkv_layout = 7 : i64, scaling_factor = 1.000000e+00 : f64, v_head_dim = 128 : i64, window_size_left = -1 : i64, window_size_right = -1 : i64}
  %te_fused_attn_forward_ffi.31 = bf16[2,2048,32,128]{3,2,1,0} get-tuple-element(%te_fused_attn_forward_ffi.30), index=0, metadata={op_name="tmp_xla_computation/cond/branch_0_fun/cond/branch_1_fun/te_fused_attn_forward_ffi" source_file="/usr/local/lib/python3.12/dist-packages/transformer_engine/jax/cpp_extensions/attention.py" source_line=1927 source_end_line=1929 source_column=60 source_end_column=21}
  %te_fused_attn_forward_ffi.32 = f32[2,32,2048,1]{3,2,1,0} get-tuple-element(%te_fused_attn_forward_ffi.30), index=1, metadata={op_name="tmp_xla_computation/cond/branch_0_fun/cond/branch_1_fun/te_fused_attn_forward_ffi" source_file="/usr/local/lib/python3.12/dist-packages/transformer_engine/jax/cpp_extensions/attention.py" source_line=1927 source_end_line=1929 source_column=60 source_end_column=21}
  ROOT %tuple.18 = (bf16[2,2048,32,128]{3,2,1,0}, f32[2,32,2048,1]{3,2,1,0}) tuple(%te_fused_attn_forward_ffi.31, %te_fused_attn_forward_ffi.32)
}

%region_3.3 (reduce_sum.25: f32[], reduce_sum.29: f32[]) -> f32[] {
  %reduce_sum.25 = f32[] parameter(0), metadata={op_name="jit(train_step)/jvp(TransformerLinenPure.apply)/TransformerLinenPure/decoder/while/body/closed_call/layers/reduce_sum"}
  %reduce_sum.29 = f32[] parameter(1), metadata={op_name="jit(train_step)/jvp(TransformerLinenPure.apply)/TransformerLinenPure/decoder/while/body/closed_call/layers/reduce_sum"}
  ROOT %reduce_sum.30 = f32[] add(%reduce_sum.25, %reduce_sum.29), metadata={op_name="layers/reduce_sum" source_file="/opt/maxtext/src/MaxText/layers/normalizations.py" source_line=67 source_end_line=67 source_column=12 source_end_column=12}
}

%region_1.4_spmd (param: (s32[], bf16[2,2048,4096], bf16[32,2,2048,4096], f32[32,4096], f32[32,4096], /*index=5*/f32[32,1024,32,128], bf16[2,2048,1,64], bf16[2,2048,1,64], f32[32,1024,8,128], bf16[2,2048,1,64], /*index=10*/bf16[2,2048,1,64], f32[32,1024,8,128], f32[32,32,128,1024], f32[32,1024,14336], f32[32,1024,14336], /*index=15*/f32[32,14336,1024])) -> (s32[], bf16[2,2048,4096], bf16[32,2,2048,4096], f32[32,4096], f32[32,4096], /*index=5*/f32[32,1024,32,128], bf16[2,2048,1,64], bf16[2,2048,1,64], f32[32,1024,8,128], bf16[2,2048,1,64], /*index=10*/bf16[2,2048,1,64], f32[32,1024,8,128], f32[32,32,128,1024], f32[32,1024,14336], f32[32,1024,14336], /*index=15*/f32[32,14336,1024]) {
  %param = (s32[], bf16[2,2048,4096]{2,1,0}, bf16[32,2,2048,4096]{3,2,1,0}, f32[32,4096]{1,0}, f32[32,4096]{1,0}, /*index=5*/f32[32,1024,32,128]{3,2,1,0}, bf16[2,2048,1,64]{3,2,1,0}, bf16[2,2048,1,64]{3,2,1,0}, f32[32,1024,8,128]{3,2,1,0}, bf16[2,2048,1,64]{3,2,1,0}, /*index=10*/bf16[2,2048,1,64]{3,2,1,0}, f32[32,1024,8,128]{3,2,1,0}, f32[32,32,128,1024]{3,2,1,0}, f32[32,1024,14336]{2,1,0}, f32[32,1024,14336]{2,1,0}, /*index=15*/f32[32,14336,1024]{2,1,0}) parameter(0)
  %get-tuple-element.188 = s32[] get-tuple-element(%param), index=0
  %constant.239 = s32[] constant(1)
  %add.150 = s32[] add(%get-tuple-element.188, %constant.239), metadata={op_name="jit(train_step)/jvp(TransformerLinenPure.apply)/TransformerLinenPure/decoder/while/body/add" source_file="/opt/flax/flax/core/axes_scan.py" source_line=199 source_end_line=199 source_column=14 source_end_column=14}
  %get-tuple-element.189 = f32[32,4096]{1,0} get-tuple-element(%param), index=3
  %constant.240 = s32[] constant(0)
  %dynamic_slice.38 = f32[1,4096]{1,0} dynamic-slice(%get-tuple-element.189, %get-tuple-element.188, %constant.240), dynamic_slice_sizes={1,4096}, metadata={op_name="jit(train_step)/jvp(TransformerLinenPure.apply)/TransformerLinenPure/decoder/while/body/dynamic_slice" source_file="/opt/flax/flax/core/axes_scan.py" source_line=199 source_end_line=199 source_column=14 source_end_column=14}
  %convert_element_type.249 = bf16[1,4096]{1,0} convert(%dynamic_slice.38), metadata={op_name="jit(train_step)/jvp(TransformerLinenPure.apply)/TransformerLinenPure/decoder/while/body/closed_call/layers/convert_element_type" source_file="/opt/maxtext/src/MaxText/layers/normalizations.py" source_line=78 source_end_line=78 source_column=12 source_end_column=12}
  %convert_element_type.250 = bf16[4096]{0} reshape(%convert_element_type.249), metadata={op_name="jit(train_step)/jvp(TransformerLinenPure.apply)/TransformerLinenPure/decoder/while/body/closed_call/layers/convert_element_type" source_file="/opt/maxtext/src/MaxText/layers/normalizations.py" source_line=78 source_end_line=78 source_column=12 source_end_column=12}
  %dot_general.124 = bf16[2,2048,4096]{2,1,0} broadcast(%convert_element_type.250), dimensions={2}, metadata={op_name="jit(train_step)/jvp(TransformerLinenPure.apply)/TransformerLinenPure/decoder/while/body/closed_call/layers/i...k,...k->i...k/dot_general" source_file="/opt/maxtext/src/MaxText/layers/normalizations.py" source_line=81 source_end_line=81 source_column=11 source_end_column=11}
  %get-tuple-element.190 = bf16[2,2048,4096]{2,1,0} get-tuple-element(%param), index=1
  %sharding_constraint.118 = bf16[2,2048,4096]{2,1,0} copy(%get-tuple-element.190), metadata={op_name="jit(train_step)/jvp(TransformerLinenPure.apply)/TransformerLinenPure/decoder/while/body/closed_call/layers/sharding_constraint" source_file="/opt/maxtext/src/MaxText/sharding.py" source_line=44 source_end_line=44 source_column=11 source_end_column=11}
  %get-tuple-element.191 = f32[32,4096]{1,0} get-tuple-element(%param), index=4
  %dynamic_slice.39 = f32[1,4096]{1,0} dynamic-slice(%get-tuple-element.191, %get-tuple-element.188, %constant.240), dynamic_slice_sizes={1,4096}, metadata={op_name="jit(train_step)/jvp(TransformerLinenPure.apply)/TransformerLinenPure/decoder/while/body/dynamic_slice" source_file="/opt/flax/flax/core/axes_scan.py" source_line=199 source_end_line=199 source_column=14 source_end_column=14}
  %convert_element_type.251 = bf16[1,4096]{1,0} convert(%dynamic_slice.39), metadata={op_name="jit(train_step)/jvp(TransformerLinenPure.apply)/TransformerLinenPure/decoder/while/body/closed_call/layers/convert_element_type" source_file="/opt/maxtext/src/MaxText/layers/normalizations.py" source_line=78 source_end_line=78 source_column=12 source_end_column=12}
  %convert_element_type.252 = bf16[4096]{0} reshape(%convert_element_type.251), metadata={op_name="jit(train_step)/jvp(TransformerLinenPure.apply)/TransformerLinenPure/decoder/while/body/closed_call/layers/convert_element_type" source_file="/opt/maxtext/src/MaxText/layers/normalizations.py" source_line=78 source_end_line=78 source_column=12 source_end_column=12}
  %dot_general.125 = bf16[2,2048,4096]{2,1,0} broadcast(%convert_element_type.252), dimensions={2}, metadata={op_name="jit(train_step)/jvp(TransformerLinenPure.apply)/TransformerLinenPure/decoder/while/body/closed_call/layers/i...k,...k->i...k/dot_general" source_file="/opt/maxtext/src/MaxText/layers/normalizations.py" source_line=81 source_end_line=81 source_column=11 source_end_column=11}
  %convert_element_type.253 = f32[2,2048,4096]{2,1,0} convert(%sharding_constraint.118), metadata={op_name="jit(train_step)/jvp(TransformerLinenPure.apply)/TransformerLinenPure/decoder/while/body/closed_call/layers/convert_element_type" source_file="/opt/maxtext/src/MaxText/layers/normalizations.py" source_line=66 source_end_line=66 source_column=8 source_end_column=8}
  %square.90 = f32[2,2048,4096]{2,1,0} multiply(%convert_element_type.253, %convert_element_type.253), metadata={op_name="jit(train_step)/jvp(TransformerLinenPure.apply)/TransformerLinenPure/decoder/while/body/closed_call/layers/square" source_file="/opt/maxtext/src/MaxText/layers/normalizations.py" source_line=67 source_end_line=67 source_column=21 source_end_column=21}
  %constant.241 = f32[] constant(0)
  %reduce = f32[2,2048]{1,0} reduce(%square.90, %constant.241), dimensions={2}, to_apply=%region_2.0, metadata={op_name="jit(train_step)/jvp(TransformerLinenPure.apply)/TransformerLinenPure/decoder/while/body/closed_call/layers/reduce_sum" source_file="/opt/maxtext/src/MaxText/layers/normalizations.py" source_line=67 source_end_line=67 source_column=12 source_end_column=12}
  %constant.242 = f32[] constant(0.000244140625)
  %closed_call.8 = f32[2,2048]{1,0} broadcast(%constant.242), dimensions={}, metadata={op_name="jit(train_step)/jvp(TransformerLinenPure.apply)/TransformerLinenPure/decoder/while/body/closed_call"}
  %div.95 = f32[2,2048]{1,0} multiply(%reduce, %closed_call.8), metadata={op_name="jit(train_step)/jvp(TransformerLinenPure.apply)/TransformerLinenPure/decoder/while/body/closed_call/layers/div" source_file="/opt/maxtext/src/MaxText/layers/normalizations.py" source_line=67 source_end_line=67 source_column=12 source_end_column=12}
  %constant.243 = f32[] constant(1e-05)
  %closed_call.9 = f32[2,2048]{1,0} broadcast(%constant.243), dimensions={}, metadata={op_name="jit(train_step)/jvp(TransformerLinenPure.apply)/TransformerLinenPure/decoder/while/body/closed_call"}
  %add.151 = f32[2,2048]{1,0} add(%div.95, %closed_call.9), metadata={op_name="jit(train_step)/jvp(TransformerLinenPure.apply)/TransformerLinenPure/decoder/while/body/closed_call/layers/add" source_file="/opt/maxtext/src/MaxText/layers/normalizations.py" source_line=68 source_end_line=68 source_column=34 source_end_column=34}
  %rsqrt.16 = f32[2,2048]{1,0} rsqrt(%add.151), metadata={op_name="jit(train_step)/jvp(TransformerLinenPure.apply)/TransformerLinenPure/decoder/while/body/closed_call/layers/rsqrt" source_file="/opt/maxtext/src/MaxText/layers/normalizations.py" source_line=68 source_end_line=68 source_column=24 source_end_column=24}
  %mul.702 = f32[2,2048,4096]{2,1,0} broadcast(%rsqrt.16), dimensions={0,1}, metadata={op_name="jit(train_step)/jvp(TransformerLinenPure.apply)/TransformerLinenPure/decoder/while/body/closed_call/layers/mul" source_file="/opt/maxtext/src/MaxText/layers/normalizations.py" source_line=68 source_end_line=68 source_column=20 source_end_column=20}
  %mul.703 = f32[2,2048,4096]{2,1,0} multiply(%convert_element_type.253, %mul.702), metadata={op_name="jit(train_step)/jvp(TransformerLinenPure.apply)/TransformerLinenPure/decoder/while/body/closed_call/layers/mul" source_file="/opt/maxtext/src/MaxText/layers/normalizations.py" source_line=68 source_end_line=68 source_column=20 source_end_column=20}
  %convert_element_type.254 = bf16[2,2048,4096]{2,1,0} convert(%mul.703), metadata={op_name="jit(train_step)/jvp(TransformerLinenPure.apply)/TransformerLinenPure/decoder/while/body/closed_call/layers/convert_element_type" source_file="/opt/maxtext/src/MaxText/layers/normalizations.py" source_line=68 source_end_line=68 source_column=8 source_end_column=8}
  %dot_general.126 = bf16[2,2048,4096]{2,1,0} multiply(%dot_general.125, %convert_element_type.254), metadata={op_name="jit(train_step)/jvp(TransformerLinenPure.apply)/TransformerLinenPure/decoder/while/body/closed_call/layers/i...k,...k->i...k/dot_general" source_file="/opt/maxtext/src/MaxText/layers/normalizations.py" source_line=81 source_end_line=81 source_column=11 source_end_column=11}
  %sharding_constraint.119 = bf16[2,2048,4096]{2,1,0} copy(%dot_general.126), metadata={op_name="jit(train_step)/jvp(TransformerLinenPure.apply)/TransformerLinenPure/decoder/while/body/closed_call/layers/sharding_constraint" source_file="/opt/maxtext/src/MaxText/sharding.py" source_line=44 source_end_line=44 source_column=11 source_end_column=11}
  %sharding_constraint.120 = bf16[2,2048,4096]{2,1,0} copy(%sharding_constraint.119), metadata={op_name="jit(train_step)/jvp(TransformerLinenPure.apply)/TransformerLinenPure/decoder/while/body/closed_call/layers/sharding_constraint" source_file="/opt/maxtext/src/MaxText/sharding.py" source_line=44 source_end_line=44 source_column=11 source_end_column=11}
  %get-tuple-element.192 = f32[32,1024,32,128]{3,2,1,0} get-tuple-element(%param), index=5
  %dynamic-slice = f32[1,1024,32,128]{3,2,1,0} dynamic-slice(%get-tuple-element.192, %get-tuple-element.188, %constant.240, %constant.240, %constant.240), dynamic_slice_sizes={1,1024,32,128}, metadata={op_name="jit(train_step)/jvp(TransformerLinenPure.apply)/TransformerLinenPure/decoder/while/body/dynamic_slice" source_file="/opt/flax/flax/core/axes_scan.py" source_line=199 source_end_line=199 source_column=14 source_end_column=14}
  %convert_element_type.255 = bf16[1,1024,32,128]{3,2,1,0} convert(%dynamic-slice), metadata={op_name="jit(train_step)/jvp(TransformerLinenPure.apply)/TransformerLinenPure/decoder/while/body/closed_call/layers/convert_element_type" source_file="/opt/maxtext/src/MaxText/layers/linears.py" source_line=227 source_end_line=227 source_column=15 source_end_column=15}
  %convert_element_type.256 = bf16[1024,32,128]{2,1,0} reshape(%convert_element_type.255), metadata={op_name="jit(train_step)/jvp(TransformerLinenPure.apply)/TransformerLinenPure/decoder/while/body/closed_call/layers/convert_element_type" source_file="/opt/maxtext/src/MaxText/layers/linears.py" source_line=227 source_end_line=227 source_column=15 source_end_column=15}
  %all-gather = bf16[4096,32,128]{2,1,0} all-gather(%convert_element_type.256), channel_id=1, replica_groups=[1,4]<=[4], dimensions={0}, use_global_device_ids=true, metadata={op_name="jit(train_step)/jvp(TransformerLinenPure.apply)/TransformerLinenPure/decoder/while/body/closed_call/layers/dot_general" source_file="/opt/maxtext/src/MaxText/layers/linears.py" source_line=99 source_end_line=99 source_column=9 source_end_column=9}
  %dot.5 = bf16[2,2048,32,128]{3,2,1,0} dot(%sharding_constraint.120, %all-gather), lhs_contracting_dims={2}, rhs_contracting_dims={0}, metadata={op_name="jit(train_step)/jvp(TransformerLinenPure.apply)/TransformerLinenPure/decoder/while/body/closed_call/layers/dot_general" source_file="/opt/maxtext/src/MaxText/layers/linears.py" source_line=99 source_end_line=99 source_column=9 source_end_column=9}
  %slice.8 = bf16[2,2048,32,64]{3,2,1,0} slice(%dot.5), slice={[0:2], [0:2048], [0:32], [0:64]}, metadata={op_name="jit(train_step)/jvp(TransformerLinenPure.apply)/TransformerLinenPure/decoder/while/body/closed_call/layers/split" source_file="/opt/maxtext/src/MaxText/layers/embeddings.py" source_line=337 source_end_line=337 source_column=30 source_end_column=30}
  %get-tuple-element.193 = bf16[2,2048,1,64]{3,2,1,0} get-tuple-element(%param), index=6
  %mul.704 = bf16[2,2048,64]{2,1,0} reshape(%get-tuple-element.193), metadata={op_name="jit(train_step)/jvp(TransformerLinenPure.apply)/TransformerLinenPure/decoder/while/body/closed_call/layers/mul" source_file="/opt/maxtext/src/MaxText/layers/embeddings.py" source_line=338 source_end_line=338 source_column=17 source_end_column=17}
  %mul.705 = bf16[2,2048,32,64]{3,2,1,0} broadcast(%mul.704), dimensions={0,1,3}, metadata={op_name="jit(train_step)/jvp(TransformerLinenPure.apply)/TransformerLinenPure/decoder/while/body/closed_call/layers/mul" source_file="/opt/maxtext/src/MaxText/layers/embeddings.py" source_line=338 source_end_line=338 source_column=17 source_end_column=17}
  %mul.706 = bf16[2,2048,32,64]{3,2,1,0} multiply(%slice.8, %mul.705), metadata={op_name="jit(train_step)/jvp(TransformerLinenPure.apply)/TransformerLinenPure/decoder/while/body/closed_call/layers/mul" source_file="/opt/maxtext/src/MaxText/layers/embeddings.py" source_line=338 source_end_line=338 source_column=17 source_end_column=17}
  %slice.9 = bf16[2,2048,32,64]{3,2,1,0} slice(%dot.5), slice={[0:2], [0:2048], [0:32], [64:128]}, metadata={op_name="jit(train_step)/jvp(TransformerLinenPure.apply)/TransformerLinenPure/decoder/while/body/closed_call/layers/split" source_file="/opt/maxtext/src/MaxText/layers/embeddings.py" source_line=337 source_end_line=337 source_column=30 source_end_column=30}
  %get-tuple-element.194 = bf16[2,2048,1,64]{3,2,1,0} get-tuple-element(%param), index=7
  %mul.707 = bf16[2,2048,64]{2,1,0} reshape(%get-tuple-element.194), metadata={op_name="jit(train_step)/jvp(TransformerLinenPure.apply)/TransformerLinenPure/decoder/while/body/closed_call/layers/mul" source_file="/opt/maxtext/src/MaxText/layers/embeddings.py" source_line=338 source_end_line=338 source_column=36 source_end_column=36}
  %mul.708 = bf16[2,2048,32,64]{3,2,1,0} broadcast(%mul.707), dimensions={0,1,3}, metadata={op_name="jit(train_step)/jvp(TransformerLinenPure.apply)/TransformerLinenPure/decoder/while/body/closed_call/layers/mul" source_file="/opt/maxtext/src/MaxText/layers/embeddings.py" source_line=338 source_end_line=338 source_column=36 source_end_column=36}
  %mul.709 = bf16[2,2048,32,64]{3,2,1,0} multiply(%slice.9, %mul.708), metadata={op_name="jit(train_step)/jvp(TransformerLinenPure.apply)/TransformerLinenPure/decoder/while/body/closed_call/layers/mul" source_file="/opt/maxtext/src/MaxText/layers/embeddings.py" source_line=338 source_end_line=338 source_column=36 source_end_column=36}
  %sub.50 = bf16[2,2048,32,64]{3,2,1,0} subtract(%mul.706, %mul.709), metadata={op_name="jit(train_step)/jvp(TransformerLinenPure.apply)/TransformerLinenPure/decoder/while/body/closed_call/layers/sub" source_file="/opt/maxtext/src/MaxText/layers/embeddings.py" source_line=338 source_end_line=338 source_column=17 source_end_column=17}
  %mul.712 = bf16[2,2048,32,64]{3,2,1,0} multiply(%slice.9, %mul.705), metadata={op_name="jit(train_step)/jvp(TransformerLinenPure.apply)/TransformerLinenPure/decoder/while/body/closed_call/layers/mul" source_file="/opt/maxtext/src/MaxText/layers/embeddings.py" source_line=339 source_end_line=339 source_column=18 source_end_column=18}
  %mul.715 = bf16[2,2048,32,64]{3,2,1,0} multiply(%slice.8, %mul.708), metadata={op_name="jit(train_step)/jvp(TransformerLinenPure.apply)/TransformerLinenPure/decoder/while/body/closed_call/layers/mul" source_file="/opt/maxtext/src/MaxText/layers/embeddings.py" source_line=339 source_end_line=339 source_column=38 source_end_column=38}
  %add.152 = bf16[2,2048,32,64]{3,2,1,0} add(%mul.712, %mul.715), metadata={op_name="jit(train_step)/jvp(TransformerLinenPure.apply)/TransformerLinenPure/decoder/while/body/closed_call/layers/add" source_file="/opt/maxtext/src/MaxText/layers/embeddings.py" source_line=339 source_end_line=339 source_column=18 source_end_column=18}
  %concatenate.24 = bf16[2,2048,32,128]{3,2,1,0} concatenate(%sub.50, %add.152), dimensions={3}, metadata={op_name="jit(train_step)/jvp(TransformerLinenPure.apply)/TransformerLinenPure/decoder/while/body/closed_call/layers/concatenate" source_file="/opt/maxtext/src/MaxText/layers/embeddings.py" source_line=343 source_end_line=343 source_column=12 source_end_column=12}
  %sharding_constraint.121 = bf16[2,2048,32,128]{3,2,1,0} copy(%concatenate.24), metadata={op_name="jit(train_step)/jvp(TransformerLinenPure.apply)/TransformerLinenPure/decoder/while/body/closed_call/layers/sharding_constraint" source_file="/opt/maxtext/src/MaxText/sharding.py" source_line=44 source_end_line=44 source_column=11 source_end_column=11}
  %get-tuple-element.195 = f32[32,1024,8,128]{3,2,1,0} get-tuple-element(%param), index=8
  %dynamic-slice.3 = f32[1,1024,8,128]{3,2,1,0} dynamic-slice(%get-tuple-element.195, %get-tuple-element.188, %constant.240, %constant.240, %constant.240), dynamic_slice_sizes={1,1024,8,128}, metadata={op_name="jit(train_step)/jvp(TransformerLinenPure.apply)/TransformerLinenPure/decoder/while/body/dynamic_slice" source_file="/opt/flax/flax/core/axes_scan.py" source_line=199 source_end_line=199 source_column=14 source_end_column=14}
  %convert_element_type.257 = bf16[1,1024,8,128]{3,2,1,0} convert(%dynamic-slice.3), metadata={op_name="jit(train_step)/jvp(TransformerLinenPure.apply)/TransformerLinenPure/decoder/while/body/closed_call/layers/convert_element_type" source_file="/opt/maxtext/src/MaxText/layers/linears.py" source_line=227 source_end_line=227 source_column=15 source_end_column=15}
  %convert_element_type.258 = bf16[1024,8,128]{2,1,0} reshape(%convert_element_type.257), metadata={op_name="jit(train_step)/jvp(TransformerLinenPure.apply)/TransformerLinenPure/decoder/while/body/closed_call/layers/convert_element_type" source_file="/opt/maxtext/src/MaxText/layers/linears.py" source_line=227 source_end_line=227 source_column=15 source_end_column=15}
  %all-gather.1 = bf16[4096,8,128]{2,1,0} all-gather(%convert_element_type.258), channel_id=2, replica_groups=[1,4]<=[4], dimensions={0}, use_global_device_ids=true, metadata={op_name="jit(train_step)/jvp(TransformerLinenPure.apply)/TransformerLinenPure/decoder/while/body/closed_call/layers/dot_general" source_file="/opt/maxtext/src/MaxText/layers/linears.py" source_line=99 source_end_line=99 source_column=9 source_end_column=9}
  %dot.6 = bf16[2,2048,8,128]{3,2,1,0} dot(%sharding_constraint.120, %all-gather.1), lhs_contracting_dims={2}, rhs_contracting_dims={0}, metadata={op_name="jit(train_step)/jvp(TransformerLinenPure.apply)/TransformerLinenPure/decoder/while/body/closed_call/layers/dot_general" source_file="/opt/maxtext/src/MaxText/layers/linears.py" source_line=99 source_end_line=99 source_column=9 source_end_column=9}
  %slice.10 = bf16[2,2048,8,64]{3,2,1,0} slice(%dot.6), slice={[0:2], [0:2048], [0:8], [0:64]}, metadata={op_name="jit(train_step)/jvp(TransformerLinenPure.apply)/TransformerLinenPure/decoder/while/body/closed_call/layers/split" source_file="/opt/maxtext/src/MaxText/layers/embeddings.py" source_line=337 source_end_line=337 source_column=30 source_end_column=30}
  %get-tuple-element.196 = bf16[2,2048,1,64]{3,2,1,0} get-tuple-element(%param), index=9
  %mul.716 = bf16[2,2048,64]{2,1,0} reshape(%get-tuple-element.196), metadata={op_name="jit(train_step)/jvp(TransformerLinenPure.apply)/TransformerLinenPure/decoder/while/body/closed_call/layers/mul" source_file="/opt/maxtext/src/MaxText/layers/embeddings.py" source_line=338 source_end_line=338 source_column=17 source_end_column=17}
  %mul.717 = bf16[2,2048,8,64]{3,2,1,0} broadcast(%mul.716), dimensions={0,1,3}, metadata={op_name="jit(train_step)/jvp(TransformerLinenPure.apply)/TransformerLinenPure/decoder/while/body/closed_call/layers/mul" source_file="/opt/maxtext/src/MaxText/layers/embeddings.py" source_line=338 source_end_line=338 source_column=17 source_end_column=17}
  %mul.718 = bf16[2,2048,8,64]{3,2,1,0} multiply(%slice.10, %mul.717), metadata={op_name="jit(train_step)/jvp(TransformerLinenPure.apply)/TransformerLinenPure/decoder/while/body/closed_call/layers/mul" source_file="/opt/maxtext/src/MaxText/layers/embeddings.py" source_line=338 source_end_line=338 source_column=17 source_end_column=17}
  %slice.11 = bf16[2,2048,8,64]{3,2,1,0} slice(%dot.6), slice={[0:2], [0:2048], [0:8], [64:128]}, metadata={op_name="jit(train_step)/jvp(TransformerLinenPure.apply)/TransformerLinenPure/decoder/while/body/closed_call/layers/split" source_file="/opt/maxtext/src/MaxText/layers/embeddings.py" source_line=337 source_end_line=337 source_column=30 source_end_column=30}
  %get-tuple-element.197 = bf16[2,2048,1,64]{3,2,1,0} get-tuple-element(%param), index=10
  %mul.719 = bf16[2,2048,64]{2,1,0} reshape(%get-tuple-element.197), metadata={op_name="jit(train_step)/jvp(TransformerLinenPure.apply)/TransformerLinenPure/decoder/while/body/closed_call/layers/mul" source_file="/opt/maxtext/src/MaxText/layers/embeddings.py" source_line=338 source_end_line=338 source_column=36 source_end_column=36}
  %mul.720 = bf16[2,2048,8,64]{3,2,1,0} broadcast(%mul.719), dimensions={0,1,3}, metadata={op_name="jit(train_step)/jvp(TransformerLinenPure.apply)/TransformerLinenPure/decoder/while/body/closed_call/layers/mul" source_file="/opt/maxtext/src/MaxText/layers/embeddings.py" source_line=338 source_end_line=338 source_column=36 source_end_column=36}
  %mul.721 = bf16[2,2048,8,64]{3,2,1,0} multiply(%slice.11, %mul.720), metadata={op_name="jit(train_step)/jvp(TransformerLinenPure.apply)/TransformerLinenPure/decoder/while/body/closed_call/layers/mul" source_file="/opt/maxtext/src/MaxText/layers/embeddings.py" source_line=338 source_end_line=338 source_column=36 source_end_column=36}
  %sub.51 = bf16[2,2048,8,64]{3,2,1,0} subtract(%mul.718, %mul.721), metadata={op_name="jit(train_step)/jvp(TransformerLinenPure.apply)/TransformerLinenPure/decoder/while/body/closed_call/layers/sub" source_file="/opt/maxtext/src/MaxText/layers/embeddings.py" source_line=338 source_end_line=338 source_column=17 source_end_column=17}
  %mul.724 = bf16[2,2048,8,64]{3,2,1,0} multiply(%slice.11, %mul.717), metadata={op_name="jit(train_step)/jvp(TransformerLinenPure.apply)/TransformerLinenPure/decoder/while/body/closed_call/layers/mul" source_file="/opt/maxtext/src/MaxText/layers/embeddings.py" source_line=339 source_end_line=339 source_column=18 source_end_column=18}
  %mul.727 = bf16[2,2048,8,64]{3,2,1,0} multiply(%slice.10, %mul.720), metadata={op_name="jit(train_step)/jvp(TransformerLinenPure.apply)/TransformerLinenPure/decoder/while/body/closed_call/layers/mul" source_file="/opt/maxtext/src/MaxText/layers/embeddings.py" source_line=339 source_end_line=339 source_column=38 source_end_column=38}
  %add.153 = bf16[2,2048,8,64]{3,2,1,0} add(%mul.724, %mul.727), metadata={op_name="jit(train_step)/jvp(TransformerLinenPure.apply)/TransformerLinenPure/decoder/while/body/closed_call/layers/add" source_file="/opt/maxtext/src/MaxText/layers/embeddings.py" source_line=339 source_end_line=339 source_column=18 source_end_column=18}
  %concatenate.25 = bf16[2,2048,8,128]{3,2,1,0} concatenate(%sub.51, %add.153), dimensions={3}, metadata={op_name="jit(train_step)/jvp(TransformerLinenPure.apply)/TransformerLinenPure/decoder/while/body/closed_call/layers/concatenate" source_file="/opt/maxtext/src/MaxText/layers/embeddings.py" source_line=343 source_end_line=343 source_column=12 source_end_column=12}
  %sharding_constraint.123 = bf16[2,2048,8,128]{3,2,1,0} copy(%concatenate.25), metadata={op_name="jit(train_step)/jvp(TransformerLinenPure.apply)/TransformerLinenPure/decoder/while/body/closed_call/layers/sharding_constraint" source_file="/opt/maxtext/src/MaxText/sharding.py" source_line=44 source_end_line=44 source_column=11 source_end_column=11}
  %broadcast_in_dim.82 = bf16[2,2048,1,8,128]{4,3,2,1,0} reshape(%sharding_constraint.123), metadata={op_name="jit(train_step)/jvp(TransformerLinenPure.apply)/TransformerLinenPure/decoder/while/body/closed_call/layers/DotProductAttention_0/_FusedDotProductAttention_0/custom_partitioning" source_file="/usr/local/lib/python3.12/dist-packages/transformer_engine/jax/attention.py" source_line=863 source_end_line=863 source_column=13 source_end_column=13}
  %get-tuple-element.198 = f32[32,1024,8,128]{3,2,1,0} get-tuple-element(%param), index=11
  %dynamic-slice.6 = f32[1,1024,8,128]{3,2,1,0} dynamic-slice(%get-tuple-element.198, %get-tuple-element.188, %constant.240, %constant.240, %constant.240), dynamic_slice_sizes={1,1024,8,128}, metadata={op_name="jit(train_step)/jvp(TransformerLinenPure.apply)/TransformerLinenPure/decoder/while/body/dynamic_slice" source_file="/opt/flax/flax/core/axes_scan.py" source_line=199 source_end_line=199 source_column=14 source_end_column=14}
  %convert_element_type.259 = bf16[1,1024,8,128]{3,2,1,0} convert(%dynamic-slice.6), metadata={op_name="jit(train_step)/jvp(TransformerLinenPure.apply)/TransformerLinenPure/decoder/while/body/closed_call/layers/convert_element_type" source_file="/opt/maxtext/src/MaxText/layers/linears.py" source_line=227 source_end_line=227 source_column=15 source_end_column=15}
  %convert_element_type.260 = bf16[1024,8,128]{2,1,0} reshape(%convert_element_type.259), metadata={op_name="jit(train_step)/jvp(TransformerLinenPure.apply)/TransformerLinenPure/decoder/while/body/closed_call/layers/convert_element_type" source_file="/opt/maxtext/src/MaxText/layers/linears.py" source_line=227 source_end_line=227 source_column=15 source_end_column=15}
  %all-gather.2 = bf16[4096,8,128]{2,1,0} all-gather(%convert_element_type.260), channel_id=3, replica_groups=[1,4]<=[4], dimensions={0}, use_global_device_ids=true, metadata={op_name="jit(train_step)/jvp(TransformerLinenPure.apply)/TransformerLinenPure/decoder/while/body/closed_call/layers/dot_general" source_file="/opt/maxtext/src/MaxText/layers/linears.py" source_line=99 source_end_line=99 source_column=9 source_end_column=9}
  %dot.7 = bf16[2,2048,8,128]{3,2,1,0} dot(%sharding_constraint.120, %all-gather.2), lhs_contracting_dims={2}, rhs_contracting_dims={0}, metadata={op_name="jit(train_step)/jvp(TransformerLinenPure.apply)/TransformerLinenPure/decoder/while/body/closed_call/layers/dot_general" source_file="/opt/maxtext/src/MaxText/layers/linears.py" source_line=99 source_end_line=99 source_column=9 source_end_column=9}
  %sharding_constraint.124 = bf16[2,2048,8,128]{3,2,1,0} copy(%dot.7), metadata={op_name="jit(train_step)/jvp(TransformerLinenPure.apply)/TransformerLinenPure/decoder/while/body/closed_call/layers/sharding_constraint" source_file="/opt/maxtext/src/MaxText/sharding.py" source_line=44 source_end_line=44 source_column=11 source_end_column=11}
  %broadcast_in_dim.83 = bf16[2,2048,1,8,128]{4,3,2,1,0} reshape(%sharding_constraint.124), metadata={op_name="jit(train_step)/jvp(TransformerLinenPure.apply)/TransformerLinenPure/decoder/while/body/closed_call/layers/DotProductAttention_0/_FusedDotProductAttention_0/custom_partitioning" source_file="/usr/local/lib/python3.12/dist-packages/transformer_engine/jax/attention.py" source_line=863 source_end_line=863 source_column=13 source_end_column=13}
  %concatenate.26 = bf16[2,2048,2,8,128]{4,3,2,1,0} concatenate(%broadcast_in_dim.82, %broadcast_in_dim.83), dimensions={2}, metadata={op_name="jit(train_step)/jvp(TransformerLinenPure.apply)/TransformerLinenPure/decoder/while/body/closed_call/layers/DotProductAttention_0/_FusedDotProductAttention_0/custom_partitioning" source_file="/usr/local/lib/python3.12/dist-packages/transformer_engine/jax/attention.py" source_line=863 source_end_line=863 source_column=13 source_end_column=13}
  %constant.289 = bf16[0]{0} constant({})
  %constant.290 = u32[] constant(0)
  %broadcast.207 = u32[8]{0} broadcast(%constant.290), dimensions={}, metadata={op_name="broadcast.39"}
  %constant.293 = s32[4]{0} constant({0, 2, 4, 6}), metadata={op_name="jit(train_step)/jvp(TransformerLinenPure.apply)/TransformerLinenPure/decoder/while/body/closed_call/layers/DotProductAttention_0/_FusedDotProductAttention_0/custom_partitioning" source_file="/usr/local/lib/python3.12/dist-packages/transformer_engine/jax/attention.py" source_line=863 source_end_line=863 source_column=13 source_end_column=13}
  %partition-id = u32[] partition-id()
  %dynamic-slice.7 = s32[1]{0} dynamic-slice(%constant.293, %partition-id), dynamic_slice_sizes={1}, metadata={op_name="jit(train_step)/jvp(TransformerLinenPure.apply)/TransformerLinenPure/decoder/while/body/closed_call/layers/DotProductAttention_0/_FusedDotProductAttention_0/custom_partitioning" source_file="/usr/local/lib/python3.12/dist-packages/transformer_engine/jax/attention.py" source_line=863 source_end_line=863 source_column=13 source_end_column=13}
  %reshape.307 = s32[] reshape(%dynamic-slice.7), metadata={op_name="jit(train_step)/jvp(TransformerLinenPure.apply)/TransformerLinenPure/decoder/while/body/closed_call/layers/DotProductAttention_0/_FusedDotProductAttention_0/custom_partitioning" source_file="/usr/local/lib/python3.12/dist-packages/transformer_engine/jax/attention.py" source_line=863 source_end_line=863 source_column=13 source_end_column=13}
  %dynamic-slice.8 = u32[2]{0} dynamic-slice(%broadcast.207, %reshape.307), dynamic_slice_sizes={2}, metadata={op_name="jit(train_step)/jvp(TransformerLinenPure.apply)/TransformerLinenPure/decoder/while/body/closed_call/layers/DotProductAttention_0/_FusedDotProductAttention_0/custom_partitioning" source_file="/usr/local/lib/python3.12/dist-packages/transformer_engine/jax/attention.py" source_line=863 source_end_line=863 source_column=13 source_end_column=13}
  %constant.295 = s32[1]{0} constant({0}), metadata={op_name="jit(train_step)/jvp(TransformerLinenPure.apply)/TransformerLinenPure/decoder/while/body/closed_call/layers/DotProductAttention_0/_FusedDotProductAttention_0/custom_partitioning" source_file="/usr/local/lib/python3.12/dist-packages/transformer_engine/jax/attention.py" source_line=863 source_end_line=863 source_column=13 source_end_column=13}
  %constant.291 = s32[] constant(8192)
  %broadcast.208 = s32[2]{0} broadcast(%constant.291), dimensions={}, metadata={op_name="broadcast.38"}
  %broadcast.209 = s32[2]{0} broadcast(%constant.240), dimensions={}, metadata={op_name="jit(train_step)/jvp(TransformerLinenPure.apply)/TransformerLinenPure/decoder/while/body/closed_call/layers/DotProductAttention_0/_FusedDotProductAttention_0/custom_partitioning" source_file="/usr/local/lib/python3.12/dist-packages/transformer_engine/jax/attention.py" source_line=863 source_end_line=863 source_column=13 source_end_column=13}
  %sub.52 = s32[2]{0} subtract(%broadcast.208, %broadcast.209), metadata={op_name="jit(train_step)/jvp(TransformerLinenPure.apply)/TransformerLinenPure/decoder/while/body/closed_call/layers/DotProductAttention_0/_FusedDotProductAttention_0/custom_partitioning" source_file="/usr/local/lib/python3.12/dist-packages/transformer_engine/jax/attention.py" source_line=863 source_end_line=863 source_column=13 source_end_column=13}
  %lt.42 = pred[2]{0} compare(%sub.52, %broadcast.209), direction=LT, metadata={op_name="jit(train_step)/jvp(TransformerLinenPure.apply)/TransformerLinenPure/decoder/while/body/closed_call/layers/DotProductAttention_0/_FusedDotProductAttention_0/custom_partitioning" source_file="/usr/local/lib/python3.12/dist-packages/transformer_engine/jax/attention.py" source_line=863 source_end_line=863 source_column=13 source_end_column=13}
  %select_n.72 = s32[2]{0} select(%lt.42, %broadcast.209, %sub.52), metadata={op_name="jit(train_step)/jvp(TransformerLinenPure.apply)/TransformerLinenPure/decoder/while/body/closed_call/layers/DotProductAttention_0/_FusedDotProductAttention_0/custom_partitioning" source_file="/usr/local/lib/python3.12/dist-packages/transformer_engine/jax/attention.py" source_line=863 source_end_line=863 source_column=13 source_end_column=13}
  %constant.298 = s32[] constant(2048), metadata={op_name="jit(train_step)/jvp(TransformerLinenPure.apply)/TransformerLinenPure/decoder/while/body/closed_call/layers/DotProductAttention_0/_FusedDotProductAttention_0/custom_partitioning" source_file="/usr/local/lib/python3.12/dist-packages/transformer_engine/jax/attention.py" source_line=863 source_end_line=863 source_column=13 source_end_column=13}
  %broadcast.210 = s32[2]{0} broadcast(%constant.298), dimensions={}, metadata={op_name="jit(train_step)/jvp(TransformerLinenPure.apply)/TransformerLinenPure/decoder/while/body/closed_call/layers/DotProductAttention_0/_FusedDotProductAttention_0/custom_partitioning" source_file="/usr/local/lib/python3.12/dist-packages/transformer_engine/jax/attention.py" source_line=863 source_end_line=863 source_column=13 source_end_column=13}
  %lt.43 = pred[2]{0} compare(%select_n.72, %broadcast.210), direction=LT, metadata={op_name="jit(train_step)/jvp(TransformerLinenPure.apply)/TransformerLinenPure/decoder/while/body/closed_call/layers/DotProductAttention_0/_FusedDotProductAttention_0/custom_partitioning" source_file="/usr/local/lib/python3.12/dist-packages/transformer_engine/jax/attention.py" source_line=863 source_end_line=863 source_column=13 source_end_column=13}
  %select_n.73 = s32[2]{0} select(%lt.43, %select_n.72, %broadcast.210), metadata={op_name="jit(train_step)/jvp(TransformerLinenPure.apply)/TransformerLinenPure/decoder/while/body/closed_call/layers/DotProductAttention_0/_FusedDotProductAttention_0/custom_partitioning" source_file="/usr/local/lib/python3.12/dist-packages/transformer_engine/jax/attention.py" source_line=863 source_end_line=863 source_column=13 source_end_column=13}
  %lt.46 = pred[2]{0} compare(%select_n.73, %broadcast.209), direction=LT, metadata={op_name="jit(train_step)/jvp(TransformerLinenPure.apply)/TransformerLinenPure/decoder/while/body/closed_call/layers/DotProductAttention_0/_FusedDotProductAttention_0/custom_partitioning" source_file="/usr/local/lib/python3.12/dist-packages/transformer_engine/jax/attention.py" source_line=863 source_end_line=863 source_column=13 source_end_column=13}
  %select_n.74 = s32[2]{0} select(%lt.46, %broadcast.209, %select_n.73), metadata={op_name="jit(train_step)/jvp(TransformerLinenPure.apply)/TransformerLinenPure/decoder/while/body/closed_call/layers/DotProductAttention_0/_FusedDotProductAttention_0/custom_partitioning" source_file="/usr/local/lib/python3.12/dist-packages/transformer_engine/jax/attention.py" source_line=863 source_end_line=863 source_column=13 source_end_column=13}
  %reduce_window_sum.11 = s32[2]{0} reduce-window(%select_n.74, %constant.240), window={size=2 pad=1_0}, to_apply=%region_0.3._custom_call_lowering_rule, metadata={op_name="jit(train_step)/jvp(TransformerLinenPure.apply)/TransformerLinenPure/decoder/while/body/closed_call/layers/DotProductAttention_0/_FusedDotProductAttention_0/custom_partitioning" source_file="/usr/local/lib/python3.12/dist-packages/transformer_engine/jax/attention.py" source_line=863 source_end_line=863 source_column=13 source_end_column=13}
  %concatenate.27 = s32[3]{0} concatenate(%constant.295, %reduce_window_sum.11), dimensions={0}, metadata={op_name="jit(train_step)/jvp(TransformerLinenPure.apply)/TransformerLinenPure/decoder/while/body/closed_call/layers/DotProductAttention_0/_FusedDotProductAttention_0/custom_partitioning" source_file="/usr/local/lib/python3.12/dist-packages/transformer_engine/jax/attention.py" source_line=863 source_end_line=863 source_column=13 source_end_column=13}
  %constant.292 = f32[0]{0} constant({})
  %te_fused_attn_forward_ffi.35 = (bf16[2,2048,32,128]{3,2,1,0}, f32[2,32,2048,1]{3,2,1,0}, u32[2,4]{1,0}, u8[1]{0}) custom-call(%sharding_constraint.121, %concatenate.26, %constant.289, %constant.289, %dynamic-slice.8, /*index=5*/%concatenate.27, %concatenate.27, %constant.292, %constant.292, %constant.292, /*index=10*/%constant.292, %constant.292, %constant.292), custom_call_target="te_fused_attn_forward_ffi", operand_layout_constraints={bf16[2,2048,32,128]{3,2,1,0}, bf16[2,2048,2,8,128]{4,3,2,1,0}, bf16[0]{0}, bf16[0]{0}, u32[2]{0}, s32[3]{0}, s32[3]{0}, f32[0]{0}, f32[0]{0}, f32[0]{0}, f32[0]{0}, f32[0]{0}, f32[0]{0}}, api_version=API_VERSION_TYPED_FFI, metadata={op_name="jit(train_step)/jvp(TransformerLinenPure.apply)/TransformerLinenPure/decoder/while/body/closed_call/layers/DotProductAttention_0/_FusedDotProductAttention_0/custom_partitioning" source_file="/usr/local/lib/python3.12/dist-packages/transformer_engine/jax/attention.py" source_line=863 source_end_line=863 source_column=13 source_end_column=13}, backend_config={attn_heads = 32 : i64, bias_batch = 0 : i64, bias_heads = 0 : i64, bias_type = 0 : i64, deterministic = false, dropout_probability = 0.000000e+00 : f64, input_batch = 2 : i64, is_training = true, kv_max_seqlen = 2048 : i64, mask_type = 2 : i64, max_segments_per_seq = 1 : i64, num_gqa_groups = 8 : i64, q_max_seqlen = 2048 : i64, qk_head_dim = 128 : i64, qkv_layout = 7 : i64, scaling_factor = 1.000000e+00 : f64, v_head_dim = 128 : i64, window_size_left = -1 : i64, window_size_right = -1 : i64}
  %te_fused_attn_forward_ffi.36 = bf16[2,2048,32,128]{3,2,1,0} get-tuple-element(%te_fused_attn_forward_ffi.35), index=0, metadata={op_name="jit(train_step)/jvp(TransformerLinenPure.apply)/TransformerLinenPure/decoder/while/body/closed_call/layers/DotProductAttention_0/_FusedDotProductAttention_0/custom_partitioning" source_file="/usr/local/lib/python3.12/dist-packages/transformer_engine/jax/attention.py" source_line=863 source_end_line=863 source_column=13 source_end_column=13}
  %convert_element_type.261 = f32[2,2048,32,128]{3,2,1,0} convert(%te_fused_attn_forward_ffi.36), metadata={op_name="jit(train_step)/jvp(TransformerLinenPure.apply)/TransformerLinenPure/decoder/while/body/closed_call/layers/DotProductAttention_0/_FusedDotProductAttention_0/custom_partitioning" source_file="/usr/local/lib/python3.12/dist-packages/transformer_engine/jax/attention.py" source_line=863 source_end_line=863 source_column=13 source_end_column=13}
  %constant.302 = f32[] constant(1), metadata={op_name="jit(train_step)/jvp(TransformerLinenPure.apply)/TransformerLinenPure/decoder/while/body/closed_call/layers/DotProductAttention_0/_FusedDotProductAttention_0/custom_partitioning" source_file="/usr/local/lib/python3.12/dist-packages/transformer_engine/jax/attention.py" source_line=863 source_end_line=863 source_column=13 source_end_column=13}
  %broadcast.211 = f32[2,32,2048,1]{3,2,1,0} broadcast(%constant.302), dimensions={}, metadata={op_name="jit(train_step)/jvp(TransformerLinenPure.apply)/TransformerLinenPure/decoder/while/body/closed_call/layers/DotProductAttention_0/_FusedDotProductAttention_0/custom_partitioning" source_file="/usr/local/lib/python3.12/dist-packages/transformer_engine/jax/attention.py" source_line=863 source_end_line=863 source_column=13 source_end_column=13}
  %constant.303 = u32[] constant(1), metadata={op_name="jit(train_step)/jvp(TransformerLinenPure.apply)/TransformerLinenPure/decoder/while/body/closed_call/layers/DotProductAttention_0/_FusedDotProductAttention_0/custom_partitioning" source_file="/usr/local/lib/python3.12/dist-packages/transformer_engine/jax/attention.py" source_line=863 source_end_line=863 source_column=13 source_end_column=13}
  %axis_index.5 = u32[] divide(%partition-id, %constant.303), metadata={op_name="jit(train_step)/jvp(TransformerLinenPure.apply)/TransformerLinenPure/decoder/while/body/closed_call/layers/DotProductAttention_0/_FusedDotProductAttention_0/custom_partitioning" source_file="/usr/local/lib/python3.12/dist-packages/transformer_engine/jax/attention.py" source_line=863 source_end_line=863 source_column=13 source_end_column=13}
  %constant.304 = u32[] constant(4), metadata={op_name="jit(train_step)/jvp(TransformerLinenPure.apply)/TransformerLinenPure/decoder/while/body/closed_call/layers/DotProductAttention_0/_FusedDotProductAttention_0/custom_partitioning" source_file="/usr/local/lib/python3.12/dist-packages/transformer_engine/jax/attention.py" source_line=863 source_end_line=863 source_column=13 source_end_column=13}
  %axis_index.6 = u32[] remainder(%axis_index.5, %constant.304), metadata={op_name="jit(train_step)/jvp(TransformerLinenPure.apply)/TransformerLinenPure/decoder/while/body/closed_call/layers/DotProductAttention_0/_FusedDotProductAttention_0/custom_partitioning" source_file="/usr/local/lib/python3.12/dist-packages/transformer_engine/jax/attention.py" source_line=863 source_end_line=863 source_column=13 source_end_column=13}
  %axis_index.7 = s32[] convert(%axis_index.6), metadata={op_name="jit(train_step)/jvp(TransformerLinenPure.apply)/TransformerLinenPure/decoder/while/body/closed_call/layers/DotProductAttention_0/_FusedDotProductAttention_0/custom_partitioning" source_file="/usr/local/lib/python3.12/dist-packages/transformer_engine/jax/attention.py" source_line=863 source_end_line=863 source_column=13 source_end_column=13}
  %ge.3 = pred[] compare(%axis_index.7, %constant.239), direction=GE, metadata={op_name="jit(train_step)/jvp(TransformerLinenPure.apply)/TransformerLinenPure/decoder/while/body/closed_call/layers/DotProductAttention_0/_FusedDotProductAttention_0/custom_partitioning" source_file="/usr/local/lib/python3.12/dist-packages/transformer_engine/jax/attention.py" source_line=863 source_end_line=863 source_column=13 source_end_column=13}
  %convert_element_type.262 = s32[] convert(%ge.3), metadata={op_name="jit(train_step)/jvp(TransformerLinenPure.apply)/TransformerLinenPure/decoder/while/body/closed_call/layers/DotProductAttention_0/_FusedDotProductAttention_0/custom_partitioning" source_file="/usr/local/lib/python3.12/dist-packages/transformer_engine/jax/attention.py" source_line=863 source_end_line=863 source_column=13 source_end_column=13}
  %cond.15 = () tuple(), metadata={op_name="jit(train_step)/jvp(TransformerLinenPure.apply)/TransformerLinenPure/decoder/while/body/closed_call/layers/DotProductAttention_0/_FusedDotProductAttention_0/custom_partitioning" source_file="/usr/local/lib/python3.12/dist-packages/transformer_engine/jax/attention.py" source_line=863 source_end_line=863 source_column=13 source_end_column=13}
  %ppermute.3 = bf16[2,2048,2,8,128]{4,3,2,1,0} collective-permute(%concatenate.26), channel_id=4, source_target_pairs={{0,1},{1,2},{2,3},{3,0}}, metadata={op_name="jit(train_step)/jvp(TransformerLinenPure.apply)/TransformerLinenPure/decoder/while/body/closed_call/layers/DotProductAttention_0/_FusedDotProductAttention_0/custom_partitioning" source_file="/usr/local/lib/python3.12/dist-packages/transformer_engine/jax/attention.py" source_line=863 source_end_line=863 source_column=13 source_end_column=13}
  %cond.16 = (s32[2]{0}, s32[2]{0}, bf16[2,2048,32,128]{3,2,1,0}, bf16[2,2048,2,8,128]{4,3,2,1,0}, bf16[0]{0}, /*index=5*/u32[2]{0}, f32[0]{0}, f32[0]{0}, f32[0]{0}, f32[0]{0}, /*index=10*/f32[0]{0}, f32[0]{0}) tuple(%broadcast.208, %broadcast.208, %sharding_constraint.121, %ppermute.3, %constant.289, /*index=5*/%dynamic-slice.8, %constant.292, %constant.292, %constant.292, %constant.292, /*index=10*/%constant.292, %constant.292), metadata={op_name="jit(train_step)/jvp(TransformerLinenPure.apply)/TransformerLinenPure/decoder/while/body/closed_call/layers/DotProductAttention_0/_FusedDotProductAttention_0/custom_partitioning" source_file="/usr/local/lib/python3.12/dist-packages/transformer_engine/jax/attention.py" source_line=863 source_end_line=863 source_column=13 source_end_column=13}
  %cond.17 = (bf16[2,2048,32,128]{3,2,1,0}, f32[2,32,2048,1]{3,2,1,0}) conditional(%convert_element_type.262, %cond.15, %cond.16), branch_computations={%region_1.6._custom_call_lowering_rule, %region_2.7._custom_call_lowering_rule}, metadata={op_name="jit(train_step)/jvp(TransformerLinenPure.apply)/TransformerLinenPure/decoder/while/body/closed_call/layers/DotProductAttention_0/_FusedDotProductAttention_0/custom_partitioning" source_file="/usr/local/lib/python3.12/dist-packages/transformer_engine/jax/attention.py" source_line=863 source_end_line=863 source_column=13 source_end_column=13}
  %cond.19 = f32[2,32,2048,1]{3,2,1,0} get-tuple-element(%cond.17), index=1, metadata={op_name="jit(train_step)/jvp(TransformerLinenPure.apply)/TransformerLinenPure/decoder/while/body/closed_call/layers/DotProductAttention_0/_FusedDotProductAttention_0/custom_partitioning" source_file="/usr/local/lib/python3.12/dist-packages/transformer_engine/jax/attention.py" source_line=863 source_end_line=863 source_column=13 source_end_column=13}
  %te_fused_attn_forward_ffi.37 = f32[2,32,2048,1]{3,2,1,0} get-tuple-element(%te_fused_attn_forward_ffi.35), index=1, metadata={op_name="jit(train_step)/jvp(TransformerLinenPure.apply)/TransformerLinenPure/decoder/while/body/closed_call/layers/DotProductAttention_0/_FusedDotProductAttention_0/custom_partitioning" source_file="/usr/local/lib/python3.12/dist-packages/transformer_engine/jax/attention.py" source_line=863 source_end_line=863 source_column=13 source_end_column=13}
  %sub.54 = f32[2,32,2048,1]{3,2,1,0} subtract(%cond.19, %te_fused_attn_forward_ffi.37), metadata={op_name="jit(train_step)/jvp(TransformerLinenPure.apply)/TransformerLinenPure/decoder/while/body/closed_call/layers/DotProductAttention_0/_FusedDotProductAttention_0/custom_partitioning" source_file="/usr/local/lib/python3.12/dist-packages/transformer_engine/jax/attention.py" source_line=863 source_end_line=863 source_column=13 source_end_column=13}
  %neg.16 = f32[2,32,2048,1]{3,2,1,0} negate(%sub.54), metadata={op_name="jit(train_step)/jvp(TransformerLinenPure.apply)/TransformerLinenPure/decoder/while/body/closed_call/layers/DotProductAttention_0/_FusedDotProductAttention_0/custom_partitioning" source_file="/usr/local/lib/python3.12/dist-packages/transformer_engine/jax/attention.py" source_line=863 source_end_line=863 source_column=13 source_end_column=13}
  %exp.10 = f32[2,32,2048,1]{3,2,1,0} exponential(%neg.16), metadata={op_name="jit(train_step)/jvp(TransformerLinenPure.apply)/TransformerLinenPure/decoder/while/body/closed_call/layers/DotProductAttention_0/_FusedDotProductAttention_0/custom_partitioning" source_file="/usr/local/lib/python3.12/dist-packages/transformer_engine/jax/attention.py" source_line=863 source_end_line=863 source_column=13 source_end_column=13}
  %add.154 = f32[2,32,2048,1]{3,2,1,0} add(%exp.10, %broadcast.211), metadata={op_name="jit(train_step)/jvp(TransformerLinenPure.apply)/TransformerLinenPure/decoder/while/body/closed_call/layers/DotProductAttention_0/_FusedDotProductAttention_0/custom_partitioning" source_file="/usr/local/lib/python3.12/dist-packages/transformer_engine/jax/attention.py" source_line=863 source_end_line=863 source_column=13 source_end_column=13}
  %div.96 = f32[2,32,2048,1]{3,2,1,0} divide(%broadcast.211, %add.154), metadata={op_name="jit(train_step)/jvp(TransformerLinenPure.apply)/TransformerLinenPure/decoder/while/body/closed_call/layers/DotProductAttention_0/_FusedDotProductAttention_0/custom_partitioning" source_file="/usr/local/lib/python3.12/dist-packages/transformer_engine/jax/attention.py" source_line=863 source_end_line=863 source_column=13 source_end_column=13}
  %transpose.130 = f32[2,2048,32,1]{3,1,2,0} transpose(%div.96), dimensions={0,2,1,3}, metadata={op_name="jit(train_step)/jvp(TransformerLinenPure.apply)/TransformerLinenPure/decoder/while/body/closed_call/layers/DotProductAttention_0/_FusedDotProductAttention_0/custom_partitioning" source_file="/usr/local/lib/python3.12/dist-packages/transformer_engine/jax/attention.py" source_line=863 source_end_line=863 source_column=13 source_end_column=13}
  %mul.728 = f32[2,2048,32,1]{3,2,1,0} broadcast(%transpose.130), dimensions={0,1,2,3}, metadata={op_name="jit(train_step)/jvp(TransformerLinenPure.apply)/TransformerLinenPure/decoder/while/body/closed_call/layers/DotProductAttention_0/_FusedDotProductAttention_0/custom_partitioning" source_file="/usr/local/lib/python3.12/dist-packages/transformer_engine/jax/attention.py" source_line=863 source_end_line=863 source_column=13 source_end_column=13}
  %mul.729 = f32[2,2048,32]{2,1,0} reshape(%mul.728), metadata={op_name="jit(train_step)/jvp(TransformerLinenPure.apply)/TransformerLinenPure/decoder/while/body/closed_call/layers/DotProductAttention_0/_FusedDotProductAttention_0/custom_partitioning" source_file="/usr/local/lib/python3.12/dist-packages/transformer_engine/jax/attention.py" source_line=863 source_end_line=863 source_column=13 source_end_column=13}
  %mul.730 = f32[2,2048,32,128]{3,2,1,0} broadcast(%mul.729), dimensions={0,1,2}, metadata={op_name="jit(train_step)/jvp(TransformerLinenPure.apply)/TransformerLinenPure/decoder/while/body/closed_call/layers/DotProductAttention_0/_FusedDotProductAttention_0/custom_partitioning" source_file="/usr/local/lib/python3.12/dist-packages/transformer_engine/jax/attention.py" source_line=863 source_end_line=863 source_column=13 source_end_column=13}
  %cond.18 = bf16[2,2048,32,128]{3,2,1,0} get-tuple-element(%cond.17), index=0, metadata={op_name="jit(train_step)/jvp(TransformerLinenPure.apply)/TransformerLinenPure/decoder/while/body/closed_call/layers/DotProductAttention_0/_FusedDotProductAttention_0/custom_partitioning" source_file="/usr/local/lib/python3.12/dist-packages/transformer_engine/jax/attention.py" source_line=863 source_end_line=863 source_column=13 source_end_column=13}
  %convert_element_type.263 = f32[2,2048,32,128]{3,2,1,0} convert(%cond.18), metadata={op_name="jit(train_step)/jvp(TransformerLinenPure.apply)/TransformerLinenPure/decoder/while/body/closed_call/layers/DotProductAttention_0/_FusedDotProductAttention_0/custom_partitioning" source_file="/usr/local/lib/python3.12/dist-packages/transformer_engine/jax/attention.py" source_line=863 source_end_line=863 source_column=13 source_end_column=13}
  %sub.55 = f32[2,2048,32,128]{3,2,1,0} subtract(%convert_element_type.261, %convert_element_type.263), metadata={op_name="jit(train_step)/jvp(TransformerLinenPure.apply)/TransformerLinenPure/decoder/while/body/closed_call/layers/DotProductAttention_0/_FusedDotProductAttention_0/custom_partitioning" source_file="/usr/local/lib/python3.12/dist-packages/transformer_engine/jax/attention.py" source_line=863 source_end_line=863 source_column=13 source_end_column=13}
  %mul.731 = f32[2,2048,32,128]{3,2,1,0} multiply(%mul.730, %sub.55), metadata={op_name="jit(train_step)/jvp(TransformerLinenPure.apply)/TransformerLinenPure/decoder/while/body/closed_call/layers/DotProductAttention_0/_FusedDotProductAttention_0/custom_partitioning" source_file="/usr/local/lib/python3.12/dist-packages/transformer_engine/jax/attention.py" source_line=863 source_end_line=863 source_column=13 source_end_column=13}
  %sub.56 = f32[2,2048,32,128]{3,2,1,0} subtract(%convert_element_type.261, %mul.731), metadata={op_name="jit(train_step)/jvp(TransformerLinenPure.apply)/TransformerLinenPure/decoder/while/body/closed_call/layers/DotProductAttention_0/_FusedDotProductAttention_0/custom_partitioning" source_file="/usr/local/lib/python3.12/dist-packages/transformer_engine/jax/attention.py" source_line=863 source_end_line=863 source_column=13 source_end_column=13}
  %constant.306 = s32[] constant(2), metadata={op_name="jit(train_step)/jvp(TransformerLinenPure.apply)/TransformerLinenPure/decoder/while/body/closed_call/layers/DotProductAttention_0/_FusedDotProductAttention_0/custom_partitioning" source_file="/usr/local/lib/python3.12/dist-packages/transformer_engine/jax/attention.py" source_line=863 source_end_line=863 source_column=13 source_end_column=13}
  %ge.4 = pred[] compare(%axis_index.7, %constant.306), direction=GE, metadata={op_name="jit(train_step)/jvp(TransformerLinenPure.apply)/TransformerLinenPure/decoder/while/body/closed_call/layers/DotProductAttention_0/_FusedDotProductAttention_0/custom_partitioning" source_file="/usr/local/lib/python3.12/dist-packages/transformer_engine/jax/attention.py" source_line=863 source_end_line=863 source_column=13 source_end_column=13}
  %convert_element_type.264 = s32[] convert(%ge.4), metadata={op_name="jit(train_step)/jvp(TransformerLinenPure.apply)/TransformerLinenPure/decoder/while/body/closed_call/layers/DotProductAttention_0/_FusedDotProductAttention_0/custom_partitioning" source_file="/usr/local/lib/python3.12/dist-packages/transformer_engine/jax/attention.py" source_line=863 source_end_line=863 source_column=13 source_end_column=13}
  %cond.20 = () tuple(), metadata={op_name="jit(train_step)/jvp(TransformerLinenPure.apply)/TransformerLinenPure/decoder/while/body/closed_call/layers/DotProductAttention_0/_FusedDotProductAttention_0/custom_partitioning" source_file="/usr/local/lib/python3.12/dist-packages/transformer_engine/jax/attention.py" source_line=863 source_end_line=863 source_column=13 source_end_column=13}
  %ppermute.4 = bf16[2,2048,2,8,128]{4,3,2,1,0} collective-permute(%ppermute.3), channel_id=4, source_target_pairs={{0,1},{1,2},{2,3},{3,0}}, metadata={op_name="jit(train_step)/jvp(TransformerLinenPure.apply)/TransformerLinenPure/decoder/while/body/closed_call/layers/DotProductAttention_0/_FusedDotProductAttention_0/custom_partitioning" source_file="/usr/local/lib/python3.12/dist-packages/transformer_engine/jax/attention.py" source_line=863 source_end_line=863 source_column=13 source_end_column=13}
  %cond.21 = (s32[2]{0}, s32[2]{0}, bf16[2,2048,32,128]{3,2,1,0}, bf16[2,2048,2,8,128]{4,3,2,1,0}, bf16[0]{0}, /*index=5*/u32[2]{0}, f32[0]{0}, f32[0]{0}, f32[0]{0}, f32[0]{0}, /*index=10*/f32[0]{0}, f32[0]{0}) tuple(%broadcast.208, %broadcast.208, %sharding_constraint.121, %ppermute.4, %constant.289, /*index=5*/%dynamic-slice.8, %constant.292, %constant.292, %constant.292, %constant.292, /*index=10*/%constant.292, %constant.292), metadata={op_name="jit(train_step)/jvp(TransformerLinenPure.apply)/TransformerLinenPure/decoder/while/body/closed_call/layers/DotProductAttention_0/_FusedDotProductAttention_0/custom_partitioning" source_file="/usr/local/lib/python3.12/dist-packages/transformer_engine/jax/attention.py" source_line=863 source_end_line=863 source_column=13 source_end_column=13}
  %cond.22 = (bf16[2,2048,32,128]{3,2,1,0}, f32[2,32,2048,1]{3,2,1,0}) conditional(%convert_element_type.264, %cond.20, %cond.21), branch_computations={%region_3.10._custom_call_lowering_rule, %region_4.11._custom_call_lowering_rule}, metadata={op_name="jit(train_step)/jvp(TransformerLinenPure.apply)/TransformerLinenPure/decoder/while/body/closed_call/layers/DotProductAttention_0/_FusedDotProductAttention_0/custom_partitioning" source_file="/usr/local/lib/python3.12/dist-packages/transformer_engine/jax/attention.py" source_line=863 source_end_line=863 source_column=13 source_end_column=13}
  %cond.24 = f32[2,32,2048,1]{3,2,1,0} get-tuple-element(%cond.22), index=1, metadata={op_name="jit(train_step)/jvp(TransformerLinenPure.apply)/TransformerLinenPure/decoder/while/body/closed_call/layers/DotProductAttention_0/_FusedDotProductAttention_0/custom_partitioning" source_file="/usr/local/lib/python3.12/dist-packages/transformer_engine/jax/attention.py" source_line=863 source_end_line=863 source_column=13 source_end_column=13}
  %sub.57 = f32[2,32,2048,1]{3,2,1,0} subtract(%te_fused_attn_forward_ffi.37, %cond.19), metadata={op_name="jit(train_step)/jvp(TransformerLinenPure.apply)/TransformerLinenPure/decoder/while/body/closed_call/layers/DotProductAttention_0/_FusedDotProductAttention_0/custom_partitioning" source_file="/usr/local/lib/python3.12/dist-packages/transformer_engine/jax/attention.py" source_line=863 source_end_line=863 source_column=13 source_end_column=13}
  %neg.17 = f32[2,32,2048,1]{3,2,1,0} negate(%sub.57), metadata={op_name="jit(train_step)/jvp(TransformerLinenPure.apply)/TransformerLinenPure/decoder/while/body/closed_call/layers/DotProductAttention_0/_FusedDotProductAttention_0/custom_partitioning" source_file="/usr/local/lib/python3.12/dist-packages/transformer_engine/jax/attention.py" source_line=863 source_end_line=863 source_column=13 source_end_column=13}
  %broadcast.212 = f32[2,32,2048,1]{3,2,1,0} broadcast(%constant.241), dimensions={}, metadata={op_name="jit(train_step)/jvp(TransformerLinenPure.apply)/TransformerLinenPure/decoder/while/body/closed_call/layers/DotProductAttention_0/_FusedDotProductAttention_0/custom_partitioning" source_file="/usr/local/lib/python3.12/dist-packages/transformer_engine/jax/attention.py" source_line=863 source_end_line=863 source_column=13 source_end_column=13}
  %sub.58 = f32[2,32,2048,1]{3,2,1,0} subtract(%neg.17, %broadcast.212), metadata={op_name="jit(train_step)/jvp(TransformerLinenPure.apply)/TransformerLinenPure/decoder/while/body/closed_call/layers/DotProductAttention_0/_FusedDotProductAttention_0/custom_partitioning" source_file="/usr/local/lib/python3.12/dist-packages/transformer_engine/jax/attention.py" source_line=863 source_end_line=863 source_column=13 source_end_column=13}
  %ne.4 = pred[2,32,2048,1]{3,2,1,0} compare(%sub.58, %sub.58), direction=NE, metadata={op_name="jit(train_step)/jvp(TransformerLinenPure.apply)/TransformerLinenPure/decoder/while/body/closed_call/layers/DotProductAttention_0/_FusedDotProductAttention_0/custom_partitioning" source_file="/usr/local/lib/python3.12/dist-packages/transformer_engine/jax/attention.py" source_line=863 source_end_line=863 source_column=13 source_end_column=13}
  %max.3 = f32[2,32,2048,1]{3,2,1,0} maximum(%neg.17, %broadcast.212), metadata={op_name="jit(train_step)/jvp(TransformerLinenPure.apply)/TransformerLinenPure/decoder/while/body/closed_call/layers/DotProductAttention_0/_FusedDotProductAttention_0/custom_partitioning" source_file="/usr/local/lib/python3.12/dist-packages/transformer_engine/jax/attention.py" source_line=863 source_end_line=863 source_column=13 source_end_column=13}
  %abs.2 = f32[2,32,2048,1]{3,2,1,0} abs(%sub.58), metadata={op_name="jit(train_step)/jvp(TransformerLinenPure.apply)/TransformerLinenPure/decoder/while/body/closed_call/layers/DotProductAttention_0/_FusedDotProductAttention_0/custom_partitioning" source_file="/usr/local/lib/python3.12/dist-packages/transformer_engine/jax/attention.py" source_line=863 source_end_line=863 source_column=13 source_end_column=13}
  %neg.18 = f32[2,32,2048,1]{3,2,1,0} negate(%abs.2), metadata={op_name="jit(train_step)/jvp(TransformerLinenPure.apply)/TransformerLinenPure/decoder/while/body/closed_call/layers/DotProductAttention_0/_FusedDotProductAttention_0/custom_partitioning" source_file="/usr/local/lib/python3.12/dist-packages/transformer_engine/jax/attention.py" source_line=863 source_end_line=863 source_column=13 source_end_column=13}
  %exp.11 = f32[2,32,2048,1]{3,2,1,0} exponential(%neg.18), metadata={op_name="jit(train_step)/jvp(TransformerLinenPure.apply)/TransformerLinenPure/decoder/while/body/closed_call/layers/DotProductAttention_0/_FusedDotProductAttention_0/custom_partitioning" source_file="/usr/local/lib/python3.12/dist-packages/transformer_engine/jax/attention.py" source_line=863 source_end_line=863 source_column=13 source_end_column=13}
  %log1p.2 = f32[2,32,2048,1]{3,2,1,0} log-plus-one(%exp.11), metadata={op_name="jit(train_step)/jvp(TransformerLinenPure.apply)/TransformerLinenPure/decoder/while/body/closed_call/layers/DotProductAttention_0/_FusedDotProductAttention_0/custom_partitioning" source_file="/usr/local/lib/python3.12/dist-packages/transformer_engine/jax/attention.py" source_line=863 source_end_line=863 source_column=13 source_end_column=13}
  %add.155 = f32[2,32,2048,1]{3,2,1,0} add(%max.3, %log1p.2), metadata={op_name="jit(train_step)/jvp(TransformerLinenPure.apply)/TransformerLinenPure/decoder/while/body/closed_call/layers/DotProductAttention_0/_FusedDotProductAttention_0/custom_partitioning" source_file="/usr/local/lib/python3.12/dist-packages/transformer_engine/jax/attention.py" source_line=863 source_end_line=863 source_column=13 source_end_column=13}
  %select_n.78 = f32[2,32,2048,1]{3,2,1,0} select(%ne.4, %neg.17, %add.155), metadata={op_name="jit(train_step)/jvp(TransformerLinenPure.apply)/TransformerLinenPure/decoder/while/body/closed_call/layers/DotProductAttention_0/_FusedDotProductAttention_0/custom_partitioning" source_file="/usr/local/lib/python3.12/dist-packages/transformer_engine/jax/attention.py" source_line=863 source_end_line=863 source_column=13 source_end_column=13}
  %neg.19 = f32[2,32,2048,1]{3,2,1,0} negate(%select_n.78), metadata={op_name="jit(train_step)/jvp(TransformerLinenPure.apply)/TransformerLinenPure/decoder/while/body/closed_call/layers/DotProductAttention_0/_FusedDotProductAttention_0/custom_partitioning" source_file="/usr/local/lib/python3.12/dist-packages/transformer_engine/jax/attention.py" source_line=863 source_end_line=863 source_column=13 source_end_column=13}
  %sub.59 = f32[2,32,2048,1]{3,2,1,0} subtract(%te_fused_attn_forward_ffi.37, %neg.19), metadata={op_name="jit(train_step)/jvp(TransformerLinenPure.apply)/TransformerLinenPure/decoder/while/body/closed_call/layers/DotProductAttention_0/_FusedDotProductAttention_0/custom_partitioning" source_file="/usr/local/lib/python3.12/dist-packages/transformer_engine/jax/attention.py" source_line=863 source_end_line=863 source_column=13 source_end_column=13}
  %sub.60 = f32[2,32,2048,1]{3,2,1,0} subtract(%cond.24, %sub.59), metadata={op_name="jit(train_step)/jvp(TransformerLinenPure.apply)/TransformerLinenPure/decoder/while/body/closed_call/layers/DotProductAttention_0/_FusedDotProductAttention_0/custom_partitioning" source_file="/usr/local/lib/python3.12/dist-packages/transformer_engine/jax/attention.py" source_line=863 source_end_line=863 source_column=13 source_end_column=13}
  %neg.20 = f32[2,32,2048,1]{3,2,1,0} negate(%sub.60), metadata={op_name="jit(train_step)/jvp(TransformerLinenPure.apply)/TransformerLinenPure/decoder/while/body/closed_call/layers/DotProductAttention_0/_FusedDotProductAttention_0/custom_partitioning" source_file="/usr/local/lib/python3.12/dist-packages/transformer_engine/jax/attention.py" source_line=863 source_end_line=863 source_column=13 source_end_column=13}
  %exp.12 = f32[2,32,2048,1]{3,2,1,0} exponential(%neg.20), metadata={op_name="jit(train_step)/jvp(TransformerLinenPure.apply)/TransformerLinenPure/decoder/while/body/closed_call/layers/DotProductAttention_0/_FusedDotProductAttention_0/custom_partitioning" source_file="/usr/local/lib/python3.12/dist-packages/transformer_engine/jax/attention.py" source_line=863 source_end_line=863 source_column=13 source_end_column=13}
  %add.156 = f32[2,32,2048,1]{3,2,1,0} add(%exp.12, %broadcast.211), metadata={op_name="jit(train_step)/jvp(TransformerLinenPure.apply)/TransformerLinenPure/decoder/while/body/closed_call/layers/DotProductAttention_0/_FusedDotProductAttention_0/custom_partitioning" source_file="/usr/local/lib/python3.12/dist-packages/transformer_engine/jax/attention.py" source_line=863 source_end_line=863 source_column=13 source_end_column=13}
  %div.97 = f32[2,32,2048,1]{3,2,1,0} divide(%broadcast.211, %add.156), metadata={op_name="jit(train_step)/jvp(TransformerLinenPure.apply)/TransformerLinenPure/decoder/while/body/closed_call/layers/DotProductAttention_0/_FusedDotProductAttention_0/custom_partitioning" source_file="/usr/local/lib/python3.12/dist-packages/transformer_engine/jax/attention.py" source_line=863 source_end_line=863 source_column=13 source_end_column=13}
  %transpose.131 = f32[2,2048,32,1]{3,1,2,0} transpose(%div.97), dimensions={0,2,1,3}, metadata={op_name="jit(train_step)/jvp(TransformerLinenPure.apply)/TransformerLinenPure/decoder/while/body/closed_call/layers/DotProductAttention_0/_FusedDotProductAttention_0/custom_partitioning" source_file="/usr/local/lib/python3.12/dist-packages/transformer_engine/jax/attention.py" source_line=863 source_end_line=863 source_column=13 source_end_column=13}
  %mul.732 = f32[2,2048,32,1]{3,2,1,0} broadcast(%transpose.131), dimensions={0,1,2,3}, metadata={op_name="jit(train_step)/jvp(TransformerLinenPure.apply)/TransformerLinenPure/decoder/while/body/closed_call/layers/DotProductAttention_0/_FusedDotProductAttention_0/custom_partitioning" source_file="/usr/local/lib/python3.12/dist-packages/transformer_engine/jax/attention.py" source_line=863 source_end_line=863 source_column=13 source_end_column=13}
  %mul.733 = f32[2,2048,32]{2,1,0} reshape(%mul.732), metadata={op_name="jit(train_step)/jvp(TransformerLinenPure.apply)/TransformerLinenPure/decoder/while/body/closed_call/layers/DotProductAttention_0/_FusedDotProductAttention_0/custom_partitioning" source_file="/usr/local/lib/python3.12/dist-packages/transformer_engine/jax/attention.py" source_line=863 source_end_line=863 source_column=13 source_end_column=13}
  %mul.734 = f32[2,2048,32,128]{3,2,1,0} broadcast(%mul.733), dimensions={0,1,2}, metadata={op_name="jit(train_step)/jvp(TransformerLinenPure.apply)/TransformerLinenPure/decoder/while/body/closed_call/layers/DotProductAttention_0/_FusedDotProductAttention_0/custom_partitioning" source_file="/usr/local/lib/python3.12/dist-packages/transformer_engine/jax/attention.py" source_line=863 source_end_line=863 source_column=13 source_end_column=13}
  %cond.23 = bf16[2,2048,32,128]{3,2,1,0} get-tuple-element(%cond.22), index=0, metadata={op_name="jit(train_step)/jvp(TransformerLinenPure.apply)/TransformerLinenPure/decoder/while/body/closed_call/layers/DotProductAttention_0/_FusedDotProductAttention_0/custom_partitioning" source_file="/usr/local/lib/python3.12/dist-packages/transformer_engine/jax/attention.py" source_line=863 source_end_line=863 source_column=13 source_end_column=13}
  %convert_element_type.265 = f32[2,2048,32,128]{3,2,1,0} convert(%cond.23), metadata={op_name="jit(train_step)/jvp(TransformerLinenPure.apply)/TransformerLinenPure/decoder/while/body/closed_call/layers/DotProductAttention_0/_FusedDotProductAttention_0/custom_partitioning" source_file="/usr/local/lib/python3.12/dist-packages/transformer_engine/jax/attention.py" source_line=863 source_end_line=863 source_column=13 source_end_column=13}
  %sub.61 = f32[2,2048,32,128]{3,2,1,0} subtract(%sub.56, %convert_element_type.265), metadata={op_name="jit(train_step)/jvp(TransformerLinenPure.apply)/TransformerLinenPure/decoder/while/body/closed_call/layers/DotProductAttention_0/_FusedDotProductAttention_0/custom_partitioning" source_file="/usr/local/lib/python3.12/dist-packages/transformer_engine/jax/attention.py" source_line=863 source_end_line=863 source_column=13 source_end_column=13}
  %mul.735 = f32[2,2048,32,128]{3,2,1,0} multiply(%mul.734, %sub.61), metadata={op_name="jit(train_step)/jvp(TransformerLinenPure.apply)/TransformerLinenPure/decoder/while/body/closed_call/layers/DotProductAttention_0/_FusedDotProductAttention_0/custom_partitioning" source_file="/usr/local/lib/python3.12/dist-packages/transformer_engine/jax/attention.py" source_line=863 source_end_line=863 source_column=13 source_end_column=13}
  %sub.62 = f32[2,2048,32,128]{3,2,1,0} subtract(%sub.56, %mul.735), metadata={op_name="jit(train_step)/jvp(TransformerLinenPure.apply)/TransformerLinenPure/decoder/while/body/closed_call/layers/DotProductAttention_0/_FusedDotProductAttention_0/custom_partitioning" source_file="/usr/local/lib/python3.12/dist-packages/transformer_engine/jax/attention.py" source_line=863 source_end_line=863 source_column=13 source_end_column=13}
  %constant.308 = s32[] constant(3), metadata={op_name="jit(train_step)/jvp(TransformerLinenPure.apply)/TransformerLinenPure/decoder/while/body/closed_call/layers/DotProductAttention_0/_FusedDotProductAttention_0/custom_partitioning" source_file="/usr/local/lib/python3.12/dist-packages/transformer_engine/jax/attention.py" source_line=863 source_end_line=863 source_column=13 source_end_column=13}
  %ge.5 = pred[] compare(%axis_index.7, %constant.308), direction=GE, metadata={op_name="jit(train_step)/jvp(TransformerLinenPure.apply)/TransformerLinenPure/decoder/while/body/closed_call/layers/DotProductAttention_0/_FusedDotProductAttention_0/custom_partitioning" source_file="/usr/local/lib/python3.12/dist-packages/transformer_engine/jax/attention.py" source_line=863 source_end_line=863 source_column=13 source_end_column=13}
  %convert_element_type.266 = s32[] convert(%ge.5), metadata={op_name="jit(train_step)/jvp(TransformerLinenPure.apply)/TransformerLinenPure/decoder/while/body/closed_call/layers/DotProductAttention_0/_FusedDotProductAttention_0/custom_partitioning" source_file="/usr/local/lib/python3.12/dist-packages/transformer_engine/jax/attention.py" source_line=863 source_end_line=863 source_column=13 source_end_column=13}
  %cond.25 = () tuple(), metadata={op_name="jit(train_step)/jvp(TransformerLinenPure.apply)/TransformerLinenPure/decoder/while/body/closed_call/layers/DotProductAttention_0/_FusedDotProductAttention_0/custom_partitioning" source_file="/usr/local/lib/python3.12/dist-packages/transformer_engine/jax/attention.py" source_line=863 source_end_line=863 source_column=13 source_end_column=13}
  %ppermute.5 = bf16[2,2048,2,8,128]{4,3,2,1,0} collective-permute(%ppermute.4), channel_id=4, source_target_pairs={{0,1},{1,2},{2,3},{3,0}}, metadata={op_name="jit(train_step)/jvp(TransformerLinenPure.apply)/TransformerLinenPure/decoder/while/body/closed_call/layers/DotProductAttention_0/_FusedDotProductAttention_0/custom_partitioning" source_file="/usr/local/lib/python3.12/dist-packages/transformer_engine/jax/attention.py" source_line=863 source_end_line=863 source_column=13 source_end_column=13}
  %cond.26 = (s32[2]{0}, s32[2]{0}, bf16[2,2048,32,128]{3,2,1,0}, bf16[2,2048,2,8,128]{4,3,2,1,0}, bf16[0]{0}, /*index=5*/u32[2]{0}, f32[0]{0}, f32[0]{0}, f32[0]{0}, f32[0]{0}, /*index=10*/f32[0]{0}, f32[0]{0}) tuple(%broadcast.208, %broadcast.208, %sharding_constraint.121, %ppermute.5, %constant.289, /*index=5*/%dynamic-slice.8, %constant.292, %constant.292, %constant.292, %constant.292, /*index=10*/%constant.292, %constant.292), metadata={op_name="jit(train_step)/jvp(TransformerLinenPure.apply)/TransformerLinenPure/decoder/while/body/closed_call/layers/DotProductAttention_0/_FusedDotProductAttention_0/custom_partitioning" source_file="/usr/local/lib/python3.12/dist-packages/transformer_engine/jax/attention.py" source_line=863 source_end_line=863 source_column=13 source_end_column=13}
  %cond.27 = (bf16[2,2048,32,128]{3,2,1,0}, f32[2,32,2048,1]{3,2,1,0}) conditional(%convert_element_type.266, %cond.25, %cond.26), branch_computations={%region_5.12._custom_call_lowering_rule, %region_6.13._custom_call_lowering_rule}, metadata={op_name="jit(train_step)/jvp(TransformerLinenPure.apply)/TransformerLinenPure/decoder/while/body/closed_call/layers/DotProductAttention_0/_FusedDotProductAttention_0/custom_partitioning" source_file="/usr/local/lib/python3.12/dist-packages/transformer_engine/jax/attention.py" source_line=863 source_end_line=863 source_column=13 source_end_column=13}
  %cond.29 = f32[2,32,2048,1]{3,2,1,0} get-tuple-element(%cond.27), index=1, metadata={op_name="jit(train_step)/jvp(TransformerLinenPure.apply)/TransformerLinenPure/decoder/while/body/closed_call/layers/DotProductAttention_0/_FusedDotProductAttention_0/custom_partitioning" source_file="/usr/local/lib/python3.12/dist-packages/transformer_engine/jax/attention.py" source_line=863 source_end_line=863 source_column=13 source_end_column=13}
  %sub.63 = f32[2,32,2048,1]{3,2,1,0} subtract(%sub.59, %cond.24), metadata={op_name="jit(train_step)/jvp(TransformerLinenPure.apply)/TransformerLinenPure/decoder/while/body/closed_call/layers/DotProductAttention_0/_FusedDotProductAttention_0/custom_partitioning" source_file="/usr/local/lib/python3.12/dist-packages/transformer_engine/jax/attention.py" source_line=863 source_end_line=863 source_column=13 source_end_column=13}
  %neg.21 = f32[2,32,2048,1]{3,2,1,0} negate(%sub.63), metadata={op_name="jit(train_step)/jvp(TransformerLinenPure.apply)/TransformerLinenPure/decoder/while/body/closed_call/layers/DotProductAttention_0/_FusedDotProductAttention_0/custom_partitioning" source_file="/usr/local/lib/python3.12/dist-packages/transformer_engine/jax/attention.py" source_line=863 source_end_line=863 source_column=13 source_end_column=13}
  %sub.64 = f32[2,32,2048,1]{3,2,1,0} subtract(%neg.21, %broadcast.212), metadata={op_name="jit(train_step)/jvp(TransformerLinenPure.apply)/TransformerLinenPure/decoder/while/body/closed_call/layers/DotProductAttention_0/_FusedDotProductAttention_0/custom_partitioning" source_file="/usr/local/lib/python3.12/dist-packages/transformer_engine/jax/attention.py" source_line=863 source_end_line=863 source_column=13 source_end_column=13}
  %ne.5 = pred[2,32,2048,1]{3,2,1,0} compare(%sub.64, %sub.64), direction=NE, metadata={op_name="jit(train_step)/jvp(TransformerLinenPure.apply)/TransformerLinenPure/decoder/while/body/closed_call/layers/DotProductAttention_0/_FusedDotProductAttention_0/custom_partitioning" source_file="/usr/local/lib/python3.12/dist-packages/transformer_engine/jax/attention.py" source_line=863 source_end_line=863 source_column=13 source_end_column=13}
  %max.4 = f32[2,32,2048,1]{3,2,1,0} maximum(%neg.21, %broadcast.212), metadata={op_name="jit(train_step)/jvp(TransformerLinenPure.apply)/TransformerLinenPure/decoder/while/body/closed_call/layers/DotProductAttention_0/_FusedDotProductAttention_0/custom_partitioning" source_file="/usr/local/lib/python3.12/dist-packages/transformer_engine/jax/attention.py" source_line=863 source_end_line=863 source_column=13 source_end_column=13}
  %abs.3 = f32[2,32,2048,1]{3,2,1,0} abs(%sub.64), metadata={op_name="jit(train_step)/jvp(TransformerLinenPure.apply)/TransformerLinenPure/decoder/while/body/closed_call/layers/DotProductAttention_0/_FusedDotProductAttention_0/custom_partitioning" source_file="/usr/local/lib/python3.12/dist-packages/transformer_engine/jax/attention.py" source_line=863 source_end_line=863 source_column=13 source_end_column=13}
  %neg.22 = f32[2,32,2048,1]{3,2,1,0} negate(%abs.3), metadata={op_name="jit(train_step)/jvp(TransformerLinenPure.apply)/TransformerLinenPure/decoder/while/body/closed_call/layers/DotProductAttention_0/_FusedDotProductAttention_0/custom_partitioning" source_file="/usr/local/lib/python3.12/dist-packages/transformer_engine/jax/attention.py" source_line=863 source_end_line=863 source_column=13 source_end_column=13}
  %exp.13 = f32[2,32,2048,1]{3,2,1,0} exponential(%neg.22), metadata={op_name="jit(train_step)/jvp(TransformerLinenPure.apply)/TransformerLinenPure/decoder/while/body/closed_call/layers/DotProductAttention_0/_FusedDotProductAttention_0/custom_partitioning" source_file="/usr/local/lib/python3.12/dist-packages/transformer_engine/jax/attention.py" source_line=863 source_end_line=863 source_column=13 source_end_column=13}
  %log1p.3 = f32[2,32,2048,1]{3,2,1,0} log-plus-one(%exp.13), metadata={op_name="jit(train_step)/jvp(TransformerLinenPure.apply)/TransformerLinenPure/decoder/while/body/closed_call/layers/DotProductAttention_0/_FusedDotProductAttention_0/custom_partitioning" source_file="/usr/local/lib/python3.12/dist-packages/transformer_engine/jax/attention.py" source_line=863 source_end_line=863 source_column=13 source_end_column=13}
  %add.157 = f32[2,32,2048,1]{3,2,1,0} add(%max.4, %log1p.3), metadata={op_name="jit(train_step)/jvp(TransformerLinenPure.apply)/TransformerLinenPure/decoder/while/body/closed_call/layers/DotProductAttention_0/_FusedDotProductAttention_0/custom_partitioning" source_file="/usr/local/lib/python3.12/dist-packages/transformer_engine/jax/attention.py" source_line=863 source_end_line=863 source_column=13 source_end_column=13}
  %select_n.79 = f32[2,32,2048,1]{3,2,1,0} select(%ne.5, %neg.21, %add.157), metadata={op_name="jit(train_step)/jvp(TransformerLinenPure.apply)/TransformerLinenPure/decoder/while/body/closed_call/layers/DotProductAttention_0/_FusedDotProductAttention_0/custom_partitioning" source_file="/usr/local/lib/python3.12/dist-packages/transformer_engine/jax/attention.py" source_line=863 source_end_line=863 source_column=13 source_end_column=13}
  %neg.23 = f32[2,32,2048,1]{3,2,1,0} negate(%select_n.79), metadata={op_name="jit(train_step)/jvp(TransformerLinenPure.apply)/TransformerLinenPure/decoder/while/body/closed_call/layers/DotProductAttention_0/_FusedDotProductAttention_0/custom_partitioning" source_file="/usr/local/lib/python3.12/dist-packages/transformer_engine/jax/attention.py" source_line=863 source_end_line=863 source_column=13 source_end_column=13}
  %sub.65 = f32[2,32,2048,1]{3,2,1,0} subtract(%sub.59, %neg.23), metadata={op_name="jit(train_step)/jvp(TransformerLinenPure.apply)/TransformerLinenPure/decoder/while/body/closed_call/layers/DotProductAttention_0/_FusedDotProductAttention_0/custom_partitioning" source_file="/usr/local/lib/python3.12/dist-packages/transformer_engine/jax/attention.py" source_line=863 source_end_line=863 source_column=13 source_end_column=13}
  %sub.66 = f32[2,32,2048,1]{3,2,1,0} subtract(%cond.29, %sub.65), metadata={op_name="jit(train_step)/jvp(TransformerLinenPure.apply)/TransformerLinenPure/decoder/while/body/closed_call/layers/DotProductAttention_0/_FusedDotProductAttention_0/custom_partitioning" source_file="/usr/local/lib/python3.12/dist-packages/transformer_engine/jax/attention.py" source_line=863 source_end_line=863 source_column=13 source_end_column=13}
  %neg.24 = f32[2,32,2048,1]{3,2,1,0} negate(%sub.66), metadata={op_name="jit(train_step)/jvp(TransformerLinenPure.apply)/TransformerLinenPure/decoder/while/body/closed_call/layers/DotProductAttention_0/_FusedDotProductAttention_0/custom_partitioning" source_file="/usr/local/lib/python3.12/dist-packages/transformer_engine/jax/attention.py" source_line=863 source_end_line=863 source_column=13 source_end_column=13}
  %exp.14 = f32[2,32,2048,1]{3,2,1,0} exponential(%neg.24), metadata={op_name="jit(train_step)/jvp(TransformerLinenPure.apply)/TransformerLinenPure/decoder/while/body/closed_call/layers/DotProductAttention_0/_FusedDotProductAttention_0/custom_partitioning" source_file="/usr/local/lib/python3.12/dist-packages/transformer_engine/jax/attention.py" source_line=863 source_end_line=863 source_column=13 source_end_column=13}
  %add.350 = f32[2,32,2048,1]{3,2,1,0} add(%exp.14, %broadcast.211), metadata={op_name="jit(train_step)/jvp(TransformerLinenPure.apply)/TransformerLinenPure/decoder/while/body/closed_call/layers/DotProductAttention_0/_FusedDotProductAttention_0/custom_partitioning" source_file="/usr/local/lib/python3.12/dist-packages/transformer_engine/jax/attention.py" source_line=863 source_end_line=863 source_column=13 source_end_column=13}
  %div.98 = f32[2,32,2048,1]{3,2,1,0} divide(%broadcast.211, %add.350), metadata={op_name="jit(train_step)/jvp(TransformerLinenPure.apply)/TransformerLinenPure/decoder/while/body/closed_call/layers/DotProductAttention_0/_FusedDotProductAttention_0/custom_partitioning" source_file="/usr/local/lib/python3.12/dist-packages/transformer_engine/jax/attention.py" source_line=863 source_end_line=863 source_column=13 source_end_column=13}
  %transpose.132 = f32[2,2048,32,1]{3,1,2,0} transpose(%div.98), dimensions={0,2,1,3}, metadata={op_name="jit(train_step)/jvp(TransformerLinenPure.apply)/TransformerLinenPure/decoder/while/body/closed_call/layers/DotProductAttention_0/_FusedDotProductAttention_0/custom_partitioning" source_file="/usr/local/lib/python3.12/dist-packages/transformer_engine/jax/attention.py" source_line=863 source_end_line=863 source_column=13 source_end_column=13}
  %mul.736 = f32[2,2048,32,1]{3,2,1,0} broadcast(%transpose.132), dimensions={0,1,2,3}, metadata={op_name="jit(train_step)/jvp(TransformerLinenPure.apply)/TransformerLinenPure/decoder/while/body/closed_call/layers/DotProductAttention_0/_FusedDotProductAttention_0/custom_partitioning" source_file="/usr/local/lib/python3.12/dist-packages/transformer_engine/jax/attention.py" source_line=863 source_end_line=863 source_column=13 source_end_column=13}
  %mul.737 = f32[2,2048,32]{2,1,0} reshape(%mul.736), metadata={op_name="jit(train_step)/jvp(TransformerLinenPure.apply)/TransformerLinenPure/decoder/while/body/closed_call/layers/DotProductAttention_0/_FusedDotProductAttention_0/custom_partitioning" source_file="/usr/local/lib/python3.12/dist-packages/transformer_engine/jax/attention.py" source_line=863 source_end_line=863 source_column=13 source_end_column=13}
  %mul.738 = f32[2,2048,32,128]{3,2,1,0} broadcast(%mul.737), dimensions={0,1,2}, metadata={op_name="jit(train_step)/jvp(TransformerLinenPure.apply)/TransformerLinenPure/decoder/while/body/closed_call/layers/DotProductAttention_0/_FusedDotProductAttention_0/custom_partitioning" source_file="/usr/local/lib/python3.12/dist-packages/transformer_engine/jax/attention.py" source_line=863 source_end_line=863 source_column=13 source_end_column=13}
  %cond.28 = bf16[2,2048,32,128]{3,2,1,0} get-tuple-element(%cond.27), index=0, metadata={op_name="jit(train_step)/jvp(TransformerLinenPure.apply)/TransformerLinenPure/decoder/while/body/closed_call/layers/DotProductAttention_0/_FusedDotProductAttention_0/custom_partitioning" source_file="/usr/local/lib/python3.12/dist-packages/transformer_engine/jax/attention.py" source_line=863 source_end_line=863 source_column=13 source_end_column=13}
  %convert_element_type.267 = f32[2,2048,32,128]{3,2,1,0} convert(%cond.28), metadata={op_name="jit(train_step)/jvp(TransformerLinenPure.apply)/TransformerLinenPure/decoder/while/body/closed_call/layers/DotProductAttention_0/_FusedDotProductAttention_0/custom_partitioning" source_file="/usr/local/lib/python3.12/dist-packages/transformer_engine/jax/attention.py" source_line=863 source_end_line=863 source_column=13 source_end_column=13}
  %sub.67 = f32[2,2048,32,128]{3,2,1,0} subtract(%sub.62, %convert_element_type.267), metadata={op_name="jit(train_step)/jvp(TransformerLinenPure.apply)/TransformerLinenPure/decoder/while/body/closed_call/layers/DotProductAttention_0/_FusedDotProductAttention_0/custom_partitioning" source_file="/usr/local/lib/python3.12/dist-packages/transformer_engine/jax/attention.py" source_line=863 source_end_line=863 source_column=13 source_end_column=13}
  %mul.739 = f32[2,2048,32,128]{3,2,1,0} multiply(%mul.738, %sub.67), metadata={op_name="jit(train_step)/jvp(TransformerLinenPure.apply)/TransformerLinenPure/decoder/while/body/closed_call/layers/DotProductAttention_0/_FusedDotProductAttention_0/custom_partitioning" source_file="/usr/local/lib/python3.12/dist-packages/transformer_engine/jax/attention.py" source_line=863 source_end_line=863 source_column=13 source_end_column=13}
  %sub.68 = f32[2,2048,32,128]{3,2,1,0} subtract(%sub.62, %mul.739), metadata={op_name="jit(train_step)/jvp(TransformerLinenPure.apply)/TransformerLinenPure/decoder/while/body/closed_call/layers/DotProductAttention_0/_FusedDotProductAttention_0/custom_partitioning" source_file="/usr/local/lib/python3.12/dist-packages/transformer_engine/jax/attention.py" source_line=863 source_end_line=863 source_column=13 source_end_column=13}
  %convert_element_type.268 = bf16[2,2048,32,128]{3,2,1,0} convert(%sub.68), metadata={op_name="jit(train_step)/jvp(TransformerLinenPure.apply)/TransformerLinenPure/decoder/while/body/closed_call/layers/DotProductAttention_0/_FusedDotProductAttention_0/custom_partitioning" source_file="/usr/local/lib/python3.12/dist-packages/transformer_engine/jax/attention.py" source_line=863 source_end_line=863 source_column=13 source_end_column=13}
  %sharding_constraint.125 = bf16[2,2048,32,128]{3,2,1,0} copy(%convert_element_type.268), metadata={op_name="jit(train_step)/jvp(TransformerLinenPure.apply)/TransformerLinenPure/decoder/while/body/closed_call/layers/sharding_constraint" source_file="/opt/maxtext/src/MaxText/sharding.py" source_line=44 source_end_line=44 source_column=11 source_end_column=11}
  %get-tuple-element.203 = f32[32,32,128,1024]{3,2,1,0} get-tuple-element(%param), index=12
  %dynamic-slice.9 = f32[1,32,128,1024]{3,2,1,0} dynamic-slice(%get-tuple-element.203, %get-tuple-element.188, %constant.240, %constant.240, %constant.240), dynamic_slice_sizes={1,32,128,1024}, metadata={op_name="jit(train_step)/jvp(TransformerLinenPure.apply)/TransformerLinenPure/decoder/while/body/dynamic_slice" source_file="/opt/flax/flax/core/axes_scan.py" source_line=199 source_end_line=199 source_column=14 source_end_column=14}
  %convert_element_type.269 = bf16[1,32,128,1024]{3,2,1,0} convert(%dynamic-slice.9), metadata={op_name="jit(train_step)/jvp(TransformerLinenPure.apply)/TransformerLinenPure/decoder/while/body/closed_call/layers/convert_element_type" source_file="/opt/maxtext/src/MaxText/layers/linears.py" source_line=227 source_end_line=227 source_column=15 source_end_column=15}
  %convert_element_type.270 = bf16[32,128,1024]{2,1,0} reshape(%convert_element_type.269), metadata={op_name="jit(train_step)/jvp(TransformerLinenPure.apply)/TransformerLinenPure/decoder/while/body/closed_call/layers/convert_element_type" source_file="/opt/maxtext/src/MaxText/layers/linears.py" source_line=227 source_end_line=227 source_column=15 source_end_column=15}
  %all-gather.4 = bf16[32,128,4096]{2,1,0} all-gather(%convert_element_type.270), channel_id=6, replica_groups=[1,4]<=[4], dimensions={2}, use_global_device_ids=true, metadata={op_name="jit(train_step)/jvp(TransformerLinenPure.apply)/TransformerLinenPure/decoder/while/body/closed_call/layers/dot_general" source_file="/opt/maxtext/src/MaxText/layers/linears.py" source_line=99 source_end_line=99 source_column=9 source_end_column=9}
  %dot.8 = bf16[2,2048,4096]{2,1,0} dot(%sharding_constraint.125, %all-gather.4), lhs_contracting_dims={2,3}, rhs_contracting_dims={0,1}, metadata={op_name="jit(train_step)/jvp(TransformerLinenPure.apply)/TransformerLinenPure/decoder/while/body/closed_call/layers/dot_general" source_file="/opt/maxtext/src/MaxText/layers/linears.py" source_line=99 source_end_line=99 source_column=9 source_end_column=9}
  %sharding_constraint.126 = bf16[2,2048,4096]{2,1,0} copy(%dot.8), metadata={op_name="jit(train_step)/jvp(TransformerLinenPure.apply)/TransformerLinenPure/decoder/while/body/closed_call/layers/sharding_constraint" source_file="/opt/maxtext/src/MaxText/sharding.py" source_line=44 source_end_line=44 source_column=11 source_end_column=11}
  %add.352 = bf16[2,2048,4096]{2,1,0} add(%sharding_constraint.118, %sharding_constraint.126), metadata={op_name="jit(train_step)/jvp(TransformerLinenPure.apply)/TransformerLinenPure/decoder/while/body/closed_call/layers/add" source_file="/opt/maxtext/src/MaxText/layers/llama2.py" source_line=174 source_end_line=174 source_column=26 source_end_column=26}
  %convert_element_type.271 = f32[2,2048,4096]{2,1,0} convert(%add.352), metadata={op_name="jit(train_step)/jvp(TransformerLinenPure.apply)/TransformerLinenPure/decoder/while/body/closed_call/layers/convert_element_type" source_file="/opt/maxtext/src/MaxText/layers/normalizations.py" source_line=66 source_end_line=66 source_column=8 source_end_column=8}
  %square.91 = f32[2,2048,4096]{2,1,0} multiply(%convert_element_type.271, %convert_element_type.271), metadata={op_name="jit(train_step)/jvp(TransformerLinenPure.apply)/TransformerLinenPure/decoder/while/body/closed_call/layers/square" source_file="/opt/maxtext/src/MaxText/layers/normalizations.py" source_line=67 source_end_line=67 source_column=21 source_end_column=21}
  %reduce.1 = f32[2,2048]{1,0} reduce(%square.91, %constant.241), dimensions={2}, to_apply=%region_3.3, metadata={op_name="jit(train_step)/jvp(TransformerLinenPure.apply)/TransformerLinenPure/decoder/while/body/closed_call/layers/reduce_sum" source_file="/opt/maxtext/src/MaxText/layers/normalizations.py" source_line=67 source_end_line=67 source_column=12 source_end_column=12}
  %div.99 = f32[2,2048]{1,0} multiply(%reduce.1, %closed_call.8), metadata={op_name="jit(train_step)/jvp(TransformerLinenPure.apply)/TransformerLinenPure/decoder/while/body/closed_call/layers/div" source_file="/opt/maxtext/src/MaxText/layers/normalizations.py" source_line=67 source_end_line=67 source_column=12 source_end_column=12}
  %add.353 = f32[2,2048]{1,0} add(%div.99, %closed_call.9), metadata={op_name="jit(train_step)/jvp(TransformerLinenPure.apply)/TransformerLinenPure/decoder/while/body/closed_call/layers/add" source_file="/opt/maxtext/src/MaxText/layers/normalizations.py" source_line=68 source_end_line=68 source_column=34 source_end_column=34}
  %rsqrt.17 = f32[2,2048]{1,0} rsqrt(%add.353), metadata={op_name="jit(train_step)/jvp(TransformerLinenPure.apply)/TransformerLinenPure/decoder/while/body/closed_call/layers/rsqrt" source_file="/opt/maxtext/src/MaxText/layers/normalizations.py" source_line=68 source_end_line=68 source_column=24 source_end_column=24}
  %mul.740 = f32[2,2048,4096]{2,1,0} broadcast(%rsqrt.17), dimensions={0,1}, metadata={op_name="jit(train_step)/jvp(TransformerLinenPure.apply)/TransformerLinenPure/decoder/while/body/closed_call/layers/mul" source_file="/opt/maxtext/src/MaxText/layers/normalizations.py" source_line=68 source_end_line=68 source_column=20 source_end_column=20}
  %mul.741 = f32[2,2048,4096]{2,1,0} multiply(%convert_element_type.271, %mul.740), metadata={op_name="jit(train_step)/jvp(TransformerLinenPure.apply)/TransformerLinenPure/decoder/while/body/closed_call/layers/mul" source_file="/opt/maxtext/src/MaxText/layers/normalizations.py" source_line=68 source_end_line=68 source_column=20 source_end_column=20}
  %convert_element_type.272 = bf16[2,2048,4096]{2,1,0} convert(%mul.741), metadata={op_name="jit(train_step)/jvp(TransformerLinenPure.apply)/TransformerLinenPure/decoder/while/body/closed_call/layers/convert_element_type" source_file="/opt/maxtext/src/MaxText/layers/normalizations.py" source_line=68 source_end_line=68 source_column=8 source_end_column=8}
  %dot_general.127 = bf16[2,2048,4096]{2,1,0} multiply(%dot_general.124, %convert_element_type.272), metadata={op_name="jit(train_step)/jvp(TransformerLinenPure.apply)/TransformerLinenPure/decoder/while/body/closed_call/layers/i...k,...k->i...k/dot_general" source_file="/opt/maxtext/src/MaxText/layers/normalizations.py" source_line=81 source_end_line=81 source_column=11 source_end_column=11}
  %sharding_constraint.127 = bf16[2,2048,4096]{2,1,0} copy(%dot_general.127), metadata={op_name="jit(train_step)/jvp(TransformerLinenPure.apply)/TransformerLinenPure/decoder/while/body/closed_call/layers/sharding_constraint" source_file="/opt/maxtext/src/MaxText/sharding.py" source_line=44 source_end_line=44 source_column=11 source_end_column=11}
  %get-tuple-element.204 = f32[32,1024,14336]{2,1,0} get-tuple-element(%param), index=13
  %dynamic-slice.10 = f32[1,1024,14336]{2,1,0} dynamic-slice(%get-tuple-element.204, %get-tuple-element.188, %constant.240, %constant.240), dynamic_slice_sizes={1,1024,14336}, metadata={op_name="jit(train_step)/jvp(TransformerLinenPure.apply)/TransformerLinenPure/decoder/while/body/dynamic_slice" source_file="/opt/flax/flax/core/axes_scan.py" source_line=199 source_end_line=199 source_column=14 source_end_column=14}
  %convert_element_type.273 = bf16[1,1024,14336]{2,1,0} convert(%dynamic-slice.10), metadata={op_name="jit(train_step)/jvp(TransformerLinenPure.apply)/TransformerLinenPure/decoder/while/body/closed_call/layers/convert_element_type" source_file="/opt/maxtext/src/MaxText/layers/linears.py" source_line=227 source_end_line=227 source_column=15 source_end_column=15}
  %convert_element_type.274 = bf16[1024,14336]{1,0} reshape(%convert_element_type.273), metadata={op_name="jit(train_step)/jvp(TransformerLinenPure.apply)/TransformerLinenPure/decoder/while/body/closed_call/layers/convert_element_type" source_file="/opt/maxtext/src/MaxText/layers/linears.py" source_line=227 source_end_line=227 source_column=15 source_end_column=15}
  %all-gather.5 = bf16[4096,14336]{1,0} all-gather(%convert_element_type.274), channel_id=7, replica_groups=[1,4]<=[4], dimensions={0}, use_global_device_ids=true, metadata={op_name="jit(train_step)/jvp(TransformerLinenPure.apply)/TransformerLinenPure/decoder/while/body/closed_call/layers/dot_general" source_file="/opt/maxtext/src/MaxText/layers/linears.py" source_line=99 source_end_line=99 source_column=9 source_end_column=9}
  %dot.9 = bf16[2,2048,14336]{2,1,0} dot(%sharding_constraint.127, %all-gather.5), lhs_contracting_dims={2}, rhs_contracting_dims={0}, metadata={op_name="jit(train_step)/jvp(TransformerLinenPure.apply)/TransformerLinenPure/decoder/while/body/closed_call/layers/dot_general" source_file="/opt/maxtext/src/MaxText/layers/linears.py" source_line=99 source_end_line=99 source_column=9 source_end_column=9}
  %constant.317 = bf16[] constant(1)
  %jit_silu_.6 = bf16[2,2048,14336]{2,1,0} broadcast(%constant.317), dimensions={}, metadata={op_name="jit(train_step)/jvp(TransformerLinenPure.apply)/TransformerLinenPure/decoder/while/body/closed_call/layers/jit(silu)"}
  %neg.28 = bf16[2,2048,14336]{2,1,0} negate(%dot.9), metadata={op_name="jit(train_step)/jvp(TransformerLinenPure.apply)/TransformerLinenPure/decoder/while/body/closed_call/layers/jit(silu)/neg" source_file="/opt/maxtext/src/MaxText/layers/linears.py" source_line=518 source_end_line=518 source_column=12 source_end_column=12}
  %exp.16 = bf16[2,2048,14336]{2,1,0} exponential(%neg.28), metadata={op_name="jit(train_step)/jvp(TransformerLinenPure.apply)/TransformerLinenPure/decoder/while/body/closed_call/layers/jit(silu)/exp" source_file="/opt/maxtext/src/MaxText/layers/linears.py" source_line=518 source_end_line=518 source_column=12 source_end_column=12}
  %add.354 = bf16[2,2048,14336]{2,1,0} add(%exp.16, %jit_silu_.6), metadata={op_name="jit(train_step)/jvp(TransformerLinenPure.apply)/TransformerLinenPure/decoder/while/body/closed_call/layers/jit(silu)/add" source_file="/opt/maxtext/src/MaxText/layers/linears.py" source_line=518 source_end_line=518 source_column=12 source_end_column=12}
  %div.100 = bf16[2,2048,14336]{2,1,0} divide(%jit_silu_.6, %add.354), metadata={op_name="jit(train_step)/jvp(TransformerLinenPure.apply)/TransformerLinenPure/decoder/while/body/closed_call/layers/jit(silu)/div" source_file="/opt/maxtext/src/MaxText/layers/linears.py" source_line=518 source_end_line=518 source_column=12 source_end_column=12}
  %mul.742 = bf16[2,2048,14336]{2,1,0} multiply(%dot.9, %div.100), metadata={op_name="jit(train_step)/jvp(TransformerLinenPure.apply)/TransformerLinenPure/decoder/while/body/closed_call/layers/jit(silu)/mul" source_file="/opt/maxtext/src/MaxText/layers/linears.py" source_line=518 source_end_line=518 source_column=12 source_end_column=12}
  %get-tuple-element.205 = f32[32,1024,14336]{2,1,0} get-tuple-element(%param), index=14
  %dynamic-slice.11 = f32[1,1024,14336]{2,1,0} dynamic-slice(%get-tuple-element.205, %get-tuple-element.188, %constant.240, %constant.240), dynamic_slice_sizes={1,1024,14336}, metadata={op_name="jit(train_step)/jvp(TransformerLinenPure.apply)/TransformerLinenPure/decoder/while/body/dynamic_slice" source_file="/opt/flax/flax/core/axes_scan.py" source_line=199 source_end_line=199 source_column=14 source_end_column=14}
  %convert_element_type.275 = bf16[1,1024,14336]{2,1,0} convert(%dynamic-slice.11), metadata={op_name="jit(train_step)/jvp(TransformerLinenPure.apply)/TransformerLinenPure/decoder/while/body/closed_call/layers/convert_element_type" source_file="/opt/maxtext/src/MaxText/layers/linears.py" source_line=227 source_end_line=227 source_column=15 source_end_column=15}
  %convert_element_type.276 = bf16[1024,14336]{1,0} reshape(%convert_element_type.275), metadata={op_name="jit(train_step)/jvp(TransformerLinenPure.apply)/TransformerLinenPure/decoder/while/body/closed_call/layers/convert_element_type" source_file="/opt/maxtext/src/MaxText/layers/linears.py" source_line=227 source_end_line=227 source_column=15 source_end_column=15}
  %all-gather.6 = bf16[4096,14336]{1,0} all-gather(%convert_element_type.276), channel_id=8, replica_groups=[1,4]<=[4], dimensions={0}, use_global_device_ids=true, metadata={op_name="jit(train_step)/jvp(TransformerLinenPure.apply)/TransformerLinenPure/decoder/while/body/closed_call/layers/dot_general" source_file="/opt/maxtext/src/MaxText/layers/linears.py" source_line=99 source_end_line=99 source_column=9 source_end_column=9}
  %dot.10 = bf16[2,2048,14336]{2,1,0} dot(%sharding_constraint.127, %all-gather.6), lhs_contracting_dims={2}, rhs_contracting_dims={0}, metadata={op_name="jit(train_step)/jvp(TransformerLinenPure.apply)/TransformerLinenPure/decoder/while/body/closed_call/layers/dot_general" source_file="/opt/maxtext/src/MaxText/layers/linears.py" source_line=99 source_end_line=99 source_column=9 source_end_column=9}
  %mul.743 = bf16[2,2048,14336]{2,1,0} multiply(%mul.742, %dot.10), metadata={op_name="jit(train_step)/jvp(TransformerLinenPure.apply)/TransformerLinenPure/decoder/while/body/closed_call/layers/mul" source_file="/opt/maxtext/src/MaxText/layers/linears.py" source_line=522 source_end_line=522 source_column=8 source_end_column=8}
  %sharding_constraint.128 = bf16[2,2048,14336]{2,1,0} copy(%mul.743), metadata={op_name="jit(train_step)/jvp(TransformerLinenPure.apply)/TransformerLinenPure/decoder/while/body/closed_call/layers/sharding_constraint" source_file="/opt/maxtext/src/MaxText/sharding.py" source_line=44 source_end_line=44 source_column=11 source_end_column=11}
  %get-tuple-element.206 = f32[32,14336,1024]{2,1,0} get-tuple-element(%param), index=15
  %dynamic-slice.12 = f32[1,14336,1024]{2,1,0} dynamic-slice(%get-tuple-element.206, %get-tuple-element.188, %constant.240, %constant.240), dynamic_slice_sizes={1,14336,1024}, metadata={op_name="jit(train_step)/jvp(TransformerLinenPure.apply)/TransformerLinenPure/decoder/while/body/dynamic_slice" source_file="/opt/flax/flax/core/axes_scan.py" source_line=199 source_end_line=199 source_column=14 source_end_column=14}
  %convert_element_type.277 = bf16[1,14336,1024]{2,1,0} convert(%dynamic-slice.12), metadata={op_name="jit(train_step)/jvp(TransformerLinenPure.apply)/TransformerLinenPure/decoder/while/body/closed_call/layers/convert_element_type" source_file="/opt/maxtext/src/MaxText/layers/linears.py" source_line=227 source_end_line=227 source_column=15 source_end_column=15}
  %convert_element_type.278 = bf16[14336,1024]{1,0} reshape(%convert_element_type.277), metadata={op_name="jit(train_step)/jvp(TransformerLinenPure.apply)/TransformerLinenPure/decoder/while/body/closed_call/layers/convert_element_type" source_file="/opt/maxtext/src/MaxText/layers/linears.py" source_line=227 source_end_line=227 source_column=15 source_end_column=15}
  %all-gather.7 = bf16[14336,4096]{1,0} all-gather(%convert_element_type.278), channel_id=9, replica_groups=[1,4]<=[4], dimensions={1}, use_global_device_ids=true, metadata={op_name="jit(train_step)/jvp(TransformerLinenPure.apply)/TransformerLinenPure/decoder/while/body/closed_call/layers/dot_general" source_file="/opt/maxtext/src/MaxText/layers/linears.py" source_line=99 source_end_line=99 source_column=9 source_end_column=9}
  %dot.11 = bf16[2,2048,4096]{2,1,0} dot(%sharding_constraint.128, %all-gather.7), lhs_contracting_dims={2}, rhs_contracting_dims={0}, metadata={op_name="jit(train_step)/jvp(TransformerLinenPure.apply)/TransformerLinenPure/decoder/while/body/closed_call/layers/dot_general" source_file="/opt/maxtext/src/MaxText/layers/linears.py" source_line=99 source_end_line=99 source_column=9 source_end_column=9}
  %sharding_constraint.129 = bf16[2,2048,4096]{2,1,0} copy(%dot.11), metadata={op_name="jit(train_step)/jvp(TransformerLinenPure.apply)/TransformerLinenPure/decoder/while/body/closed_call/layers/sharding_constraint" source_file="/opt/maxtext/src/MaxText/sharding.py" source_line=44 source_end_line=44 source_column=11 source_end_column=11}
  %add.355 = bf16[2,2048,4096]{2,1,0} add(%sharding_constraint.129, %add.352), metadata={op_name="jit(train_step)/jvp(TransformerLinenPure.apply)/TransformerLinenPure/decoder/while/body/closed_call/layers/add" source_file="/opt/maxtext/src/MaxText/layers/llama2.py" source_line=193 source_end_line=193 source_column=19 source_end_column=19}
  %sharding_constraint.130 = bf16[2,2048,4096]{2,1,0} copy(%add.355), metadata={op_name="jit(train_step)/jvp(TransformerLinenPure.apply)/TransformerLinenPure/decoder/while/body/closed_call/layers/sharding_constraint" source_file="/opt/maxtext/src/MaxText/sharding.py" source_line=44 source_end_line=44 source_column=11 source_end_column=11}
  %get-tuple-element.207 = bf16[32,2,2048,4096]{3,2,1,0} get-tuple-element(%param), index=2
  %broadcast_in_dim.90 = bf16[1,2,2048,4096]{3,2,1,0} reshape(%sharding_constraint.118), metadata={op_name="jit(train_step)/jvp(TransformerLinenPure.apply)/TransformerLinenPure/decoder/while/body/broadcast_in_dim" source_file="/opt/flax/flax/core/axes_scan.py" source_line=199 source_end_line=199 source_column=14 source_end_column=14}
  %dynamic-update-slice = bf16[32,2,2048,4096]{3,2,1,0} dynamic-update-slice(%get-tuple-element.207, %broadcast_in_dim.90, %get-tuple-element.188, %constant.240, %constant.240, /*index=5*/%constant.240), metadata={op_name="jit(train_step)/jvp(TransformerLinenPure.apply)/TransformerLinenPure/decoder/while/body/dynamic_update_slice" source_file="/opt/flax/flax/core/axes_scan.py" source_line=199 source_end_line=199 source_column=14 source_end_column=14}
  ROOT %tuple.21 = (s32[], bf16[2,2048,4096]{2,1,0}, bf16[32,2,2048,4096]{3,2,1,0}, f32[32,4096]{1,0}, f32[32,4096]{1,0}, /*index=5*/f32[32,1024,32,128]{3,2,1,0}, bf16[2,2048,1,64]{3,2,1,0}, bf16[2,2048,1,64]{3,2,1,0}, f32[32,1024,8,128]{3,2,1,0}, bf16[2,2048,1,64]{3,2,1,0}, /*index=10*/bf16[2,2048,1,64]{3,2,1,0}, f32[32,1024,8,128]{3,2,1,0}, f32[32,32,128,1024]{3,2,1,0}, f32[32,1024,14336]{2,1,0}, f32[32,1024,14336]{2,1,0}, /*index=15*/f32[32,14336,1024]{2,1,0}) tuple(%add.150, %sharding_constraint.130, %dynamic-update-slice, %get-tuple-element.189, %get-tuple-element.191, /*index=5*/%get-tuple-element.192, %get-tuple-element.193, %get-tuple-element.194, %get-tuple-element.195, %get-tuple-element.196, /*index=10*/%get-tuple-element.197, %get-tuple-element.198, %get-tuple-element.203, %get-tuple-element.204, %get-tuple-element.205, /*index=15*/%get-tuple-element.206)
}

%region_4.5_spmd (param.1: (s32[], bf16[2,2048,4096], bf16[32,2,2048,4096], f32[32,4096], f32[32,4096], /*index=5*/f32[32,1024,32,128], bf16[2,2048,1,64], bf16[2,2048,1,64], f32[32,1024,8,128], bf16[2,2048,1,64], /*index=10*/bf16[2,2048,1,64], f32[32,1024,8,128], f32[32,32,128,1024], f32[32,1024,14336], f32[32,1024,14336], /*index=15*/f32[32,14336,1024])) -> pred[] {
  %param.1 = (s32[], bf16[2,2048,4096]{2,1,0}, bf16[32,2,2048,4096]{3,2,1,0}, f32[32,4096]{1,0}, f32[32,4096]{1,0}, /*index=5*/f32[32,1024,32,128]{3,2,1,0}, bf16[2,2048,1,64]{3,2,1,0}, bf16[2,2048,1,64]{3,2,1,0}, f32[32,1024,8,128]{3,2,1,0}, bf16[2,2048,1,64]{3,2,1,0}, /*index=10*/bf16[2,2048,1,64]{3,2,1,0}, f32[32,1024,8,128]{3,2,1,0}, f32[32,32,128,1024]{3,2,1,0}, f32[32,1024,14336]{2,1,0}, f32[32,1024,14336]{2,1,0}, /*index=15*/f32[32,14336,1024]{2,1,0}) parameter(0)
  %get-tuple-element.208 = s32[] get-tuple-element(%param.1), index=0
  %constant.325 = s32[] constant(32)
…
  %mul.958 = f32[1024,32,8,128]{3,2,1,0} multiply(%param.42, %broadcast.279), metadata={op_name="jit(train_step)/mul" source_file="/usr/local/lib/python3.12/dist-packages/optax/tree_utils/_tree_math.py" source_line=392 source_end_line=392 source_column=42 source_end_column=42}
  %add.475 = f32[1024,32,8,128]{3,2,1,0} add(%mul.957, %mul.958), metadata={op_name="jit(train_step)/add" source_file="/usr/local/lib/python3.12/dist-packages/optax/tree_utils/_tree_math.py" source_line=392 source_end_line=392 source_column=10 source_end_column=10}
  %div.344 = f32[1024,32,8,128]{3,2,1,0} divide(%add.475, %div.328), metadata={op_name="jit(train_step)/div" source_file="/usr/local/lib/python3.12/dist-packages/optax/_src/transform.py" source_line=298 source_end_line=298 source_column=13 source_end_column=13}
  %sqrt.42 = f32[1024,32,8,128]{3,2,1,0} sqrt(%div.344), metadata={op_name="jit(train_step)/sqrt" source_file="/usr/local/lib/python3.12/dist-packages/optax/_src/transform.py" source_line=300 source_end_line=300 source_column=49 source_end_column=49}
  %add.476 = f32[1024,32,8,128]{3,2,1,0} add(%sqrt.42, %broadcast.280), metadata={op_name="jit(train_step)/add" source_file="/usr/local/lib/python3.12/dist-packages/optax/_src/transform.py" source_line=300 source_end_line=300 source_column=49 source_end_column=49}
  %multiply.100 = f32[1024,32,8,128]{3,2,1,0} multiply(%div.327, %add.476), metadata={op_name="multiply.41"}
  %div.345 = f32[1024,32,8,128]{3,2,1,0} divide(%add.474, %multiply.100), metadata={op_name="jit(train_step)/div" source_file="/usr/local/lib/python3.12/dist-packages/optax/_src/transform.py" source_line=300 source_end_line=300 source_column=44 source_end_column=44}
  %mul.959 = f32[1024,32,8,128]{3,2,1,0} multiply(%param.15, %broadcast.276), metadata={op_name="jit(train_step)/mul" source_file="/usr/local/lib/python3.12/dist-packages/optax/transforms/_adding.py" source_line=65 source_end_line=65 source_column=48 source_end_column=48}
  %add.477 = f32[1024,32,8,128]{3,2,1,0} add(%div.345, %mul.959), metadata={op_name="jit(train_step)/add" source_file="/usr/local/lib/python3.12/dist-packages/optax/transforms/_adding.py" source_line=65 source_end_line=65 source_column=44 source_end_column=44}
  %mul.960 = f32[1024,32,8,128]{3,2,1,0} multiply(%mul.928, %add.477), metadata={op_name="jit(train_step)/mul" source_file="/usr/local/lib/python3.12/dist-packages/optax/_src/transform.py" source_line=989 source_end_line=989 source_column=18 source_end_column=18}
  %add.478 = f32[1024,32,8,128]{3,2,1,0} add(%param.15, %mul.960), metadata={op_name="jit(train_step)/add" source_file="/usr/local/lib/python3.12/dist-packages/optax/_src/update.py" source_line=43 source_end_line=43 source_column=45 source_end_column=45}
  %mul.961 = f32[1024,128256]{1,0} broadcast(%mul.846), dimensions={}, metadata={op_name="jit(train_step)/mul" source_file="/usr/local/lib/python3.12/dist-packages/optax/_src/transform.py" source_line=989 source_end_line=989 source_column=18 source_end_column=18}
  %select_n.151 = pred[1024,128256]{1,0} broadcast(%lt.87), dimensions={}, metadata={op_name="jit(train_step)/select_n" source_file="/usr/local/lib/python3.12/dist-packages/optax/transforms/_clipping.py" source_line=102 source_end_line=102 source_column=13 source_end_column=13}
  %div.346 = f32[1024,128256]{1,0} broadcast(%sqrt.32), dimensions={}, metadata={op_name="jit(train_step)/div" source_file="/usr/local/lib/python3.12/dist-packages/optax/transforms/_clipping.py" source_line=102 source_end_line=102 source_column=41 source_end_column=41}
  %div.347 = f32[1024,128256]{1,0} divide(%convert_element_type.364, %div.346), metadata={op_name="jit(train_step)/div" source_file="/usr/local/lib/python3.12/dist-packages/optax/transforms/_clipping.py" source_line=102 source_end_line=102 source_column=41 source_end_column=41}
  %select_n.152 = f32[1024,128256]{1,0} select(%select_n.151, %convert_element_type.364, %div.347), metadata={op_name="jit(train_step)/select_n" source_file="/usr/local/lib/python3.12/dist-packages/optax/transforms/_clipping.py" source_line=102 source_end_line=102 source_column=13 source_end_column=13}
  %broadcast.283 = f32[1024,128256]{1,0} broadcast(%constant.644), dimensions={}, metadata={op_name="broadcast.70"}
  %mul.962 = f32[1024,128256]{1,0} multiply(%select_n.152, %broadcast.283), metadata={op_name="jit(train_step)/mul" source_file="/usr/local/lib/python3.12/dist-packages/optax/tree_utils/_tree_math.py" source_line=357 source_end_line=357 source_column=10 source_end_column=10}
  %param.43 = f32[1024,128256]{1,0} parameter(24), sharding={devices=[4,1]<=[4]}, metadata={op_name="state.opt_state[0].mu[\'params\'][\'decoder\'][\'logits_dense\'][\'kernel\']"}
  %mul.963 = f32[1024,128256]{1,0} broadcast(%constant.645), dimensions={}, metadata={op_name="jit(train_step)/mul" source_file="/usr/local/lib/python3.12/dist-packages/optax/tree_utils/_tree_math.py" source_line=357 source_end_line=357 source_column=37 source_end_column=37}
  %mul.964 = f32[1024,128256]{1,0} multiply(%param.43, %mul.963), metadata={op_name="jit(train_step)/mul" source_file="/usr/local/lib/python3.12/dist-packages/optax/tree_utils/_tree_math.py" source_line=357 source_end_line=357 source_column=37 source_end_column=37}
  %add.479 = f32[1024,128256]{1,0} add(%mul.962, %mul.964), metadata={op_name="jit(train_step)/add" source_file="/usr/local/lib/python3.12/dist-packages/optax/tree_utils/_tree_math.py" source_line=357 source_end_line=357 source_column=10 source_end_column=10}
  %div.348 = f32[1024,128256]{1,0} broadcast(%sub.116), dimensions={}, metadata={op_name="jit(train_step)/div" source_file="/usr/local/lib/python3.12/dist-packages/optax/_src/transform.py" source_line=294 source_end_line=294 source_column=15 source_end_column=15}
  %integer_pow.34 = f32[1024,128256]{1,0} multiply(%select_n.152, %select_n.152), metadata={op_name="jit(train_step)/integer_pow" source_file="/usr/local/lib/python3.12/dist-packages/optax/tree_utils/_tree_math.py" source_line=382 source_end_line=382 source_column=13 source_end_column=13}
  %mul.965 = f32[1024,128256]{1,0} broadcast(%constant.647), dimensions={}, metadata={op_name="jit(train_step)/mul" source_file="/usr/local/lib/python3.12/dist-packages/optax/tree_utils/_tree_math.py" source_line=392 source_end_line=392 source_column=10 source_end_column=10}
  %mul.966 = f32[1024,128256]{1,0} multiply(%integer_pow.34, %mul.965), metadata={op_name="jit(train_step)/mul" source_file="/usr/local/lib/python3.12/dist-packages/optax/tree_utils/_tree_math.py" source_line=392 source_end_line=392 source_column=10 source_end_column=10}
  %param.44 = f32[1024,128256]{1,0} parameter(36), sharding={devices=[4,1]<=[4]}, metadata={op_name="state.opt_state[0].nu[\'params\'][\'decoder\'][\'logits_dense\'][\'kernel\']"}
  %mul.967 = f32[1024,128256]{1,0} broadcast(%constant.648), dimensions={}, metadata={op_name="jit(train_step)/mul" source_file="/usr/local/lib/python3.12/dist-packages/optax/tree_utils/_tree_math.py" source_line=392 source_end_line=392 source_column=42 source_end_column=42}
  %mul.968 = f32[1024,128256]{1,0} multiply(%param.44, %mul.967), metadata={op_name="jit(train_step)/mul" source_file="/usr/local/lib/python3.12/dist-packages/optax/tree_utils/_tree_math.py" source_line=392 source_end_line=392 source_column=42 source_end_column=42}
  %add.480 = f32[1024,128256]{1,0} add(%mul.966, %mul.968), metadata={op_name="jit(train_step)/add" source_file="/usr/local/lib/python3.12/dist-packages/optax/tree_utils/_tree_math.py" source_line=392 source_end_line=392 source_column=10 source_end_column=10}
  %div.349 = f32[1024,128256]{1,0} broadcast(%sub.117), dimensions={}, metadata={op_name="jit(train_step)/div" source_file="/usr/local/lib/python3.12/dist-packages/optax/_src/transform.py" source_line=298 source_end_line=298 source_column=13 source_end_column=13}
  %div.350 = f32[1024,128256]{1,0} divide(%add.480, %div.349), metadata={op_name="jit(train_step)/div" source_file="/usr/local/lib/python3.12/dist-packages/optax/_src/transform.py" source_line=298 source_end_line=298 source_column=13 source_end_column=13}
  %sqrt.43 = f32[1024,128256]{1,0} sqrt(%div.350), metadata={op_name="jit(train_step)/sqrt" source_file="/usr/local/lib/python3.12/dist-packages/optax/_src/transform.py" source_line=300 source_end_line=300 source_column=49 source_end_column=49}
  %add.481 = f32[1024,128256]{1,0} broadcast(%constant.607), dimensions={}, metadata={op_name="jit(train_step)/add" source_file="/usr/local/lib/python3.12/dist-packages/optax/_src/transform.py" source_line=300 source_end_line=300 source_column=49 source_end_column=49}
  %add.482 = f32[1024,128256]{1,0} add(%sqrt.43, %add.481), metadata={op_name="jit(train_step)/add" source_file="/usr/local/lib/python3.12/dist-packages/optax/_src/transform.py" source_line=300 source_end_line=300 source_column=49 source_end_column=49}
  %multiply.101 = f32[1024,128256]{1,0} multiply(%div.348, %add.482), metadata={op_name="multiply.42"}
  %div.351 = f32[1024,128256]{1,0} divide(%add.479, %multiply.101), metadata={op_name="jit(train_step)/div" source_file="/usr/local/lib/python3.12/dist-packages/optax/_src/transform.py" source_line=300 source_end_line=300 source_column=44 source_end_column=44}
  %mul.969 = f32[1024,128256]{1,0} multiply(%param.20, %broadcast.283), metadata={op_name="jit(train_step)/mul" source_file="/usr/local/lib/python3.12/dist-packages/optax/transforms/_adding.py" source_line=65 source_end_line=65 source_column=48 source_end_column=48}
  %add.483 = f32[1024,128256]{1,0} add(%div.351, %mul.969), metadata={op_name="jit(train_step)/add" source_file="/usr/local/lib/python3.12/dist-packages/optax/transforms/_adding.py" source_line=65 source_end_line=65 source_column=44 source_end_column=44}
  %mul.970 = f32[1024,128256]{1,0} multiply(%mul.961, %add.483), metadata={op_name="jit(train_step)/mul" source_file="/usr/local/lib/python3.12/dist-packages/optax/_src/transform.py" source_line=989 source_end_line=989 source_column=18 source_end_column=18}
  %add.484 = f32[1024,128256]{1,0} add(%param.20, %mul.970), metadata={op_name="jit(train_step)/add" source_file="/usr/local/lib/python3.12/dist-packages/optax/_src/update.py" source_line=43 source_end_line=43 source_column=45 source_end_column=45}
  %mul.971 = f32[128256,1024]{1,0} broadcast(%mul.846), dimensions={}, metadata={op_name="jit(train_step)/mul" source_file="/usr/local/lib/python3.12/dist-packages/optax/_src/transform.py" source_line=989 source_end_line=989 source_column=18 source_end_column=18}
  %select_n.153 = pred[128256,1024]{1,0} broadcast(%lt.87), dimensions={}, metadata={op_name="jit(train_step)/select_n" source_file="/usr/local/lib/python3.12/dist-packages/optax/transforms/_clipping.py" source_line=102 source_end_line=102 source_column=13 source_end_column=13}
  %div.352 = f32[128256,1024]{1,0} broadcast(%sqrt.32), dimensions={}, metadata={op_name="jit(train_step)/div" source_file="/usr/local/lib/python3.12/dist-packages/optax/transforms/_clipping.py" source_line=102 source_end_line=102 source_column=41 source_end_column=41}
  %div.353 = f32[128256,1024]{1,0} divide(%convert_element_type.365, %div.352), metadata={op_name="jit(train_step)/div" source_file="/usr/local/lib/python3.12/dist-packages/optax/transforms/_clipping.py" source_line=102 source_end_line=102 source_column=41 source_end_column=41}
  %select_n.154 = f32[128256,1024]{1,0} select(%select_n.153, %convert_element_type.365, %div.353), metadata={op_name="jit(train_step)/select_n" source_file="/usr/local/lib/python3.12/dist-packages/optax/transforms/_clipping.py" source_line=102 source_end_line=102 source_column=13 source_end_column=13}
  %broadcast.284 = f32[128256,1024]{1,0} broadcast(%constant.644), dimensions={}, metadata={op_name="broadcast.69"}
  %mul.972 = f32[128256,1024]{1,0} multiply(%select_n.154, %broadcast.284), metadata={op_name="jit(train_step)/mul" source_file="/usr/local/lib/python3.12/dist-packages/optax/tree_utils/_tree_math.py" source_line=357 source_end_line=357 source_column=10 source_end_column=10}
  %param.45 = f32[128256,1024]{1,0} parameter(25), sharding={devices=[1,4]<=[4]}, metadata={op_name="state.opt_state[0].mu[\'params\'][\'token_embedder\'][\'embedding\']"}
  %mul.973 = f32[128256,1024]{1,0} broadcast(%constant.645), dimensions={}, metadata={op_name="jit(train_step)/mul" source_file="/usr/local/lib/python3.12/dist-packages/optax/tree_utils/_tree_math.py" source_line=357 source_end_line=357 source_column=37 source_end_column=37}
  %mul.974 = f32[128256,1024]{1,0} multiply(%param.45, %mul.973), metadata={op_name="jit(train_step)/mul" source_file="/usr/local/lib/python3.12/dist-packages/optax/tree_utils/_tree_math.py" source_line=357 source_end_line=357 source_column=37 source_end_column=37}
  %add.485 = f32[128256,1024]{1,0} add(%mul.972, %mul.974), metadata={op_name="jit(train_step)/add" source_file="/usr/local/lib/python3.12/dist-packages/optax/tree_utils/_tree_math.py" source_line=357 source_end_line=357 source_column=10 source_end_column=10}
  %div.354 = f32[128256,1024]{1,0} broadcast(%sub.116), dimensions={}, metadata={op_name="jit(train_step)/div" source_file="/usr/local/lib/python3.12/dist-packages/optax/_src/transform.py" source_line=294 source_end_line=294 source_column=15 source_end_column=15}
  %integer_pow.35 = f32[128256,1024]{1,0} multiply(%select_n.154, %select_n.154), metadata={op_name="jit(train_step)/integer_pow" source_file="/usr/local/lib/python3.12/dist-packages/optax/tree_utils/_tree_math.py" source_line=382 source_end_line=382 source_column=13 source_end_column=13}
  %mul.975 = f32[128256,1024]{1,0} broadcast(%constant.647), dimensions={}, metadata={op_name="jit(train_step)/mul" source_file="/usr/local/lib/python3.12/dist-packages/optax/tree_utils/_tree_math.py" source_line=392 source_end_line=392 source_column=10 source_end_column=10}
  %mul.976 = f32[128256,1024]{1,0} multiply(%integer_pow.35, %mul.975), metadata={op_name="jit(train_step)/mul" source_file="/usr/local/lib/python3.12/dist-packages/optax/tree_utils/_tree_math.py" source_line=392 source_end_line=392 source_column=10 source_end_column=10}
  %param.46 = f32[128256,1024]{1,0} parameter(37), sharding={devices=[1,4]<=[4]}, metadata={op_name="state.opt_state[0].nu[\'params\'][\'token_embedder\'][\'embedding\']"}
  %mul.977 = f32[128256,1024]{1,0} broadcast(%constant.648), dimensions={}, metadata={op_name="jit(train_step)/mul" source_file="/usr/local/lib/python3.12/dist-packages/optax/tree_utils/_tree_math.py" source_line=392 source_end_line=392 source_column=42 source_end_column=42}
  %mul.978 = f32[128256,1024]{1,0} multiply(%param.46, %mul.977), metadata={op_name="jit(train_step)/mul" source_file="/usr/local/lib/python3.12/dist-packages/optax/tree_utils/_tree_math.py" source_line=392 source_end_line=392 source_column=42 source_end_column=42}
  %add.486 = f32[128256,1024]{1,0} add(%mul.976, %mul.978), metadata={op_name="jit(train_step)/add" source_file="/usr/local/lib/python3.12/dist-packages/optax/tree_utils/_tree_math.py" source_line=392 source_end_line=392 source_column=10 source_end_column=10}
  %div.355 = f32[128256,1024]{1,0} broadcast(%sub.117), dimensions={}, metadata={op_name="jit(train_step)/div" source_file="/usr/local/lib/python3.12/dist-packages/optax/_src/transform.py" source_line=298 source_end_line=298 source_column=13 source_end_column=13}
  %div.356 = f32[128256,1024]{1,0} divide(%add.486, %div.355), metadata={op_name="jit(train_step)/div" source_file="/usr/local/lib/python3.12/dist-packages/optax/_src/transform.py" source_line=298 source_end_line=298 source_column=13 source_end_column=13}
  %sqrt.44 = f32[128256,1024]{1,0} sqrt(%div.356), metadata={op_name="jit(train_step)/sqrt" source_file="/usr/local/lib/python3.12/dist-packages/optax/_src/transform.py" source_line=300 source_end_line=300 source_column=49 source_end_column=49}
  %add.487 = f32[128256,1024]{1,0} broadcast(%constant.607), dimensions={}, metadata={op_name="jit(train_step)/add" source_file="/usr/local/lib/python3.12/dist-packages/optax/_src/transform.py" source_line=300 source_end_line=300 source_column=49 source_end_column=49}
  %add.488 = f32[128256,1024]{1,0} add(%sqrt.44, %add.487), metadata={op_name="jit(train_step)/add" source_file="/usr/local/lib/python3.12/dist-packages/optax/_src/transform.py" source_line=300 source_end_line=300 source_column=49 source_end_column=49}
  %multiply.102 = f32[128256,1024]{1,0} multiply(%div.354, %add.488), metadata={op_name="multiply.43"}
  %div.357 = f32[128256,1024]{1,0} divide(%add.485, %multiply.102), metadata={op_name="jit(train_step)/div" source_file="/usr/local/lib/python3.12/dist-packages/optax/_src/transform.py" source_line=300 source_end_line=300 source_column=44 source_end_column=44}
  %mul.979 = f32[128256,1024]{1,0} multiply(%param.9, %broadcast.284), metadata={op_name="jit(train_step)/mul" source_file="/usr/local/lib/python3.12/dist-packages/optax/transforms/_adding.py" source_line=65 source_end_line=65 source_column=48 source_end_column=48}
  %add.489 = f32[128256,1024]{1,0} add(%div.357, %mul.979), metadata={op_name="jit(train_step)/add" source_file="/usr/local/lib/python3.12/dist-packages/optax/transforms/_adding.py" source_line=65 source_end_line=65 source_column=44 source_end_column=44}
  %mul.980 = f32[128256,1024]{1,0} multiply(%mul.971, %add.489), metadata={op_name="jit(train_step)/mul" source_file="/usr/local/lib/python3.12/dist-packages/optax/_src/transform.py" source_line=989 source_end_line=989 source_column=18 source_end_column=18}
  %add.490 = f32[128256,1024]{1,0} add(%param.9, %mul.980), metadata={op_name="jit(train_step)/add" source_file="/usr/local/lib/python3.12/dist-packages/optax/_src/update.py" source_line=43 source_end_line=43 source_column=45 source_end_column=45}
  %lt.89 = pred[] compare(%param.6, %constant.646), direction=LT, metadata={op_name="jit(train_step)/lt" source_file="/usr/local/lib/python3.12/dist-packages/optax/_src/numerics.py" source_line=142 source_end_line=142 source_column=19 source_end_column=19}
  %add.491 = s32[] add(%param.6, %constant.590), metadata={op_name="jit(train_step)/add" source_file="/usr/local/lib/python3.12/dist-packages/optax/_src/numerics.py" source_line=142 source_end_line=142 source_column=38 source_end_column=38}
  %select_n.155 = s32[] select(%lt.89, %add.491, %constant.646), metadata={op_name="jit(train_step)/jit(_where)/select_n" source_file="/usr/local/lib/python3.12/dist-packages/optax/_src/numerics.py" source_line=142 source_end_line=142 source_column=9 source_end_column=9}
  %reduce.23 = f32[] reduce(%integer_pow.24, %constant.608), dimensions={0}, to_apply=%region_27.28, metadata={op_name="jit(train_step)/reduce_sum" source_file="/opt/maxtext/src/MaxText/max_utils.py" source_line=69 source_end_line=69 source_column=61 source_end_column=61}
  %reduce.24 = f32[] reduce(%integer_pow.25, %constant.608), dimensions={0,1,2}, to_apply=%region_28.29, metadata={op_name="jit(train_step)/reduce_sum" source_file="/opt/maxtext/src/MaxText/max_utils.py" source_line=69 source_end_line=69 source_column=61 source_end_column=61}
  %all-reduce.22 = f32[] all-reduce(%reduce.24), channel_id=44, replica_groups=[1,4]<=[4], use_global_device_ids=true, to_apply=%region_28.29.clone, metadata={op_name="jit(train_step)/reduce_sum" source_file="/opt/maxtext/src/MaxText/max_utils.py" source_line=69 source_end_line=69 source_column=61 source_end_column=61}
  %add.492 = f32[] add(%reduce.23, %all-reduce.22), metadata={op_name="jit(train_step)/add" source_file="/opt/maxtext/src/MaxText/max_utils.py" source_line=69 source_end_line=69 source_column=57 source_end_column=57}
  %reduce.25 = f32[] reduce(%integer_pow.26, %constant.608), dimensions={0,1,2}, to_apply=%region_29.30, metadata={op_name="jit(train_step)/reduce_sum" source_file="/opt/maxtext/src/MaxText/max_utils.py" source_line=69 source_end_line=69 source_column=61 source_end_column=61}
  %all-reduce.23 = f32[] all-reduce(%reduce.25), channel_id=45, replica_groups=[1,4]<=[4], use_global_device_ids=true, to_apply=%region_29.30.clone, metadata={op_name="jit(train_step)/reduce_sum" source_file="/opt/maxtext/src/MaxText/max_utils.py" source_line=69 source_end_line=69 source_column=61 source_end_column=61}
  %add.493 = f32[] add(%add.492, %all-reduce.23), metadata={op_name="jit(train_step)/add" source_file="/opt/maxtext/src/MaxText/max_utils.py" source_line=69 source_end_line=69 source_column=57 source_end_column=57}
  %reduce.26 = f32[] reduce(%integer_pow.27, %constant.608), dimensions={0,1,2}, to_apply=%region_30.31, metadata={op_name="jit(train_step)/reduce_sum" source_file="/opt/maxtext/src/MaxText/max_utils.py" source_line=69 source_end_line=69 source_column=61 source_end_column=61}
  %all-reduce.24 = f32[] all-reduce(%reduce.26), channel_id=46, replica_groups=[1,4]<=[4], use_global_device_ids=true, to_apply=%region_30.31.clone, metadata={op_name="jit(train_step)/reduce_sum" source_file="/opt/maxtext/src/MaxText/max_utils.py" source_line=69 source_end_line=69 source_column=61 source_end_column=61}
  %add.494 = f32[] add(%add.493, %all-reduce.24), metadata={op_name="jit(train_step)/add" source_file="/opt/maxtext/src/MaxText/max_utils.py" source_line=69 source_end_line=69 source_column=57 source_end_column=57}
  %reduce.27 = f32[] reduce(%integer_pow.28, %constant.608), dimensions={0,1}, to_apply=%region_31.32, metadata={op_name="jit(train_step)/reduce_sum" source_file="/opt/maxtext/src/MaxText/max_utils.py" source_line=69 source_end_line=69 source_column=61 source_end_column=61}
  %add.495 = f32[] add(%add.494, %reduce.27), metadata={op_name="jit(train_step)/add" source_file="/opt/maxtext/src/MaxText/max_utils.py" source_line=69 source_end_line=69 source_column=57 source_end_column=57}
  %reduce.28 = f32[] reduce(%integer_pow.29, %constant.608), dimensions={0,1}, to_apply=%region_32.33, metadata={op_name="jit(train_step)/reduce_sum" source_file="/opt/maxtext/src/MaxText/max_utils.py" source_line=69 source_end_line=69 source_column=61 source_end_column=61}
  %add.496 = f32[] add(%add.495, %reduce.28), metadata={op_name="jit(train_step)/add" source_file="/opt/maxtext/src/MaxText/max_utils.py" source_line=69 source_end_line=69 source_column=57 source_end_column=57}
  %reduce.29 = f32[] reduce(%integer_pow.30, %constant.608), dimensions={0,1,2,3}, to_apply=%region_33.34, metadata={op_name="jit(train_step)/reduce_sum" source_file="/opt/maxtext/src/MaxText/max_utils.py" source_line=69 source_end_line=69 source_column=61 source_end_column=61}
  %all-reduce.25 = f32[] all-reduce(%reduce.29), channel_id=47, replica_groups=[1,4]<=[4], use_global_device_ids=true, to_apply=%region_33.34.clone, metadata={op_name="jit(train_step)/reduce_sum" source_file="/opt/maxtext/src/MaxText/max_utils.py" source_line=69 source_end_line=69 source_column=61 source_end_column=61}
  %add.497 = f32[] add(%add.496, %all-reduce.25), metadata={op_name="jit(train_step)/add" source_file="/opt/maxtext/src/MaxText/max_utils.py" source_line=69 source_end_line=69 source_column=57 source_end_column=57}
  %reduce.30 = f32[] reduce(%integer_pow.31, %constant.608), dimensions={0,1,2,3}, to_apply=%region_34.35, metadata={op_name="jit(train_step)/reduce_sum" source_file="/opt/maxtext/src/MaxText/max_utils.py" source_line=69 source_end_line=69 source_column=61 source_end_column=61}
  %all-reduce.26 = f32[] all-reduce(%reduce.30), channel_id=48, replica_groups=[1,4]<=[4], use_global_device_ids=true, to_apply=%region_34.35.clone, metadata={op_name="jit(train_step)/reduce_sum" source_file="/opt/maxtext/src/MaxText/max_utils.py" source_line=69 source_end_line=69 source_column=61 source_end_column=61}
  %add.498 = f32[] add(%add.497, %all-reduce.26), metadata={op_name="jit(train_step)/add" source_file="/opt/maxtext/src/MaxText/max_utils.py" source_line=69 source_end_line=69 source_column=57 source_end_column=57}
  %reduce.31 = f32[] reduce(%integer_pow.32, %constant.608), dimensions={0,1,2,3}, to_apply=%region_35.36, metadata={op_name="jit(train_step)/reduce_sum" source_file="/opt/maxtext/src/MaxText/max_utils.py" source_line=69 source_end_line=69 source_column=61 source_end_column=61}
  %all-reduce.27 = f32[] all-reduce(%reduce.31), channel_id=49, replica_groups=[1,4]<=[4], use_global_device_ids=true, to_apply=%region_35.36.clone, metadata={op_name="jit(train_step)/reduce_sum" source_file="/opt/maxtext/src/MaxText/max_utils.py" source_line=69 source_end_line=69 source_column=61 source_end_column=61}
  %add.499 = f32[] add(%add.498, %all-reduce.27), metadata={op_name="jit(train_step)/add" source_file="/opt/maxtext/src/MaxText/max_utils.py" source_line=69 source_end_line=69 source_column=57 source_end_column=57}
  %reduce.32 = f32[] reduce(%integer_pow.33, %constant.608), dimensions={0,1,2,3}, to_apply=%region_36.37, metadata={op_name="jit(train_step)/reduce_sum" source_file="/opt/maxtext/src/MaxText/max_utils.py" source_line=69 source_end_line=69 source_column=61 source_end_column=61}
  %all-reduce.28 = f32[] all-reduce(%reduce.32), channel_id=50, replica_groups=[1,4]<=[4], use_global_device_ids=true, to_apply=%region_36.37.clone, metadata={op_name="jit(train_step)/reduce_sum" source_file="/opt/maxtext/src/MaxText/max_utils.py" source_line=69 source_end_line=69 source_column=61 source_end_column=61}
  %add.500 = f32[] add(%add.499, %all-reduce.28), metadata={op_name="jit(train_step)/add" source_file="/opt/maxtext/src/MaxText/max_utils.py" source_line=69 source_end_line=69 source_column=57 source_end_column=57}
  %reduce.33 = f32[] reduce(%integer_pow.34, %constant.608), dimensions={0,1}, to_apply=%region_37.38, metadata={op_name="jit(train_step)/reduce_sum" source_file="/opt/maxtext/src/MaxText/max_utils.py" source_line=69 source_end_line=69 source_column=61 source_end_column=61}
  %all-reduce.29 = f32[] all-reduce(%reduce.33), channel_id=51, replica_groups=[1,4]<=[4], use_global_device_ids=true, to_apply=%region_37.38.clone, metadata={op_name="jit(train_step)/reduce_sum" source_file="/opt/maxtext/src/MaxText/max_utils.py" source_line=69 source_end_line=69 source_column=61 source_end_column=61}
  %add.501 = f32[] add(%add.500, %all-reduce.29), metadata={op_name="jit(train_step)/add" source_file="/opt/maxtext/src/MaxText/max_utils.py" source_line=69 source_end_line=69 source_column=57 source_end_column=57}
  %reduce.34 = f32[] reduce(%integer_pow.35, %constant.608), dimensions={0,1}, to_apply=%region_38.39, metadata={op_name="jit(train_step)/reduce_sum" source_file="/opt/maxtext/src/MaxText/max_utils.py" source_line=69 source_end_line=69 source_column=61 source_end_column=61}
  %all-reduce.30 = f32[] all-reduce(%reduce.34), channel_id=52, replica_groups=[1,4]<=[4], use_global_device_ids=true, to_apply=%region_38.39.clone, metadata={op_name="jit(train_step)/reduce_sum" source_file="/opt/maxtext/src/MaxText/max_utils.py" source_line=69 source_end_line=69 source_column=61 source_end_column=61}
  %add.502 = f32[] add(%add.501, %all-reduce.30), metadata={op_name="jit(train_step)/add" source_file="/opt/maxtext/src/MaxText/max_utils.py" source_line=69 source_end_line=69 source_column=57 source_end_column=57}
  %sqrt.45 = f32[] sqrt(%add.502), metadata={op_name="jit(train_step)/sqrt" source_file="/opt/maxtext/src/MaxText/max_utils.py" source_line=69 source_end_line=69 source_column=9 source_end_column=9}
  %sub.118 = f32[2,2048,128256]{2,1,0} broadcast(%log.6), dimensions={0,1}, metadata={op_name="jit(train_step)/jvp()/sub" source_file="/opt/maxtext/src/MaxText/max_utils.py" source_line=556 source_end_line=556 source_column=16 source_end_column=16}
  %sub.119 = f32[2,2048,128256]{2,1,0} subtract(%sub.114, %sub.118), metadata={op_name="jit(train_step)/jvp()/sub" source_file="/opt/maxtext/src/MaxText/max_utils.py" source_line=556 source_end_line=556 source_column=16 source_end_column=16}
  %broadcast.285 = f32[2,2048,128256]{2,1,0} broadcast(%constant.608), dimensions={}, metadata={op_name="broadcast.95"}
  %mul.981 = f32[2,2048,128256]{2,1,0} select(%eq.30, %sub.119, %broadcast.285), metadata={op_name="jit(train_step)/jvp()/mul" source_file="/opt/maxtext/src/MaxText/max_utils.py" source_line=557 source_end_line=557 source_column=18 source_end_column=18}
  %reduce.35 = f32[2,2048]{1,0} reduce(%mul.981, %constant.608), dimensions={2}, to_apply=%region_39.40, metadata={op_name="jit(train_step)/jvp()/reduce_sum" source_file="/opt/maxtext/src/MaxText/max_utils.py" source_line=557 source_end_line=557 source_column=10 source_end_column=10}
  %neg.44 = f32[2,2048]{1,0} negate(%reduce.35), metadata={op_name="jit(train_step)/jvp()/neg" source_file="/opt/maxtext/src/MaxText/max_utils.py" source_line=557 source_end_line=557 source_column=9 source_end_column=9}
  %square.107 = f32[2,2048]{1,0} multiply(%add.410, %add.410), metadata={op_name="jit(train_step)/jvp()/square" source_file="/opt/maxtext/src/MaxText/max_utils.py" source_line=560 source_end_line=560 source_column=26 source_end_column=26}
  %mul.982 = f32[2,2048]{1,0} multiply(%square.107, %broadcast.260), metadata={op_name="jit(train_step)/jvp()/mul" source_file="/opt/maxtext/src/MaxText/max_utils.py" source_line=560 source_end_line=560 source_column=17 source_end_column=17}
  %add.503 = f32[2,2048]{1,0} add(%neg.44, %mul.982), metadata={op_name="jit(train_step)/jvp()/add" source_file="/opt/maxtext/src/MaxText/max_utils.py" source_line=561 source_end_line=561 source_column=2 source_end_column=2}
  %all-gather.18 = f32[2,8192]{1,0} all-gather(%add.503), channel_id=53, replica_groups=[1,4]<=[4], dimensions={1}, use_global_device_ids=true, metadata={op_name="jit(train_step)/jvp()/add" source_file="/opt/maxtext/src/MaxText/max_utils.py" source_line=561 source_end_line=561 source_column=2 source_end_column=2}
  %sharding_constraint.157 = f32[2,8192]{1,0} copy(%all-gather.18), metadata={op_name="jit(train_step)/jvp()/sharding_constraint" source_file="/opt/maxtext/src/MaxText/sharding.py" source_line=44 source_end_line=44 source_column=11 source_end_column=11}
  %dynamic-slice.56 = f32[2,2048]{1,0} dynamic-slice(%sharding_constraint.157, %constant.593, %reshape.327), dynamic_slice_sizes={2,2048}, metadata={op_name="jit(train_step)/jvp()/mul" source_file="/opt/maxtext/src/MaxText/train.py" source_line=152 source_end_line=152 source_column=13 source_end_column=13}
  %mul.983 = f32[2,2048]{1,0} select(%ne.10, %dynamic-slice.56, %broadcast.260), metadata={op_name="jit(train_step)/jvp()/mul" source_file="/opt/maxtext/src/MaxText/train.py" source_line=152 source_end_line=152 source_column=13 source_end_column=13}
  %reduce.36 = f32[] reduce(%mul.983, %constant.608), dimensions={0,1}, to_apply=%region_40.41, metadata={op_name="jit(train_step)/jvp()/reduce_sum" source_file="/opt/maxtext/src/MaxText/train.py" source_line=153 source_end_line=153 source_column=19 source_end_column=19}
  %all-reduce.31 = f32[] all-reduce(%reduce.36), channel_id=54, replica_groups=[1,4]<=[4], use_global_device_ids=true, to_apply=%region_40.41.clone, metadata={op_name="jit(train_step)/jvp()/reduce_sum" source_file="/opt/maxtext/src/MaxText/train.py" source_line=153 source_end_line=153 source_column=19 source_end_column=19}
  %div.358 = f32[] divide(%all-reduce.31, %add.406), metadata={op_name="jit(train_step)/jvp()/div" source_file="/opt/maxtext/src/MaxText/train.py" source_line=186 source_end_line=186 source_column=11 source_end_column=11}
  %square.108 = f32[4096]{0} multiply(%add.430, %add.430), metadata={op_name="jit(train_step)/square" source_file="/opt/maxtext/src/MaxText/max_utils.py" source_line=69 source_end_line=69 source_column=69 source_end_column=69}
  %reduce.37 = f32[] reduce(%square.108, %constant.608), dimensions={0}, to_apply=%region_41.42, metadata={op_name="jit(train_step)/reduce_sum" source_file="/opt/maxtext/src/MaxText/max_utils.py" source_line=69 source_end_line=69 source_column=61 source_end_column=61}
  %square.109 = f32[1024,32,14336]{2,1,0} multiply(%add.435, %add.435), metadata={op_name="jit(train_step)/square" source_file="/opt/maxtext/src/MaxText/max_utils.py" source_line=69 source_end_line=69 source_column=69 source_end_column=69}
  %reduce.38 = f32[] reduce(%square.109, %constant.608), dimensions={0,1,2}, to_apply=%region_42.43, metadata={op_name="jit(train_step)/reduce_sum" source_file="/opt/maxtext/src/MaxText/max_utils.py" source_line=69 source_end_line=69 source_column=61 source_end_column=61}
  %all-reduce.32 = f32[] all-reduce(%reduce.38), channel_id=55, replica_groups=[1,4]<=[4], use_global_device_ids=true, to_apply=%region_42.43.clone, metadata={op_name="jit(train_step)/reduce_sum" source_file="/opt/maxtext/src/MaxText/max_utils.py" source_line=69 source_end_line=69 source_column=61 source_end_column=61}
  %add.504 = f32[] add(%reduce.37, %all-reduce.32), metadata={op_name="jit(train_step)/add" source_file="/opt/maxtext/src/MaxText/max_utils.py" source_line=69 source_end_line=69 source_column=57 source_end_column=57}
  %square.110 = f32[1024,32,14336]{2,1,0} multiply(%add.440, %add.440), metadata={op_name="jit(train_step)/square" source_file="/opt/maxtext/src/MaxText/max_utils.py" source_line=69 source_end_line=69 source_column=69 source_end_column=69}
  %reduce.39 = f32[] reduce(%square.110, %constant.608), dimensions={0,1,2}, to_apply=%region_43.44, metadata={op_name="jit(train_step)/reduce_sum" source_file="/opt/maxtext/src/MaxText/max_utils.py" source_line=69 source_end_line=69 source_column=61 source_end_column=61}
  %all-reduce.33 = f32[] all-reduce(%reduce.39), channel_id=56, replica_groups=[1,4]<=[4], use_global_device_ids=true, to_apply=%region_43.44.clone, metadata={op_name="jit(train_step)/reduce_sum" source_file="/opt/maxtext/src/MaxText/max_utils.py" source_line=69 source_end_line=69 source_column=61 source_end_column=61}
  %add.505 = f32[] add(%add.504, %all-reduce.33), metadata={op_name="jit(train_step)/add" source_file="/opt/maxtext/src/MaxText/max_utils.py" source_line=69 source_end_line=69 source_column=57 source_end_column=57}
  %square.111 = f32[14336,32,1024]{2,1,0} multiply(%add.446, %add.446), metadata={op_name="jit(train_step)/square" source_file="/opt/maxtext/src/MaxText/max_utils.py" source_line=69 source_end_line=69 source_column=69 source_end_column=69}
  %reduce.40 = f32[] reduce(%square.111, %constant.608), dimensions={0,1,2}, to_apply=%region_44.45, metadata={op_name="jit(train_step)/reduce_sum" source_file="/opt/maxtext/src/MaxText/max_utils.py" source_line=69 source_end_line=69 source_column=61 source_end_column=61}
  %all-reduce.34 = f32[] all-reduce(%reduce.40), channel_id=57, replica_groups=[1,4]<=[4], use_global_device_ids=true, to_apply=%region_44.45.clone, metadata={op_name="jit(train_step)/reduce_sum" source_file="/opt/maxtext/src/MaxText/max_utils.py" source_line=69 source_end_line=69 source_column=61 source_end_column=61}
  %add.506 = f32[] add(%add.505, %all-reduce.34), metadata={op_name="jit(train_step)/add" source_file="/opt/maxtext/src/MaxText/max_utils.py" source_line=69 source_end_line=69 source_column=57 source_end_column=57}
  %square.112 = f32[4096,32]{1,0} multiply(%add.451, %add.451), metadata={op_name="jit(train_step)/square" source_file="/opt/maxtext/src/MaxText/max_utils.py" source_line=69 source_end_line=69 source_column=69 source_end_column=69}
  %reduce.41 = f32[] reduce(%square.112, %constant.608), dimensions={0,1}, to_apply=%region_45.46, metadata={op_name="jit(train_step)/reduce_sum" source_file="/opt/maxtext/src/MaxText/max_utils.py" source_line=69 source_end_line=69 source_column=61 source_end_column=61}
  %add.507 = f32[] add(%add.506, %reduce.41), metadata={op_name="jit(train_step)/add" source_file="/opt/maxtext/src/MaxText/max_utils.py" source_line=69 source_end_line=69 source_column=57 source_end_column=57}
  %square.113 = f32[4096,32]{1,0} multiply(%add.456, %add.456), metadata={op_name="jit(train_step)/square" source_file="/opt/maxtext/src/MaxText/max_utils.py" source_line=69 source_end_line=69 source_column=69 source_end_column=69}
  %reduce.42 = f32[] reduce(%square.113, %constant.608), dimensions={0,1}, to_apply=%region_46.47, metadata={op_name="jit(train_step)/reduce_sum" source_file="/opt/maxtext/src/MaxText/max_utils.py" source_line=69 source_end_line=69 source_column=61 source_end_column=61}
  %add.508 = f32[] add(%add.507, %reduce.42), metadata={op_name="jit(train_step)/add" source_file="/opt/maxtext/src/MaxText/max_utils.py" source_line=69 source_end_line=69 source_column=57 source_end_column=57}
  %square.114 = f32[1024,32,8,128]{3,2,1,0} multiply(%add.461, %add.461), metadata={op_name="jit(train_step)/square" source_file="/opt/maxtext/src/MaxText/max_utils.py" source_line=69 source_end_line=69 source_column=69 source_end_column=69}
  %reduce.43 = f32[] reduce(%square.114, %constant.608), dimensions={0,1,2,3}, to_apply=%region_47.48, metadata={op_name="jit(train_step)/reduce_sum" source_file="/opt/maxtext/src/MaxText/max_utils.py" source_line=69 source_end_line=69 source_column=61 source_end_column=61}
  %all-reduce.35 = f32[] all-reduce(%reduce.43), channel_id=58, replica_groups=[1,4]<=[4], use_global_device_ids=true, to_apply=%region_47.48.clone, metadata={op_name="jit(train_step)/reduce_sum" source_file="/opt/maxtext/src/MaxText/max_utils.py" source_line=69 source_end_line=69 source_column=61 source_end_column=61}
  %add.509 = f32[] add(%add.508, %all-reduce.35), metadata={op_name="jit(train_step)/add" source_file="/opt/maxtext/src/MaxText/max_utils.py" source_line=69 source_end_line=69 source_column=57 source_end_column=57}
  %square.115 = f32[32,32,128,1024]{3,2,1,0} multiply(%add.467, %add.467), metadata={op_name="jit(train_step)/square" source_file="/opt/maxtext/src/MaxText/max_utils.py" source_line=69 source_end_line=69 source_column=69 source_end_column=69}
  %reduce.44 = f32[] reduce(%square.115, %constant.608), dimensions={0,1,2,3}, to_apply=%region_48.49, metadata={op_name="jit(train_step)/reduce_sum" source_file="/opt/maxtext/src/MaxText/max_utils.py" source_line=69 source_end_line=69 source_column=61 source_end_column=61}
  %all-reduce.36 = f32[] all-reduce(%reduce.44), channel_id=59, replica_groups=[1,4]<=[4], use_global_device_ids=true, to_apply=%region_48.49.clone, metadata={op_name="jit(train_step)/reduce_sum" source_file="/opt/maxtext/src/MaxText/max_utils.py" source_line=69 source_end_line=69 source_column=61 source_end_column=61}
  %add.510 = f32[] add(%add.509, %all-reduce.36), metadata={op_name="jit(train_step)/add" source_file="/opt/maxtext/src/MaxText/max_utils.py" source_line=69 source_end_line=69 source_column=57 source_end_column=57}
  %square.116 = f32[1024,32,32,128]{3,2,1,0} multiply(%add.473, %add.473), metadata={op_name="jit(train_step)/square" source_file="/opt/maxtext/src/MaxText/max_utils.py" source_line=69 source_end_line=69 source_column=69 source_end_column=69}
  %reduce.45 = f32[] reduce(%square.116, %constant.608), dimensions={0,1,2,3}, to_apply=%region_49.50, metadata={op_name="jit(train_step)/reduce_sum" source_file="/opt/maxtext/src/MaxText/max_utils.py" source_line=69 source_end_line=69 source_column=61 source_end_column=61}
  %all-reduce.37 = f32[] all-reduce(%reduce.45), channel_id=60, replica_groups=[1,4]<=[4], use_global_device_ids=true, to_apply=%region_49.50.clone, metadata={op_name="jit(train_step)/reduce_sum" source_file="/opt/maxtext/src/MaxText/max_utils.py" source_line=69 source_end_line=69 source_column=61 source_end_column=61}
  %add.511 = f32[] add(%add.510, %all-reduce.37), metadata={op_name="jit(train_step)/add" source_file="/opt/maxtext/src/MaxText/max_utils.py" source_line=69 source_end_line=69 source_column=57 source_end_column=57}
  %square.117 = f32[1024,32,8,128]{3,2,1,0} multiply(%add.478, %add.478), metadata={op_name="jit(train_step)/square" source_file="/opt/maxtext/src/MaxText/max_utils.py" source_line=69 source_end_line=69 source_column=69 source_end_column=69}
  %reduce.46 = f32[] reduce(%square.117, %constant.608), dimensions={0,1,2,3}, to_apply=%region_50.51, metadata={op_name="jit(train_step)/reduce_sum" source_file="/opt/maxtext/src/MaxText/max_utils.py" source_line=69 source_end_line=69 source_column=61 source_end_column=61}
  %all-reduce.38 = f32[] all-reduce(%reduce.46), channel_id=61, replica_groups=[1,4]<=[4], use_global_device_ids=true, to_apply=%region_50.51.clone, metadata={op_name="jit(train_step)/reduce_sum" source_file="/opt/maxtext/src/MaxText/max_utils.py" source_line=69 source_end_line=69 source_column=61 source_end_column=61}
  %add.512 = f32[] add(%add.511, %all-reduce.38), metadata={op_name="jit(train_step)/add" source_file="/opt/maxtext/src/MaxText/max_utils.py" source_line=69 source_end_line=69 source_column=57 source_end_column=57}
  %square.118 = f32[1024,128256]{1,0} multiply(%add.484, %add.484), metadata={op_name="jit(train_step)/square" source_file="/opt/maxtext/src/MaxText/max_utils.py" source_line=69 source_end_line=69 source_column=69 source_end_column=69}
  %reduce.47 = f32[] reduce(%square.118, %constant.608), dimensions={0,1}, to_apply=%region_51.52, metadata={op_name="jit(train_step)/reduce_sum" source_file="/opt/maxtext/src/MaxText/max_utils.py" source_line=69 source_end_line=69 source_column=61 source_end_column=61}
  %all-reduce.39 = f32[] all-reduce(%reduce.47), channel_id=62, replica_groups=[1,4]<=[4], use_global_device_ids=true, to_apply=%region_51.52.clone, metadata={op_name="jit(train_step)/reduce_sum" source_file="/opt/maxtext/src/MaxText/max_utils.py" source_line=69 source_end_line=69 source_column=61 source_end_column=61}
  %add.513 = f32[] add(%add.512, %all-reduce.39), metadata={op_name="jit(train_step)/add" source_file="/opt/maxtext/src/MaxText/max_utils.py" source_line=69 source_end_line=69 source_column=57 source_end_column=57}
  %square.119 = f32[128256,1024]{1,0} multiply(%add.490, %add.490), metadata={op_name="jit(train_step)/square" source_file="/opt/maxtext/src/MaxText/max_utils.py" source_line=69 source_end_line=69 source_column=69 source_end_column=69}
  %reduce.48 = f32[] reduce(%square.119, %constant.608), dimensions={0,1}, to_apply=%region_52.53, metadata={op_name="jit(train_step)/reduce_sum" source_file="/opt/maxtext/src/MaxText/max_utils.py" source_line=69 source_end_line=69 source_column=61 source_end_column=61}
  %all-reduce.40 = f32[] all-reduce(%reduce.48), channel_id=63, replica_groups=[1,4]<=[4], use_global_device_ids=true, to_apply=%region_52.53.clone, metadata={op_name="jit(train_step)/reduce_sum" source_file="/opt/maxtext/src/MaxText/max_utils.py" source_line=69 source_end_line=69 source_column=61 source_end_column=61}
  %add.514 = f32[] add(%add.513, %all-reduce.40), metadata={op_name="jit(train_step)/add" source_file="/opt/maxtext/src/MaxText/max_utils.py" source_line=69 source_end_line=69 source_column=57 source_end_column=57}
  %sqrt.46 = f32[] sqrt(%add.514), metadata={op_name="jit(train_step)/sqrt" source_file="/opt/maxtext/src/MaxText/max_utils.py" source_line=69 source_end_line=69 source_column=9 source_end_column=9}
  %all-reduce.41 = f32[] all-reduce(%reduce.12), channel_id=64, replica_groups=[1,4]<=[4], use_global_device_ids=true, to_apply=%region_54.55.clone, metadata={op_name="jit(train_step)/reduce_sum" source_file="/opt/maxtext/src/MaxText/max_utils.py" source_line=69 source_end_line=69 source_column=61 source_end_column=61}
  %add.515 = f32[] add(%reduce.10, %all-reduce.41), metadata={op_name="jit(train_step)/add" source_file="/opt/maxtext/src/MaxText/max_utils.py" source_line=69 source_end_line=69 source_column=57 source_end_column=57}
  %all-reduce.42 = f32[] all-reduce(%reduce.13), channel_id=65, replica_groups=[1,4]<=[4], use_global_device_ids=true, to_apply=%region_55.56.clone, metadata={op_name="jit(train_step)/reduce_sum" source_file="/opt/maxtext/src/MaxText/max_utils.py" source_line=69 source_end_line=69 source_column=61 source_end_column=61}
  %add.516 = f32[] add(%add.515, %all-reduce.42), metadata={op_name="jit(train_step)/add" source_file="/opt/maxtext/src/MaxText/max_utils.py" source_line=69 source_end_line=69 source_column=57 source_end_column=57}
  %all-reduce.43 = f32[] all-reduce(%reduce.14), channel_id=66, replica_groups=[1,4]<=[4], use_global_device_ids=true, to_apply=%region_56.57.clone, metadata={op_name="jit(train_step)/reduce_sum" source_file="/opt/maxtext/src/MaxText/max_utils.py" source_line=69 source_end_line=69 source_column=61 source_end_column=61}
  %add.517 = f32[] add(%add.516, %all-reduce.43), metadata={op_name="jit(train_step)/add" source_file="/opt/maxtext/src/MaxText/max_utils.py" source_line=69 source_end_line=69 source_column=57 source_end_column=57}
  %add.518 = f32[] add(%add.517, %reduce.15), metadata={op_name="jit(train_step)/add" source_file="/opt/maxtext/src/MaxText/max_utils.py" source_line=69 source_end_line=69 source_column=57 source_end_column=57}
  %add.519 = f32[] add(%add.518, %reduce.16), metadata={op_name="jit(train_step)/add" source_file="/opt/maxtext/src/MaxText/max_utils.py" source_line=69 source_end_line=69 source_column=57 source_end_column=57}
  %all-reduce.44 = f32[] all-reduce(%reduce.17), channel_id=67, replica_groups=[1,4]<=[4], use_global_device_ids=true, to_apply=%region_59.60.clone, metadata={op_name="jit(train_step)/reduce_sum" source_file="/opt/maxtext/src/MaxText/max_utils.py" source_line=69 source_end_line=69 source_column=61 source_end_column=61}
  %add.520 = f32[] add(%add.519, %all-reduce.44), metadata={op_name="jit(train_step)/add" source_file="/opt/maxtext/src/MaxText/max_utils.py" source_line=69 source_end_line=69 source_column=57 source_end_column=57}
  %all-reduce.45 = f32[] all-reduce(%reduce.18), channel_id=68, replica_groups=[1,4]<=[4], use_global_device_ids=true, to_apply=%region_60.61.clone, metadata={op_name="jit(train_step)/reduce_sum" source_file="/opt/maxtext/src/MaxText/max_utils.py" source_line=69 source_end_line=69 source_column=61 source_end_column=61}
  %add.521 = f32[] add(%add.520, %all-reduce.45), metadata={op_name="jit(train_step)/add" source_file="/opt/maxtext/src/MaxText/max_utils.py" source_line=69 source_end_line=69 source_column=57 source_end_column=57}
  %all-reduce.46 = f32[] all-reduce(%reduce.19), channel_id=69, replica_groups=[1,4]<=[4], use_global_device_ids=true, to_apply=%region_61.62.clone, metadata={op_name="jit(train_step)/reduce_sum" source_file="/opt/maxtext/src/MaxText/max_utils.py" source_line=69 source_end_line=69 source_column=61 source_end_column=61}
  %add.522 = f32[] add(%add.521, %all-reduce.46), metadata={op_name="jit(train_step)/add" source_file="/opt/maxtext/src/MaxText/max_utils.py" source_line=69 source_end_line=69 source_column=57 source_end_column=57}
  %all-reduce.47 = f32[] all-reduce(%reduce.20), channel_id=70, replica_groups=[1,4]<=[4], use_global_device_ids=true, to_apply=%region_62.63.clone, metadata={op_name="jit(train_step)/reduce_sum" source_file="/opt/maxtext/src/MaxText/max_utils.py" source_line=69 source_end_line=69 source_column=61 source_end_column=61}
  %add.523 = f32[] add(%add.522, %all-reduce.47), metadata={op_name="jit(train_step)/add" source_file="/opt/maxtext/src/MaxText/max_utils.py" source_line=69 source_end_line=69 source_column=57 source_end_column=57}
  %all-reduce.48 = f32[] all-reduce(%reduce.21), channel_id=71, replica_groups=[1,4]<=[4], use_global_device_ids=true, to_apply=%region_63.64.clone, metadata={op_name="jit(train_step)/reduce_sum" source_file="/opt/maxtext/src/MaxText/max_utils.py" source_line=69 source_end_line=69 source_column=61 source_end_column=61}
  %add.524 = f32[] add(%add.523, %all-reduce.48), metadata={op_name="jit(train_step)/add" source_file="/opt/maxtext/src/MaxText/max_utils.py" source_line=69 source_end_line=69 source_column=57 source_end_column=57}
  %all-reduce.49 = f32[] all-reduce(%reduce.22), channel_id=72, replica_groups=[1,4]<=[4], use_global_device_ids=true, to_apply=%region_64.65.clone, metadata={op_name="jit(train_step)/reduce_sum" source_file="/opt/maxtext/src/MaxText/max_utils.py" source_line=69 source_end_line=69 source_column=61 source_end_column=61}
  %add.525 = f32[] add(%add.524, %all-reduce.49), metadata={op_name="jit(train_step)/add" source_file="/opt/maxtext/src/MaxText/max_utils.py" source_line=69 source_end_line=69 source_column=57 source_end_column=57}
  %sqrt.47 = f32[] sqrt(%add.525), metadata={op_name="jit(train_step)/sqrt" source_file="/opt/maxtext/src/MaxText/max_utils.py" source_line=69 source_end_line=69 source_column=9 source_end_column=9}
  ROOT %tuple.44 = (s32[], f32[4096]{0}, f32[1024,32,14336]{2,1,0}, f32[1024,32,14336]{2,1,0}, f32[14336,32,1024]{2,1,0}, /*index=5*/f32[4096,32]{1,0}, f32[4096,32]{1,0}, f32[1024,32,8,128]{3,2,1,0}, f32[32,32,128,1024]{3,2,1,0}, f32[1024,32,32,128]{3,2,1,0}, /*index=10*/f32[1024,32,8,128]{3,2,1,0}, f32[1024,128256]{1,0}, f32[128256,1024]{1,0}, s32[], f32[4096]{0}, /*index=15*/f32[1024,32,14336]{2,1,0}, f32[1024,32,14336]{2,1,0}, f32[14336,32,1024]{2,1,0}, f32[4096,32]{1,0}, f32[4096,32]{1,0}, /*index=20*/f32[1024,32,8,128]{3,2,1,0}, f32[32,32,128,1024]{3,2,1,0}, f32[1024,32,32,128]{3,2,1,0}, f32[1024,32,8,128]{3,2,1,0}, f32[1024,128256]{1,0}, /*index=25*/f32[128256,1024]{1,0}, f32[4096]{0}, f32[1024,32,14336]{2,1,0}, f32[1024,32,14336]{2,1,0}, f32[14336,32,1024]{2,1,0}, /*index=30*/f32[4096,32]{1,0}, f32[4096,32]{1,0}, f32[1024,32,8,128]{3,2,1,0}, f32[32,32,128,1024]{3,2,1,0}, f32[1024,32,32,128]{3,2,1,0}, /*index=35*/f32[1024,32,8,128]{3,2,1,0}, f32[1024,128256]{1,0}, f32[128256,1024]{1,0}, s32[], f32[], /*index=40*/f32[], f32[], f32[], f32[], f32[], /*index=45*/s32[]) tuple(%add.402, %add.430, %add.435, %add.440, %add.446, /*index=5*/%add.451, %add.456, %add.461, %add.467, %add.473, /*index=10*/%add.478, %add.484, %add.490, %select_n.135, %add.424, /*index=15*/%add.431, %add.436, %add.441, %add.447, %add.452, /*index=20*/%add.457, %add.462, %add.468, %add.474, %add.479, /*index=25*/%add.485, %add.426, %add.432, %add.437, %add.442, /*index=30*/%add.448, %add.453, %add.458, %add.463, %add.469, /*index=35*/%add.475, %add.480, %add.486, %select_n.155, %sqrt.45, /*index=40*/%div.358, %constant.608, %constant.608, %sqrt.46, %sqrt.47, /*index=45*/%all-reduce.9)
}

