// This module is consumed by the hlo_value_semantics_analyzer unit tests.
HloModule cluster_861894508132706204_f15n_1__.8394, input_output_alias={ {0}: (0, {0}, may-alias), {1}: (0, {1}, may-alias), {2}: (0, {2}, may-alias), {3}: (0, {3}, may-alias), {4}: (0, {4}, may-alias), {5}: (0, {5}, may-alias), {6}: (0, {6}, may-alias), {7}: (0, {7}, may-alias), {8}: (0, {8}, may-alias), {9}: (0, {9}, may-alias), {10}: (0, {10}, may-alias), {11}: (0, {11}, may-alias), {12}: (0, {12}, may-alias), {13}: (0, {13}, may-alias), {14}: (0, {14}, may-alias), {15}: (0, {15}, may-alias), {16}: (0, {16}, may-alias), {17}: (0, {17}, may-alias), {18}: (0, {18}, may-alias), {19}: (0, {19}, may-alias), {20}: (0, {20}, may-alias), {21}: (0, {21}, may-alias), {22}: (0, {22}, may-alias), {23}: (0, {23}, may-alias), {24}: (0, {24}, may-alias), {25}: (0, {25}, may-alias), {26}: (0, {26}, may-alias), {27}: (0, {27}, may-alias), {28}: (0, {28}, may-alias), {29}: (0, {29}, may-alias), {30}: (0, {30}, may-alias), {31}: (0, {31}, may-alias), {32}: (0, {32}, may-alias), {33}: (0, {33}, may-alias), {34}: (0, {34}, may-alias), {35}: (0, {35}, may-alias), {36}: (0, {36}, may-alias), {37}: (0, {37}, may-alias), {38}: (0, {38}, may-alias), {39}: (0, {39}, may-alias), {40}: (0, {40}, may-alias), {41}: (0, {41}, may-alias), {42}: (0, {42}, may-alias), {43}: (0, {43}, may-alias), {44}: (0, {44}, may-alias), {45}: (0, {45}, may-alias), {46}: (0, {46}, may-alias), {47}: (0, {47}, may-alias), {48}: (0, {48}, may-alias), {49}: (0, {49}, may-alias), {50}: (0, {50}, may-alias), {51}: (0, {51}, may-alias), {52}: (0, {52}, may-alias), {53}: (0, {53}, may-alias), {54}: (0, {54}, may-alias), {55}: (0, {55}, may-alias), {56}: (0, {56}, may-alias), {57}: (0, {57}, may-alias), {58}: (0, {58}, may-alias), {59}: (0, {59}, may-alias), {60}: (0, {60}, may-alias), {61}: (0, {61}, may-alias), {62}: (0, {62}, may-alias), {63}: (0, {63}, may-alias), {64}: (0, {64}, may-alias), {65}: (0, {65}, may-alias), {66}: (0, {66}, may-alias), {67}: (0, {67}, may-alias), {68}: (0, {68}, may-alias), {69}: (0, {69}, may-alias), {70}: (0, {70}, may-alias), {71}: (0, {71}, may-alias), {72}: (0, {72}, may-alias), {73}: (0, {73}, may-alias), {74}: (0, {74}, may-alias), {75}: (0, {75}, may-alias), {76}: (0, {76}, may-alias), {77}: (0, {77}, may-alias), {78}: (0, {78}, may-alias), {79}: (0, {79}, may-alias), {80}: (0, {80}, may-alias), {81}: (0, {81}, may-alias), {82}: (0, {82}, may-alias), {83}: (0, {83}, may-alias), {84}: (0, {84}, may-alias), {85}: (0, {85}, may-alias), {86}: (0, {86}, may-alias), {87}: (0, {87}, may-alias), {88}: (0, {88}, may-alias), {89}: (0, {89}, may-alias), {90}: (0, {90}, may-alias), {91}: (0, {91}, may-alias), {92}: (0, {92}, may-alias), {93}: (0, {93}, may-alias), {94}: (0, {94}, may-alias), {95}: (0, {95}, may-alias), {96}: (0, {96}, may-alias), {97}: (0, {97}, may-alias), {98}: (0, {98}, may-alias), {99}: (0, {99}, may-alias), {100}: (0, {100}, may-alias), {101}: (0, {101}, may-alias), {102}: (0, {102}, may-alias), {103}: (0, {103}, may-alias), {104}: (0, {104}, may-alias), {105}: (0, {105}, may-alias), {106}: (0, {106}, may-alias), {107}: (0, {107}, may-alias), {108}: (0, {108}, may-alias), {109}: (0, {109}, may-alias), {110}: (0, {110}, may-alias) }, entry_computation_layout={((f32[128]{0:T(128)}, f32[128]{0:T(128)}, f32[128]{0:T(128)}, f32[128]{0:T(128)}, f32[128]{0:T(128)}, /*index=5*/f32[128]{0:T(128)}, f32[512,128]{1,0:T(8,128)}, f32[512,128]{1,0:T(8,128)}, f32[512,128]{1,0:T(8,128)}, f32[2,128]{1,0:T(2,128)}, /*index=10*/f32[2,128]{1,0:T(2,128)}, f32[2,128]{1,0:T(2,128)}, f32[30522,128]{1,0:T(8,128)}, f32[30522,128]{1,0:T(8,128)}, f32[30522,128]{1,0:T(8,128)}, /*index=15*/f32[2,128]{1,0:T(2,128)}, f32[2,128]{1,0:T(2,128)}, f32[2,128]{1,0:T(2,128)}, f32[2,128]{1,0:T(2,128)}, f32[2,128]{1,0:T(2,128)}, /*index=20*/f32[2,128]{1,0:T(2,128)}, f32[2,128]{1,0:T(2,128)}, f32[2,128]{1,0:T(2,128)}, f32[2,128]{1,0:T(2,128)}, f32[2,64,128]{2,1,0:T(8,128)}, /*index=25*/f32[2,64,128]{2,1,0:T(8,128)}, f32[2,64,128]{2,1,0:T(8,128)}, f32[2,64,128]{2,1,0:T(8,128)}, f32[2,64,128]{2,1,0:T(8,128)}, f32[2,64,128]{2,1,0:T(8,128)}, /*index=30*/f32[2,2,64]{2,1,0:T(2,128)}, f32[2,2,64]{2,1,0:T(2,128)}, f32[2,2,64]{2,1,0:T(2,128)}, f32[128,2,64]{0,2,1:T(8,128)}, f32[128,2,64]{0,2,1:T(8,128)}, /*index=35*/f32[128,2,64]{0,2,1:T(8,128)}, f32[128,2,64]{0,2,1:T(8,128)}, f32[128,2,64]{0,2,1:T(8,128)}, f32[128,2,64]{0,2,1:T(8,128)}, f32[2,2,64]{2,1,0:T(2,128)}, /*index=40*/f32[2,2,64]{2,1,0:T(2,128)}, f32[2,2,64]{2,1,0:T(2,128)}, f32[128,2,64]{0,2,1:T(8,128)}, f32[128,2,64]{0,2,1:T(8,128)}, f32[128,2,64]{0,2,1:T(8,128)}, /*index=45*/f32[128,2,64]{0,2,1:T(8,128)}, f32[128,2,64]{0,2,1:T(8,128)}, f32[128,2,64]{0,2,1:T(8,128)}, f32[2,2,64]{2,1,0:T(2,128)}, f32[2,2,64]{2,1,0:T(2,128)}, /*index=50*/f32[2,2,64]{2,1,0:T(2,128)}, f32[128,2,64]{0,2,1:T(8,128)}, f32[128,2,64]{0,2,1:T(8,128)}, f32[128,2,64]{0,2,1:T(8,128)}, f32[128,2,64]{0,2,1:T(8,128)}, /*index=55*/f32[128,2,64]{0,2,1:T(8,128)}, f32[128,2,64]{0,2,1:T(8,128)}, f32[2,512]{1,0:T(2,128)}, f32[2,512]{1,0:T(2,128)}, f32[2,512]{1,0:T(2,128)}, /*index=60*/f32[128,512]{1,0:T(8,128)}, f32[128,512]{1,0:T(8,128)}, f32[128,512]{1,0:T(8,128)}, f32[128,512]{1,0:T(8,128)}, f32[128,512]{1,0:T(8,128)}, /*index=65*/f32[128,512]{1,0:T(8,128)}, f32[2,128]{1,0:T(2,128)}, f32[2,128]{1,0:T(2,128)}, f32[2,128]{1,0:T(2,128)}, f32[2,128]{1,0:T(2,128)}, /*index=70*/f32[2,128]{1,0:T(2,128)}, f32[2,128]{1,0:T(2,128)}, f32[2,128]{1,0:T(2,128)}, f32[2,128]{1,0:T(2,128)}, f32[2,128]{1,0:T(2,128)}, /*index=75*/f32[512,128]{1,0:T(8,128)}, f32[512,128]{1,0:T(8,128)}, f32[512,128]{1,0:T(8,128)}, f32[512,128]{1,0:T(8,128)}, f32[512,128]{1,0:T(8,128)}, /*index=80*/f32[512,128]{1,0:T(8,128)}, f32[128]{0:T(128)}, f32[128]{0:T(128)}, f32[128]{0:T(128)}, f32[128,128]{1,0:T(8,128)}, /*index=85*/f32[128,128]{1,0:T(8,128)}, f32[128,128]{1,0:T(8,128)}, f32[30522]{0:T(1024)}, f32[30522]{0:T(1024)}, f32[30522]{0:T(1024)}, /*index=90*/f32[128]{0:T(128)}, f32[128]{0:T(128)}, f32[128]{0:T(128)}, f32[128]{0:T(128)}, f32[128]{0:T(128)}, /*index=95*/f32[128]{0:T(128)}, f32[128]{0:T(128)}, f32[128]{0:T(128)}, f32[128]{0:T(128)}, f32[128,128]{1,0:T(8,128)}, /*index=100*/f32[128,128]{1,0:T(8,128)}, f32[128,128]{1,0:T(8,128)}, f32[2]{0:T(128)}, f32[2]{0:T(128)}, f32[2]{0:T(128)}, /*index=105*/f32[2,128]{1,0:T(2,128)}, f32[2,128]{1,0:T(2,128)}, f32[2,128]{1,0:T(2,128)}, s64[]{:T(128)}, f32[]{:T(128)}, /*index=110*/f32[]{:T(128)}))->(f32[128]{0:T(128)}, f32[128]{0:T(128)}, f32[128]{0:T(128)}, f32[128]{0:T(128)}, f32[128]{0:T(128)}, /*index=5*/f32[128]{0:T(128)}, f32[512,128]{1,0:T(8,128)}, f32[512,128]{1,0:T(8,128)}, f32[512,128]{1,0:T(8,128)}, f32[2,128]{1,0:T(2,128)}, /*index=10*/f32[2,128]{1,0:T(2,128)}, f32[2,128]{1,0:T(2,128)}, f32[30522,128]{1,0:T(8,128)}, f32[30522,128]{1,0:T(8,128)}, f32[30522,128]{1,0:T(8,128)}, /*index=15*/f32[2,128]{1,0:T(2,128)}, f32[2,128]{1,0:T(2,128)}, f32[2,128]{1,0:T(2,128)}, f32[2,128]{1,0:T(2,128)}, f32[2,128]{1,0:T(2,128)}, /*index=20*/f32[2,128]{1,0:T(2,128)}, f32[2,128]{1,0:T(2,128)}, f32[2,128]{1,0:T(2,128)}, f32[2,128]{1,0:T(2,128)}, f32[2,64,128]{2,1,0:T(8,128)}, /*index=25*/f32[2,64,128]{2,1,0:T(8,128)}, f32[2,64,128]{2,1,0:T(8,128)}, f32[2,64,128]{2,1,0:T(8,128)}, f32[2,64,128]{2,1,0:T(8,128)}, f32[2,64,128]{2,1,0:T(8,128)}, /*index=30*/f32[2,2,64]{2,1,0:T(2,128)}, f32[2,2,64]{2,1,0:T(2,128)}, f32[2,2,64]{2,1,0:T(2,128)}, f32[128,2,64]{0,2,1:T(8,128)}, f32[128,2,64]{0,2,1:T(8,128)}, /*index=35*/f32[128,2,64]{0,2,1:T(8,128)}, f32[128,2,64]{0,2,1:T(8,128)}, f32[128,2,64]{0,2,1:T(8,128)}, f32[128,2,64]{0,2,1:T(8,128)}, f32[2,2,64]{2,1,0:T(2,128)}, /*index=40*/f32[2,2,64]{2,1,0:T(2,128)}, f32[2,2,64]{2,1,0:T(2,128)}, f32[128,2,64]{0,2,1:T(8,128)}, f32[128,2,64]{0,2,1:T(8,128)}, f32[128,2,64]{0,2,1:T(8,128)}, /*index=45*/f32[128,2,64]{0,2,1:T(8,128)}, f32[128,2,64]{0,2,1:T(8,128)}, f32[128,2,64]{0,2,1:T(8,128)}, f32[2,2,64]{2,1,0:T(2,128)}, f32[2,2,64]{2,1,0:T(2,128)}, /*index=50*/f32[2,2,64]{2,1,0:T(2,128)}, f32[128,2,64]{0,2,1:T(8,128)}, f32[128,2,64]{0,2,1:T(8,128)}, f32[128,2,64]{0,2,1:T(8,128)}, f32[128,2,64]{0,2,1:T(8,128)}, /*index=55*/f32[128,2,64]{0,2,1:T(8,128)}, f32[128,2,64]{0,2,1:T(8,128)}, f32[2,512]{1,0:T(2,128)}, f32[2,512]{1,0:T(2,128)}, f32[2,512]{1,0:T(2,128)}, /*index=60*/f32[128,512]{1,0:T(8,128)}, f32[128,512]{1,0:T(8,128)}, f32[128,512]{1,0:T(8,128)}, f32[128,512]{1,0:T(8,128)}, f32[128,512]{1,0:T(8,128)}, /*index=65*/f32[128,512]{1,0:T(8,128)}, f32[2,128]{1,0:T(2,128)}, f32[2,128]{1,0:T(2,128)}, f32[2,128]{1,0:T(2,128)}, f32[2,128]{1,0:T(2,128)}, /*index=70*/f32[2,128]{1,0:T(2,128)}, f32[2,128]{1,0:T(2,128)}, f32[2,128]{1,0:T(2,128)}, f32[2,128]{1,0:T(2,128)}, f32[2,128]{1,0:T(2,128)}, /*index=75*/f32[512,128]{1,0:T(8,128)}, f32[512,128]{1,0:T(8,128)}, f32[512,128]{1,0:T(8,128)}, f32[512,128]{1,0:T(8,128)}, f32[512,128]{1,0:T(8,128)}, /*index=80*/f32[512,128]{1,0:T(8,128)}, f32[128]{0:T(128)}, f32[128]{0:T(128)}, f32[128]{0:T(128)}, f32[128,128]{1,0:T(8,128)}, /*index=85*/f32[128,128]{1,0:T(8,128)}, f32[128,128]{1,0:T(8,128)}, f32[30522]{0:T(1024)}, f32[30522]{0:T(1024)}, f32[30522]{0:T(1024)}, /*index=90*/f32[128]{0:T(128)}, f32[128]{0:T(128)}, f32[128]{0:T(128)}, f32[128]{0:T(128)}, f32[128]{0:T(128)}, /*index=95*/f32[128]{0:T(128)}, f32[128]{0:T(128)}, f32[128]{0:T(128)}, f32[128]{0:T(128)}, f32[128,128]{1,0:T(8,128)}, /*index=100*/f32[128,128]{1,0:T(8,128)}, f32[128,128]{1,0:T(8,128)}, f32[2]{0:T(128)}, f32[2]{0:T(128)}, f32[2]{0:T(128)}, /*index=105*/f32[2,128]{1,0:T(2,128)}, f32[2,128]{1,0:T(2,128)}, f32[2,128]{1,0:T(2,128)}, s64[]{:T(128)}, f32[]{:T(128)}, /*index=110*/f32[]{:T(128)})}

while_Any-reduction.116 {
  x.117 = pred[] parameter(0)
  y.118 = pred[] parameter(1)
  ROOT or.119 = pred[] or(x.117, y.118)
}

while_Sum-reduction.120 {
  x.121 = s32[] parameter(0)
  y.122 = s32[] parameter(1)
  ROOT add.123 = s32[] add(x.121, y.122)
}

while_cls_predictions_Sum_2-reduction.124 {
  x.125 = f32[] parameter(0)
  y.126 = f32[] parameter(1)
  ROOT add.127 = f32[] add(x.125, y.126)
}

while_gradients_while_cls_predictions_LogSoftmax_grad_Sum-reduction.128 {
  x.129 = f32[] parameter(0)
  y.130 = f32[] parameter(1)
  ROOT add.131 = f32[] add(x.129, y.130)
}

while_gradients_while_cls_seq_relationship_LogSoftmax_grad_Sum-reduction.132 {
  x.133 = f32[] parameter(0)
  y.134 = f32[] parameter(1)
  ROOT add.135 = f32[] add(x.133, y.134)
}

while_LAMB_update_bert_embeddings_word_embeddings_norm_Sum-reduction.136 {
  x.137 = f32[] parameter(0)
  y.138 = f32[] parameter(1)
  ROOT add.139 = f32[] add(x.137, y.138)
}

while_LAMB_update_bert_embeddings_token_type_embeddings_norm_Sum-reduction.140 {
  x.141 = f32[] parameter(0)
  y.142 = f32[] parameter(1)
  ROOT add.143 = f32[] add(x.141, y.142)
}

while_LAMB_update_bert_embeddings_position_embeddings_norm_Sum-reduction.144 {
  x.145 = f32[] parameter(0)
  y.146 = f32[] parameter(1)
  ROOT add.147 = f32[] add(x.145, y.146)
}

while_bert_embeddings_LayerNorm_sufficient_statistics_var_ss-reduction.148 {
  x.149 = f32[] parameter(0)
  y.150 = f32[] parameter(1)
  ROOT add.151 = f32[] add(x.149, y.150)
}

while_bert_embeddings_LayerNorm_sufficient_statistics_mean_ss-reduction.152 {
  x.153 = f32[] parameter(0)
  y.154 = f32[] parameter(1)
  ROOT add.155 = f32[] add(x.153, y.154)
}

while_LAMB_update_cls_predictions_transform_dense_kernel_norm_Sum-reduction.156 {
  x.157 = f32[] parameter(0)
  y.158 = f32[] parameter(1)
  ROOT add.159 = f32[] add(x.157, y.158)
}

while_LAMB_update_cls_seq_relationship_output_weights_norm_Sum-reduction.160 {
  x.161 = f32[] parameter(0)
  y.162 = f32[] parameter(1)
  ROOT add.163 = f32[] add(x.161, y.162)
}

while_LAMB_update_bert_encoder_layer_common_attention_self_query_layer_1_kernel_norm_Sum-reduction.164 {
  x.165 = f32[] parameter(0)
  y.166 = f32[] parameter(1)
  ROOT add.167 = f32[] add(x.165, y.166)
}

while_LAMB_update_bert_encoder_layer_common_attention_self_key_layer_1_kernel_norm_Sum-reduction.168 {
  x.169 = f32[] parameter(0)
  y.170 = f32[] parameter(1)
  ROOT add.171 = f32[] add(x.169, y.170)
}

while_LAMB_update_bert_encoder_layer_common_attention_self_key_layer_0_kernel_norm_Sum-reduction.172 {
  x.173 = f32[] parameter(0)
  y.174 = f32[] parameter(1)
  ROOT add.175 = f32[] add(x.173, y.174)
}

while_LAMB_update_bert_encoder_layer_common_attention_self_value_layer_1_kernel_norm_Sum-reduction.176 {
  x.177 = f32[] parameter(0)
  y.178 = f32[] parameter(1)
  ROOT add.179 = f32[] add(x.177, y.178)
}

while_LAMB_update_bert_encoder_layer_common_attention_output_dense_layer_1_kernel_norm_Sum-reduction.180 {
  x.181 = f32[] parameter(0)
  y.182 = f32[] parameter(1)
  ROOT add.183 = f32[] add(x.181, y.182)
}

while_LAMB_update_bert_encoder_layer_common_intermediate_dense_layer_1_kernel_norm_Sum-reduction.184 {
  x.185 = f32[] parameter(0)
  y.186 = f32[] parameter(1)
  ROOT add.187 = f32[] add(x.185, y.186)
}

while_LAMB_update_bert_encoder_layer_common_output_dense_layer_1_kernel_norm_Sum-reduction.188 {
  x.189 = f32[] parameter(0)
  y.190 = f32[] parameter(1)
  ROOT add.191 = f32[] add(x.189, y.190)
}

while_LAMB_update_bert_pooler_dense_kernel_norm_Sum-reduction.192 {
  x.193 = f32[] parameter(0)
  y.194 = f32[] parameter(1)
  ROOT add.195 = f32[] add(x.193, y.194)
}

while_LAMB_update_bert_encoder_layer_common_attention_self_value_layer_0_kernel_norm_Sum-reduction.196 {
  x.197 = f32[] parameter(0)
  y.198 = f32[] parameter(1)
  ROOT add.199 = f32[] add(x.197, y.198)
}

while_LAMB_update_bert_encoder_layer_common_attention_output_dense_layer_0_kernel_norm_Sum-reduction.200 {
  x.201 = f32[] parameter(0)
  y.202 = f32[] parameter(1)
  ROOT add.203 = f32[] add(x.201, y.202)
}

while_LAMB_update_bert_encoder_layer_common_attention_self_query_layer_0_kernel_norm_Sum-reduction.204 {
  x.205 = f32[] parameter(0)
  y.206 = f32[] parameter(1)
  ROOT add.207 = f32[] add(x.205, y.206)
}

while_bert_encoder_layer_common_attention_self_Max-reduction.208 {
  x.209 = f32[] parameter(0)
  y.210 = f32[] parameter(1)
  ROOT maximum.211 = f32[] maximum(x.209, y.210)
}

while_bert_encoder_layer_common_attention_self_Sum-reduction.212 {
  x.213 = f32[] parameter(0)
  y.214 = f32[] parameter(1)
  ROOT add.215 = f32[] add(x.213, y.214)
}

while_bert_encoder_layer_common_attention_output_LayerNorm_sufficient_statistics_var_ss-reduction.216 {
  x.217 = f32[] parameter(0)
  y.218 = f32[] parameter(1)
  ROOT add.219 = f32[] add(x.217, y.218)
}

while_bert_encoder_layer_common_attention_output_LayerNorm_sufficient_statistics_mean_ss-reduction.220 {
  x.221 = f32[] parameter(0)
  y.222 = f32[] parameter(1)
  ROOT add.223 = f32[] add(x.221, y.222)
}

while_LAMB_update_bert_encoder_layer_common_intermediate_dense_layer_0_kernel_norm_Sum-reduction.224 {
  x.225 = f32[] parameter(0)
  y.226 = f32[] parameter(1)
  ROOT add.227 = f32[] add(x.225, y.226)
}

while_LAMB_update_bert_encoder_layer_common_output_dense_layer_0_kernel_norm_Sum-reduction.228 {
  x.229 = f32[] parameter(0)
  y.230 = f32[] parameter(1)
  ROOT add.231 = f32[] add(x.229, y.230)
}

while_bert_encoder_layer_common_output_LayerNorm_sufficient_statistics_var_ss-reduction.232 {
  x.233 = f32[] parameter(0)
  y.234 = f32[] parameter(1)
  ROOT add.235 = f32[] add(x.233, y.234)
}

while_bert_encoder_layer_common_output_LayerNorm_sufficient_statistics_mean_ss-reduction.236 {
  x.237 = f32[] parameter(0)
  y.238 = f32[] parameter(1)
  ROOT add.239 = f32[] add(x.237, y.238)
}

while_bert_encoder_layer_common_1_attention_self_Max-reduction.240 {
  x.241 = f32[] parameter(0)
  y.242 = f32[] parameter(1)
  ROOT maximum.243 = f32[] maximum(x.241, y.242)
}

while_bert_encoder_layer_common_1_attention_self_Sum-reduction.244 {
  x.245 = f32[] parameter(0)
  y.246 = f32[] parameter(1)
  ROOT add.247 = f32[] add(x.245, y.246)
}

while_bert_encoder_layer_common_1_attention_output_LayerNorm_sufficient_statistics_var_ss-reduction.248 {
  x.249 = f32[] parameter(0)
  y.250 = f32[] parameter(1)
  ROOT add.251 = f32[] add(x.249, y.250)
}

while_bert_encoder_layer_common_1_attention_output_LayerNorm_sufficient_statistics_mean_ss-reduction.252 {
  x.253 = f32[] parameter(0)
  y.254 = f32[] parameter(1)
  ROOT add.255 = f32[] add(x.253, y.254)
}

while_bert_encoder_layer_common_1_output_LayerNorm_sufficient_statistics_var_ss-reduction.256 {
  x.257 = f32[] parameter(0)
  y.258 = f32[] parameter(1)
  ROOT add.259 = f32[] add(x.257, y.258)
}

while_bert_encoder_layer_common_1_output_LayerNorm_sufficient_statistics_mean_ss-reduction.260 {
  x.261 = f32[] parameter(0)
  y.262 = f32[] parameter(1)
  ROOT add.263 = f32[] add(x.261, y.262)
}

while_cls_predictions_transform_LayerNorm_sufficient_statistics_var_ss-reduction.264 {
  x.265 = f32[] parameter(0)
  y.266 = f32[] parameter(1)
  ROOT add.267 = f32[] add(x.265, y.266)
}

while_cls_predictions_transform_LayerNorm_sufficient_statistics_mean_ss-reduction.268 {
  x.269 = f32[] parameter(0)
  y.270 = f32[] parameter(1)
  ROOT add.271 = f32[] add(x.269, y.270)
}

region_0.272 {
  Arg_0.273 = f32[] parameter(0)
  Arg_1.274 = f32[] parameter(1)
  ROOT maximum.275 = f32[] maximum(Arg_0.273, Arg_1.274), metadata={op_type="LogSoftmax" op_name="while/cls/predictions/LogSoftmax"}
}

region_1.276 {
  Arg_0.277 = f32[] parameter(0)
  Arg_1.278 = f32[] parameter(1)
  ROOT add.279 = f32[] add(Arg_0.277, Arg_1.278), metadata={op_type="LogSoftmax" op_name="while/cls/predictions/LogSoftmax"}
}

while_cls_predictions_Sum-reduction.280 {
  x.281 = f32[] parameter(0)
  y.282 = f32[] parameter(1)
  ROOT add.283 = f32[] add(x.281, y.282)
}

while_cls_predictions_Sum_1-reduction.284 {
  x.285 = f32[] parameter(0)
  y.286 = f32[] parameter(1)
  ROOT add.287 = f32[] add(x.285, y.286)
}

region_0.288 {
  Arg_0.289 = f32[] parameter(0)
  Arg_1.290 = f32[] parameter(1)
  ROOT add.291 = f32[] add(Arg_0.289, Arg_1.290), metadata={op_type="BiasAddGrad" op_name="while/gradients/while/cls/predictions/BiasAdd_grad/BiasAddGrad"}
}

add_float_.292 {
  x.293 = f32[] parameter(0)
  y.294 = f32[] parameter(1)
  ROOT add.295 = f32[] add(x.293, y.294)
}

while_gradients_while_cls_predictions_transform_LayerNorm_add_1_grad_Sum-reduction.296 {
  x.297 = f32[] parameter(0)
  y.298 = f32[] parameter(1)
  ROOT add.299 = f32[] add(x.297, y.298)
}

add_float_.300 {
  x.301 = f32[] parameter(0)
  y.302 = f32[] parameter(1)
  ROOT add.303 = f32[] add(x.301, y.302)
}

while_gradients_while_cls_predictions_transform_LayerNorm_sub_grad_Sum-reduction.304 {
  x.305 = f32[] parameter(0)
  y.306 = f32[] parameter(1)
  ROOT add.307 = f32[] add(x.305, y.306)
}

while_gradients_while_cls_predictions_transform_LayerNorm_mul_1_grad_Sum-reduction.308 {
  x.309 = f32[] parameter(0)
  y.310 = f32[] parameter(1)
  ROOT add.311 = f32[] add(x.309, y.310)
}

add_float_.312 {
  x.313 = f32[] parameter(0)
  y.314 = f32[] parameter(1)
  ROOT add.315 = f32[] add(x.313, y.314)
}

while_gradients_while_cls_predictions_transform_LayerNorm_mul_grad_Sum-reduction.316 {
  x.317 = f32[] parameter(0)
  y.318 = f32[] parameter(1)
  ROOT add.319 = f32[] add(x.317, y.318)
}

region_0.320 {
  Arg_0.321 = f32[] parameter(0)
  Arg_1.322 = f32[] parameter(1)
  ROOT add.323 = f32[] add(Arg_0.321, Arg_1.322), metadata={op_type="BiasAddGrad" op_name="while/gradients/while/cls/predictions/transform/dense/BiasAdd_grad/BiasAddGrad"}
}

add_float_.324 {
  x.325 = f32[] parameter(0)
  y.326 = f32[] parameter(1)
  ROOT add.327 = f32[] add(x.325, y.326)
}

scatter-combiner.328 {
  p0.329 = f32[] parameter(0)
  p1.330 = f32[] parameter(1)
  ROOT add.331 = f32[] add(p0.329, p1.330)
}

add_float_.332 {
  x.333 = f32[] parameter(0)
  y.334 = f32[] parameter(1)
  ROOT add.335 = f32[] add(x.333, y.334)
}

region_0.336 {
  Arg_0.337 = f32[] parameter(0)
  Arg_1.338 = f32[] parameter(1)
  ROOT maximum.339 = f32[] maximum(Arg_0.337, Arg_1.338), metadata={op_type="LogSoftmax" op_name="while/cls/seq_relationship/LogSoftmax"}
}

region_1.340 {
  Arg_0.341 = f32[] parameter(0)
  Arg_1.342 = f32[] parameter(1)
  ROOT add.343 = f32[] add(Arg_0.341, Arg_1.342), metadata={op_type="LogSoftmax" op_name="while/cls/seq_relationship/LogSoftmax"}
}

while_cls_seq_relationship_Sum-reduction.344 {
  x.345 = f32[] parameter(0)
  y.346 = f32[] parameter(1)
  ROOT add.347 = f32[] add(x.345, y.346)
}

while_cls_seq_relationship_Mean-reduction.348 {
  x.349 = f32[] parameter(0)
  y.350 = f32[] parameter(1)
  ROOT add.351 = f32[] add(x.349, y.350)
}

region_0.352 {
  Arg_0.353 = f32[] parameter(0)
  Arg_1.354 = f32[] parameter(1)
  ROOT add.355 = f32[] add(Arg_0.353, Arg_1.354), metadata={op_type="BiasAddGrad" op_name="while/gradients/while/cls/seq_relationship/BiasAdd_grad/BiasAddGrad"}
}

add_float_.356 {
  x.357 = f32[] parameter(0)
  y.358 = f32[] parameter(1)
  ROOT add.359 = f32[] add(x.357, y.358)
}

add_float_.360 {
  x.361 = f32[] parameter(0)
  y.362 = f32[] parameter(1)
  ROOT add.363 = f32[] add(x.361, y.362)
}

region_0.364 {
  Arg_0.365 = f32[] parameter(0)
  Arg_1.366 = f32[] parameter(1)
  ROOT add.367 = f32[] add(Arg_0.365, Arg_1.366), metadata={op_type="BiasAddGrad" op_name="while/gradients/while/bert/pooler/dense/BiasAdd_grad/BiasAddGrad"}
}

add_float_.368 {
  x.369 = f32[] parameter(0)
  y.370 = f32[] parameter(1)
  ROOT add.371 = f32[] add(x.369, y.370)
}

while_gradients_while_bert_encoder_layer_common_1_output_LayerNorm_add_1_grad_Sum-reduction.372 {
  x.373 = f32[] parameter(0)
  y.374 = f32[] parameter(1)
  ROOT add.375 = f32[] add(x.373, y.374)
}

while_gradients_while_bert_encoder_layer_common_1_output_LayerNorm_sub_grad_Sum-reduction.376 {
  x.377 = f32[] parameter(0)
  y.378 = f32[] parameter(1)
  ROOT add.379 = f32[] add(x.377, y.378)
}

add_float_.380 {
  x.381 = f32[] parameter(0)
  y.382 = f32[] parameter(1)
  ROOT add.383 = f32[] add(x.381, y.382)
}

while_gradients_while_bert_encoder_layer_common_1_output_LayerNorm_mul_1_grad_Sum-reduction.384 {
  x.385 = f32[] parameter(0)
  y.386 = f32[] parameter(1)
  ROOT add.387 = f32[] add(x.385, y.386)
}

while_gradients_while_bert_encoder_layer_common_1_output_LayerNorm_mul_grad_Sum-reduction.388 {
  x.389 = f32[] parameter(0)
  y.390 = f32[] parameter(1)
  ROOT add.391 = f32[] add(x.389, y.390)
}

while_gradients_while_bert_encoder_layer_common_1_output_add_grad_Sum-reduction.392 {
  x.393 = f32[] parameter(0)
  y.394 = f32[] parameter(1)
  ROOT add.395 = f32[] add(x.393, y.394)
}

while_gradients_while_bert_encoder_layer_common_1_intermediate_add_grad_Sum-reduction.396 {
  x.397 = f32[] parameter(0)
  y.398 = f32[] parameter(1)
  ROOT add.399 = f32[] add(x.397, y.398)
}

while_gradients_while_bert_encoder_layer_common_1_attention_output_LayerNorm_add_1_grad_Sum-reduction.400 {
  x.401 = f32[] parameter(0)
  y.402 = f32[] parameter(1)
  ROOT add.403 = f32[] add(x.401, y.402)
}

while_gradients_while_bert_encoder_layer_common_1_attention_output_LayerNorm_sub_grad_Sum-reduction.404 {
  x.405 = f32[] parameter(0)
  y.406 = f32[] parameter(1)
  ROOT add.407 = f32[] add(x.405, y.406)
}

while_gradients_while_bert_encoder_layer_common_1_attention_output_LayerNorm_mul_grad_Sum-reduction.408 {
  x.409 = f32[] parameter(0)
  y.410 = f32[] parameter(1)
  ROOT add.411 = f32[] add(x.409, y.410)
}

while_gradients_while_bert_encoder_layer_common_1_attention_output_add_grad_Sum-reduction.412 {
  x.413 = f32[] parameter(0)
  y.414 = f32[] parameter(1)
  ROOT add.415 = f32[] add(x.413, y.414)
}

while_gradients_while_bert_encoder_layer_common_1_attention_self_value_add_grad_Sum-reduction.416 {
  x.417 = f32[] parameter(0)
  y.418 = f32[] parameter(1)
  ROOT add.419 = f32[] add(x.417, y.418)
}

add_float_.420 {
  x.421 = f32[] parameter(0)
  y.422 = f32[] parameter(1)
  ROOT add.423 = f32[] add(x.421, y.422)
}

while_gradients_while_bert_encoder_layer_common_1_attention_self_truediv_grad_Sum_1-reduction.424 {
  x.425 = f32[] parameter(0)
  y.426 = f32[] parameter(1)
  ROOT add.427 = f32[] add(x.425, y.426)
}

while_gradients_while_bert_encoder_layer_common_1_attention_self_key_add_grad_Sum-reduction.428 {
  x.429 = f32[] parameter(0)
  y.430 = f32[] parameter(1)
  ROOT add.431 = f32[] add(x.429, y.430)
}

add_float_.432 {
  x.433 = f32[] parameter(0)
  y.434 = f32[] parameter(1)
  ROOT add.435 = f32[] add(x.433, y.434)
}

while_gradients_while_bert_encoder_layer_common_1_attention_self_query_add_grad_Sum-reduction.436 {
  x.437 = f32[] parameter(0)
  y.438 = f32[] parameter(1)
  ROOT add.439 = f32[] add(x.437, y.438)
}

while_gradients_while_bert_encoder_layer_common_output_LayerNorm_add_1_grad_Sum-reduction.440 {
  x.441 = f32[] parameter(0)
  y.442 = f32[] parameter(1)
  ROOT add.443 = f32[] add(x.441, y.442)
}

scatter-combiner.444 {
  p0.445 = f32[] parameter(0)
  p1.446 = f32[] parameter(1)
  ROOT add.447 = f32[] add(p0.445, p1.446)
}

add_float_.448 {
  x.449 = f32[] parameter(0)
  y.450 = f32[] parameter(1)
  ROOT add.451 = f32[] add(x.449, y.450)
}

while_gradients_while_bert_encoder_layer_common_output_LayerNorm_sub_grad_Sum-reduction.452 {
  x.453 = f32[] parameter(0)
  y.454 = f32[] parameter(1)
  ROOT add.455 = f32[] add(x.453, y.454)
}

while_gradients_while_bert_encoder_layer_common_output_LayerNorm_mul_grad_Sum-reduction.456 {
  x.457 = f32[] parameter(0)
  y.458 = f32[] parameter(1)
  ROOT add.459 = f32[] add(x.457, y.458)
}

while_gradients_while_bert_encoder_layer_common_output_add_grad_Sum-reduction.460 {
  x.461 = f32[] parameter(0)
  y.462 = f32[] parameter(1)
  ROOT add.463 = f32[] add(x.461, y.462)
}

scatter-combiner.464 {
  p0.465 = f32[] parameter(0)
  p1.466 = f32[] parameter(1)
  ROOT add.467 = f32[] add(p0.465, p1.466)
}

add_float_.468 {
  x.469 = f32[] parameter(0)
  y.470 = f32[] parameter(1)
  ROOT add.471 = f32[] add(x.469, y.470)
}

while_gradients_while_bert_encoder_layer_common_intermediate_add_grad_Sum-reduction.472 {
  x.473 = f32[] parameter(0)
  y.474 = f32[] parameter(1)
  ROOT add.475 = f32[] add(x.473, y.474)
}

scatter-combiner.476 {
  p0.477 = f32[] parameter(0)
  p1.478 = f32[] parameter(1)
  ROOT add.479 = f32[] add(p0.477, p1.478)
}

add_float_.480 {
  x.481 = f32[] parameter(0)
  y.482 = f32[] parameter(1)
  ROOT add.483 = f32[] add(x.481, y.482)
}

while_gradients_while_bert_encoder_layer_common_attention_output_LayerNorm_add_1_grad_Sum-reduction.484 {
  x.485 = f32[] parameter(0)
  y.486 = f32[] parameter(1)
  ROOT add.487 = f32[] add(x.485, y.486)
}

scatter-combiner.488 {
  p0.489 = f32[] parameter(0)
  p1.490 = f32[] parameter(1)
  ROOT add.491 = f32[] add(p0.489, p1.490)
}

add_float_.492 {
  x.493 = f32[] parameter(0)
  y.494 = f32[] parameter(1)
  ROOT add.495 = f32[] add(x.493, y.494)
}

while_gradients_while_bert_encoder_layer_common_attention_output_LayerNorm_sub_grad_Sum-reduction.496 {
  x.497 = f32[] parameter(0)
  y.498 = f32[] parameter(1)
  ROOT add.499 = f32[] add(x.497, y.498)
}

while_gradients_while_bert_encoder_layer_common_attention_output_LayerNorm_mul_grad_Sum-reduction.500 {
  x.501 = f32[] parameter(0)
  y.502 = f32[] parameter(1)
  ROOT add.503 = f32[] add(x.501, y.502)
}

while_gradients_while_bert_encoder_layer_common_attention_output_add_grad_Sum-reduction.504 {
  x.505 = f32[] parameter(0)
  y.506 = f32[] parameter(1)
  ROOT add.507 = f32[] add(x.505, y.506)
}

scatter-combiner.508 {
  p0.509 = f32[] parameter(0)
  p1.510 = f32[] parameter(1)
  ROOT add.511 = f32[] add(p0.509, p1.510)
}

add_float_.512 {
  x.513 = f32[] parameter(0)
  y.514 = f32[] parameter(1)
  ROOT add.515 = f32[] add(x.513, y.514)
}

while_gradients_while_bert_encoder_layer_common_attention_self_value_add_grad_Sum-reduction.516 {
  x.517 = f32[] parameter(0)
  y.518 = f32[] parameter(1)
  ROOT add.519 = f32[] add(x.517, y.518)
}

scatter-combiner.520 {
  p0.521 = f32[] parameter(0)
  p1.522 = f32[] parameter(1)
  ROOT add.523 = f32[] add(p0.521, p1.522)
}

add_float_.524 {
  x.525 = f32[] parameter(0)
  y.526 = f32[] parameter(1)
  ROOT add.527 = f32[] add(x.525, y.526)
}

add_float_.528 {
  x.529 = f32[] parameter(0)
  y.530 = f32[] parameter(1)
  ROOT add.531 = f32[] add(x.529, y.530)
}

while_gradients_while_bert_encoder_layer_common_attention_self_truediv_grad_Sum_1-reduction.532 {
  x.533 = f32[] parameter(0)
  y.534 = f32[] parameter(1)
  ROOT add.535 = f32[] add(x.533, y.534)
}

while_gradients_while_bert_encoder_layer_common_attention_self_key_add_grad_Sum-reduction.536 {
  x.537 = f32[] parameter(0)
  y.538 = f32[] parameter(1)
  ROOT add.539 = f32[] add(x.537, y.538)
}

scatter-combiner.540 {
  p0.541 = f32[] parameter(0)
  p1.542 = f32[] parameter(1)
  ROOT add.543 = f32[] add(p0.541, p1.542)
}

add_float_.544 {
  x.545 = f32[] parameter(0)
  y.546 = f32[] parameter(1)
  ROOT add.547 = f32[] add(x.545, y.546)
}

add_float_.548 {
  x.549 = f32[] parameter(0)
  y.550 = f32[] parameter(1)
  ROOT add.551 = f32[] add(x.549, y.550)
}

while_gradients_while_bert_encoder_layer_common_attention_self_query_add_grad_Sum-reduction.552 {
  x.553 = f32[] parameter(0)
  y.554 = f32[] parameter(1)
  ROOT add.555 = f32[] add(x.553, y.554)
}

scatter-combiner.556 {
  p0.557 = f32[] parameter(0)
  p1.558 = f32[] parameter(1)
  ROOT add.559 = f32[] add(p0.557, p1.558)
}

add_float_.560 {
  x.561 = f32[] parameter(0)
  y.562 = f32[] parameter(1)
  ROOT add.563 = f32[] add(x.561, y.562)
}

while_gradients_while_bert_embeddings_LayerNorm_add_1_grad_Sum-reduction.564 {
  x.565 = f32[] parameter(0)
  y.566 = f32[] parameter(1)
  ROOT add.567 = f32[] add(x.565, y.566)
}

add_float_.568 {
  x.569 = f32[] parameter(0)
  y.570 = f32[] parameter(1)
  ROOT add.571 = f32[] add(x.569, y.570)
}

while_gradients_while_bert_embeddings_LayerNorm_sub_grad_Sum-reduction.572 {
  x.573 = f32[] parameter(0)
  y.574 = f32[] parameter(1)
  ROOT add.575 = f32[] add(x.573, y.574)
}

while_gradients_while_bert_embeddings_LayerNorm_mul_grad_Sum-reduction.576 {
  x.577 = f32[] parameter(0)
  y.578 = f32[] parameter(1)
  ROOT add.579 = f32[] add(x.577, y.578)
}

add_float_.580 {
  x.581 = f32[] parameter(0)
  y.582 = f32[] parameter(1)
  ROOT add.583 = f32[] add(x.581, y.582)
}

scatter-combiner.584 {
  p0.585 = bf16[] parameter(0)
  p1.586 = bf16[] parameter(1)
  ROOT add.587 = bf16[] add(p0.585, p1.586)
}

add_float_.588 {
  x.589 = f32[] parameter(0)
  y.590 = f32[] parameter(1)
  ROOT add.591 = f32[] add(x.589, y.590)
}

while_gradients_while_bert_embeddings_add_1_grad_Sum-reduction.592 {
  x.593 = f32[] parameter(0)
  y.594 = f32[] parameter(1)
  ROOT add.595 = f32[] add(x.593, y.594)
}

add_float_.596 {
  x.597 = f32[] parameter(0)
  y.598 = f32[] parameter(1)
  ROOT add.599 = f32[] add(x.597, y.598)
}

while_gradients_while_bert_embeddings_LayerNorm_mul_1_grad_Sum-reduction.600 {
  x.601 = f32[] parameter(0)
  y.602 = f32[] parameter(1)
  ROOT add.603 = f32[] add(x.601, y.602)
}

add_float_.604 {
  x.605 = f32[] parameter(0)
  y.606 = f32[] parameter(1)
  ROOT add.607 = f32[] add(x.605, y.606)
}

add_float_.608 {
  x.609 = f32[] parameter(0)
  y.610 = f32[] parameter(1)
  ROOT add.611 = f32[] add(x.609, y.610)
}

add_float_.612 {
  x.613 = f32[] parameter(0)
  y.614 = f32[] parameter(1)
  ROOT add.615 = f32[] add(x.613, y.614)
}

while_gradients_while_bert_encoder_layer_common_attention_output_LayerNorm_mul_1_grad_Sum-reduction.616 {
  x.617 = f32[] parameter(0)
  y.618 = f32[] parameter(1)
  ROOT add.619 = f32[] add(x.617, y.618)
}

add_float_.620 {
  x.621 = f32[] parameter(0)
  y.622 = f32[] parameter(1)
  ROOT add.623 = f32[] add(x.621, y.622)
}

add_float_.624 {
  x.625 = f32[] parameter(0)
  y.626 = f32[] parameter(1)
  ROOT add.627 = f32[] add(x.625, y.626)
}

while_gradients_while_bert_encoder_layer_common_output_LayerNorm_mul_1_grad_Sum-reduction.628 {
  x.629 = f32[] parameter(0)
  y.630 = f32[] parameter(1)
  ROOT add.631 = f32[] add(x.629, y.630)
}

scatter-combiner.632 {
  p0.633 = f32[] parameter(0)
  p1.634 = f32[] parameter(1)
  ROOT add.635 = f32[] add(p0.633, p1.634)
}

add_float_.636 {
  x.637 = f32[] parameter(0)
  y.638 = f32[] parameter(1)
  ROOT add.639 = f32[] add(x.637, y.638)
}

add_float_.640 {
  x.641 = f32[] parameter(0)
  y.642 = f32[] parameter(1)
  ROOT add.643 = f32[] add(x.641, y.642)
}

add_float_.644 {
  x.645 = f32[] parameter(0)
  y.646 = f32[] parameter(1)
  ROOT add.647 = f32[] add(x.645, y.646)
}

while_gradients_while_bert_encoder_layer_common_1_attention_output_LayerNorm_mul_1_grad_Sum-reduction.648 {
  x.649 = f32[] parameter(0)
  y.650 = f32[] parameter(1)
  ROOT add.651 = f32[] add(x.649, y.650)
}

scatter-combiner.652 {
  p0.653 = f32[] parameter(0)
  p1.654 = f32[] parameter(1)
  ROOT add.655 = f32[] add(p0.653, p1.654)
}

add_float_.656 {
  x.657 = f32[] parameter(0)
  y.658 = f32[] parameter(1)
  ROOT add.659 = f32[] add(x.657, y.658)
}

add_float_.660 {
  x.661 = f32[] parameter(0)
  y.662 = f32[] parameter(1)
  ROOT add.663 = f32[] add(x.661, y.662)
}

add_float_.664 {
  x.665 = f32[] parameter(0)
  y.666 = f32[] parameter(1)
  ROOT add.667 = f32[] add(x.665, y.666)
}

while_global_norm_Sum-reduction.668 {
  x.669 = f32[] parameter(0)
  y.670 = f32[] parameter(1)
  ROOT add.671 = f32[] add(x.669, y.670)
}

sum.672 {
  x.673 = bf16[] parameter(0)
  y.674 = bf16[] parameter(1)
  ROOT add.675 = bf16[] add(x.673, y.674)
}

while_LAMB_update_bert_embeddings_word_embeddings_norm_1_Sum-reduction.676 {
  x.677 = f32[] parameter(0)
  y.678 = f32[] parameter(1)
  ROOT add.679 = f32[] add(x.677, y.678)
}

sum.680 {
  x.681 = bf16[] parameter(0)
  y.682 = bf16[] parameter(1)
  ROOT add.683 = bf16[] add(x.681, y.682)
}

while_LAMB_update_bert_encoder_layer_common_attention_self_value_layer_0_kernel_norm_1_Sum-reduction.684 {
  x.685 = f32[] parameter(0)
  y.686 = f32[] parameter(1)
  ROOT add.687 = f32[] add(x.685, y.686)
}

sum.688 {
  x.689 = bf16[] parameter(0)
  y.690 = bf16[] parameter(1)
  ROOT add.691 = bf16[] add(x.689, y.690)
}

sum.692 {
  x.693 = bf16[] parameter(0)
  y.694 = bf16[] parameter(1)
  ROOT add.695 = bf16[] add(x.693, y.694)
}

while_LAMB_update_bert_encoder_layer_common_attention_output_dense_layer_0_kernel_norm_1_Sum-reduction.696 {
  x.697 = f32[] parameter(0)
  y.698 = f32[] parameter(1)
  ROOT add.699 = f32[] add(x.697, y.698)
}

sum.700 {
  x.701 = bf16[] parameter(0)
  y.702 = bf16[] parameter(1)
  ROOT add.703 = bf16[] add(x.701, y.702)
}

sum.704 {
  x.705 = bf16[] parameter(0)
  y.706 = bf16[] parameter(1)
  ROOT add.707 = bf16[] add(x.705, y.706)
}

sum.708 {
  x.709 = bf16[] parameter(0)
  y.710 = bf16[] parameter(1)
  ROOT add.711 = bf16[] add(x.709, y.710)
}

sum.712 {
  x.713 = bf16[] parameter(0)
  y.714 = bf16[] parameter(1)
  ROOT add.715 = bf16[] add(x.713, y.714)
}

while_LAMB_update_bert_encoder_layer_common_intermediate_dense_layer_0_kernel_norm_1_Sum-reduction.716 {
  x.717 = f32[] parameter(0)
  y.718 = f32[] parameter(1)
  ROOT add.719 = f32[] add(x.717, y.718)
}

sum.720 {
  x.721 = bf16[] parameter(0)
  y.722 = bf16[] parameter(1)
  ROOT add.723 = bf16[] add(x.721, y.722)
}

sum.724 {
  x.725 = bf16[] parameter(0)
  y.726 = bf16[] parameter(1)
  ROOT add.727 = bf16[] add(x.725, y.726)
}

while_LAMB_update_bert_encoder_layer_common_output_dense_layer_0_kernel_norm_1_Sum-reduction.728 {
  x.729 = f32[] parameter(0)
  y.730 = f32[] parameter(1)
  ROOT add.731 = f32[] add(x.729, y.730)
}

sum.732 {
  x.733 = bf16[] parameter(0)
  y.734 = bf16[] parameter(1)
  ROOT add.735 = bf16[] add(x.733, y.734)
}

sum.736 {
  x.737 = bf16[] parameter(0)
  y.738 = bf16[] parameter(1)
  ROOT add.739 = bf16[] add(x.737, y.738)
}

while_LAMB_update_bert_embeddings_token_type_embeddings_norm_1_Sum-reduction.740 {
  x.741 = f32[] parameter(0)
  y.742 = f32[] parameter(1)
  ROOT add.743 = f32[] add(x.741, y.742)
}

sum.744 {
  x.745 = bf16[] parameter(0)
  y.746 = bf16[] parameter(1)
  ROOT add.747 = bf16[] add(x.745, y.746)
}

sum.748 {
  x.749 = bf16[] parameter(0)
  y.750 = bf16[] parameter(1)
  ROOT add.751 = bf16[] add(x.749, y.750)
}

sum.752 {
  x.753 = bf16[] parameter(0)
  y.754 = bf16[] parameter(1)
  ROOT add.755 = bf16[] add(x.753, y.754)
}

while_LAMB_update_bert_encoder_layer_common_attention_self_query_layer_1_kernel_norm_1_Sum-reduction.756 {
  x.757 = f32[] parameter(0)
  y.758 = f32[] parameter(1)
  ROOT add.759 = f32[] add(x.757, y.758)
}

sum.760 {
  x.761 = bf16[] parameter(0)
  y.762 = bf16[] parameter(1)
  ROOT add.763 = bf16[] add(x.761, y.762)
}

while_LAMB_update_bert_encoder_layer_common_attention_self_key_layer_1_kernel_norm_1_Sum-reduction.764 {
  x.765 = f32[] parameter(0)
  y.766 = f32[] parameter(1)
  ROOT add.767 = f32[] add(x.765, y.766)
}

sum.768 {
  x.769 = bf16[] parameter(0)
  y.770 = bf16[] parameter(1)
  ROOT add.771 = bf16[] add(x.769, y.770)
}

while_LAMB_update_bert_encoder_layer_common_attention_self_value_layer_1_kernel_norm_1_Sum-reduction.772 {
  x.773 = f32[] parameter(0)
  y.774 = f32[] parameter(1)
  ROOT add.775 = f32[] add(x.773, y.774)
}

sum.776 {
  x.777 = bf16[] parameter(0)
  y.778 = bf16[] parameter(1)
  ROOT add.779 = bf16[] add(x.777, y.778)
}

while_LAMB_update_bert_encoder_layer_common_attention_output_dense_layer_1_kernel_norm_1_Sum-reduction.780 {
  x.781 = f32[] parameter(0)
  y.782 = f32[] parameter(1)
  ROOT add.783 = f32[] add(x.781, y.782)
}

sum.784 {
  x.785 = bf16[] parameter(0)
  y.786 = bf16[] parameter(1)
  ROOT add.787 = bf16[] add(x.785, y.786)
}

while_LAMB_update_bert_encoder_layer_common_intermediate_dense_layer_1_kernel_norm_1_Sum-reduction.788 {
  x.789 = f32[] parameter(0)
  y.790 = f32[] parameter(1)
  ROOT add.791 = f32[] add(x.789, y.790)
}

sum.792 {
  x.793 = bf16[] parameter(0)
  y.794 = bf16[] parameter(1)
  ROOT add.795 = bf16[] add(x.793, y.794)
}

while_LAMB_update_bert_encoder_layer_common_output_dense_layer_1_kernel_norm_1_Sum-reduction.796 {
  x.797 = f32[] parameter(0)
  y.798 = f32[] parameter(1)
  ROOT add.799 = f32[] add(x.797, y.798)
}

sum.800 {
  x.801 = bf16[] parameter(0)
  y.802 = bf16[] parameter(1)
  ROOT add.803 = bf16[] add(x.801, y.802)
}

while_LAMB_update_bert_pooler_dense_kernel_norm_1_Sum-reduction.804 {
  x.805 = f32[] parameter(0)
  y.806 = f32[] parameter(1)
  ROOT add.807 = f32[] add(x.805, y.806)
}

sum.808 {
  x.809 = bf16[] parameter(0)
  y.810 = bf16[] parameter(1)
  ROOT add.811 = bf16[] add(x.809, y.810)
}

sum.812 {
  x.813 = bf16[] parameter(0)
  y.814 = bf16[] parameter(1)
  ROOT add.815 = bf16[] add(x.813, y.814)
}

while_LAMB_update_bert_embeddings_position_embeddings_norm_1_Sum-reduction.816 {
  x.817 = f32[] parameter(0)
  y.818 = f32[] parameter(1)
  ROOT add.819 = f32[] add(x.817, y.818)
}

sum.820 {
  x.821 = bf16[] parameter(0)
  y.822 = bf16[] parameter(1)
  ROOT add.823 = bf16[] add(x.821, y.822)
}

sum.824 {
  x.825 = bf16[] parameter(0)
  y.826 = bf16[] parameter(1)
  ROOT add.827 = bf16[] add(x.825, y.826)
}

sum.828 {
  x.829 = bf16[] parameter(0)
  y.830 = bf16[] parameter(1)
  ROOT add.831 = bf16[] add(x.829, y.830)
}

sum.832 {
  x.833 = bf16[] parameter(0)
  y.834 = bf16[] parameter(1)
  ROOT add.835 = bf16[] add(x.833, y.834)
}

sum.836 {
  x.837 = bf16[] parameter(0)
  y.838 = bf16[] parameter(1)
  ROOT add.839 = bf16[] add(x.837, y.838)
}

sum.840 {
  x.841 = bf16[] parameter(0)
  y.842 = bf16[] parameter(1)
  ROOT add.843 = bf16[] add(x.841, y.842)
}

while_LAMB_update_cls_seq_relationship_output_weights_norm_1_Sum-reduction.844 {
  x.845 = f32[] parameter(0)
  y.846 = f32[] parameter(1)
  ROOT add.847 = f32[] add(x.845, y.846)
}

sum.848 {
  x.849 = bf16[] parameter(0)
  y.850 = bf16[] parameter(1)
  ROOT add.851 = bf16[] add(x.849, y.850)
}

sum.852 {
  x.853 = bf16[] parameter(0)
  y.854 = bf16[] parameter(1)
  ROOT add.855 = bf16[] add(x.853, y.854)
}

sum.856 {
  x.857 = bf16[] parameter(0)
  y.858 = bf16[] parameter(1)
  ROOT add.859 = bf16[] add(x.857, y.858)
}

sum.860 {
  x.861 = bf16[] parameter(0)
  y.862 = bf16[] parameter(1)
  ROOT add.863 = bf16[] add(x.861, y.862)
}

while_LAMB_update_bert_encoder_layer_common_attention_self_query_layer_0_kernel_norm_1_Sum-reduction.864 {
  x.865 = f32[] parameter(0)
  y.866 = f32[] parameter(1)
  ROOT add.867 = f32[] add(x.865, y.866)
}

sum.868 {
  x.869 = bf16[] parameter(0)
  y.870 = bf16[] parameter(1)
  ROOT add.871 = bf16[] add(x.869, y.870)
}

sum.872 {
  x.873 = bf16[] parameter(0)
  y.874 = bf16[] parameter(1)
  ROOT add.875 = bf16[] add(x.873, y.874)
}

while_LAMB_update_bert_encoder_layer_common_attention_self_key_layer_0_kernel_norm_1_Sum-reduction.876 {
  x.877 = f32[] parameter(0)
  y.878 = f32[] parameter(1)
  ROOT add.879 = f32[] add(x.877, y.878)
}

sum.880 {
  x.881 = bf16[] parameter(0)
  y.882 = bf16[] parameter(1)
  ROOT add.883 = bf16[] add(x.881, y.882)
}

while_LAMB_update_cls_predictions_transform_dense_kernel_norm_1_Sum-reduction.884 {
  x.885 = f32[] parameter(0)
  y.886 = f32[] parameter(1)
  ROOT add.887 = f32[] add(x.885, y.886)
}

_functionalize_body_4__.888 {
  constant.1015 = s32[] constant(0), metadata={op_type="Slice" op_name="while/Slice" source_file="dummy_file_name" source_line=10}
  broadcast.1016 = s32[2]{0} broadcast(constant.1015), dimensions={}, metadata={op_type="Slice" op_name="while/Slice" source_file="dummy_file_name" source_line=10}
  constant.1017 = s32[2]{0} constant({48, 512}), metadata={op_type="Slice" op_name="while/Slice" source_file="dummy_file_name" source_line=10}
  constant.1019 = s32[] constant(0), metadata={op_type="Slice" op_name="while/Slice_1" source_file="dummy_file_name" source_line=10}
  broadcast.1020 = s32[2]{0} broadcast(constant.1019), dimensions={}, metadata={op_type="Slice" op_name="while/Slice_1" source_file="dummy_file_name" source_line=10}
  constant.1021 = s32[2]{0} constant({48, 512}), metadata={op_type="Slice" op_name="while/Slice_1" source_file="dummy_file_name" source_line=10}
  constant.1023 = s32[] constant(0), metadata={op_type="Greater" op_name="while/Greater" source_file="dummy_file_name" source_line=10}
  constant.1038 = s32[1]{0} constant({-1}), metadata={op_type="Reshape" op_name="while/Reshape_5" source_file="dummy_file_name" source_line=10}
  constant.1040 = s32[] constant(0), metadata={op_type="Slice" op_name="while/Slice_2" source_file="dummy_file_name" source_line=10}
  broadcast.1041 = s32[2]{0} broadcast(constant.1040), dimensions={}, metadata={op_type="Slice" op_name="while/Slice_2" source_file="dummy_file_name" source_line=10}
  constant.1042 = s32[2]{0} constant({48, 76}), metadata={op_type="Slice" op_name="while/Slice_2" source_file="dummy_file_name" source_line=10}
  constant.1044 = s32[] constant(0), metadata={op_type="Slice" op_name="while/Slice_3" source_file="dummy_file_name" source_line=10}
  broadcast.1045 = s32[2]{0} broadcast(constant.1044), dimensions={}, metadata={op_type="Slice" op_name="while/Slice_3" source_file="dummy_file_name" source_line=10}
  constant.1046 = s32[2]{0} constant({48, 76}), metadata={op_type="Slice" op_name="while/Slice_3" source_file="dummy_file_name" source_line=10}
  constant.1048 = s32[48,1]{1,0} constant({...}), metadata={op_type="AddV2" op_name="while/add" source_file="dummy_file_name" source_line=10}
  constant.1053 = s32[1]{0} constant({-1}), metadata={op_type="Reshape" op_name="while/Reshape_1" source_file="dummy_file_name" source_line=10}
  constant.1055 = s32[] constant(0), metadata={op_type="Slice" op_name="while/Slice_4" source_file="dummy_file_name" source_line=10}
  broadcast.1056 = s32[2]{0} broadcast(constant.1055), dimensions={}, metadata={op_type="Slice" op_name="while/Slice_4" source_file="dummy_file_name" source_line=10}
  constant.1057 = s32[2]{0} constant({48, 76}), metadata={op_type="Slice" op_name="while/Slice_4" source_file="dummy_file_name" source_line=10}
  constant.1059 = s32[] constant(0), metadata={op_type="Slice" op_name="while/Slice_5" source_file="dummy_file_name" source_line=10}
  broadcast.1060 = s32[2]{0} broadcast(constant.1059), dimensions={}, metadata={op_type="Slice" op_name="while/Slice_5" source_file="dummy_file_name" source_line=10}
  constant.1061 = s32[2]{0} constant({48, 1}), metadata={op_type="Slice" op_name="while/Slice_5" source_file="dummy_file_name" source_line=10}
  constant.1063 = s32[] constant(0), metadata={op_type="Slice" op_name="while/Slice_6" source_file="dummy_file_name" source_line=10}
  broadcast.1064 = s32[2]{0} broadcast(constant.1063), dimensions={}, metadata={op_type="Slice" op_name="while/Slice_6" source_file="dummy_file_name" source_line=10}
  constant.1065 = s32[2]{0} constant({48, 512}), metadata={op_type="Slice" op_name="while/Slice_6" source_file="dummy_file_name" source_line=10}
  constant.1068 = s32[1]{0} constant({-1}), metadata={op_type="Reshape" op_name="while/bert/embeddings/Reshape_1" source_file="dummy_file_name" source_line=10}
  constant.1070 = s32[3]{0} constant({48, 512, 128}), metadata={op_type="RandomUniform" op_name="while/bert/embeddings/dropout/random_uniform/RandomUniform" source_file="dummy_file_name" source_line=10}
  constant.1074 = s32[3]{0} constant({48, 512, 128}), metadata={op_type="RandomUniform" op_name="while/bert/embeddings/dropout/random_uniform/RandomUniform" source_file="dummy_file_name" source_line=10}
  slice.1075 = s32[1]{0} slice(constant.1074), slice={[0:1]}, metadata={op_type="RandomUniform" op_name="while/bert/embeddings/dropout/random_uniform/RandomUniform" source_file="dummy_file_name" source_line=10}
  reshape.1076 = s32[] reshape(slice.1075), metadata={op_type="RandomUniform" op_name="while/bert/embeddings/dropout/random_uniform/RandomUniform" source_file="dummy_file_name" source_line=10}
  convert.1077 = s32[] convert(reshape.1076), metadata={op_type="RandomUniform" op_name="while/bert/embeddings/dropout/random_uniform/RandomUniform" source_file="dummy_file_name" source_line=10}
  slice.1078 = s32[1]{0} slice(constant.1074), slice={[1:2]}, metadata={op_type="RandomUniform" op_name="while/bert/embeddings/dropout/random_uniform/RandomUniform" source_file="dummy_file_name" source_line=10}
  reshape.1079 = s32[] reshape(slice.1078), metadata={op_type="RandomUniform" op_name="while/bert/embeddings/dropout/random_uniform/RandomUniform" source_file="dummy_file_name" source_line=10}
  convert.1080 = s32[] convert(reshape.1079), metadata={op_type="RandomUniform" op_name="while/bert/embeddings/dropout/random_uniform/RandomUniform" source_file="dummy_file_name" source_line=10}
  slice.1081 = s32[1]{0} slice(constant.1074), slice={[2:3]}, metadata={op_type="RandomUniform" op_name="while/bert/embeddings/dropout/random_uniform/RandomUniform" source_file="dummy_file_name" source_line=10}
  reshape.1082 = s32[] reshape(slice.1081), metadata={op_type="RandomUniform" op_name="while/bert/embeddings/dropout/random_uniform/RandomUniform" source_file="dummy_file_name" source_line=10}
  convert.1083 = s32[] convert(reshape.1082), metadata={op_type="RandomUniform" op_name="while/bert/embeddings/dropout/random_uniform/RandomUniform" source_file="dummy_file_name" source_line=10}
  constant.1084 = bf16[] constant(0.1001), metadata={op_type="GreaterEqual" op_name="while/bert/embeddings/dropout/GreaterEqual" source_file="dummy_file_name" source_line=10}
  constant.1088 = s32[] constant(2), metadata={op_type="OneHot" op_name="while/bert/embeddings/one_hot" source_file="dummy_file_name" source_line=10}
  constant.1097 = s32[3]{0} constant({48, 1, 512}), metadata={op_type="Reshape" op_name="while/bert/encoder/Reshape" source_file="dummy_file_name" source_line=10}
  constant.1100 = s32[3]{0} constant({48, 512, 128}), metadata={op_type="RandomUniform" op_name="while/bert/encoder/layer_common/attention/output/dropout/random_uniform/RandomUniform" source_file="dummy_file_name" source_line=10}
  constant.1104 = s32[3]{0} constant({48, 512, 128}), metadata={op_type="RandomUniform" op_name="while/bert/encoder/layer_common/attention/output/dropout/random_uniform/RandomUniform" source_file="dummy_file_name" source_line=10}
  slice.1105 = s32[1]{0} slice(constant.1104), slice={[0:1]}, metadata={op_type="RandomUniform" op_name="while/bert/encoder/layer_common/attention/output/dropout/random_uniform/RandomUniform" source_file="dummy_file_name" source_line=10}
  reshape.1106 = s32[] reshape(slice.1105), metadata={op_type="RandomUniform" op_name="while/bert/encoder/layer_common/attention/output/dropout/random_uniform/RandomUniform" source_file="dummy_file_name" source_line=10}
  convert.1107 = s32[] convert(reshape.1106), metadata={op_type="RandomUniform" op_name="while/bert/encoder/layer_common/attention/output/dropout/random_uniform/RandomUniform" source_file="dummy_file_name" source_line=10}
  slice.1108 = s32[1]{0} slice(constant.1104), slice={[1:2]}, metadata={op_type="RandomUniform" op_name="while/bert/encoder/layer_common/attention/output/dropout/random_uniform/RandomUniform" source_file="dummy_file_name" source_line=10}
  reshape.1109 = s32[] reshape(slice.1108), metadata={op_type="RandomUniform" op_name="while/bert/encoder/layer_common/attention/output/dropout/random_uniform/RandomUniform" source_file="dummy_file_name" source_line=10}
  convert.1110 = s32[] convert(reshape.1109), metadata={op_type="RandomUniform" op_name="while/bert/encoder/layer_common/attention/output/dropout/random_uniform/RandomUniform" source_file="dummy_file_name" source_line=10}
  slice.1111 = s32[1]{0} slice(constant.1104), slice={[2:3]}, metadata={op_type="RandomUniform" op_name="while/bert/encoder/layer_common/attention/output/dropout/random_uniform/RandomUniform" source_file="dummy_file_name" source_line=10}
  reshape.1112 = s32[] reshape(slice.1111), metadata={op_type="RandomUniform" op_name="while/bert/encoder/layer_common/attention/output/dropout/random_uniform/RandomUniform" source_file="dummy_file_name" source_line=10}
  convert.1113 = s32[] convert(reshape.1112), metadata={op_type="RandomUniform" op_name="while/bert/encoder/layer_common/attention/output/dropout/random_uniform/RandomUniform" source_file="dummy_file_name" source_line=10}
  constant.1114 = bf16[] constant(0.1001), metadata={op_type="GreaterEqual" op_name="while/bert/encoder/layer_common/attention/output/dropout/GreaterEqual" source_file="dummy_file_name" source_line=10}
  constant.1118 = s32[4]{0} constant({48, 2, 512, 512}), metadata={op_type="RandomUniform" op_name="while/bert/encoder/layer_common/attention/self/random_uniform/RandomUniform" source_file="dummy_file_name" source_line=10}
  constant.1122 = s32[4]{0} constant({48, 2, 512, 512}), metadata={op_type="RandomUniform" op_name="while/bert/encoder/layer_common/attention/self/random_uniform/RandomUniform" source_file="dummy_file_name" source_line=10}
  slice.1123 = s32[1]{0} slice(constant.1122), slice={[0:1]}, metadata={op_type="RandomUniform" op_name="while/bert/encoder/layer_common/attention/self/random_uniform/RandomUniform" source_file="dummy_file_name" source_line=10}
  reshape.1124 = s32[] reshape(slice.1123), metadata={op_type="RandomUniform" op_name="while/bert/encoder/layer_common/attention/self/random_uniform/RandomUniform" source_file="dummy_file_name" source_line=10}
  convert.1125 = s32[] convert(reshape.1124), metadata={op_type="RandomUniform" op_name="while/bert/encoder/layer_common/attention/self/random_uniform/RandomUniform" source_file="dummy_file_name" source_line=10}
  slice.1126 = s32[1]{0} slice(constant.1122), slice={[1:2]}, metadata={op_type="RandomUniform" op_name="while/bert/encoder/layer_common/attention/self/random_uniform/RandomUniform" source_file="dummy_file_name" source_line=10}
  reshape.1127 = s32[] reshape(slice.1126), metadata={op_type="RandomUniform" op_name="while/bert/encoder/layer_common/attention/self/random_uniform/RandomUniform" source_file="dummy_file_name" source_line=10}
  convert.1128 = s32[] convert(reshape.1127), metadata={op_type="RandomUniform" op_name="while/bert/encoder/layer_common/attention/self/random_uniform/RandomUniform" source_file="dummy_file_name" source_line=10}
  slice.1129 = s32[1]{0} slice(constant.1122), slice={[2:3]}, metadata={op_type="RandomUniform" op_name="while/bert/encoder/layer_common/attention/self/random_uniform/RandomUniform" source_file="dummy_file_name" source_line=10}
  reshape.1130 = s32[] reshape(slice.1129), metadata={op_type="RandomUniform" op_name="while/bert/encoder/layer_common/attention/self/random_uniform/RandomUniform" source_file="dummy_file_name" source_line=10}
  convert.1131 = s32[] convert(reshape.1130), metadata={op_type="RandomUniform" op_name="while/bert/encoder/layer_common/attention/self/random_uniform/RandomUniform" source_file="dummy_file_name" source_line=10}
  slice.1132 = s32[1]{0} slice(constant.1122), slice={[3:4]}, metadata={op_type="RandomUniform" op_name="while/bert/encoder/layer_common/attention/self/random_uniform/RandomUniform" source_file="dummy_file_name" source_line=10}
  reshape.1133 = s32[] reshape(slice.1132), metadata={op_type="RandomUniform" op_name="while/bert/encoder/layer_common/attention/self/random_uniform/RandomUniform" source_file="dummy_file_name" source_line=10}
  convert.1134 = s32[] convert(reshape.1133), metadata={op_type="RandomUniform" op_name="while/bert/encoder/layer_common/attention/self/random_uniform/RandomUniform" source_file="dummy_file_name" source_line=10}
  constant.1135 = bf16[] constant(0.1001), metadata={op_type="GreaterEqual" op_name="while/bert/encoder/layer_common/attention/self/GreaterEqual" source_file="dummy_file_name" source_line=10}
  constant.1140 = s32[3]{0} constant({48, 512, 128}), metadata={op_type="RandomUniform" op_name="while/bert/encoder/layer_common/output/dropout/random_uniform/RandomUniform" source_file="dummy_file_name" source_line=10}
  constant.1144 = s32[3]{0} constant({48, 512, 128}), metadata={op_type="RandomUniform" op_name="while/bert/encoder/layer_common/output/dropout/random_uniform/RandomUniform" source_file="dummy_file_name" source_line=10}
  slice.1145 = s32[1]{0} slice(constant.1144), slice={[0:1]}, metadata={op_type="RandomUniform" op_name="while/bert/encoder/layer_common/output/dropout/random_uniform/RandomUniform" source_file="dummy_file_name" source_line=10}
  reshape.1146 = s32[] reshape(slice.1145), metadata={op_type="RandomUniform" op_name="while/bert/encoder/layer_common/output/dropout/random_uniform/RandomUniform" source_file="dummy_file_name" source_line=10}
  convert.1147 = s32[] convert(reshape.1146), metadata={op_type="RandomUniform" op_name="while/bert/encoder/layer_common/output/dropout/random_uniform/RandomUniform" source_file="dummy_file_name" source_line=10}
  slice.1148 = s32[1]{0} slice(constant.1144), slice={[1:2]}, metadata={op_type="RandomUniform" op_name="while/bert/encoder/layer_common/output/dropout/random_uniform/RandomUniform" source_file="dummy_file_name" source_line=10}
  reshape.1149 = s32[] reshape(slice.1148), metadata={op_type="RandomUniform" op_name="while/bert/encoder/layer_common/output/dropout/random_uniform/RandomUniform" source_file="dummy_file_name" source_line=10}
  convert.1150 = s32[] convert(reshape.1149), metadata={op_type="RandomUniform" op_name="while/bert/encoder/layer_common/output/dropout/random_uniform/RandomUniform" source_file="dummy_file_name" source_line=10}
  slice.1151 = s32[1]{0} slice(constant.1144), slice={[2:3]}, metadata={op_type="RandomUniform" op_name="while/bert/encoder/layer_common/output/dropout/random_uniform/RandomUniform" source_file="dummy_file_name" source_line=10}
  reshape.1152 = s32[] reshape(slice.1151), metadata={op_type="RandomUniform" op_name="while/bert/encoder/layer_common/output/dropout/random_uniform/RandomUniform" source_file="dummy_file_name" source_line=10}
  convert.1153 = s32[] convert(reshape.1152), metadata={op_type="RandomUniform" op_name="while/bert/encoder/layer_common/output/dropout/random_uniform/RandomUniform" source_file="dummy_file_name" source_line=10}
  constant.1154 = bf16[] constant(0.1001), metadata={op_type="GreaterEqual" op_name="while/bert/encoder/layer_common/output/dropout/GreaterEqual" source_file="dummy_file_name" source_line=10}
  constant.1158 = s32[3]{0} constant({48, 512, 128}), metadata={op_type="RandomUniform" op_name="while/bert/encoder/layer_common_1/attention/output/dropout/random_uniform/RandomUniform" source_file="dummy_file_name" source_line=10}
  constant.1162 = s32[3]{0} constant({48, 512, 128}), metadata={op_type="RandomUniform" op_name="while/bert/encoder/layer_common_1/attention/output/dropout/random_uniform/RandomUniform" source_file="dummy_file_name" source_line=10}
  slice.1163 = s32[1]{0} slice(constant.1162), slice={[0:1]}, metadata={op_type="RandomUniform" op_name="while/bert/encoder/layer_common_1/attention/output/dropout/random_uniform/RandomUniform" source_file="dummy_file_name" source_line=10}
  reshape.1164 = s32[] reshape(slice.1163), metadata={op_type="RandomUniform" op_name="while/bert/encoder/layer_common_1/attention/output/dropout/random_uniform/RandomUniform" source_file="dummy_file_name" source_line=10}
  convert.1165 = s32[] convert(reshape.1164), metadata={op_type="RandomUniform" op_name="while/bert/encoder/layer_common_1/attention/output/dropout/random_uniform/RandomUniform" source_file="dummy_file_name" source_line=10}
  slice.1166 = s32[1]{0} slice(constant.1162), slice={[1:2]}, metadata={op_type="RandomUniform" op_name="while/bert/encoder/layer_common_1/attention/output/dropout/random_uniform/RandomUniform" source_file="dummy_file_name" source_line=10}
  reshape.1167 = s32[] reshape(slice.1166), metadata={op_type="RandomUniform" op_name="while/bert/encoder/layer_common_1/attention/output/dropout/random_uniform/RandomUniform" source_file="dummy_file_name" source_line=10}
  convert.1168 = s32[] convert(reshape.1167), metadata={op_type="RandomUniform" op_name="while/bert/encoder/layer_common_1/attention/output/dropout/random_uniform/RandomUniform" source_file="dummy_file_name" source_line=10}
  slice.1169 = s32[1]{0} slice(constant.1162), slice={[2:3]}, metadata={op_type="RandomUniform" op_name="while/bert/encoder/layer_common_1/attention/output/dropout/random_uniform/RandomUniform" source_file="dummy_file_name" source_line=10}
  reshape.1170 = s32[] reshape(slice.1169), metadata={op_type="RandomUniform" op_name="while/bert/encoder/layer_common_1/attention/output/dropout/random_uniform/RandomUniform" source_file="dummy_file_name" source_line=10}
  convert.1171 = s32[] convert(reshape.1170), metadata={op_type="RandomUniform" op_name="while/bert/encoder/layer_common_1/attention/output/dropout/random_uniform/RandomUniform" source_file="dummy_file_name" source_line=10}
  constant.1172 = bf16[] constant(0.1001), metadata={op_type="GreaterEqual" op_name="while/bert/encoder/layer_common_1/attention/output/dropout/GreaterEqual" source_file="dummy_file_name" source_line=10}
  constant.1176 = s32[4]{0} constant({48, 2, 512, 512}), metadata={op_type="RandomUniform" op_name="while/bert/encoder/layer_common_1/attention/self/random_uniform/RandomUniform" source_file="dummy_file_name" source_line=10}
  constant.1180 = s32[4]{0} constant({48, 2, 512, 512}), metadata={op_type="RandomUniform" op_name="while/bert/encoder/layer_common_1/attention/self/random_uniform/RandomUniform" source_file="dummy_file_name" source_line=10}
  slice.1181 = s32[1]{0} slice(constant.1180), slice={[0:1]}, metadata={op_type="RandomUniform" op_name="while/bert/encoder/layer_common_1/attention/self/random_uniform/RandomUniform" source_file="dummy_file_name" source_line=10}
  reshape.1182 = s32[] reshape(slice.1181), metadata={op_type="RandomUniform" op_name="while/bert/encoder/layer_common_1/attention/self/random_uniform/RandomUniform" source_file="dummy_file_name" source_line=10}
  convert.1183 = s32[] convert(reshape.1182), metadata={op_type="RandomUniform" op_name="while/bert/encoder/layer_common_1/attention/self/random_uniform/RandomUniform" source_file="dummy_file_name" source_line=10}
  slice.1184 = s32[1]{0} slice(constant.1180), slice={[1:2]}, metadata={op_type="RandomUniform" op_name="while/bert/encoder/layer_common_1/attention/self/random_uniform/RandomUniform" source_file="dummy_file_name" source_line=10}
  reshape.1185 = s32[] reshape(slice.1184), metadata={op_type="RandomUniform" op_name="while/bert/encoder/layer_common_1/attention/self/random_uniform/RandomUniform" source_file="dummy_file_name" source_line=10}
  convert.1186 = s32[] convert(reshape.1185), metadata={op_type="RandomUniform" op_name="while/bert/encoder/layer_common_1/attention/self/random_uniform/RandomUniform" source_file="dummy_file_name" source_line=10}
  slice.1187 = s32[1]{0} slice(constant.1180), slice={[2:3]}, metadata={op_type="RandomUniform" op_name="while/bert/encoder/layer_common_1/attention/self/random_uniform/RandomUniform" source_file="dummy_file_name" source_line=10}
  reshape.1188 = s32[] reshape(slice.1187), metadata={op_type="RandomUniform" op_name="while/bert/encoder/layer_common_1/attention/self/random_uniform/RandomUniform" source_file="dummy_file_name" source_line=10}
  convert.1189 = s32[] convert(reshape.1188), metadata={op_type="RandomUniform" op_name="while/bert/encoder/layer_common_1/attention/self/random_uniform/RandomUniform" source_file="dummy_file_name" source_line=10}
  slice.1190 = s32[1]{0} slice(constant.1180), slice={[3:4]}, metadata={op_type="RandomUniform" op_name="while/bert/encoder/layer_common_1/attention/self/random_uniform/RandomUniform" source_file="dummy_file_name" source_line=10}
  reshape.1191 = s32[] reshape(slice.1190), metadata={op_type="RandomUniform" op_name="while/bert/encoder/layer_common_1/attention/self/random_uniform/RandomUniform" source_file="dummy_file_name" source_line=10}
  convert.1192 = s32[] convert(reshape.1191), metadata={op_type="RandomUniform" op_name="while/bert/encoder/layer_common_1/attention/self/random_uniform/RandomUniform" source_file="dummy_file_name" source_line=10}
  constant.1193 = bf16[] constant(0.1001), metadata={op_type="GreaterEqual" op_name="while/bert/encoder/layer_common_1/attention/self/GreaterEqual" source_file="dummy_file_name" source_line=10}
  constant.1198 = s32[3]{0} constant({48, 512, 128}), metadata={op_type="RandomUniform" op_name="while/bert/encoder/layer_common_1/output/dropout/random_uniform/RandomUniform" source_file="dummy_file_name" source_line=10}
  constant.1202 = s32[3]{0} constant({48, 512, 128}), metadata={op_type="RandomUniform" op_name="while/bert/encoder/layer_common_1/output/dropout/random_uniform/RandomUniform" source_file="dummy_file_name" source_line=10}
  slice.1203 = s32[1]{0} slice(constant.1202), slice={[0:1]}, metadata={op_type="RandomUniform" op_name="while/bert/encoder/layer_common_1/output/dropout/random_uniform/RandomUniform" source_file="dummy_file_name" source_line=10}
  reshape.1204 = s32[] reshape(slice.1203), metadata={op_type="RandomUniform" op_name="while/bert/encoder/layer_common_1/output/dropout/random_uniform/RandomUniform" source_file="dummy_file_name" source_line=10}
  convert.1205 = s32[] convert(reshape.1204), metadata={op_type="RandomUniform" op_name="while/bert/encoder/layer_common_1/output/dropout/random_uniform/RandomUniform" source_file="dummy_file_name" source_line=10}
  slice.1206 = s32[1]{0} slice(constant.1202), slice={[1:2]}, metadata={op_type="RandomUniform" op_name="while/bert/encoder/layer_common_1/output/dropout/random_uniform/RandomUniform" source_file="dummy_file_name" source_line=10}
  reshape.1207 = s32[] reshape(slice.1206), metadata={op_type="RandomUniform" op_name="while/bert/encoder/layer_common_1/output/dropout/random_uniform/RandomUniform" source_file="dummy_file_name" source_line=10}
  convert.1208 = s32[] convert(reshape.1207), metadata={op_type="RandomUniform" op_name="while/bert/encoder/layer_common_1/output/dropout/random_uniform/RandomUniform" source_file="dummy_file_name" source_line=10}
  slice.1209 = s32[1]{0} slice(constant.1202), slice={[2:3]}, metadata={op_type="RandomUniform" op_name="while/bert/encoder/layer_common_1/output/dropout/random_uniform/RandomUniform" source_file="dummy_file_name" source_line=10}
  reshape.1210 = s32[] reshape(slice.1209), metadata={op_type="RandomUniform" op_name="while/bert/encoder/layer_common_1/output/dropout/random_uniform/RandomUniform" source_file="dummy_file_name" source_line=10}
  convert.1211 = s32[] convert(reshape.1210), metadata={op_type="RandomUniform" op_name="while/bert/encoder/layer_common_1/output/dropout/random_uniform/RandomUniform" source_file="dummy_file_name" source_line=10}
  constant.1212 = bf16[] constant(0.1001), metadata={op_type="GreaterEqual" op_name="while/bert/encoder/layer_common_1/output/dropout/GreaterEqual" source_file="dummy_file_name" source_line=10}
  constant.1216 = bf16[] constant(1), metadata={op_type="Mul" op_name="while/bert/encoder/mul" source_file="dummy_file_name" source_line=10}
  broadcast.1217 = bf16[48,512,1]{2,1,0} broadcast(constant.1216), dimensions={}, metadata={op_type="Mul" op_name="while/bert/encoder/mul" source_file="dummy_file_name" source_line=10}
  constant.1226 = bf16[] constant(1), metadata={op_type="Sub" op_name="while/bert/encoder/layer_common/attention/self/sub" source_file="dummy_file_name" source_line=10}
  constant.1230 = bf16[] constant(-9984), metadata={op_type="Mul" op_name="while/bert/encoder/layer_common/attention/self/mul_1" source_file="dummy_file_name" source_line=10}
  constant.1235 = bf16[] constant(1), metadata={op_type="Sub" op_name="while/bert/encoder/layer_common_1/attention/self/sub" source_file="dummy_file_name" source_line=10}
  constant.1239 = bf16[] constant(-9984), metadata={op_type="Mul" op_name="while/bert/encoder/layer_common_1/attention/self/mul_1" source_file="dummy_file_name" source_line=10}
  constant.1243 = s32[1]{0} constant({-1}), metadata={op_type="Reshape" op_name="while/cls/predictions/Reshape" source_file="dummy_file_name" source_line=10}
  constant.1245 = s32[1]{0} constant({-1}), metadata={op_type="Reshape" op_name="while/cls/predictions/Reshape_1" source_file="dummy_file_name" source_line=10}
  constant.1252 = f32[] constant(1e-05), metadata={op_type="AddV2" op_name="while/cls/predictions/add" source_file="dummy_file_name" source_line=10}
  constant.1255 = s32[] constant(30522), metadata={op_type="OneHot" op_name="while/cls/predictions/one_hot" source_file="dummy_file_name" source_line=10}
  constant.1264 = s32[1]{0} constant({-1}), metadata={op_type="Reshape" op_name="while/cls/seq_relationship/Reshape" source_file="dummy_file_name" source_line=10}
  constant.1266 = s32[] constant(2), metadata={op_type="OneHot" op_name="while/cls/seq_relationship/one_hot" source_file="dummy_file_name" source_line=10}
  constant.1275 = f32[] constant(1), metadata={op_type="RealDiv" op_name="while/gradients/while/cls/predictions/truediv_grad/RealDiv" source_file="dummy_file_name" source_line=10}
  constant.1278 = s32[1]{0} constant({3648}), metadata={op_type="Reshape" op_name="while/gradients/while/GatherV2_grad/Reshape_1" source_file="dummy_file_name" source_line=10}
  constant.1280 = s32[3]{0} constant({48, 512, 128}), metadata={op_type="BroadcastGradientArgs" op_name="while/gradients/while/bert/embeddings/dropout/SelectV2_grad/BroadcastGradientArgs" source_file="dummy_file_name" source_line=10}
  constant.1281 = s32[3]{0} constant({48, 512, 128}), metadata={op_type="BroadcastGradientArgs" op_name="while/gradients/while/bert/embeddings/dropout/SelectV2_grad/BroadcastGradientArgs" source_file="dummy_file_name" source_line=10}
  constant.1282 = s32[1]{0} constant({24576}), metadata={op_type="Reshape" op_name="while/gradients/while/bert/embeddings/embedding_lookup_grad/Reshape_1" source_file="dummy_file_name" source_line=10}
  constant.1284 = s32[3]{0} constant({48, 512, 128}), metadata={op_type="BroadcastGradientArgs" op_name="while/gradients/while/bert/encoder/layer_common/attention/output/dropout/SelectV2_grad/BroadcastGradientArgs" source_file="dummy_file_name" source_line=10}
  constant.1285 = s32[3]{0} constant({48, 512, 128}), metadata={op_type="BroadcastGradientArgs" op_name="while/gradients/while/bert/encoder/layer_common/attention/output/dropout/SelectV2_grad/BroadcastGradientArgs" source_file="dummy_file_name" source_line=10}
  constant.1286 = s32[4]{0} constant({48, 512, 2, 64}), metadata={op_type="BroadcastGradientArgs" op_name="while/gradients/while/bert/encoder/layer_common/attention/self/truediv_grad/BroadcastGradientArgs" source_file="dummy_file_name" source_line=10}
  constant.1287 = s32[4]{0} constant({48, 512, 2, 1}), metadata={op_type="BroadcastGradientArgs" op_name="while/gradients/while/bert/encoder/layer_common/attention/self/truediv_grad/BroadcastGradientArgs" source_file="dummy_file_name" source_line=10}
  constant.1288 = s32[3]{0} constant({48, 512, 128}), metadata={op_type="BroadcastGradientArgs" op_name="while/gradients/while/bert/encoder/layer_common/output/dropout/SelectV2_grad/BroadcastGradientArgs" source_file="dummy_file_name" source_line=10}
  constant.1289 = s32[3]{0} constant({48, 512, 128}), metadata={op_type="BroadcastGradientArgs" op_name="while/gradients/while/bert/encoder/layer_common/output/dropout/SelectV2_grad/BroadcastGradientArgs" source_file="dummy_file_name" source_line=10}
  constant.1290 = s32[3]{0} constant({48, 512, 128}), metadata={op_type="BroadcastGradientArgs" op_name="while/gradients/while/bert/encoder/layer_common_1/attention/output/dropout/SelectV2_grad/BroadcastGradientArgs" source_file="dummy_file_name" source_line=10}
  constant.1291 = s32[3]{0} constant({48, 512, 128}), metadata={op_type="BroadcastGradientArgs" op_name="while/gradients/while/bert/encoder/layer_common_1/attention/output/dropout/SelectV2_grad/BroadcastGradientArgs" source_file="dummy_file_name" source_line=10}
  constant.1292 = s32[4]{0} constant({48, 512, 2, 64}), metadata={op_type="BroadcastGradientArgs" op_name="while/gradients/while/bert/encoder/layer_common_1/attention/self/truediv_grad/BroadcastGradientArgs" source_file="dummy_file_name" source_line=10}
  constant.1293 = s32[4]{0} constant({48, 512, 2, 1}), metadata={op_type="BroadcastGradientArgs" op_name="while/gradients/while/bert/encoder/layer_common_1/attention/self/truediv_grad/BroadcastGradientArgs" source_file="dummy_file_name" source_line=10}
  constant.1294 = s32[3]{0} constant({48, 512, 128}), metadata={op_type="BroadcastGradientArgs" op_name="while/gradients/while/bert/encoder/layer_common_1/output/dropout/SelectV2_grad/BroadcastGradientArgs" source_file="dummy_file_name" source_line=10}
  constant.1295 = s32[3]{0} constant({48, 512, 128}), metadata={op_type="BroadcastGradientArgs" op_name="while/gradients/while/bert/encoder/layer_common_1/output/dropout/SelectV2_grad/BroadcastGradientArgs" source_file="dummy_file_name" source_line=10}
  constant.1296 = s32[0]{0} constant({}), metadata={op_type="BroadcastGradientArgs" op_name="while/gradients/while/cls/predictions/truediv_grad/BroadcastGradientArgs" source_file="dummy_file_name" source_line=10}
  constant.1297 = s32[0]{0} constant({}), metadata={op_type="BroadcastGradientArgs" op_name="while/gradients/while/cls/predictions/truediv_grad/BroadcastGradientArgs" source_file="dummy_file_name" source_line=10}
  constant.1298 = s32[0]{0} constant({}), metadata={op_type="Reshape" op_name="while/gradients/while/cls/predictions/truediv_grad/Reshape" source_file="dummy_file_name" source_line=10}
  constant.1300 = s32[1]{0} constant({1}), metadata={op_type="Reshape" op_name="while/gradients/while/cls/predictions/Sum_1_grad/Reshape" source_file="dummy_file_name" source_line=10}
  constant.1302 = s32[1]{0} constant({3648}), metadata={op_type="Tile" op_name="while/gradients/while/cls/predictions/Sum_1_grad/Tile" source_file="dummy_file_name" source_line=10}
  constant.1308 = s32[2]{0} constant({3648, 1}), metadata={op_type="Reshape" op_name="while/gradients/while/cls/predictions/Sum_grad/Reshape" source_file="dummy_file_name" source_line=10}
  constant.1310 = s32[2]{0} constant({1, 30522}), metadata={op_type="Tile" op_name="while/gradients/while/cls/predictions/Sum_grad/Tile" source_file="dummy_file_name" source_line=10}
  constant.1321 = f32[] constant(-0.020833334), metadata={op_type="Mul" op_name="while/gradients/while/cls/seq_relationship/mul_grad/Mul_1" source_file="dummy_file_name" source_line=10}
  broadcast.1322 = f32[48,2]{1,0} broadcast(constant.1321), dimensions={}, metadata={op_type="Mul" op_name="while/gradients/while/cls/seq_relationship/mul_grad/Mul_1" source_file="dummy_file_name" source_line=10}
  constant.1334 = s32[] constant(0), metadata={op_type="GatherV2" op_name="while/bert/encoder/layer_common/output/LayerNorm/GatherV2" source_file="dummy_file_name" source_line=10}
  constant.1339 = s32[] constant(0), metadata={op_type="GatherV2" op_name="while/bert/encoder/layer_common_1/output/LayerNorm/GatherV2" source_file="dummy_file_name" source_line=10}
  constant.1342 = f32[] constant(0.9), metadata={op_type="Mul" op_name="while/LAMB/update_cls/seq_relationship/output_weights/mul_1" source_file="dummy_file_name" source_line=10}
  constant.1346 = f32[] constant(0.999), metadata={op_type="Mul" op_name="while/LAMB/update_cls/seq_relationship/output_weights/mul_4" source_file="dummy_file_name" source_line=10}
  constant.1351 = s32[] constant(0), metadata={op_type="Sub" op_name="while/sub" source_file="dummy_file_name" source_line=10}
  constant.1355 = f32[] constant(100), metadata={op_type="RealDiv" op_name="while/truediv" source_file="dummy_file_name" source_line=10}
  constant.1358 = f32[] constant(0.0015), metadata={op_type="Mul" op_name="while/mul_1" source_file="dummy_file_name" source_line=10}
  constant.1361 = s32[] constant(100), metadata={op_type="Less" op_name="while/Less_1" source_file="dummy_file_name" source_line=10}
  constant.1366 = f32[] constant(1), metadata={op_type="Sub" op_name="while/sub_1" source_file="dummy_file_name" source_line=10}
  constant.1370 = f32[] constant(1141), metadata={op_type="Minimum" op_name="while/PolynomialDecay/Minimum" source_file="dummy_file_name" source_line=10}
  constant.1373 = f32[] constant(1141), metadata={op_type="RealDiv" op_name="while/PolynomialDecay/truediv" source_file="dummy_file_name" source_line=10}
  constant.1376 = f32[] constant(1), metadata={op_type="Sub" op_name="while/PolynomialDecay/sub_1" source_file="dummy_file_name" source_line=10}
  constant.1379 = f32[] constant(1), metadata={op_type="Pow" op_name="while/PolynomialDecay/Pow" source_file="dummy_file_name" source_line=10}
  constant.1382 = f32[] constant(0.0015), metadata={op_type="Mul" op_name="while/PolynomialDecay/Mul" source_file="dummy_file_name" source_line=10}
  constant.1385 = f32[] constant(0), metadata={op_type="AddV2" op_name="while/PolynomialDecay" source_file="dummy_file_name" source_line=10}
  constant.1390 = f32[] constant(1), metadata={op_type="Mul" op_name="while/LAMB/update_bert/embeddings/LayerNorm/beta/mul_5" source_file="dummy_file_name" source_line=10}
  constant.1393 = f32[] constant(1), metadata={op_type="Mul" op_name="while/LAMB/update_bert/embeddings/LayerNorm/gamma/mul_5" source_file="dummy_file_name" source_line=10}
  constant.1396 = f32[] constant(1), metadata={op_type="Mul" op_name="while/LAMB/update_bert/encoder/layer_common/attention/output/LayerNorm/beta/mul_5" source_file="dummy_file_name" source_line=10}
  constant.1399 = f32[] constant(1), metadata={op_type="Mul" op_name="while/LAMB/update_bert/encoder/layer_common/attention/output/LayerNorm/gamma/mul_5" source_file="dummy_file_name" source_line=10}
  constant.1402 = f32[] constant(1), metadata={op_type="Mul" op_name="while/LAMB/update_bert/encoder/layer_common/attention/output/dense/bias/mul_5" source_file="dummy_file_name" source_line=10}
  constant.1405 = f32[] constant(1), metadata={op_type="Mul" op_name="while/LAMB/update_bert/encoder/layer_common/attention/self/key/bias/mul_5" source_file="dummy_file_name" source_line=10}
  constant.1408 = f32[] constant(1), metadata={op_type="Mul" op_name="while/LAMB/update_bert/encoder/layer_common/attention/self/query/bias/mul_5" source_file="dummy_file_name" source_line=10}
  constant.1411 = f32[] constant(1), metadata={op_type="Mul" op_name="while/LAMB/update_bert/encoder/layer_common/attention/self/value/bias/mul_5" source_file="dummy_file_name" source_line=10}
  constant.1414 = f32[] constant(1), metadata={op_type="Mul" op_name="while/LAMB/update_bert/encoder/layer_common/intermediate/dense/bias/mul_5" source_file="dummy_file_name" source_line=10}
  constant.1417 = f32[] constant(1), metadata={op_type="Mul" op_name="while/LAMB/update_bert/encoder/layer_common/output/LayerNorm/beta/mul_5" source_file="dummy_file_name" source_line=10}
  constant.1420 = f32[] constant(1), metadata={op_type="Mul" op_name="while/LAMB/update_bert/encoder/layer_common/output/LayerNorm/gamma/mul_5" source_file="dummy_file_name" source_line=10}
  constant.1423 = f32[] constant(1), metadata={op_type="Mul" op_name="while/LAMB/update_bert/encoder/layer_common/output/dense/bias/mul_5" source_file="dummy_file_name" source_line=10}
  constant.1426 = f32[] constant(1), metadata={op_type="Mul" op_name="while/LAMB/update_bert/pooler/dense/bias/mul_5" source_file="dummy_file_name" source_line=10}
  constant.1429 = f32[] constant(1), metadata={op_type="Mul" op_name="while/LAMB/update_cls/predictions/output_bias/mul_5" source_file="dummy_file_name" source_line=10}
  constant.1432 = f32[] constant(1), metadata={op_type="Mul" op_name="while/LAMB/update_cls/predictions/transform/LayerNorm/beta/mul_5" source_file="dummy_file_name" source_line=10}
  constant.1435 = f32[] constant(1), metadata={op_type="Mul" op_name="while/LAMB/update_cls/predictions/transform/LayerNorm/gamma/mul_5" source_file="dummy_file_name" source_line=10}
  constant.1438 = f32[] constant(1), metadata={op_type="Mul" op_name="while/LAMB/update_cls/predictions/transform/dense/bias/mul_5" source_file="dummy_file_name" source_line=10}
  constant.1441 = f32[] constant(1), metadata={op_type="Mul" op_name="while/LAMB/update_cls/seq_relationship/output_bias/mul_5" source_file="dummy_file_name" source_line=10}
  constant.1444 = s32[1]{0} constant({-1}), metadata={op_type="Reshape" op_name="while/Reshape_4" source_file="dummy_file_name" source_line=10}
  constant.1446 = f32[] constant(0.01), metadata={op_type="Mul" op_name="while/LAMB/update_bert/embeddings/word_embeddings/mul_5" source_file="dummy_file_name" source_line=10}
  constant.1459 = f32[] constant(0), metadata={op_type="Greater" op_name="while/LAMB/update_bert/embeddings/word_embeddings/Greater" source_file="dummy_file_name" source_line=10}
  constant.1463 = s32[] constant(0), metadata={op_type="GatherV2" op_name="while/bert/embeddings/embedding_lookup" source_file="dummy_file_name" source_line=10}
  constant.1465 = s32[3]{0} constant({48, 512, 128}), metadata={op_type="Reshape" op_name="while/bert/embeddings/Reshape" source_file="dummy_file_name" source_line=10}
  constant.1467 = f32[] constant(0.01), metadata={op_type="Mul" op_name="while/LAMB/update_bert/embeddings/token_type_embeddings/mul_5" source_file="dummy_file_name" source_line=10}
  constant.1480 = f32[] constant(0), metadata={op_type="Greater" op_name="while/LAMB/update_bert/embeddings/token_type_embeddings/Greater" source_file="dummy_file_name" source_line=10}
  constant.1486 = s32[3]{0} constant({48, 512, 128}), metadata={op_type="Reshape" op_name="while/bert/embeddings/Reshape_2" source_file="dummy_file_name" source_line=10}
  constant.1489 = f32[] constant(0.01), metadata={op_type="Mul" op_name="while/LAMB/update_bert/embeddings/position_embeddings/mul_5" source_file="dummy_file_name" source_line=10}
  constant.1502 = f32[] constant(0), metadata={op_type="Greater" op_name="while/LAMB/update_bert/embeddings/position_embeddings/Greater" source_file="dummy_file_name" source_line=10}
  constant.1506 = s32[] constant(0), metadata={op_type="Slice" op_name="while/bert/embeddings/Slice" source_file="dummy_file_name" source_line=10}
  broadcast.1507 = s32[2]{0} broadcast(constant.1506), dimensions={}, metadata={op_type="Slice" op_name="while/bert/embeddings/Slice" source_file="dummy_file_name" source_line=10}
  constant.1508 = s32[2]{0} constant({512, -1}), metadata={op_type="Slice" op_name="while/bert/embeddings/Slice" source_file="dummy_file_name" source_line=10}
  constant.1510 = s32[3]{0} constant({1, 512, 128}), metadata={op_type="Reshape" op_name="while/bert/embeddings/Reshape_3" source_file="dummy_file_name" source_line=10}
  constant.1523 = f32[] constant(0.0078125), metadata={op_type="Mul" op_name="while/bert/embeddings/LayerNorm/normalize/Mul" source_file="dummy_file_name" source_line=10}
  constant.1533 = f32[] constant(0.0078125), metadata={op_type="Mul" op_name="while/bert/embeddings/LayerNorm/normalize/mean" source_file="dummy_file_name" source_line=10}
  constant.1539 = f32[] constant(1e-12), metadata={op_type="AddV2" op_name="while/bert/embeddings/LayerNorm/add" source_file="dummy_file_name" source_line=10}
  constant.1555 = bf16[] constant(1.109), metadata={op_type="Mul" op_name="while/bert/embeddings/dropout/Mul" source_file="dummy_file_name" source_line=10}
  constant.1564 = s32[] constant(0), metadata={op_type="GatherV2" op_name="while/bert/encoder/layer_common/output/LayerNorm/GatherV2_1" source_file="dummy_file_name" source_line=10}
  constant.1569 = s32[] constant(0), metadata={op_type="GatherV2" op_name="while/bert/encoder/layer_common_1/output/LayerNorm/GatherV2_1" source_file="dummy_file_name" source_line=10}
  constant.1572 = f32[] constant(0.01), metadata={op_type="Mul" op_name="while/LAMB/update_cls/predictions/transform/dense/kernel/mul_5" source_file="dummy_file_name" source_line=10}
  constant.1585 = f32[] constant(0), metadata={op_type="Greater" op_name="while/LAMB/update_cls/predictions/transform/dense/kernel/Greater" source_file="dummy_file_name" source_line=10}
  constant.1588 = f32[] constant(0.01), metadata={op_type="Mul" op_name="while/LAMB/update_cls/seq_relationship/output_weights/mul_5" source_file="dummy_file_name" source_line=10}
  constant.1601 = f32[] constant(0), metadata={op_type="Greater" op_name="while/LAMB/update_cls/seq_relationship/output_weights/Greater" source_file="dummy_file_name" source_line=10}
  constant.1605 = f32[] constant(0.01), metadata={op_type="Mul" op_name="while/LAMB/update_bert/encoder/layer_common/attention/self/query/layer_1/kernel/mul_5" source_file="dummy_file_name" source_line=10}
  constant.1618 = f32[] constant(0), metadata={op_type="Greater" op_name="while/LAMB/update_bert/encoder/layer_common/attention/self/query/layer_1/kernel/Greater" source_file="dummy_file_name" source_line=10}
  constant.1622 = f32[] constant(0.01), metadata={op_type="Mul" op_name="while/LAMB/update_bert/encoder/layer_common/attention/self/key/layer_1/kernel/mul_5" source_file="dummy_file_name" source_line=10}
  constant.1635 = f32[] constant(0), metadata={op_type="Greater" op_name="while/LAMB/update_bert/encoder/layer_common/attention/self/key/layer_1/kernel/Greater" source_file="dummy_file_name" source_line=10}
  constant.1641 = f32[] constant(0.01), metadata={op_type="Mul" op_name="while/LAMB/update_bert/encoder/layer_common/attention/self/key/layer_0/kernel/mul_5" source_file="dummy_file_name" source_line=10}
  constant.1654 = f32[] constant(0), metadata={op_type="Greater" op_name="while/LAMB/update_bert/encoder/layer_common/attention/self/key/layer_0/kernel/Greater" source_file="dummy_file_name" source_line=10}
  constant.1658 = f32[] constant(0.01), metadata={op_type="Mul" op_name="while/LAMB/update_bert/encoder/layer_common/attention/self/value/layer_1/kernel/mul_5" source_file="dummy_file_name" source_line=10}
  constant.1671 = f32[] constant(0), metadata={op_type="Greater" op_name="while/LAMB/update_bert/encoder/layer_common/attention/self/value/layer_1/kernel/Greater" source_file="dummy_file_name" source_line=10}
  constant.1675 = f32[] constant(0.01), metadata={op_type="Mul" op_name="while/LAMB/update_bert/encoder/layer_common/attention/output/dense/layer_1/kernel/mul_5" source_file="dummy_file_name" source_line=10}
  constant.1688 = f32[] constant(0), metadata={op_type="Greater" op_name="while/LAMB/update_bert/encoder/layer_common/attention/output/dense/layer_1/kernel/Greater" source_file="dummy_file_name" source_line=10}
  constant.1692 = f32[] constant(0.01), metadata={op_type="Mul" op_name="while/LAMB/update_bert/encoder/layer_common/intermediate/dense/layer_1/kernel/mul_5" source_file="dummy_file_name" source_line=10}
  constant.1705 = f32[] constant(0), metadata={op_type="Greater" op_name="while/LAMB/update_bert/encoder/layer_common/intermediate/dense/layer_1/kernel/Greater" source_file="dummy_file_name" source_line=10}
  constant.1709 = f32[] constant(0.01), metadata={op_type="Mul" op_name="while/LAMB/update_bert/encoder/layer_common/output/dense/layer_1/kernel/mul_5" source_file="dummy_file_name" source_line=10}
  constant.1722 = f32[] constant(0), metadata={op_type="Greater" op_name="while/LAMB/update_bert/encoder/layer_common/output/dense/layer_1/kernel/Greater" source_file="dummy_file_name" source_line=10}
  constant.1727 = s32[] constant(0), metadata={op_type="GatherV2" op_name="while/bert/encoder/layer_common_1/attention/self/key/GatherV2" source_file="dummy_file_name" source_line=10}
  constant.1731 = s32[] constant(0), metadata={op_type="GatherV2" op_name="while/bert/encoder/layer_common/attention/self/key/GatherV2" source_file="dummy_file_name" source_line=10}
  constant.1736 = f32[] constant(0.01), metadata={op_type="Mul" op_name="while/LAMB/update_bert/pooler/dense/kernel/mul_5" source_file="dummy_file_name" source_line=10}
  constant.1749 = f32[] constant(0), metadata={op_type="Greater" op_name="while/LAMB/update_bert/pooler/dense/kernel/Greater" source_file="dummy_file_name" source_line=10}
  constant.1756 = f32[] constant(0.01), metadata={op_type="Mul" op_name="while/LAMB/update_bert/encoder/layer_common/attention/self/value/layer_0/kernel/mul_5" source_file="dummy_file_name" source_line=10}
  constant.1769 = f32[] constant(0), metadata={op_type="Greater" op_name="while/LAMB/update_bert/encoder/layer_common/attention/self/value/layer_0/kernel/Greater" source_file="dummy_file_name" source_line=10}
  constant.1774 = s32[] constant(0), metadata={op_type="GatherV2" op_name="while/bert/encoder/layer_common_1/attention/self/value/GatherV2" source_file="dummy_file_name" source_line=10}
  constant.1778 = s32[] constant(0), metadata={op_type="GatherV2" op_name="while/bert/encoder/layer_common/attention/self/value/GatherV2" source_file="dummy_file_name" source_line=10}
  constant.1783 = f32[] constant(0.01), metadata={op_type="Mul" op_name="while/LAMB/update_bert/encoder/layer_common/attention/output/dense/layer_0/kernel/mul_5" source_file="dummy_file_name" source_line=10}
  constant.1796 = f32[] constant(0), metadata={op_type="Greater" op_name="while/LAMB/update_bert/encoder/layer_common/attention/output/dense/layer_0/kernel/Greater" source_file="dummy_file_name" source_line=10}
  constant.1801 = s32[] constant(0), metadata={op_type="GatherV2" op_name="while/bert/encoder/layer_common_1/attention/output/dense/GatherV2" source_file="dummy_file_name" source_line=10}
  constant.1805 = s32[] constant(0), metadata={op_type="GatherV2" op_name="while/bert/encoder/layer_common/attention/output/dense/GatherV2" source_file="dummy_file_name" source_line=10}
  constant.1809 = s32[] constant(0), metadata={op_type="GatherV2" op_name="while/bert/encoder/layer_common_1/attention/output/LayerNorm/GatherV2" source_file="dummy_file_name" source_line=10}
  constant.1814 = s32[] constant(0), metadata={op_type="GatherV2" op_name="while/bert/encoder/layer_common/attention/output/LayerNorm/GatherV2" source_file="dummy_file_name" source_line=10}
  constant.1819 = s32[] constant(0), metadata={op_type="GatherV2" op_name="while/bert/encoder/layer_common_1/attention/output/LayerNorm/GatherV2_1" source_file="dummy_file_name" source_line=10}
  constant.1824 = s32[] constant(0), metadata={op_type="GatherV2" op_name="while/bert/encoder/layer_common/attention/output/LayerNorm/GatherV2_1" source_file="dummy_file_name" source_line=10}
  constant.1827 = f32[] constant(0.9), metadata={op_type="Mul" op_name="while/LAMB/update_bert/embeddings/LayerNorm/beta/mul_1" source_file="dummy_file_name" source_line=10}
  constant.1831 = f32[] constant(0.999), metadata={op_type="Mul" op_name="while/LAMB/update_bert/embeddings/LayerNorm/beta/mul_4" source_file="dummy_file_name" source_line=10}
  constant.1835 = f32[] constant(0.9), metadata={op_type="Mul" op_name="while/LAMB/update_bert/embeddings/LayerNorm/gamma/mul_1" source_file="dummy_file_name" source_line=10}
  constant.1839 = f32[] constant(0.999), metadata={op_type="Mul" op_name="while/LAMB/update_bert/embeddings/LayerNorm/gamma/mul_4" source_file="dummy_file_name" source_line=10}
  constant.1843 = f32[] constant(0.9), metadata={op_type="Mul" op_name="while/LAMB/update_bert/embeddings/position_embeddings/mul_1" source_file="dummy_file_name" source_line=10}
  constant.1847 = f32[] constant(0.999), metadata={op_type="Mul" op_name="while/LAMB/update_bert/embeddings/position_embeddings/mul_4" source_file="dummy_file_name" source_line=10}
  constant.1851 = f32[] constant(0.9), metadata={op_type="Mul" op_name="while/LAMB/update_bert/embeddings/token_type_embeddings/mul_1" source_file="dummy_file_name" source_line=10}
  constant.1855 = f32[] constant(0.999), metadata={op_type="Mul" op_name="while/LAMB/update_bert/embeddings/token_type_embeddings/mul_4" source_file="dummy_file_name" source_line=10}
  constant.1859 = f32[] constant(0.9), metadata={op_type="Mul" op_name="while/LAMB/update_bert/embeddings/word_embeddings/mul_1" source_file="dummy_file_name" source_line=10}
  constant.1863 = f32[] constant(0.999), metadata={op_type="Mul" op_name="while/LAMB/update_bert/embeddings/word_embeddings/mul_4" source_file="dummy_file_name" source_line=10}
  constant.1867 = f32[] constant(1), metadata={op_type="Sub" op_name="while/LAMB/update_bert/embeddings/LayerNorm/beta/sub_2" source_file="dummy_file_name" source_line=10}
  constant.1870 = f32[] constant(1), metadata={op_type="Sub" op_name="while/LAMB/update_bert/embeddings/LayerNorm/gamma/sub_2" source_file="dummy_file_name" source_line=10}
  constant.1873 = f32[] constant(1), metadata={op_type="Sub" op_name="while/LAMB/update_bert/embeddings/position_embeddings/sub_2" source_file="dummy_file_name" source_line=10}
  constant.1876 = f32[] constant(1), metadata={op_type="Sub" op_name="while/LAMB/update_bert/embeddings/token_type_embeddings/sub_2" source_file="dummy_file_name" source_line=10}
  constant.1879 = f32[] constant(1), metadata={op_type="Sub" op_name="while/LAMB/update_bert/embeddings/word_embeddings/sub_2" source_file="dummy_file_name" source_line=10}
  constant.1882 = f32[] constant(1), metadata={op_type="Sub" op_name="while/LAMB/update_bert/encoder/layer_common/attention/output/LayerNorm/beta/sub_2" source_file="dummy_file_name" source_line=10}
  constant.1885 = f32[] constant(1), metadata={op_type="Sub" op_name="while/LAMB/update_bert/encoder/layer_common/attention/output/LayerNorm/gamma/sub_2" source_file="dummy_file_name" source_line=10}
  constant.1888 = f32[] constant(1), metadata={op_type="Sub" op_name="while/LAMB/update_bert/encoder/layer_common/attention/output/dense/bias/sub_2" source_file="dummy_file_name" source_line=10}
  constant.1891 = f32[] constant(1), metadata={op_type="Sub" op_name="while/LAMB/update_bert/encoder/layer_common/attention/output/dense/layer_0/kernel/sub_2" source_file="dummy_file_name" source_line=10}
  constant.1894 = f32[] constant(1), metadata={op_type="Sub" op_name="while/LAMB/update_bert/encoder/layer_common/attention/output/dense/layer_1/kernel/sub_2" source_file="dummy_file_name" source_line=10}
  constant.1897 = f32[] constant(1), metadata={op_type="Sub" op_name="while/LAMB/update_bert/encoder/layer_common/attention/self/key/bias/sub_2" source_file="dummy_file_name" source_line=10}
  constant.1900 = f32[] constant(1), metadata={op_type="Sub" op_name="while/LAMB/update_bert/encoder/layer_common/attention/self/key/layer_0/kernel/sub_2" source_file="dummy_file_name" source_line=10}
  constant.1903 = f32[] constant(1), metadata={op_type="Sub" op_name="while/LAMB/update_bert/encoder/layer_common/attention/self/key/layer_1/kernel/sub_2" source_file="dummy_file_name" source_line=10}
  constant.1906 = f32[] constant(1), metadata={op_type="Sub" op_name="while/LAMB/update_bert/encoder/layer_common/attention/self/query/bias/sub_2" source_file="dummy_file_name" source_line=10}
  constant.1909 = f32[] constant(1), metadata={op_type="Sub" op_name="while/LAMB/update_bert/encoder/layer_common/attention/self/query/layer_0/kernel/sub_2" source_file="dummy_file_name" source_line=10}
  constant.1912 = f32[] constant(1), metadata={op_type="Sub" op_name="while/LAMB/update_bert/encoder/layer_common/attention/self/query/layer_1/kernel/sub_2" source_file="dummy_file_name" source_line=10}
  constant.1915 = f32[] constant(1), metadata={op_type="Sub" op_name="while/LAMB/update_bert/encoder/layer_common/attention/self/value/bias/sub_2" source_file="dummy_file_name" source_line=10}
  constant.1918 = f32[] constant(1), metadata={op_type="Sub" op_name="while/LAMB/update_bert/encoder/layer_common/attention/self/value/layer_0/kernel/sub_2" source_file="dummy_file_name" source_line=10}
  constant.1921 = f32[] constant(1), metadata={op_type="Sub" op_name="while/LAMB/update_bert/encoder/layer_common/attention/self/value/layer_1/kernel/sub_2" source_file="dummy_file_name" source_line=10}
  constant.1924 = f32[] constant(1), metadata={op_type="Sub" op_name="while/LAMB/update_bert/encoder/layer_common/intermediate/dense/bias/sub_2" source_file="dummy_file_name" source_line=10}
  constant.1927 = f32[] constant(1), metadata={op_type="Sub" op_name="while/LAMB/update_bert/encoder/layer_common/intermediate/dense/layer_0/kernel/sub_2" source_file="dummy_file_name" source_line=10}
  constant.1930 = f32[] constant(1), metadata={op_type="Sub" op_name="while/LAMB/update_bert/encoder/layer_common/intermediate/dense/layer_1/kernel/sub_2" source_file="dummy_file_name" source_line=10}
  constant.1933 = f32[] constant(1), metadata={op_type="Sub" op_name="while/LAMB/update_bert/encoder/layer_common/output/LayerNorm/beta/sub_2" source_file="dummy_file_name" source_line=10}
  constant.1936 = f32[] constant(1), metadata={op_type="Sub" op_name="while/LAMB/update_bert/encoder/layer_common/output/LayerNorm/gamma/sub_2" source_file="dummy_file_name" source_line=10}
  constant.1939 = f32[] constant(1), metadata={op_type="Sub" op_name="while/LAMB/update_bert/encoder/layer_common/output/dense/bias/sub_2" source_file="dummy_file_name" source_line=10}
  constant.1942 = f32[] constant(1), metadata={op_type="Sub" op_name="while/LAMB/update_bert/encoder/layer_common/output/dense/layer_0/kernel/sub_2" source_file="dummy_file_name" source_line=10}
  constant.1945 = f32[] constant(1), metadata={op_type="Sub" op_name="while/LAMB/update_bert/encoder/layer_common/output/dense/layer_1/kernel/sub_2" source_file="dummy_file_name" source_line=10}
  constant.1948 = f32[] constant(1), metadata={op_type="Sub" op_name="while/LAMB/update_bert/pooler/dense/bias/sub_2" source_file="dummy_file_name" source_line=10}
  constant.1951 = f32[] constant(1), metadata={op_type="Sub" op_name="while/LAMB/update_bert/pooler/dense/kernel/sub_2" source_file="dummy_file_name" source_line=10}
  constant.1954 = f32[] constant(1), metadata={op_type="Sub" op_name="while/LAMB/update_cls/predictions/output_bias/sub_2" source_file="dummy_file_name" source_line=10}
  constant.1957 = f32[] constant(1), metadata={op_type="Sub" op_name="while/LAMB/update_cls/predictions/transform/LayerNorm/beta/sub_2" source_file="dummy_file_name" source_line=10}
  constant.1960 = f32[] constant(1), metadata={op_type="Sub" op_name="while/LAMB/update_cls/predictions/transform/LayerNorm/gamma/sub_2" source_file="dummy_file_name" source_line=10}
  constant.1963 = f32[] constant(1), metadata={op_type="Sub" op_name="while/LAMB/update_cls/predictions/transform/dense/bias/sub_2" source_file="dummy_file_name" source_line=10}
  constant.1966 = f32[] constant(1), metadata={op_type="Sub" op_name="while/LAMB/update_cls/predictions/transform/dense/kernel/sub_2" source_file="dummy_file_name" source_line=10}
  constant.1969 = f32[] constant(1), metadata={op_type="Sub" op_name="while/LAMB/update_cls/seq_relationship/output_bias/sub_2" source_file="dummy_file_name" source_line=10}
  constant.1972 = f32[] constant(1), metadata={op_type="Sub" op_name="while/LAMB/update_cls/seq_relationship/output_weights/sub_2" source_file="dummy_file_name" source_line=10}
  constant.1975 = f32[] constant(1), metadata={op_type="Sub" op_name="while/LAMB/update_bert/embeddings/LayerNorm/beta/sub_3" source_file="dummy_file_name" source_line=10}
  constant.1978 = f32[] constant(1), metadata={op_type="Sub" op_name="while/LAMB/update_bert/embeddings/LayerNorm/gamma/sub_3" source_file="dummy_file_name" source_line=10}
  constant.1981 = f32[] constant(1), metadata={op_type="Sub" op_name="while/LAMB/update_bert/embeddings/position_embeddings/sub_3" source_file="dummy_file_name" source_line=10}
  constant.1984 = f32[] constant(1), metadata={op_type="Sub" op_name="while/LAMB/update_bert/embeddings/token_type_embeddings/sub_3" source_file="dummy_file_name" source_line=10}
  constant.1987 = f32[] constant(1), metadata={op_type="Sub" op_name="while/LAMB/update_bert/embeddings/word_embeddings/sub_3" source_file="dummy_file_name" source_line=10}
  constant.1990 = f32[] constant(1), metadata={op_type="Sub" op_name="while/LAMB/update_bert/encoder/layer_common/attention/output/LayerNorm/beta/sub_3" source_file="dummy_file_name" source_line=10}
  constant.1993 = f32[] constant(1), metadata={op_type="Sub" op_name="while/LAMB/update_bert/encoder/layer_common/attention/output/LayerNorm/gamma/sub_3" source_file="dummy_file_name" source_line=10}
  constant.1996 = f32[] constant(1), metadata={op_type="Sub" op_name="while/LAMB/update_bert/encoder/layer_common/attention/output/dense/bias/sub_3" source_file="dummy_file_name" source_line=10}
  constant.1999 = f32[] constant(1), metadata={op_type="Sub" op_name="while/LAMB/update_bert/encoder/layer_common/attention/output/dense/layer_0/kernel/sub_3" source_file="dummy_file_name" source_line=10}
  constant.2002 = f32[] constant(1), metadata={op_type="Sub" op_name="while/LAMB/update_bert/encoder/layer_common/attention/output/dense/layer_1/kernel/sub_3" source_file="dummy_file_name" source_line=10}
  constant.2005 = f32[] constant(1), metadata={op_type="Sub" op_name="while/LAMB/update_bert/encoder/layer_common/attention/self/key/bias/sub_3" source_file="dummy_file_name" source_line=10}
  constant.2008 = f32[] constant(1), metadata={op_type="Sub" op_name="while/LAMB/update_bert/encoder/layer_common/attention/self/key/layer_0/kernel/sub_3" source_file="dummy_file_name" source_line=10}
  constant.2011 = f32[] constant(1), metadata={op_type="Sub" op_name="while/LAMB/update_bert/encoder/layer_common/attention/self/key/layer_1/kernel/sub_3" source_file="dummy_file_name" source_line=10}
  constant.2014 = f32[] constant(1), metadata={op_type="Sub" op_name="while/LAMB/update_bert/encoder/layer_common/attention/self/query/bias/sub_3" source_file="dummy_file_name" source_line=10}
  constant.2017 = f32[] constant(1), metadata={op_type="Sub" op_name="while/LAMB/update_bert/encoder/layer_common/attention/self/query/layer_0/kernel/sub_3" source_file="dummy_file_name" source_line=10}
  constant.2020 = f32[] constant(1), metadata={op_type="Sub" op_name="while/LAMB/update_bert/encoder/layer_common/attention/self/query/layer_1/kernel/sub_3" source_file="dummy_file_name" source_line=10}
  constant.2023 = f32[] constant(1), metadata={op_type="Sub" op_name="while/LAMB/update_bert/encoder/layer_common/attention/self/value/bias/sub_3" source_file="dummy_file_name" source_line=10}
  constant.2026 = f32[] constant(1), metadata={op_type="Sub" op_name="while/LAMB/update_bert/encoder/layer_common/attention/self/value/layer_0/kernel/sub_3" source_file="dummy_file_name" source_line=10}
  constant.2029 = f32[] constant(1), metadata={op_type="Sub" op_name="while/LAMB/update_bert/encoder/layer_common/attention/self/value/layer_1/kernel/sub_3" source_file="dummy_file_name" source_line=10}
  constant.2032 = f32[] constant(1), metadata={op_type="Sub" op_name="while/LAMB/update_bert/encoder/layer_common/intermediate/dense/bias/sub_3" source_file="dummy_file_name" source_line=10}
  constant.2035 = f32[] constant(1), metadata={op_type="Sub" op_name="while/LAMB/update_bert/encoder/layer_common/intermediate/dense/layer_0/kernel/sub_3" source_file="dummy_file_name" source_line=10}
  constant.2038 = f32[] constant(1), metadata={op_type="Sub" op_name="while/LAMB/update_bert/encoder/layer_common/intermediate/dense/layer_1/kernel/sub_3" source_file="dummy_file_name" source_line=10}
  constant.2041 = f32[] constant(1), metadata={op_type="Sub" op_name="while/LAMB/update_bert/encoder/layer_common/output/LayerNorm/beta/sub_3" source_file="dummy_file_name" source_line=10}
  constant.2044 = f32[] constant(1), metadata={op_type="Sub" op_name="while/LAMB/update_bert/encoder/layer_common/output/LayerNorm/gamma/sub_3" source_file="dummy_file_name" source_line=10}
  constant.2047 = f32[] constant(1), metadata={op_type="Sub" op_name="while/LAMB/update_bert/encoder/layer_common/output/dense/bias/sub_3" source_file="dummy_file_name" source_line=10}
  constant.2050 = f32[] constant(1), metadata={op_type="Sub" op_name="while/LAMB/update_bert/encoder/layer_common/output/dense/layer_0/kernel/sub_3" source_file="dummy_file_name" source_line=10}
  constant.2053 = f32[] constant(1), metadata={op_type="Sub" op_name="while/LAMB/update_bert/encoder/layer_common/output/dense/layer_1/kernel/sub_3" source_file="dummy_file_name" source_line=10}
  constant.2056 = f32[] constant(1), metadata={op_type="Sub" op_name="while/LAMB/update_bert/pooler/dense/bias/sub_3" source_file="dummy_file_name" source_line=10}
  constant.2059 = f32[] constant(1), metadata={op_type="Sub" op_name="while/LAMB/update_bert/pooler/dense/kernel/sub_3" source_file="dummy_file_name" source_line=10}
  constant.2062 = f32[] constant(1), metadata={op_type="Sub" op_name="while/LAMB/update_cls/predictions/output_bias/sub_3" source_file="dummy_file_name" source_line=10}
  constant.2065 = f32[] constant(1), metadata={op_type="Sub" op_name="while/LAMB/update_cls/predictions/transform/LayerNorm/beta/sub_3" source_file="dummy_file_name" source_line=10}
  constant.2068 = f32[] constant(1), metadata={op_type="Sub" op_name="while/LAMB/update_cls/predictions/transform/LayerNorm/gamma/sub_3" source_file="dummy_file_name" source_line=10}
  constant.2071 = f32[] constant(1), metadata={op_type="Sub" op_name="while/LAMB/update_cls/predictions/transform/dense/bias/sub_3" source_file="dummy_file_name" source_line=10}
  constant.2074 = f32[] constant(1), metadata={op_type="Sub" op_name="while/LAMB/update_cls/predictions/transform/dense/kernel/sub_3" source_file="dummy_file_name" source_line=10}
  constant.2077 = f32[] constant(1), metadata={op_type="Sub" op_name="while/LAMB/update_cls/seq_relationship/output_bias/sub_3" source_file="dummy_file_name" source_line=10}
  constant.2080 = f32[] constant(1), metadata={op_type="Sub" op_name="while/LAMB/update_cls/seq_relationship/output_weights/sub_3" source_file="dummy_file_name" source_line=10}
  constant.2086 = f32[] constant(0.01), metadata={op_type="Mul" op_name="while/LAMB/update_bert/encoder/layer_common/attention/self/query/layer_0/kernel/mul_5" source_file="dummy_file_name" source_line=10}
  constant.2099 = f32[] constant(0), metadata={op_type="Greater" op_name="while/LAMB/update_bert/encoder/layer_common/attention/self/query/layer_0/kernel/Greater" source_file="dummy_file_name" source_line=10}
  constant.2102 = f32[] constant(0.9), metadata={op_type="Mul" op_name="while/LAMB/update_bert/encoder/layer_common/attention/output/LayerNorm/beta/mul_1" source_file="dummy_file_name" source_line=10}
  constant.2106 = f32[] constant(0.999), metadata={op_type="Mul" op_name="while/LAMB/update_bert/encoder/layer_common/attention/output/LayerNorm/beta/mul_4" source_file="dummy_file_name" source_line=10}
  constant.2110 = f32[] constant(0.9), metadata={op_type="Mul" op_name="while/LAMB/update_bert/encoder/layer_common/attention/output/LayerNorm/gamma/mul_1" source_file="dummy_file_name" source_line=10}
  constant.2114 = f32[] constant(0.999), metadata={op_type="Mul" op_name="while/LAMB/update_bert/encoder/layer_common/attention/output/LayerNorm/gamma/mul_4" source_file="dummy_file_name" source_line=10}
  constant.2118 = f32[] constant(0.9), metadata={op_type="Mul" op_name="while/LAMB/update_bert/encoder/layer_common/attention/output/dense/bias/mul_1" source_file="dummy_file_name" source_line=10}
  constant.2122 = f32[] constant(0.999), metadata={op_type="Mul" op_name="while/LAMB/update_bert/encoder/layer_common/attention/output/dense/bias/mul_4" source_file="dummy_file_name" source_line=10}
  constant.2126 = f32[] constant(0.9), metadata={op_type="Mul" op_name="while/LAMB/update_bert/encoder/layer_common/attention/output/dense/layer_0/kernel/mul_1" source_file="dummy_file_name" source_line=10}
  constant.2130 = f32[] constant(0.999), metadata={op_type="Mul" op_name="while/LAMB/update_bert/encoder/layer_common/attention/output/dense/layer_0/kernel/mul_4" source_file="dummy_file_name" source_line=10}
  constant.2134 = f32[] constant(0.9), metadata={op_type="Mul" op_name="while/LAMB/update_bert/encoder/layer_common/attention/output/dense/layer_1/kernel/mul_1" source_file="dummy_file_name" source_line=10}
  constant.2138 = f32[] constant(0.999), metadata={op_type="Mul" op_name="while/LAMB/update_bert/encoder/layer_common/attention/output/dense/layer_1/kernel/mul_4" source_file="dummy_file_name" source_line=10}
  constant.2144 = s32[] constant(0), metadata={op_type="GatherV2" op_name="while/bert/encoder/layer_common/attention/self/query/GatherV2" source_file="dummy_file_name" source_line=10}
  constant.2148 = bf16[] constant(0.125), metadata={op_type="Mul" op_name="while/bert/encoder/layer_common/attention/self/Mul" source_file="dummy_file_name" source_line=10}
  constant.2179 = s32[4]{0} constant({0, 2, 1, 3}), metadata={op_type="Transpose" op_name="while/bert/encoder/layer_common/attention/self/transpose" source_file="dummy_file_name" source_line=10}
  constant.2185 = bf16[] constant(1.109), metadata={op_type="Mul" op_name="while/bert/encoder/layer_common/attention/self/Mul_3" source_file="dummy_file_name" source_line=10}
  constant.2193 = bf16[] constant(1.109), metadata={op_type="Mul" op_name="while/bert/encoder/layer_common/attention/output/dropout/Mul" source_file="dummy_file_name" source_line=10}
  constant.2209 = f32[] constant(0.0078125), metadata={op_type="Mul" op_name="while/bert/encoder/layer_common/attention/output/LayerNorm/normalize/Mul" source_file="dummy_file_name" source_line=10}
  constant.2219 = f32[] constant(0.0078125), metadata={op_type="Mul" op_name="while/bert/encoder/layer_common/attention/output/LayerNorm/normalize/mean" source_file="dummy_file_name" source_line=10}
  constant.2225 = f32[] constant(1e-12), metadata={op_type="AddV2" op_name="while/bert/encoder/layer_common/attention/output/LayerNorm/add" source_file="dummy_file_name" source_line=10}
  constant.2249 = s32[] constant(0), metadata={op_type="GatherV2" op_name="while/bert/encoder/layer_common_1/attention/self/query/GatherV2" source_file="dummy_file_name" source_line=10}
  constant.2251 = f32[] constant(0.9), metadata={op_type="Mul" op_name="while/LAMB/update_bert/encoder/layer_common/attention/self/key/bias/mul_1" source_file="dummy_file_name" source_line=10}
  constant.2255 = f32[] constant(0.999), metadata={op_type="Mul" op_name="while/LAMB/update_bert/encoder/layer_common/attention/self/key/bias/mul_4" source_file="dummy_file_name" source_line=10}
  constant.2259 = f32[] constant(0.9), metadata={op_type="Mul" op_name="while/LAMB/update_bert/encoder/layer_common/attention/self/key/layer_0/kernel/mul_1" source_file="dummy_file_name" source_line=10}
  constant.2263 = f32[] constant(0.999), metadata={op_type="Mul" op_name="while/LAMB/update_bert/encoder/layer_common/attention/self/key/layer_0/kernel/mul_4" source_file="dummy_file_name" source_line=10}
  constant.2267 = f32[] constant(0.9), metadata={op_type="Mul" op_name="while/LAMB/update_bert/encoder/layer_common/attention/self/key/layer_1/kernel/mul_1" source_file="dummy_file_name" source_line=10}
  constant.2271 = f32[] constant(0.999), metadata={op_type="Mul" op_name="while/LAMB/update_bert/encoder/layer_common/attention/self/key/layer_1/kernel/mul_4" source_file="dummy_file_name" source_line=10}
  constant.2275 = f32[] constant(0.9), metadata={op_type="Mul" op_name="while/LAMB/update_bert/encoder/layer_common/attention/self/query/bias/mul_1" source_file="dummy_file_name" source_line=10}
  constant.2279 = f32[] constant(0.999), metadata={op_type="Mul" op_name="while/LAMB/update_bert/encoder/layer_common/attention/self/query/bias/mul_4" source_file="dummy_file_name" source_line=10}
  constant.2283 = f32[] constant(0.9), metadata={op_type="Mul" op_name="while/LAMB/update_bert/encoder/layer_common/attention/self/query/layer_0/kernel/mul_1" source_file="dummy_file_name" source_line=10}
  constant.2287 = f32[] constant(0.999), metadata={op_type="Mul" op_name="while/LAMB/update_bert/encoder/layer_common/attention/self/query/layer_0/kernel/mul_4" source_file="dummy_file_name" source_line=10}
  constant.2294 = f32[] constant(0.01), metadata={op_type="Mul" op_name="while/LAMB/update_bert/encoder/layer_common/intermediate/dense/layer_0/kernel/mul_5" source_file="dummy_file_name" source_line=10}
  constant.2307 = f32[] constant(0), metadata={op_type="Greater" op_name="while/LAMB/update_bert/encoder/layer_common/intermediate/dense/layer_0/kernel/Greater" source_file="dummy_file_name" source_line=10}
  constant.2310 = f32[] constant(0.9), metadata={op_type="Mul" op_name="while/LAMB/update_bert/encoder/layer_common/attention/self/query/layer_1/kernel/mul_1" source_file="dummy_file_name" source_line=10}
  constant.2314 = f32[] constant(0.999), metadata={op_type="Mul" op_name="while/LAMB/update_bert/encoder/layer_common/attention/self/query/layer_1/kernel/mul_4" source_file="dummy_file_name" source_line=10}
  constant.2318 = f32[] constant(0.9), metadata={op_type="Mul" op_name="while/LAMB/update_bert/encoder/layer_common/attention/self/value/bias/mul_1" source_file="dummy_file_name" source_line=10}
  constant.2322 = f32[] constant(0.999), metadata={op_type="Mul" op_name="while/LAMB/update_bert/encoder/layer_common/attention/self/value/bias/mul_4" source_file="dummy_file_name" source_line=10}
  constant.2326 = f32[] constant(0.9), metadata={op_type="Mul" op_name="while/LAMB/update_bert/encoder/layer_common/attention/self/value/layer_0/kernel/mul_1" source_file="dummy_file_name" source_line=10}
  constant.2330 = f32[] constant(0.999), metadata={op_type="Mul" op_name="while/LAMB/update_bert/encoder/layer_common/attention/self/value/layer_0/kernel/mul_4" source_file="dummy_file_name" source_line=10}
  constant.2334 = f32[] constant(0.9), metadata={op_type="Mul" op_name="while/LAMB/update_bert/encoder/layer_common/attention/self/value/layer_1/kernel/mul_1" source_file="dummy_file_name" source_line=10}
  constant.2338 = f32[] constant(0.999), metadata={op_type="Mul" op_name="while/LAMB/update_bert/encoder/layer_common/attention/self/value/layer_1/kernel/mul_4" source_file="dummy_file_name" source_line=10}
  constant.2342 = f32[] constant(0.9), metadata={op_type="Mul" op_name="while/LAMB/update_bert/encoder/layer_common/intermediate/dense/bias/mul_1" source_file="dummy_file_name" source_line=10}
  constant.2346 = f32[] constant(0.999), metadata={op_type="Mul" op_name="while/LAMB/update_bert/encoder/layer_common/intermediate/dense/bias/mul_4" source_file="dummy_file_name" source_line=10}
  constant.2352 = s32[] constant(0), metadata={op_type="GatherV2" op_name="while/bert/encoder/layer_common/intermediate/dense/GatherV2" source_file="dummy_file_name" source_line=10}
  constant.2356 = bf16[] constant(3), metadata={op_type="Pow" op_name="while/bert/encoder/layer_common/intermediate/Pow" source_file="dummy_file_name" source_line=10}
  constant.2360 = bf16[] constant(0.04468), metadata={op_type="Mul" op_name="while/bert/encoder/layer_common/intermediate/mul" source_file="dummy_file_name" source_line=10}
  constant.2365 = bf16[] constant(0.7969), metadata={op_type="Mul" op_name="while/bert/encoder/layer_common/intermediate/mul_1" source_file="dummy_file_name" source_line=10}
  constant.2370 = bf16[] constant(1), metadata={op_type="AddV2" op_name="while/bert/encoder/layer_common/intermediate/add_2" source_file="dummy_file_name" source_line=10}
  constant.2374 = bf16[] constant(0.5), metadata={op_type="Mul" op_name="while/bert/encoder/layer_common/intermediate/mul_2" source_file="dummy_file_name" source_line=10}
  constant.2379 = bf16[] constant(2), metadata={op_type="Pow" op_name="while/gradients/while/bert/encoder/layer_common/intermediate/Pow_grad/Pow" source_file="dummy_file_name" source_line=10}
  constant.2385 = s32[] constant(0), metadata={op_type="GatherV2" op_name="while/bert/encoder/layer_common_1/intermediate/dense/GatherV2" source_file="dummy_file_name" source_line=10}
  constant.2387 = f32[] constant(0.9), metadata={op_type="Mul" op_name="while/LAMB/update_bert/encoder/layer_common/intermediate/dense/layer_0/kernel/mul_1" source_file="dummy_file_name" source_line=10}
  constant.2391 = f32[] constant(0.999), metadata={op_type="Mul" op_name="while/LAMB/update_bert/encoder/layer_common/intermediate/dense/layer_0/kernel/mul_4" source_file="dummy_file_name" source_line=10}
  constant.2395 = f32[] constant(0.9), metadata={op_type="Mul" op_name="while/LAMB/update_bert/encoder/layer_common/intermediate/dense/layer_1/kernel/mul_1" source_file="dummy_file_name" source_line=10}
  constant.2399 = f32[] constant(0.999), metadata={op_type="Mul" op_name="while/LAMB/update_bert/encoder/layer_common/intermediate/dense/layer_1/kernel/mul_4" source_file="dummy_file_name" source_line=10}
  constant.2403 = f32[] constant(0.9), metadata={op_type="Mul" op_name="while/LAMB/update_bert/encoder/layer_common/output/LayerNorm/beta/mul_1" source_file="dummy_file_name" source_line=10}
  constant.2407 = f32[] constant(0.999), metadata={op_type="Mul" op_name="while/LAMB/update_bert/encoder/layer_common/output/LayerNorm/beta/mul_4" source_file="dummy_file_name" source_line=10}
  constant.2411 = f32[] constant(0.9), metadata={op_type="Mul" op_name="while/LAMB/update_bert/encoder/layer_common/output/LayerNorm/gamma/mul_1" source_file="dummy_file_name" source_line=10}
  constant.2415 = f32[] constant(0.999), metadata={op_type="Mul" op_name="while/LAMB/update_bert/encoder/layer_common/output/LayerNorm/gamma/mul_4" source_file="dummy_file_name" source_line=10}
  constant.2419 = f32[] constant(0.9), metadata={op_type="Mul" op_name="while/LAMB/update_bert/encoder/layer_common/output/dense/bias/mul_1" source_file="dummy_file_name" source_line=10}
  constant.2423 = f32[] constant(0.999), metadata={op_type="Mul" op_name="while/LAMB/update_bert/encoder/layer_common/output/dense/bias/mul_4" source_file="dummy_file_name" source_line=10}
  constant.2430 = f32[] constant(0.01), metadata={op_type="Mul" op_name="while/LAMB/update_bert/encoder/layer_common/output/dense/layer_0/kernel/mul_5" source_file="dummy_file_name" source_line=10}
  constant.2443 = f32[] constant(0), metadata={op_type="Greater" op_name="while/LAMB/update_bert/encoder/layer_common/output/dense/layer_0/kernel/Greater" source_file="dummy_file_name" source_line=10}
  constant.2446 = f32[] constant(0.9), metadata={op_type="Mul" op_name="while/LAMB/update_bert/encoder/layer_common/output/dense/layer_0/kernel/mul_1" source_file="dummy_file_name" source_line=10}
  constant.2450 = f32[] constant(0.999), metadata={op_type="Mul" op_name="while/LAMB/update_bert/encoder/layer_common/output/dense/layer_0/kernel/mul_4" source_file="dummy_file_name" source_line=10}
  constant.2454 = f32[] constant(0.9), metadata={op_type="Mul" op_name="while/LAMB/update_bert/encoder/layer_common/output/dense/layer_1/kernel/mul_1" source_file="dummy_file_name" source_line=10}
  constant.2458 = f32[] constant(0.999), metadata={op_type="Mul" op_name="while/LAMB/update_bert/encoder/layer_common/output/dense/layer_1/kernel/mul_4" source_file="dummy_file_name" source_line=10}
  constant.2462 = f32[] constant(0.9), metadata={op_type="Mul" op_name="while/LAMB/update_bert/pooler/dense/bias/mul_1" source_file="dummy_file_name" source_line=10}
  constant.2466 = f32[] constant(0.999), metadata={op_type="Mul" op_name="while/LAMB/update_bert/pooler/dense/bias/mul_4" source_file="dummy_file_name" source_line=10}
  constant.2470 = f32[] constant(0.9), metadata={op_type="Mul" op_name="while/LAMB/update_bert/pooler/dense/kernel/mul_1" source_file="dummy_file_name" source_line=10}
  constant.2474 = f32[] constant(0.999), metadata={op_type="Mul" op_name="while/LAMB/update_bert/pooler/dense/kernel/mul_4" source_file="dummy_file_name" source_line=10}
  constant.2478 = f32[] constant(0.9), metadata={op_type="Mul" op_name="while/LAMB/update_cls/predictions/output_bias/mul_1" source_file="dummy_file_name" source_line=10}
  constant.2482 = f32[] constant(0.999), metadata={op_type="Mul" op_name="while/LAMB/update_cls/predictions/output_bias/mul_4" source_file="dummy_file_name" source_line=10}
  constant.2488 = s32[] constant(0), metadata={op_type="GatherV2" op_name="while/bert/encoder/layer_common/output/dense/GatherV2" source_file="dummy_file_name" source_line=10}
  constant.2492 = bf16[] constant(1.109), metadata={op_type="Mul" op_name="while/bert/encoder/layer_common/output/dropout/Mul" source_file="dummy_file_name" source_line=10}
  constant.2508 = f32[] constant(0.0078125), metadata={op_type="Mul" op_name="while/bert/encoder/layer_common/output/LayerNorm/normalize/Mul" source_file="dummy_file_name" source_line=10}
  constant.2518 = f32[] constant(0.0078125), metadata={op_type="Mul" op_name="while/bert/encoder/layer_common/output/LayerNorm/normalize/mean" source_file="dummy_file_name" source_line=10}
  constant.2524 = f32[] constant(1e-12), metadata={op_type="AddV2" op_name="while/bert/encoder/layer_common/output/LayerNorm/add" source_file="dummy_file_name" source_line=10}
  constant.2548 = bf16[] constant(0.125), metadata={op_type="Mul" op_name="while/bert/encoder/layer_common_1/attention/self/Mul" source_file="dummy_file_name" source_line=10}
  constant.2576 = s32[4]{0} constant({0, 2, 1, 3}), metadata={op_type="Transpose" op_name="while/bert/encoder/layer_common_1/attention/self/transpose" source_file="dummy_file_name" source_line=10}
  constant.2588 = bf16[] constant(1.109), metadata={op_type="Mul" op_name="while/bert/encoder/layer_common_1/attention/self/Mul_3" source_file="dummy_file_name" source_line=10}
  constant.2596 = bf16[] constant(1.109), metadata={op_type="Mul" op_name="while/bert/encoder/layer_common_1/attention/output/dropout/Mul" source_file="dummy_file_name" source_line=10}
  constant.2612 = f32[] constant(0.0078125), metadata={op_type="Mul" op_name="while/bert/encoder/layer_common_1/attention/output/LayerNorm/normalize/Mul" source_file="dummy_file_name" source_line=10}
  constant.2622 = f32[] constant(0.0078125), metadata={op_type="Mul" op_name="while/bert/encoder/layer_common_1/attention/output/LayerNorm/normalize/mean" source_file="dummy_file_name" source_line=10}
  constant.2628 = f32[] constant(1e-12), metadata={op_type="AddV2" op_name="while/bert/encoder/layer_common_1/attention/output/LayerNorm/add" source_file="dummy_file_name" source_line=10}
  constant.2648 = bf16[] constant(3), metadata={op_type="Pow" op_name="while/bert/encoder/layer_common_1/intermediate/Pow" source_file="dummy_file_name" source_line=10}
  constant.2652 = bf16[] constant(0.04468), metadata={op_type="Mul" op_name="while/bert/encoder/layer_common_1/intermediate/mul" source_file="dummy_file_name" source_line=10}
  constant.2657 = bf16[] constant(0.7969), metadata={op_type="Mul" op_name="while/bert/encoder/layer_common_1/intermediate/mul_1" source_file="dummy_file_name" source_line=10}
  constant.2662 = bf16[] constant(1), metadata={op_type="AddV2" op_name="while/bert/encoder/layer_common_1/intermediate/add_2" source_file="dummy_file_name" source_line=10}
  constant.2666 = bf16[] constant(0.5), metadata={op_type="Mul" op_name="while/bert/encoder/layer_common_1/intermediate/mul_2" source_file="dummy_file_name" source_line=10}
  constant.2673 = bf16[] constant(2), metadata={op_type="Pow" op_name="while/gradients/while/bert/encoder/layer_common_1/intermediate/Pow_grad/Pow" source_file="dummy_file_name" source_line=10}
  constant.2686 = s32[] constant(0), metadata={op_type="GatherV2" op_name="while/bert/encoder/layer_common_1/output/dense/GatherV2" source_file="dummy_file_name" source_line=10}
  constant.2690 = bf16[] constant(1.109), metadata={op_type="Mul" op_name="while/bert/encoder/layer_common_1/output/dropout/Mul" source_file="dummy_file_name" source_line=10}
  constant.2706 = f32[] constant(0.0078125), metadata={op_type="Mul" op_name="while/bert/encoder/layer_common_1/output/LayerNorm/normalize/Mul" source_file="dummy_file_name" source_line=10}
  constant.2716 = f32[] constant(0.0078125), metadata={op_type="Mul" op_name="while/bert/encoder/layer_common_1/output/LayerNorm/normalize/mean" source_file="dummy_file_name" source_line=10}
  constant.2722 = f32[] constant(1e-12), metadata={op_type="AddV2" op_name="while/bert/encoder/layer_common_1/output/LayerNorm/add" source_file="dummy_file_name" source_line=10}
  constant.2739 = s32[2]{0} constant({24576, 128}), metadata={op_type="Reshape" op_name="while/Reshape_2" source_file="dummy_file_name" source_line=10}
  constant.2741 = s32[] constant(0), metadata={op_type="GatherV2" op_name="while/GatherV2" source_file="dummy_file_name" source_line=10}
  constant.2747 = f32[] constant(3), metadata={op_type="Pow" op_name="while/cls/predictions/transform/dense/Pow" source_file="dummy_file_name" source_line=10}
  constant.2751 = f32[] constant(0.044715), metadata={op_type="Mul" op_name="while/cls/predictions/transform/dense/mul" source_file="dummy_file_name" source_line=10}
  constant.2756 = f32[] constant(0.797884583), metadata={op_type="Mul" op_name="while/cls/predictions/transform/dense/mul_1" source_file="dummy_file_name" source_line=10}
  constant.2761 = f32[] constant(1), metadata={op_type="AddV2" op_name="while/cls/predictions/transform/dense/add_1" source_file="dummy_file_name" source_line=10}
  constant.2765 = f32[] constant(0.5), metadata={op_type="Mul" op_name="while/cls/predictions/transform/dense/mul_2" source_file="dummy_file_name" source_line=10}
  constant.2777 = f32[] constant(0.0078125), metadata={op_type="Mul" op_name="while/cls/predictions/transform/LayerNorm/normalize/Mul" source_file="dummy_file_name" source_line=10}
  constant.2787 = f32[] constant(0.0078125), metadata={op_type="Mul" op_name="while/cls/predictions/transform/LayerNorm/normalize/mean" source_file="dummy_file_name" source_line=10}
  constant.2793 = f32[] constant(1e-12), metadata={op_type="AddV2" op_name="while/cls/predictions/transform/LayerNorm/add" source_file="dummy_file_name" source_line=10}
  constant.2865 = s32[1]{0} constant({128}), metadata={op_type="Reshape" op_name="while/gradients/while/cls/predictions/transform/LayerNorm/add_1_grad/Reshape" source_file="dummy_file_name" source_line=10}
  constant.2885 = s32[2]{0} constant({3648, 1}), metadata={op_type="Reshape" op_name="while/gradients/while/cls/predictions/transform/LayerNorm/sub_grad/Reshape" source_file="dummy_file_name" source_line=10}
  constant.2896 = s32[1]{0} constant({128}), metadata={op_type="Reshape" op_name="while/gradients/while/cls/predictions/transform/LayerNorm/mul_1_grad/Reshape" source_file="dummy_file_name" source_line=10}
  constant.2911 = s32[2]{0} constant({3648, 1}), metadata={op_type="Reshape" op_name="while/gradients/while/cls/predictions/transform/LayerNorm/mul_grad/Reshape" source_file="dummy_file_name" source_line=10}
  constant.2919 = f32[] constant(0.0078125), metadata={op_type="Mul" op_name="while/gradients/while/cls/predictions/transform/LayerNorm/normalize/Mul_grad/Mul" source_file="dummy_file_name" source_line=10}
  constant.2923 = s32[2]{0} constant({3648, 1}), metadata={op_type="Reshape" op_name="while/gradients/while/cls/predictions/transform/LayerNorm/sufficient_statistics/var_ss_grad/Reshape" source_file="dummy_file_name" source_line=10}
  constant.2925 = s32[2]{0} constant({1, 128}), metadata={op_type="Tile" op_name="while/gradients/while/cls/predictions/transform/LayerNorm/sufficient_statistics/var_ss_grad/Tile" source_file="dummy_file_name" source_line=10}
  constant.2930 = f32[] constant(2), metadata={op_type="Mul" op_name="while/gradients/while/cls/predictions/transform/LayerNorm/normalize/Square_grad/Mul" source_file="dummy_file_name" source_line=10}
  constant.2936 = f32[] constant(0.0078125), metadata={op_type="Mul" op_name="while/gradients/while/cls/predictions/transform/LayerNorm/normalize/mean_grad/Mul" source_file="dummy_file_name" source_line=10}
  constant.2940 = s32[2]{0} constant({3648, 1}), metadata={op_type="Reshape" op_name="while/gradients/while/cls/predictions/transform/LayerNorm/sufficient_statistics/mean_ss_grad/Reshape" source_file="dummy_file_name" source_line=10}
  constant.2942 = s32[2]{0} constant({1, 128}), metadata={op_type="Tile" op_name="while/gradients/while/cls/predictions/transform/LayerNorm/sufficient_statistics/mean_ss_grad/Tile" source_file="dummy_file_name" source_line=10}
  constant.2946 = f32[] constant(2), metadata={op_type="Mul" op_name="while/gradients/while/cls/predictions/transform/LayerNorm/sufficient_statistics/Square_grad/Mul" source_file="dummy_file_name" source_line=10}
  constant.2954 = f32[] constant(2), metadata={op_type="Pow" op_name="while/gradients/while/cls/predictions/transform/dense/Pow_grad/Pow" source_file="dummy_file_name" source_line=10}
  constant.2959 = f32[] constant(0.5), metadata={op_type="Mul" op_name="while/gradients/while/cls/predictions/transform/dense/mul_2_grad/Mul_1" source_file="dummy_file_name" source_line=10}
  constant.2968 = f32[] constant(0.797884583), metadata={op_type="Mul" op_name="while/gradients/while/cls/predictions/transform/dense/mul_1_grad/Mul_1" source_file="dummy_file_name" source_line=10}
  constant.2972 = f32[] constant(0.044715), metadata={op_type="Mul" op_name="while/gradients/while/cls/predictions/transform/dense/mul_grad/Mul_1" source_file="dummy_file_name" source_line=10}
  constant.2976 = f32[] constant(3), metadata={op_type="Mul" op_name="while/gradients/while/cls/predictions/transform/dense/Pow_grad/mul" source_file="dummy_file_name" source_line=10}
  constant.2994 = s32[2]{0} constant({3648, 128}), metadata={op_type="Reshape" op_name="while/gradients/while/GatherV2_grad/Reshape" source_file="dummy_file_name" source_line=10}
  constant.2996 = s32[] constant(24576), metadata={op_type="UnsortedSegmentSum" op_name="while/gradients/while/Reshape_2_grad/UnsortedSegmentSum" source_file="dummy_file_name" source_line=10}
  constant.2999 = s32[] constant(24576), metadata={op_type="UnsortedSegmentSum" op_name="while/gradients/while/Reshape_2_grad/UnsortedSegmentSum" source_file="dummy_file_name" source_line=10}
  constant.3000 = s32[] constant(128), metadata={op_type="UnsortedSegmentSum" op_name="while/gradients/while/Reshape_2_grad/UnsortedSegmentSum" source_file="dummy_file_name" source_line=10}
  constant.3002 = s32[3]{0} constant({48, 512, 128}), metadata={op_type="Reshape" op_name="while/gradients/while/Reshape_2_grad/Reshape" source_file="dummy_file_name" source_line=10}
  constant.3014 = s32[] constant(0), metadata={op_type="StridedSlice" op_name="while/bert/pooler/strided_slice" source_file="dummy_file_name" source_line=10}
  broadcast.3015 = s32[3]{0} broadcast(constant.3014), dimensions={}, metadata={op_type="StridedSlice" op_name="while/bert/pooler/strided_slice" source_file="dummy_file_name" source_line=10}
  constant.3016 = s32[3]{0} constant({0, 1, 0}), metadata={op_type="StridedSlice" op_name="while/bert/pooler/strided_slice" source_file="dummy_file_name" source_line=10}
  constant.3017 = s32[] constant(1), metadata={op_type="StridedSlice" op_name="while/bert/pooler/strided_slice" source_file="dummy_file_name" source_line=10}
  broadcast.3018 = s32[3]{0} broadcast(constant.3017), dimensions={}, metadata={op_type="StridedSlice" op_name="while/bert/pooler/strided_slice" source_file="dummy_file_name" source_line=10}
  constant.3064 = s32[1]{0} constant({-1}), metadata={op_type="Reshape" op_name="while/Reshape_3" source_file="dummy_file_name" source_line=10}
  constant.3111 = s32[3]{0} constant({48, 1, 128}), metadata={op_type="Reshape" op_name="while/gradients/while/bert/pooler/Squeeze_grad/Reshape" source_file="dummy_file_name" source_line=10}
  constant.3113 = s32[3]{0} constant({48, 512, 128}), metadata={op_type="StridedSliceGrad" op_name="while/gradients/while/bert/pooler/strided_slice_grad/StridedSliceGrad" source_file="dummy_file_name" source_line=10}
  constant.3114 = s32[] constant(0), metadata={op_type="StridedSliceGrad" op_name="while/gradients/while/bert/pooler/strided_slice_grad/StridedSliceGrad" source_file="dummy_file_name" source_line=10}
  broadcast.3115 = s32[3]{0} broadcast(constant.3114), dimensions={}, metadata={op_type="StridedSliceGrad" op_name="while/gradients/while/bert/pooler/strided_slice_grad/StridedSliceGrad" source_file="dummy_file_name" source_line=10}
  constant.3116 = s32[3]{0} constant({0, 1, 0}), metadata={op_type="StridedSliceGrad" op_name="while/gradients/while/bert/pooler/strided_slice_grad/StridedSliceGrad" source_file="dummy_file_name" source_line=10}
  constant.3117 = s32[] constant(1), metadata={op_type="StridedSliceGrad" op_name="while/gradients/while/bert/pooler/strided_slice_grad/StridedSliceGrad" source_file="dummy_file_name" source_line=10}
  broadcast.3118 = s32[3]{0} broadcast(constant.3117), dimensions={}, metadata={op_type="StridedSliceGrad" op_name="while/gradients/while/bert/pooler/strided_slice_grad/StridedSliceGrad" source_file="dummy_file_name" source_line=10}
  constant.3122 = s32[3]{0} constant({48, 512, 128}), metadata={op_type="StridedSliceGrad" op_name="while/gradients/while/bert/pooler/strided_slice_grad/StridedSliceGrad" source_file="dummy_file_name" source_line=10}
  constant.3130 = s32[1]{0} constant({128}), metadata={op_type="Reshape" op_name="while/gradients/while/bert/encoder/layer_common_1/output/LayerNorm/add_1_grad/Reshape" source_file="dummy_file_name" source_line=10}
  constant.3133 = s32[2]{0} constant({1, 128}), metadata={op_type="Reshape" op_name="while/gradients/while/bert/encoder/layer_common_1/output/LayerNorm/GatherV2_1_grad/Reshape" source_file="dummy_file_name" source_line=10}
  constant.3147 = s32[3]{0} constant({48, 512, 1}), metadata={op_type="Reshape" op_name="while/gradients/while/bert/encoder/layer_common_1/output/LayerNorm/sub_grad/Reshape" source_file="dummy_file_name" source_line=10}
  constant.3165 = s32[1]{0} constant({128}), metadata={op_type="Reshape" op_name="while/gradients/while/bert/encoder/layer_common_1/output/LayerNorm/mul_1_grad/Reshape" source_file="dummy_file_name" source_line=10}
  constant.3168 = s32[2]{0} constant({1, 128}), metadata={op_type="Reshape" op_name="while/gradients/while/bert/encoder/layer_common_1/output/LayerNorm/GatherV2_grad/Reshape" source_file="dummy_file_name" source_line=10}
  constant.3177 = s32[3]{0} constant({48, 512, 1}), metadata={op_type="Reshape" op_name="while/gradients/while/bert/encoder/layer_common_1/output/LayerNorm/mul_grad/Reshape" source_file="dummy_file_name" source_line=10}
  constant.3185 = f32[] constant(0.0078125), metadata={op_type="Mul" op_name="while/gradients/while/bert/encoder/layer_common_1/output/LayerNorm/normalize/Mul_grad/Mul" source_file="dummy_file_name" source_line=10}
  constant.3189 = s32[3]{0} constant({48, 512, 1}), metadata={op_type="Reshape" op_name="while/gradients/while/bert/encoder/layer_common_1/output/LayerNorm/sufficient_statistics/var_ss_grad/Reshape" source_file="dummy_file_name" source_line=10}
  constant.3191 = s32[3]{0} constant({1, 1, 128}), metadata={op_type="Tile" op_name="while/gradients/while/bert/encoder/layer_common_1/output/LayerNorm/sufficient_statistics/var_ss_grad/Tile" source_file="dummy_file_name" source_line=10}
  constant.3196 = f32[] constant(2), metadata={op_type="Mul" op_name="while/gradients/while/bert/encoder/layer_common_1/output/LayerNorm/normalize/Square_grad/Mul" source_file="dummy_file_name" source_line=10}
  constant.3202 = f32[] constant(0.0078125), metadata={op_type="Mul" op_name="while/gradients/while/bert/encoder/layer_common_1/output/LayerNorm/normalize/mean_grad/Mul" source_file="dummy_file_name" source_line=10}
  constant.3206 = s32[3]{0} constant({48, 512, 1}), metadata={op_type="Reshape" op_name="while/gradients/while/bert/encoder/layer_common_1/output/LayerNorm/sufficient_statistics/mean_ss_grad/Reshape" source_file="dummy_file_name" source_line=10}
  constant.3208 = s32[3]{0} constant({1, 1, 128}), metadata={op_type="Tile" op_name="while/gradients/while/bert/encoder/layer_common_1/output/LayerNorm/sufficient_statistics/mean_ss_grad/Tile" source_file="dummy_file_name" source_line=10}
  constant.3212 = f32[] constant(2), metadata={op_type="Mul" op_name="while/gradients/while/bert/encoder/layer_common_1/output/LayerNorm/sufficient_statistics/Square_grad/Mul" source_file="dummy_file_name" source_line=10}
  constant.3223 = s32[3]{0} constant({48, 512, 128}), metadata={op_type="Reshape" op_name="while/gradients/while/bert/encoder/layer_common_1/output/dropout/SelectV2_grad/Reshape" source_file="dummy_file_name" source_line=10}
  constant.3225 = bf16[] constant(1.109), metadata={op_type="Mul" op_name="while/gradients/while/bert/encoder/layer_common_1/output/dropout/Mul_grad/Mul" source_file="dummy_file_name" source_line=10}
  constant.3234 = s32[1]{0} constant({128}), metadata={op_type="Reshape" op_name="while/gradients/while/bert/encoder/layer_common_1/output/add_grad/Reshape" source_file="dummy_file_name" source_line=10}
  constant.3236 = s32[2]{0} constant({1, 128}), metadata={op_type="Reshape" op_name="while/gradients/while/bert/encoder/layer_common_1/output/dense/GatherV2_grad/Reshape" source_file="dummy_file_name" source_line=10}
  constant.3243 = bf16[] constant(0.5), metadata={op_type="Mul" op_name="while/gradients/while/bert/encoder/layer_common_1/intermediate/mul_2_grad/Mul_1" source_file="dummy_file_name" source_line=10}
  constant.3252 = bf16[] constant(0.7969), metadata={op_type="Mul" op_name="while/gradients/while/bert/encoder/layer_common_1/intermediate/mul_1_grad/Mul_1" source_file="dummy_file_name" source_line=10}
  constant.3256 = bf16[] constant(0.04468), metadata={op_type="Mul" op_name="while/gradients/while/bert/encoder/layer_common_1/intermediate/mul_grad/Mul_1" source_file="dummy_file_name" source_line=10}
  constant.3260 = bf16[] constant(3), metadata={op_type="Mul" op_name="while/gradients/while/bert/encoder/layer_common_1/intermediate/Pow_grad/mul" source_file="dummy_file_name" source_line=10}
  constant.3272 = s32[1]{0} constant({512}), metadata={op_type="Reshape" op_name="while/gradients/while/bert/encoder/layer_common_1/intermediate/add_grad/Reshape" source_file="dummy_file_name" source_line=10}
  constant.3274 = s32[2]{0} constant({1, 512}), metadata={op_type="Reshape" op_name="while/gradients/while/bert/encoder/layer_common_1/intermediate/dense/GatherV2_grad/Reshape" source_file="dummy_file_name" source_line=10}
  constant.3286 = s32[1]{0} constant({128}), metadata={op_type="Reshape" op_name="while/gradients/while/bert/encoder/layer_common_1/attention/output/LayerNorm/add_1_grad/Reshape" source_file="dummy_file_name" source_line=10}
  constant.3289 = s32[2]{0} constant({1, 128}), metadata={op_type="Reshape" op_name="while/gradients/while/bert/encoder/layer_common_1/attention/output/LayerNorm/GatherV2_1_grad/Reshape" source_file="dummy_file_name" source_line=10}
  constant.3303 = s32[3]{0} constant({48, 512, 1}), metadata={op_type="Reshape" op_name="while/gradients/while/bert/encoder/layer_common_1/attention/output/LayerNorm/sub_grad/Reshape" source_file="dummy_file_name" source_line=10}
  constant.3311 = s32[3]{0} constant({48, 512, 1}), metadata={op_type="Reshape" op_name="while/gradients/while/bert/encoder/layer_common_1/attention/output/LayerNorm/mul_grad/Reshape" source_file="dummy_file_name" source_line=10}
  constant.3319 = f32[] constant(0.0078125), metadata={op_type="Mul" op_name="while/gradients/while/bert/encoder/layer_common_1/attention/output/LayerNorm/normalize/Mul_grad/Mul" source_file="dummy_file_name" source_line=10}
  constant.3323 = s32[3]{0} constant({48, 512, 1}), metadata={op_type="Reshape" op_name="while/gradients/while/bert/encoder/layer_common_1/attention/output/LayerNorm/sufficient_statistics/var_ss_grad/Reshape" source_file="dummy_file_name" source_line=10}
  constant.3325 = s32[3]{0} constant({1, 1, 128}), metadata={op_type="Tile" op_name="while/gradients/while/bert/encoder/layer_common_1/attention/output/LayerNorm/sufficient_statistics/var_ss_grad/Tile" source_file="dummy_file_name" source_line=10}
  constant.3329 = f32[] constant(2), metadata={op_type="Mul" op_name="while/gradients/while/bert/encoder/layer_common_1/attention/output/LayerNorm/sufficient_statistics/Square_grad/Mul" source_file="dummy_file_name" source_line=10}
  constant.3335 = f32[] constant(2), metadata={op_type="Mul" op_name="while/gradients/while/bert/encoder/layer_common_1/attention/output/LayerNorm/normalize/Square_grad/Mul" source_file="dummy_file_name" source_line=10}
  constant.3341 = f32[] constant(0.0078125), metadata={op_type="Mul" op_name="while/gradients/while/bert/encoder/layer_common_1/attention/output/LayerNorm/normalize/mean_grad/Mul" source_file="dummy_file_name" source_line=10}
  constant.3345 = s32[3]{0} constant({48, 512, 1}), metadata={op_type="Reshape" op_name="while/gradients/while/bert/encoder/layer_common_1/attention/output/LayerNorm/sufficient_statistics/mean_ss_grad/Reshape" source_file="dummy_file_name" source_line=10}
  constant.3347 = s32[3]{0} constant({1, 1, 128}), metadata={op_type="Tile" op_name="while/gradients/while/bert/encoder/layer_common_1/attention/output/LayerNorm/sufficient_statistics/mean_ss_grad/Tile" source_file="dummy_file_name" source_line=10}
  constant.3357 = s32[3]{0} constant({48, 512, 128}), metadata={op_type="Reshape" op_name="while/gradients/while/bert/encoder/layer_common_1/attention/output/dropout/SelectV2_grad/Reshape" source_file="dummy_file_name" source_line=10}
  constant.3359 = bf16[] constant(1.109), metadata={op_type="Mul" op_name="while/gradients/while/bert/encoder/layer_common_1/attention/output/dropout/Mul_grad/Mul" source_file="dummy_file_name" source_line=10}
  constant.3368 = s32[1]{0} constant({128}), metadata={op_type="Reshape" op_name="while/gradients/while/bert/encoder/layer_common_1/attention/output/add_grad/Reshape" source_file="dummy_file_name" source_line=10}
  constant.3370 = s32[2]{0} constant({1, 128}), metadata={op_type="Reshape" op_name="while/gradients/while/bert/encoder/layer_common_1/attention/output/dense/GatherV2_grad/Reshape" source_file="dummy_file_name" source_line=10}
  constant.3375 = bf16[] constant(1.109), metadata={op_type="Mul" op_name="while/gradients/while/bert/encoder/layer_common_1/attention/self/Mul_3_grad/Mul" source_file="dummy_file_name" source_line=10}
  constant.3382 = s32[4]{0} constant({48, 512, 2, 64}), metadata={op_type="Reshape" op_name="while/gradients/while/bert/encoder/layer_common_1/attention/self/truediv_grad/Reshape" source_file="dummy_file_name" source_line=10}
  constant.3395 = s32[2]{0} constant({2, 64}), metadata={op_type="Reshape" op_name="while/gradients/while/bert/encoder/layer_common_1/attention/self/value/add_grad/Reshape" source_file="dummy_file_name" source_line=10}
  constant.3397 = s32[3]{0} constant({1, 2, 64}), metadata={op_type="Reshape" op_name="while/gradients/while/bert/encoder/layer_common_1/attention/self/value/GatherV2_grad/Reshape" source_file="dummy_file_name" source_line=10}
  constant.3418 = s32[4]{0} constant({48, 512, 2, 1}), metadata={op_type="Reshape" op_name="while/gradients/while/bert/encoder/layer_common_1/attention/self/truediv_grad/Reshape_1" source_file="dummy_file_name" source_line=10}
  constant.3421 = s32[4]{0} constant({0, 2, 1, 3}), metadata={op_type="Transpose" op_name="while/gradients/while/bert/encoder/layer_common_1/attention/self/transpose_grad/transpose" source_file="dummy_file_name" source_line=10}
  constant.3423 = s32[4]{0} constant({48, 2, 512, 1}), metadata={op_type="Reshape" op_name="while/gradients/while/bert/encoder/layer_common_1/attention/self/Sum_grad/Reshape" source_file="dummy_file_name" source_line=10}
  constant.3425 = s32[4]{0} constant({1, 1, 1, 512}), metadata={op_type="Tile" op_name="while/gradients/while/bert/encoder/layer_common_1/attention/self/Sum_grad/Tile" source_file="dummy_file_name" source_line=10}
  constant.3439 = s32[2]{0} constant({2, 64}), metadata={op_type="Reshape" op_name="while/gradients/while/bert/encoder/layer_common_1/attention/self/key/add_grad/Reshape" source_file="dummy_file_name" source_line=10}
  constant.3441 = s32[3]{0} constant({1, 2, 64}), metadata={op_type="Reshape" op_name="while/gradients/while/bert/encoder/layer_common_1/attention/self/key/GatherV2_grad/Reshape" source_file="dummy_file_name" source_line=10}
  constant.3458 = bf16[] constant(0.125), metadata={op_type="Mul" op_name="while/gradients/while/bert/encoder/layer_common_1/attention/self/Mul_grad/Mul" source_file="dummy_file_name" source_line=10}
  constant.3467 = s32[2]{0} constant({2, 64}), metadata={op_type="Reshape" op_name="while/gradients/while/bert/encoder/layer_common_1/attention/self/query/add_grad/Reshape" source_file="dummy_file_name" source_line=10}
  constant.3469 = s32[3]{0} constant({1, 2, 64}), metadata={op_type="Reshape" op_name="while/gradients/while/bert/encoder/layer_common_1/attention/self/query/GatherV2_grad/Reshape" source_file="dummy_file_name" source_line=10}
  constant.3483 = s32[1]{0} constant({128}), metadata={op_type="Reshape" op_name="while/gradients/while/bert/encoder/layer_common/output/LayerNorm/add_1_grad/Reshape" source_file="dummy_file_name" source_line=10}
  constant.3486 = s32[2]{0} constant({1, 128}), metadata={op_type="Reshape" op_name="while/gradients/while/bert/encoder/layer_common/output/LayerNorm/GatherV2_1_grad/Reshape" source_file="dummy_file_name" source_line=10}
  constant.3489 = s32[] constant(0), metadata={op_type="ConcatV2" op_name="while/gradients/concat" source_file="dummy_file_name" source_line=10}
  constant.3492 = s32[] constant(2), metadata={op_type="UnsortedSegmentSum" op_name="while/UnsortedSegmentSum_9" source_file="dummy_file_name" source_line=10}
  constant.3495 = s32[] constant(2), metadata={op_type="UnsortedSegmentSum" op_name="while/UnsortedSegmentSum_9" source_file="dummy_file_name" source_line=10}
  constant.3496 = s32[] constant(128), metadata={op_type="UnsortedSegmentSum" op_name="while/UnsortedSegmentSum_9" source_file="dummy_file_name" source_line=10}
  constant.3516 = s32[3]{0} constant({48, 512, 1}), metadata={op_type="Reshape" op_name="while/gradients/while/bert/encoder/layer_common/output/LayerNorm/sub_grad/Reshape" source_file="dummy_file_name" source_line=10}
  constant.3524 = s32[3]{0} constant({48, 512, 1}), metadata={op_type="Reshape" op_name="while/gradients/while/bert/encoder/layer_common/output/LayerNorm/mul_grad/Reshape" source_file="dummy_file_name" source_line=10}
  constant.3532 = f32[] constant(0.0078125), metadata={op_type="Mul" op_name="while/gradients/while/bert/encoder/layer_common/output/LayerNorm/normalize/Mul_grad/Mul" source_file="dummy_file_name" source_line=10}
  constant.3536 = s32[3]{0} constant({48, 512, 1}), metadata={op_type="Reshape" op_name="while/gradients/while/bert/encoder/layer_common/output/LayerNorm/sufficient_statistics/var_ss_grad/Reshape" source_file="dummy_file_name" source_line=10}
  constant.3538 = s32[3]{0} constant({1, 1, 128}), metadata={op_type="Tile" op_name="while/gradients/while/bert/encoder/layer_common/output/LayerNorm/sufficient_statistics/var_ss_grad/Tile" source_file="dummy_file_name" source_line=10}
  constant.3542 = f32[] constant(2), metadata={op_type="Mul" op_name="while/gradients/while/bert/encoder/layer_common/output/LayerNorm/sufficient_statistics/Square_grad/Mul" source_file="dummy_file_name" source_line=10}
  constant.3548 = f32[] constant(2), metadata={op_type="Mul" op_name="while/gradients/while/bert/encoder/layer_common/output/LayerNorm/normalize/Square_grad/Mul" source_file="dummy_file_name" source_line=10}
  constant.3554 = f32[] constant(0.0078125), metadata={op_type="Mul" op_name="while/gradients/while/bert/encoder/layer_common/output/LayerNorm/normalize/mean_grad/Mul" source_file="dummy_file_name" source_line=10}
  constant.3558 = s32[3]{0} constant({48, 512, 1}), metadata={op_type="Reshape" op_name="while/gradients/while/bert/encoder/layer_common/output/LayerNorm/sufficient_statistics/mean_ss_grad/Reshape" source_file="dummy_file_name" source_line=10}
  constant.3560 = s32[3]{0} constant({1, 1, 128}), metadata={op_type="Tile" op_name="while/gradients/while/bert/encoder/layer_common/output/LayerNorm/sufficient_statistics/mean_ss_grad/Tile" source_file="dummy_file_name" source_line=10}
  constant.3570 = s32[3]{0} constant({48, 512, 128}), metadata={op_type="Reshape" op_name="while/gradients/while/bert/encoder/layer_common/output/dropout/SelectV2_grad/Reshape" source_file="dummy_file_name" source_line=10}
  constant.3572 = bf16[] constant(1.109), metadata={op_type="Mul" op_name="while/gradients/while/bert/encoder/layer_common/output/dropout/Mul_grad/Mul" source_file="dummy_file_name" source_line=10}
  constant.3581 = s32[1]{0} constant({128}), metadata={op_type="Reshape" op_name="while/gradients/while/bert/encoder/layer_common/output/add_grad/Reshape" source_file="dummy_file_name" source_line=10}
  constant.3583 = s32[2]{0} constant({1, 128}), metadata={op_type="Reshape" op_name="while/gradients/while/bert/encoder/layer_common/output/dense/GatherV2_grad/Reshape" source_file="dummy_file_name" source_line=10}
  constant.3586 = s32[] constant(0), metadata={op_type="ConcatV2" op_name="while/gradients/concat_4" source_file="dummy_file_name" source_line=10}
  constant.3589 = s32[] constant(2), metadata={op_type="UnsortedSegmentSum" op_name="while/UnsortedSegmentSum_7" source_file="dummy_file_name" source_line=10}
  constant.3592 = s32[] constant(2), metadata={op_type="UnsortedSegmentSum" op_name="while/UnsortedSegmentSum_7" source_file="dummy_file_name" source_line=10}
  constant.3593 = s32[] constant(128), metadata={op_type="UnsortedSegmentSum" op_name="while/UnsortedSegmentSum_7" source_file="dummy_file_name" source_line=10}
  constant.3606 = bf16[] constant(0.5), metadata={op_type="Mul" op_name="while/gradients/while/bert/encoder/layer_common/intermediate/mul_2_grad/Mul_1" source_file="dummy_file_name" source_line=10}
  constant.3615 = bf16[] constant(0.7969), metadata={op_type="Mul" op_name="while/gradients/while/bert/encoder/layer_common/intermediate/mul_1_grad/Mul_1" source_file="dummy_file_name" source_line=10}
  constant.3619 = bf16[] constant(0.04468), metadata={op_type="Mul" op_name="while/gradients/while/bert/encoder/layer_common/intermediate/mul_grad/Mul_1" source_file="dummy_file_name" source_line=10}
  constant.3623 = bf16[] constant(3), metadata={op_type="Mul" op_name="while/gradients/while/bert/encoder/layer_common/intermediate/Pow_grad/mul" source_file="dummy_file_name" source_line=10}
  constant.3635 = s32[1]{0} constant({512}), metadata={op_type="Reshape" op_name="while/gradients/while/bert/encoder/layer_common/intermediate/add_grad/Reshape" source_file="dummy_file_name" source_line=10}
  constant.3637 = s32[2]{0} constant({1, 512}), metadata={op_type="Reshape" op_name="while/gradients/while/bert/encoder/layer_common/intermediate/dense/GatherV2_grad/Reshape" source_file="dummy_file_name" source_line=10}
  constant.3640 = s32[] constant(0), metadata={op_type="ConcatV2" op_name="while/gradients/concat_6" source_file="dummy_file_name" source_line=10}
  constant.3643 = s32[] constant(2), metadata={op_type="UnsortedSegmentSum" op_name="while/UnsortedSegmentSum_6" source_file="dummy_file_name" source_line=10}
  constant.3646 = s32[] constant(2), metadata={op_type="UnsortedSegmentSum" op_name="while/UnsortedSegmentSum_6" source_file="dummy_file_name" source_line=10}
  constant.3647 = s32[] constant(512), metadata={op_type="UnsortedSegmentSum" op_name="while/UnsortedSegmentSum_6" source_file="dummy_file_name" source_line=10}
  constant.3665 = s32[1]{0} constant({128}), metadata={op_type="Reshape" op_name="while/gradients/while/bert/encoder/layer_common/attention/output/LayerNorm/add_1_grad/Reshape" source_file="dummy_file_name" source_line=10}
  constant.3668 = s32[2]{0} constant({1, 128}), metadata={op_type="Reshape" op_name="while/gradients/while/bert/encoder/layer_common/attention/output/LayerNorm/GatherV2_1_grad/Reshape" source_file="dummy_file_name" source_line=10}
  constant.3671 = s32[] constant(0), metadata={op_type="ConcatV2" op_name="while/gradients/concat_8" source_file="dummy_file_name" source_line=10}
  constant.3674 = s32[] constant(2), metadata={op_type="UnsortedSegmentSum" op_name="while/UnsortedSegmentSum_5" source_file="dummy_file_name" source_line=10}
  constant.3677 = s32[] constant(2), metadata={op_type="UnsortedSegmentSum" op_name="while/UnsortedSegmentSum_5" source_file="dummy_file_name" source_line=10}
  constant.3678 = s32[] constant(128), metadata={op_type="UnsortedSegmentSum" op_name="while/UnsortedSegmentSum_5" source_file="dummy_file_name" source_line=10}
…
  copy.8234 = f32[2,2,64]{2,1,0:T(2,128)} copy(reshape.8233), sharding={maximal device=0 metadata={op_type="_TPUReplicate" op_name="cluster"}}, metadata={op_name="XLA_Retvals"}
  get-tuple-element.8075 = f32[2,2,64]{2,1,0:T(2,128)} get-tuple-element(tuple.8058), index=16, metadata={op_type="While" op_name="LoopCond" source_file="dummy_file_name" source_line=10}
  reshape.8235 = f32[2,2,64]{2,1,0:T(2,128)} reshape(get-tuple-element.8075), metadata={op_name="XLA_Retvals"}
  copy.8236 = f32[2,2,64]{2,1,0:T(2,128)} copy(reshape.8235), sharding={maximal device=0 metadata={op_type="_TPUReplicate" op_name="cluster"}}, metadata={op_name="XLA_Retvals"}
  get-tuple-element.8108 = f32[128,2,64]{0,2,1:T(8,128)} get-tuple-element(tuple.8058), index=49, metadata={op_type="While" op_name="LoopCond" source_file="dummy_file_name" source_line=10}
  reshape.8237 = f32[128,2,64]{0,2,1:T(8,128)} reshape(get-tuple-element.8108), metadata={op_name="XLA_Retvals"}
  copy.8238 = f32[128,2,64]{0,2,1:T(8,128)} copy(reshape.8237), sharding={maximal device=0 metadata={op_type="_TPUReplicate" op_name="cluster"}}, metadata={op_name="XLA_Retvals"}
  get-tuple-element.8109 = f32[128,2,64]{0,2,1:T(8,128)} get-tuple-element(tuple.8058), index=50, metadata={op_type="While" op_name="LoopCond" source_file="dummy_file_name" source_line=10}
  reshape.8239 = f32[128,2,64]{0,2,1:T(8,128)} reshape(get-tuple-element.8109), metadata={op_name="XLA_Retvals"}
  copy.8240 = f32[128,2,64]{0,2,1:T(8,128)} copy(reshape.8239), sharding={maximal device=0 metadata={op_type="_TPUReplicate" op_name="cluster"}}, metadata={op_name="XLA_Retvals"}
  get-tuple-element.8070 = f32[128,2,64]{0,2,1:T(8,128)} get-tuple-element(tuple.8058), index=11, metadata={op_type="While" op_name="LoopCond" source_file="dummy_file_name" source_line=10}
  reshape.8241 = f32[128,2,64]{0,2,1:T(8,128)} reshape(get-tuple-element.8070), metadata={op_name="XLA_Retvals"}
  copy.8242 = f32[128,2,64]{0,2,1:T(8,128)} copy(reshape.8241), sharding={maximal device=0 metadata={op_type="_TPUReplicate" op_name="cluster"}}, metadata={op_name="XLA_Retvals"}
  get-tuple-element.8110 = f32[128,2,64]{0,2,1:T(8,128)} get-tuple-element(tuple.8058), index=51, metadata={op_type="While" op_name="LoopCond" source_file="dummy_file_name" source_line=10}
  reshape.8243 = f32[128,2,64]{0,2,1:T(8,128)} reshape(get-tuple-element.8110), metadata={op_name="XLA_Retvals"}
  copy.8244 = f32[128,2,64]{0,2,1:T(8,128)} copy(reshape.8243), sharding={maximal device=0 metadata={op_type="_TPUReplicate" op_name="cluster"}}, metadata={op_name="XLA_Retvals"}
  get-tuple-element.8111 = f32[128,2,64]{0,2,1:T(8,128)} get-tuple-element(tuple.8058), index=52, metadata={op_type="While" op_name="LoopCond" source_file="dummy_file_name" source_line=10}
  reshape.8245 = f32[128,2,64]{0,2,1:T(8,128)} reshape(get-tuple-element.8111), metadata={op_name="XLA_Retvals"}
  copy.8246 = f32[128,2,64]{0,2,1:T(8,128)} copy(reshape.8245), sharding={maximal device=0 metadata={op_type="_TPUReplicate" op_name="cluster"}}, metadata={op_name="XLA_Retvals"}
  get-tuple-element.8069 = f32[128,2,64]{0,2,1:T(8,128)} get-tuple-element(tuple.8058), index=10, metadata={op_type="While" op_name="LoopCond" source_file="dummy_file_name" source_line=10}
  reshape.8247 = f32[128,2,64]{0,2,1:T(8,128)} reshape(get-tuple-element.8069), metadata={op_name="XLA_Retvals"}
  copy.8248 = f32[128,2,64]{0,2,1:T(8,128)} copy(reshape.8247), sharding={maximal device=0 metadata={op_type="_TPUReplicate" op_name="cluster"}}, metadata={op_name="XLA_Retvals"}
  get-tuple-element.8112 = f32[2,2,64]{2,1,0:T(2,128)} get-tuple-element(tuple.8058), index=53, metadata={op_type="While" op_name="LoopCond" source_file="dummy_file_name" source_line=10}
  reshape.8249 = f32[2,2,64]{2,1,0:T(2,128)} reshape(get-tuple-element.8112), metadata={op_name="XLA_Retvals"}
  copy.8250 = f32[2,2,64]{2,1,0:T(2,128)} copy(reshape.8249), sharding={maximal device=0 metadata={op_type="_TPUReplicate" op_name="cluster"}}, metadata={op_name="XLA_Retvals"}
  get-tuple-element.8113 = f32[2,2,64]{2,1,0:T(2,128)} get-tuple-element(tuple.8058), index=54, metadata={op_type="While" op_name="LoopCond" source_file="dummy_file_name" source_line=10}
  reshape.8251 = f32[2,2,64]{2,1,0:T(2,128)} reshape(get-tuple-element.8113), metadata={op_name="XLA_Retvals"}
  copy.8252 = f32[2,2,64]{2,1,0:T(2,128)} copy(reshape.8251), sharding={maximal device=0 metadata={op_type="_TPUReplicate" op_name="cluster"}}, metadata={op_name="XLA_Retvals"}
  get-tuple-element.8061 = f32[2,2,64]{2,1,0:T(2,128)} get-tuple-element(tuple.8058), index=2, metadata={op_type="While" op_name="LoopCond" source_file="dummy_file_name" source_line=10}
  reshape.8253 = f32[2,2,64]{2,1,0:T(2,128)} reshape(get-tuple-element.8061), metadata={op_name="XLA_Retvals"}
  copy.8254 = f32[2,2,64]{2,1,0:T(2,128)} copy(reshape.8253), sharding={maximal device=0 metadata={op_type="_TPUReplicate" op_name="cluster"}}, metadata={op_name="XLA_Retvals"}
  get-tuple-element.8114 = f32[128,2,64]{0,2,1:T(8,128)} get-tuple-element(tuple.8058), index=55, metadata={op_type="While" op_name="LoopCond" source_file="dummy_file_name" source_line=10}
  reshape.8255 = f32[128,2,64]{0,2,1:T(8,128)} reshape(get-tuple-element.8114), metadata={op_name="XLA_Retvals"}
  copy.8256 = f32[128,2,64]{0,2,1:T(8,128)} copy(reshape.8255), sharding={maximal device=0 metadata={op_type="_TPUReplicate" op_name="cluster"}}, metadata={op_name="XLA_Retvals"}
  get-tuple-element.8115 = f32[128,2,64]{0,2,1:T(8,128)} get-tuple-element(tuple.8058), index=56, metadata={op_type="While" op_name="LoopCond" source_file="dummy_file_name" source_line=10}
  reshape.8257 = f32[128,2,64]{0,2,1:T(8,128)} reshape(get-tuple-element.8115), metadata={op_name="XLA_Retvals"}
  copy.8258 = f32[128,2,64]{0,2,1:T(8,128)} copy(reshape.8257), sharding={maximal device=0 metadata={op_type="_TPUReplicate" op_name="cluster"}}, metadata={op_name="XLA_Retvals"}
  get-tuple-element.8060 = f32[128,2,64]{0,2,1:T(8,128)} get-tuple-element(tuple.8058), index=1, metadata={op_type="While" op_name="LoopCond" source_file="dummy_file_name" source_line=10}
  reshape.8259 = f32[128,2,64]{0,2,1:T(8,128)} reshape(get-tuple-element.8060), metadata={op_name="XLA_Retvals"}
  copy.8260 = f32[128,2,64]{0,2,1:T(8,128)} copy(reshape.8259), sharding={maximal device=0 metadata={op_type="_TPUReplicate" op_name="cluster"}}, metadata={op_name="XLA_Retvals"}
  get-tuple-element.8116 = f32[128,2,64]{0,2,1:T(8,128)} get-tuple-element(tuple.8058), index=57, metadata={op_type="While" op_name="LoopCond" source_file="dummy_file_name" source_line=10}
  reshape.8261 = f32[128,2,64]{0,2,1:T(8,128)} reshape(get-tuple-element.8116), metadata={op_name="XLA_Retvals"}
  copy.8262 = f32[128,2,64]{0,2,1:T(8,128)} copy(reshape.8261), sharding={maximal device=0 metadata={op_type="_TPUReplicate" op_name="cluster"}}, metadata={op_name="XLA_Retvals"}
  get-tuple-element.8117 = f32[128,2,64]{0,2,1:T(8,128)} get-tuple-element(tuple.8058), index=58, metadata={op_type="While" op_name="LoopCond" source_file="dummy_file_name" source_line=10}
  reshape.8263 = f32[128,2,64]{0,2,1:T(8,128)} reshape(get-tuple-element.8117), metadata={op_name="XLA_Retvals"}
  copy.8264 = f32[128,2,64]{0,2,1:T(8,128)} copy(reshape.8263), sharding={maximal device=0 metadata={op_type="_TPUReplicate" op_name="cluster"}}, metadata={op_name="XLA_Retvals"}
  get-tuple-element.8068 = f32[128,2,64]{0,2,1:T(8,128)} get-tuple-element(tuple.8058), index=9, metadata={op_type="While" op_name="LoopCond" source_file="dummy_file_name" source_line=10}
  reshape.8265 = f32[128,2,64]{0,2,1:T(8,128)} reshape(get-tuple-element.8068), metadata={op_name="XLA_Retvals"}
  copy.8266 = f32[128,2,64]{0,2,1:T(8,128)} copy(reshape.8265), sharding={maximal device=0 metadata={op_type="_TPUReplicate" op_name="cluster"}}, metadata={op_name="XLA_Retvals"}
  get-tuple-element.8118 = f32[2,2,64]{2,1,0:T(2,128)} get-tuple-element(tuple.8058), index=59, metadata={op_type="While" op_name="LoopCond" source_file="dummy_file_name" source_line=10}
  reshape.8267 = f32[2,2,64]{2,1,0:T(2,128)} reshape(get-tuple-element.8118), metadata={op_name="XLA_Retvals"}
  copy.8268 = f32[2,2,64]{2,1,0:T(2,128)} copy(reshape.8267), sharding={maximal device=0 metadata={op_type="_TPUReplicate" op_name="cluster"}}, metadata={op_name="XLA_Retvals"}
  get-tuple-element.8119 = f32[2,2,64]{2,1,0:T(2,128)} get-tuple-element(tuple.8058), index=60, metadata={op_type="While" op_name="LoopCond" source_file="dummy_file_name" source_line=10}
  reshape.8269 = f32[2,2,64]{2,1,0:T(2,128)} reshape(get-tuple-element.8119), metadata={op_name="XLA_Retvals"}
  copy.8270 = f32[2,2,64]{2,1,0:T(2,128)} copy(reshape.8269), sharding={maximal device=0 metadata={op_type="_TPUReplicate" op_name="cluster"}}, metadata={op_name="XLA_Retvals"}
  get-tuple-element.8079 = f32[2,2,64]{2,1,0:T(2,128)} get-tuple-element(tuple.8058), index=20, metadata={op_type="While" op_name="LoopCond" source_file="dummy_file_name" source_line=10}
  reshape.8271 = f32[2,2,64]{2,1,0:T(2,128)} reshape(get-tuple-element.8079), metadata={op_name="XLA_Retvals"}
  copy.8272 = f32[2,2,64]{2,1,0:T(2,128)} copy(reshape.8271), sharding={maximal device=0 metadata={op_type="_TPUReplicate" op_name="cluster"}}, metadata={op_name="XLA_Retvals"}
  get-tuple-element.8120 = f32[128,2,64]{0,2,1:T(8,128)} get-tuple-element(tuple.8058), index=61, metadata={op_type="While" op_name="LoopCond" source_file="dummy_file_name" source_line=10}
  reshape.8273 = f32[128,2,64]{0,2,1:T(8,128)} reshape(get-tuple-element.8120), metadata={op_name="XLA_Retvals"}
  copy.8274 = f32[128,2,64]{0,2,1:T(8,128)} copy(reshape.8273), sharding={maximal device=0 metadata={op_type="_TPUReplicate" op_name="cluster"}}, metadata={op_name="XLA_Retvals"}
  get-tuple-element.8121 = f32[128,2,64]{0,2,1:T(8,128)} get-tuple-element(tuple.8058), index=62, metadata={op_type="While" op_name="LoopCond" source_file="dummy_file_name" source_line=10}
  reshape.8275 = f32[128,2,64]{0,2,1:T(8,128)} reshape(get-tuple-element.8121), metadata={op_name="XLA_Retvals"}
  copy.8276 = f32[128,2,64]{0,2,1:T(8,128)} copy(reshape.8275), sharding={maximal device=0 metadata={op_type="_TPUReplicate" op_name="cluster"}}, metadata={op_name="XLA_Retvals"}
  get-tuple-element.8078 = f32[128,2,64]{0,2,1:T(8,128)} get-tuple-element(tuple.8058), index=19, metadata={op_type="While" op_name="LoopCond" source_file="dummy_file_name" source_line=10}
  reshape.8277 = f32[128,2,64]{0,2,1:T(8,128)} reshape(get-tuple-element.8078), metadata={op_name="XLA_Retvals"}
  copy.8278 = f32[128,2,64]{0,2,1:T(8,128)} copy(reshape.8277), sharding={maximal device=0 metadata={op_type="_TPUReplicate" op_name="cluster"}}, metadata={op_name="XLA_Retvals"}
  get-tuple-element.8122 = f32[128,2,64]{0,2,1:T(8,128)} get-tuple-element(tuple.8058), index=63, metadata={op_type="While" op_name="LoopCond" source_file="dummy_file_name" source_line=10}
  reshape.8279 = f32[128,2,64]{0,2,1:T(8,128)} reshape(get-tuple-element.8122), metadata={op_name="XLA_Retvals"}
  copy.8280 = f32[128,2,64]{0,2,1:T(8,128)} copy(reshape.8279), sharding={maximal device=0 metadata={op_type="_TPUReplicate" op_name="cluster"}}, metadata={op_name="XLA_Retvals"}
  get-tuple-element.8123 = f32[128,2,64]{0,2,1:T(8,128)} get-tuple-element(tuple.8058), index=64, metadata={op_type="While" op_name="LoopCond" source_file="dummy_file_name" source_line=10}
  reshape.8281 = f32[128,2,64]{0,2,1:T(8,128)} reshape(get-tuple-element.8123), metadata={op_name="XLA_Retvals"}
  copy.8282 = f32[128,2,64]{0,2,1:T(8,128)} copy(reshape.8281), sharding={maximal device=0 metadata={op_type="_TPUReplicate" op_name="cluster"}}, metadata={op_name="XLA_Retvals"}
  get-tuple-element.8071 = f32[128,2,64]{0,2,1:T(8,128)} get-tuple-element(tuple.8058), index=12, metadata={op_type="While" op_name="LoopCond" source_file="dummy_file_name" source_line=10}
  reshape.8283 = f32[128,2,64]{0,2,1:T(8,128)} reshape(get-tuple-element.8071), metadata={op_name="XLA_Retvals"}
  copy.8284 = f32[128,2,64]{0,2,1:T(8,128)} copy(reshape.8283), sharding={maximal device=0 metadata={op_type="_TPUReplicate" op_name="cluster"}}, metadata={op_name="XLA_Retvals"}
  get-tuple-element.8124 = f32[2,512]{1,0:T(2,128)} get-tuple-element(tuple.8058), index=65, metadata={op_type="While" op_name="LoopCond" source_file="dummy_file_name" source_line=10}
  reshape.8285 = f32[2,512]{1,0:T(2,128)} reshape(get-tuple-element.8124), metadata={op_name="XLA_Retvals"}
  copy.8286 = f32[2,512]{1,0:T(2,128)} copy(reshape.8285), sharding={maximal device=0 metadata={op_type="_TPUReplicate" op_name="cluster"}}, metadata={op_name="XLA_Retvals"}
  get-tuple-element.8125 = f32[2,512]{1,0:T(2,128)} get-tuple-element(tuple.8058), index=66, metadata={op_type="While" op_name="LoopCond" source_file="dummy_file_name" source_line=10}
  reshape.8287 = f32[2,512]{1,0:T(2,128)} reshape(get-tuple-element.8125), metadata={op_name="XLA_Retvals"}
  copy.8288 = f32[2,512]{1,0:T(2,128)} copy(reshape.8287), sharding={maximal device=0 metadata={op_type="_TPUReplicate" op_name="cluster"}}, metadata={op_name="XLA_Retvals"}
  get-tuple-element.8063 = f32[2,512]{1,0:T(2,128)} get-tuple-element(tuple.8058), index=4, metadata={op_type="While" op_name="LoopCond" source_file="dummy_file_name" source_line=10}
  reshape.8289 = f32[2,512]{1,0:T(2,128)} reshape(get-tuple-element.8063), metadata={op_name="XLA_Retvals"}
  copy.8290 = f32[2,512]{1,0:T(2,128)} copy(reshape.8289), sharding={maximal device=0 metadata={op_type="_TPUReplicate" op_name="cluster"}}, metadata={op_name="XLA_Retvals"}
  get-tuple-element.8126 = f32[128,512]{1,0:T(8,128)} get-tuple-element(tuple.8058), index=67, metadata={op_type="While" op_name="LoopCond" source_file="dummy_file_name" source_line=10}
  reshape.8291 = f32[128,512]{1,0:T(8,128)} reshape(get-tuple-element.8126), metadata={op_name="XLA_Retvals"}
  copy.8292 = f32[128,512]{1,0:T(8,128)} copy(reshape.8291), sharding={maximal device=0 metadata={op_type="_TPUReplicate" op_name="cluster"}}, metadata={op_name="XLA_Retvals"}
  get-tuple-element.8127 = f32[128,512]{1,0:T(8,128)} get-tuple-element(tuple.8058), index=68, metadata={op_type="While" op_name="LoopCond" source_file="dummy_file_name" source_line=10}
  reshape.8293 = f32[128,512]{1,0:T(8,128)} reshape(get-tuple-element.8127), metadata={op_name="XLA_Retvals"}
  copy.8294 = f32[128,512]{1,0:T(8,128)} copy(reshape.8293), sharding={maximal device=0 metadata={op_type="_TPUReplicate" op_name="cluster"}}, metadata={op_name="XLA_Retvals"}
  get-tuple-element.8062 = f32[128,512]{1,0:T(8,128)} get-tuple-element(tuple.8058), index=3, metadata={op_type="While" op_name="LoopCond" source_file="dummy_file_name" source_line=10}
  reshape.8295 = f32[128,512]{1,0:T(8,128)} reshape(get-tuple-element.8062), metadata={op_name="XLA_Retvals"}
  copy.8296 = f32[128,512]{1,0:T(8,128)} copy(reshape.8295), sharding={maximal device=0 metadata={op_type="_TPUReplicate" op_name="cluster"}}, metadata={op_name="XLA_Retvals"}
  get-tuple-element.8128 = f32[128,512]{1,0:T(8,128)} get-tuple-element(tuple.8058), index=69, metadata={op_type="While" op_name="LoopCond" source_file="dummy_file_name" source_line=10}
  reshape.8297 = f32[128,512]{1,0:T(8,128)} reshape(get-tuple-element.8128), metadata={op_name="XLA_Retvals"}
  copy.8298 = f32[128,512]{1,0:T(8,128)} copy(reshape.8297), sharding={maximal device=0 metadata={op_type="_TPUReplicate" op_name="cluster"}}, metadata={op_name="XLA_Retvals"}
  get-tuple-element.8129 = f32[128,512]{1,0:T(8,128)} get-tuple-element(tuple.8058), index=70, metadata={op_type="While" op_name="LoopCond" source_file="dummy_file_name" source_line=10}
  reshape.8299 = f32[128,512]{1,0:T(8,128)} reshape(get-tuple-element.8129), metadata={op_name="XLA_Retvals"}
  copy.8300 = f32[128,512]{1,0:T(8,128)} copy(reshape.8299), sharding={maximal device=0 metadata={op_type="_TPUReplicate" op_name="cluster"}}, metadata={op_name="XLA_Retvals"}
  get-tuple-element.8073 = f32[128,512]{1,0:T(8,128)} get-tuple-element(tuple.8058), index=14, metadata={op_type="While" op_name="LoopCond" source_file="dummy_file_name" source_line=10}
  reshape.8301 = f32[128,512]{1,0:T(8,128)} reshape(get-tuple-element.8073), metadata={op_name="XLA_Retvals"}
  copy.8302 = f32[128,512]{1,0:T(8,128)} copy(reshape.8301), sharding={maximal device=0 metadata={op_type="_TPUReplicate" op_name="cluster"}}, metadata={op_name="XLA_Retvals"}
  get-tuple-element.8130 = f32[2,128]{1,0:T(2,128)} get-tuple-element(tuple.8058), index=71, metadata={op_type="While" op_name="LoopCond" source_file="dummy_file_name" source_line=10}
  reshape.8303 = f32[2,128]{1,0:T(2,128)} reshape(get-tuple-element.8130), metadata={op_name="XLA_Retvals"}
  copy.8304 = f32[2,128]{1,0:T(2,128)} copy(reshape.8303), sharding={maximal device=0 metadata={op_type="_TPUReplicate" op_name="cluster"}}, metadata={op_name="XLA_Retvals"}
  get-tuple-element.8131 = f32[2,128]{1,0:T(2,128)} get-tuple-element(tuple.8058), index=72, metadata={op_type="While" op_name="LoopCond" source_file="dummy_file_name" source_line=10}
  reshape.8305 = f32[2,128]{1,0:T(2,128)} reshape(get-tuple-element.8131), metadata={op_name="XLA_Retvals"}
  copy.8306 = f32[2,128]{1,0:T(2,128)} copy(reshape.8305), sharding={maximal device=0 metadata={op_type="_TPUReplicate" op_name="cluster"}}, metadata={op_name="XLA_Retvals"}
  get-tuple-element.8067 = f32[2,128]{1,0:T(2,128)} get-tuple-element(tuple.8058), index=8, metadata={op_type="While" op_name="LoopCond" source_file="dummy_file_name" source_line=10}
  reshape.8307 = f32[2,128]{1,0:T(2,128)} reshape(get-tuple-element.8067), metadata={op_name="XLA_Retvals"}
  copy.8308 = f32[2,128]{1,0:T(2,128)} copy(reshape.8307), sharding={maximal device=0 metadata={op_type="_TPUReplicate" op_name="cluster"}}, metadata={op_name="XLA_Retvals"}
  get-tuple-element.8132 = f32[2,128]{1,0:T(2,128)} get-tuple-element(tuple.8058), index=73, metadata={op_type="While" op_name="LoopCond" source_file="dummy_file_name" source_line=10}
  reshape.8309 = f32[2,128]{1,0:T(2,128)} reshape(get-tuple-element.8132), metadata={op_name="XLA_Retvals"}
  copy.8310 = f32[2,128]{1,0:T(2,128)} copy(reshape.8309), sharding={maximal device=0 metadata={op_type="_TPUReplicate" op_name="cluster"}}, metadata={op_name="XLA_Retvals"}
  get-tuple-element.8133 = f32[2,128]{1,0:T(2,128)} get-tuple-element(tuple.8058), index=74, metadata={op_type="While" op_name="LoopCond" source_file="dummy_file_name" source_line=10}
  reshape.8311 = f32[2,128]{1,0:T(2,128)} reshape(get-tuple-element.8133), metadata={op_name="XLA_Retvals"}
  copy.8312 = f32[2,128]{1,0:T(2,128)} copy(reshape.8311), sharding={maximal device=0 metadata={op_type="_TPUReplicate" op_name="cluster"}}, metadata={op_name="XLA_Retvals"}
  get-tuple-element.8066 = f32[2,128]{1,0:T(2,128)} get-tuple-element(tuple.8058), index=7, metadata={op_type="While" op_name="LoopCond" source_file="dummy_file_name" source_line=10}
  reshape.8313 = f32[2,128]{1,0:T(2,128)} reshape(get-tuple-element.8066), metadata={op_name="XLA_Retvals"}
  copy.8314 = f32[2,128]{1,0:T(2,128)} copy(reshape.8313), sharding={maximal device=0 metadata={op_type="_TPUReplicate" op_name="cluster"}}, metadata={op_name="XLA_Retvals"}
  get-tuple-element.8134 = f32[2,128]{1,0:T(2,128)} get-tuple-element(tuple.8058), index=75, metadata={op_type="While" op_name="LoopCond" source_file="dummy_file_name" source_line=10}
  reshape.8315 = f32[2,128]{1,0:T(2,128)} reshape(get-tuple-element.8134), metadata={op_name="XLA_Retvals"}
  copy.8316 = f32[2,128]{1,0:T(2,128)} copy(reshape.8315), sharding={maximal device=0 metadata={op_type="_TPUReplicate" op_name="cluster"}}, metadata={op_name="XLA_Retvals"}
  get-tuple-element.8135 = f32[2,128]{1,0:T(2,128)} get-tuple-element(tuple.8058), index=76, metadata={op_type="While" op_name="LoopCond" source_file="dummy_file_name" source_line=10}
  reshape.8317 = f32[2,128]{1,0:T(2,128)} reshape(get-tuple-element.8135), metadata={op_name="XLA_Retvals"}
  copy.8318 = f32[2,128]{1,0:T(2,128)} copy(reshape.8317), sharding={maximal device=0 metadata={op_type="_TPUReplicate" op_name="cluster"}}, metadata={op_name="XLA_Retvals"}
  get-tuple-element.8065 = f32[2,128]{1,0:T(2,128)} get-tuple-element(tuple.8058), index=6, metadata={op_type="While" op_name="LoopCond" source_file="dummy_file_name" source_line=10}
  reshape.8319 = f32[2,128]{1,0:T(2,128)} reshape(get-tuple-element.8065), metadata={op_name="XLA_Retvals"}
  copy.8320 = f32[2,128]{1,0:T(2,128)} copy(reshape.8319), sharding={maximal device=0 metadata={op_type="_TPUReplicate" op_name="cluster"}}, metadata={op_name="XLA_Retvals"}
  get-tuple-element.8136 = f32[512,128]{1,0:T(8,128)} get-tuple-element(tuple.8058), index=77, metadata={op_type="While" op_name="LoopCond" source_file="dummy_file_name" source_line=10}
  reshape.8321 = f32[512,128]{1,0:T(8,128)} reshape(get-tuple-element.8136), metadata={op_name="XLA_Retvals"}
  copy.8322 = f32[512,128]{1,0:T(8,128)} copy(reshape.8321), sharding={maximal device=0 metadata={op_type="_TPUReplicate" op_name="cluster"}}, metadata={op_name="XLA_Retvals"}
  get-tuple-element.8137 = f32[512,128]{1,0:T(8,128)} get-tuple-element(tuple.8058), index=78, metadata={op_type="While" op_name="LoopCond" source_file="dummy_file_name" source_line=10}
  reshape.8323 = f32[512,128]{1,0:T(8,128)} reshape(get-tuple-element.8137), metadata={op_name="XLA_Retvals"}
  copy.8324 = f32[512,128]{1,0:T(8,128)} copy(reshape.8323), sharding={maximal device=0 metadata={op_type="_TPUReplicate" op_name="cluster"}}, metadata={op_name="XLA_Retvals"}
  get-tuple-element.8064 = f32[512,128]{1,0:T(8,128)} get-tuple-element(tuple.8058), index=5, metadata={op_type="While" op_name="LoopCond" source_file="dummy_file_name" source_line=10}
  reshape.8325 = f32[512,128]{1,0:T(8,128)} reshape(get-tuple-element.8064), metadata={op_name="XLA_Retvals"}
  copy.8326 = f32[512,128]{1,0:T(8,128)} copy(reshape.8325), sharding={maximal device=0 metadata={op_type="_TPUReplicate" op_name="cluster"}}, metadata={op_name="XLA_Retvals"}
  get-tuple-element.8138 = f32[512,128]{1,0:T(8,128)} get-tuple-element(tuple.8058), index=79, metadata={op_type="While" op_name="LoopCond" source_file="dummy_file_name" source_line=10}
  reshape.8327 = f32[512,128]{1,0:T(8,128)} reshape(get-tuple-element.8138), metadata={op_name="XLA_Retvals"}
  copy.8328 = f32[512,128]{1,0:T(8,128)} copy(reshape.8327), sharding={maximal device=0 metadata={op_type="_TPUReplicate" op_name="cluster"}}, metadata={op_name="XLA_Retvals"}
  get-tuple-element.8139 = f32[512,128]{1,0:T(8,128)} get-tuple-element(tuple.8058), index=80, metadata={op_type="While" op_name="LoopCond" source_file="dummy_file_name" source_line=10}
  reshape.8329 = f32[512,128]{1,0:T(8,128)} reshape(get-tuple-element.8139), metadata={op_name="XLA_Retvals"}
  copy.8330 = f32[512,128]{1,0:T(8,128)} copy(reshape.8329), sharding={maximal device=0 metadata={op_type="_TPUReplicate" op_name="cluster"}}, metadata={op_name="XLA_Retvals"}
  get-tuple-element.8074 = f32[512,128]{1,0:T(8,128)} get-tuple-element(tuple.8058), index=15, metadata={op_type="While" op_name="LoopCond" source_file="dummy_file_name" source_line=10}
  reshape.8331 = f32[512,128]{1,0:T(8,128)} reshape(get-tuple-element.8074), metadata={op_name="XLA_Retvals"}
  copy.8332 = f32[512,128]{1,0:T(8,128)} copy(reshape.8331), sharding={maximal device=0 metadata={op_type="_TPUReplicate" op_name="cluster"}}, metadata={op_name="XLA_Retvals"}
  get-tuple-element.8140 = f32[128]{0:T(128)} get-tuple-element(tuple.8058), index=81, metadata={op_type="While" op_name="LoopCond" source_file="dummy_file_name" source_line=10}
  reshape.8333 = f32[128]{0:T(128)} reshape(get-tuple-element.8140), metadata={op_name="XLA_Retvals"}
  copy.8334 = f32[128]{0:T(128)} copy(reshape.8333), sharding={maximal device=0 metadata={op_type="_TPUReplicate" op_name="cluster"}}, metadata={op_name="XLA_Retvals"}
  get-tuple-element.8141 = f32[128]{0:T(128)} get-tuple-element(tuple.8058), index=82, metadata={op_type="While" op_name="LoopCond" source_file="dummy_file_name" source_line=10}
  reshape.8335 = f32[128]{0:T(128)} reshape(get-tuple-element.8141), metadata={op_name="XLA_Retvals"}
  copy.8336 = f32[128]{0:T(128)} copy(reshape.8335), sharding={maximal device=0 metadata={op_type="_TPUReplicate" op_name="cluster"}}, metadata={op_name="XLA_Retvals"}
  get-tuple-element.8077 = f32[128]{0:T(128)} get-tuple-element(tuple.8058), index=18, metadata={op_type="While" op_name="LoopCond" source_file="dummy_file_name" source_line=10}
  reshape.8337 = f32[128]{0:T(128)} reshape(get-tuple-element.8077), metadata={op_name="XLA_Retvals"}
  copy.8338 = f32[128]{0:T(128)} copy(reshape.8337), sharding={maximal device=0 metadata={op_type="_TPUReplicate" op_name="cluster"}}, metadata={op_name="XLA_Retvals"}
  get-tuple-element.8142 = f32[128,128]{1,0:T(8,128)} get-tuple-element(tuple.8058), index=83, metadata={op_type="While" op_name="LoopCond" source_file="dummy_file_name" source_line=10}
  reshape.8339 = f32[128,128]{1,0:T(8,128)} reshape(get-tuple-element.8142), metadata={op_name="XLA_Retvals"}
  copy.8340 = f32[128,128]{1,0:T(8,128)} copy(reshape.8339), sharding={maximal device=0 metadata={op_type="_TPUReplicate" op_name="cluster"}}, metadata={op_name="XLA_Retvals"}
  get-tuple-element.8143 = f32[128,128]{1,0:T(8,128)} get-tuple-element(tuple.8058), index=84, metadata={op_type="While" op_name="LoopCond" source_file="dummy_file_name" source_line=10}
  reshape.8341 = f32[128,128]{1,0:T(8,128)} reshape(get-tuple-element.8143), metadata={op_name="XLA_Retvals"}
  copy.8342 = f32[128,128]{1,0:T(8,128)} copy(reshape.8341), sharding={maximal device=0 metadata={op_type="_TPUReplicate" op_name="cluster"}}, metadata={op_name="XLA_Retvals"}
  get-tuple-element.8076 = f32[128,128]{1,0:T(8,128)} get-tuple-element(tuple.8058), index=17, metadata={op_type="While" op_name="LoopCond" source_file="dummy_file_name" source_line=10}
  reshape.8343 = f32[128,128]{1,0:T(8,128)} reshape(get-tuple-element.8076), metadata={op_name="XLA_Retvals"}
  copy.8344 = f32[128,128]{1,0:T(8,128)} copy(reshape.8343), sharding={maximal device=0 metadata={op_type="_TPUReplicate" op_name="cluster"}}, metadata={op_name="XLA_Retvals"}
  get-tuple-element.8144 = f32[30522]{0:T(1024)} get-tuple-element(tuple.8058), index=85, metadata={op_type="While" op_name="LoopCond" source_file="dummy_file_name" source_line=10}
  reshape.8345 = f32[30522]{0:T(1024)} reshape(get-tuple-element.8144), metadata={op_name="XLA_Retvals"}
  copy.8346 = f32[30522]{0:T(1024)} copy(reshape.8345), sharding={maximal device=0 metadata={op_type="_TPUReplicate" op_name="cluster"}}, metadata={op_name="XLA_Retvals"}
  get-tuple-element.8145 = f32[30522]{0:T(1024)} get-tuple-element(tuple.8058), index=86, metadata={op_type="While" op_name="LoopCond" source_file="dummy_file_name" source_line=10}
  reshape.8347 = f32[30522]{0:T(1024)} reshape(get-tuple-element.8145), metadata={op_name="XLA_Retvals"}
  copy.8348 = f32[30522]{0:T(1024)} copy(reshape.8347), sharding={maximal device=0 metadata={op_type="_TPUReplicate" op_name="cluster"}}, metadata={op_name="XLA_Retvals"}
  get-tuple-element.8164 = f32[30522]{0:T(1024)} get-tuple-element(tuple.8058), index=105, metadata={op_type="While" op_name="LoopCond" source_file="dummy_file_name" source_line=10}
  reshape.8349 = f32[30522]{0:T(1024)} reshape(get-tuple-element.8164), metadata={op_name="XLA_Retvals"}
  copy.8350 = f32[30522]{0:T(1024)} copy(reshape.8349), sharding={maximal device=0 metadata={op_type="_TPUReplicate" op_name="cluster"}}, metadata={op_name="XLA_Retvals"}
  get-tuple-element.8146 = f32[128]{0:T(128)} get-tuple-element(tuple.8058), index=87, metadata={op_type="While" op_name="LoopCond" source_file="dummy_file_name" source_line=10}
  reshape.8351 = f32[128]{0:T(128)} reshape(get-tuple-element.8146), metadata={op_name="XLA_Retvals"}
  copy.8352 = f32[128]{0:T(128)} copy(reshape.8351), sharding={maximal device=0 metadata={op_type="_TPUReplicate" op_name="cluster"}}, metadata={op_name="XLA_Retvals"}
  get-tuple-element.8147 = f32[128]{0:T(128)} get-tuple-element(tuple.8058), index=88, metadata={op_type="While" op_name="LoopCond" source_file="dummy_file_name" source_line=10}
  reshape.8353 = f32[128]{0:T(128)} reshape(get-tuple-element.8147), metadata={op_name="XLA_Retvals"}
  copy.8354 = f32[128]{0:T(128)} copy(reshape.8353), sharding={maximal device=0 metadata={op_type="_TPUReplicate" op_name="cluster"}}, metadata={op_name="XLA_Retvals"}
  get-tuple-element.8166 = f32[128]{0:T(128)} get-tuple-element(tuple.8058), index=107, metadata={op_type="While" op_name="LoopCond" source_file="dummy_file_name" source_line=10}
  reshape.8355 = f32[128]{0:T(128)} reshape(get-tuple-element.8166), metadata={op_name="XLA_Retvals"}
  copy.8356 = f32[128]{0:T(128)} copy(reshape.8355), sharding={maximal device=0 metadata={op_type="_TPUReplicate" op_name="cluster"}}, metadata={op_name="XLA_Retvals"}
  get-tuple-element.8148 = f32[128]{0:T(128)} get-tuple-element(tuple.8058), index=89, metadata={op_type="While" op_name="LoopCond" source_file="dummy_file_name" source_line=10}
  reshape.8357 = f32[128]{0:T(128)} reshape(get-tuple-element.8148), metadata={op_name="XLA_Retvals"}
  copy.8358 = f32[128]{0:T(128)} copy(reshape.8357), sharding={maximal device=0 metadata={op_type="_TPUReplicate" op_name="cluster"}}, metadata={op_name="XLA_Retvals"}
  get-tuple-element.8149 = f32[128]{0:T(128)} get-tuple-element(tuple.8058), index=90, metadata={op_type="While" op_name="LoopCond" source_file="dummy_file_name" source_line=10}
  reshape.8359 = f32[128]{0:T(128)} reshape(get-tuple-element.8149), metadata={op_name="XLA_Retvals"}
  copy.8360 = f32[128]{0:T(128)} copy(reshape.8359), sharding={maximal device=0 metadata={op_type="_TPUReplicate" op_name="cluster"}}, metadata={op_name="XLA_Retvals"}
  get-tuple-element.8165 = f32[128]{0:T(128)} get-tuple-element(tuple.8058), index=106, metadata={op_type="While" op_name="LoopCond" source_file="dummy_file_name" source_line=10}
  reshape.8361 = f32[128]{0:T(128)} reshape(get-tuple-element.8165), metadata={op_name="XLA_Retvals"}
  copy.8362 = f32[128]{0:T(128)} copy(reshape.8361), sharding={maximal device=0 metadata={op_type="_TPUReplicate" op_name="cluster"}}, metadata={op_name="XLA_Retvals"}
  get-tuple-element.8150 = f32[128]{0:T(128)} get-tuple-element(tuple.8058), index=91, metadata={op_type="While" op_name="LoopCond" source_file="dummy_file_name" source_line=10}
  reshape.8363 = f32[128]{0:T(128)} reshape(get-tuple-element.8150), metadata={op_name="XLA_Retvals"}
  copy.8364 = f32[128]{0:T(128)} copy(reshape.8363), sharding={maximal device=0 metadata={op_type="_TPUReplicate" op_name="cluster"}}, metadata={op_name="XLA_Retvals"}
  get-tuple-element.8151 = f32[128]{0:T(128)} get-tuple-element(tuple.8058), index=92, metadata={op_type="While" op_name="LoopCond" source_file="dummy_file_name" source_line=10}
  reshape.8365 = f32[128]{0:T(128)} reshape(get-tuple-element.8151), metadata={op_name="XLA_Retvals"}
  copy.8366 = f32[128]{0:T(128)} copy(reshape.8365), sharding={maximal device=0 metadata={op_type="_TPUReplicate" op_name="cluster"}}, metadata={op_name="XLA_Retvals"}
  get-tuple-element.8167 = f32[128]{0:T(128)} get-tuple-element(tuple.8058), index=108, metadata={op_type="While" op_name="LoopCond" source_file="dummy_file_name" source_line=10}
  reshape.8367 = f32[128]{0:T(128)} reshape(get-tuple-element.8167), metadata={op_name="XLA_Retvals"}
  copy.8368 = f32[128]{0:T(128)} copy(reshape.8367), sharding={maximal device=0 metadata={op_type="_TPUReplicate" op_name="cluster"}}, metadata={op_name="XLA_Retvals"}
  get-tuple-element.8152 = f32[128,128]{1,0:T(8,128)} get-tuple-element(tuple.8058), index=93, metadata={op_type="While" op_name="LoopCond" source_file="dummy_file_name" source_line=10}
  reshape.8369 = f32[128,128]{1,0:T(8,128)} reshape(get-tuple-element.8152), metadata={op_name="XLA_Retvals"}
  copy.8370 = f32[128,128]{1,0:T(8,128)} copy(reshape.8369), sharding={maximal device=0 metadata={op_type="_TPUReplicate" op_name="cluster"}}, metadata={op_name="XLA_Retvals"}
  get-tuple-element.8153 = f32[128,128]{1,0:T(8,128)} get-tuple-element(tuple.8058), index=94, metadata={op_type="While" op_name="LoopCond" source_file="dummy_file_name" source_line=10}
  reshape.8371 = f32[128,128]{1,0:T(8,128)} reshape(get-tuple-element.8153), metadata={op_name="XLA_Retvals"}
  copy.8372 = f32[128,128]{1,0:T(8,128)} copy(reshape.8371), sharding={maximal device=0 metadata={op_type="_TPUReplicate" op_name="cluster"}}, metadata={op_name="XLA_Retvals"}
  get-tuple-element.8168 = f32[128,128]{1,0:T(8,128)} get-tuple-element(tuple.8058), index=109, metadata={op_type="While" op_name="LoopCond" source_file="dummy_file_name" source_line=10}
  reshape.8373 = f32[128,128]{1,0:T(8,128)} reshape(get-tuple-element.8168), metadata={op_name="XLA_Retvals"}
  copy.8374 = f32[128,128]{1,0:T(8,128)} copy(reshape.8373), sharding={maximal device=0 metadata={op_type="_TPUReplicate" op_name="cluster"}}, metadata={op_name="XLA_Retvals"}
  get-tuple-element.8154 = f32[2]{0:T(128)} get-tuple-element(tuple.8058), index=95, metadata={op_type="While" op_name="LoopCond" source_file="dummy_file_name" source_line=10}
  reshape.8375 = f32[2]{0:T(128)} reshape(get-tuple-element.8154), metadata={op_name="XLA_Retvals"}
  copy.8376 = f32[2]{0:T(128)} copy(reshape.8375), sharding={maximal device=0 metadata={op_type="_TPUReplicate" op_name="cluster"}}, metadata={op_name="XLA_Retvals"}
  get-tuple-element.8155 = f32[2]{0:T(128)} get-tuple-element(tuple.8058), index=96, metadata={op_type="While" op_name="LoopCond" source_file="dummy_file_name" source_line=10}
  reshape.8377 = f32[2]{0:T(128)} reshape(get-tuple-element.8155), metadata={op_name="XLA_Retvals"}
  copy.8378 = f32[2]{0:T(128)} copy(reshape.8377), sharding={maximal device=0 metadata={op_type="_TPUReplicate" op_name="cluster"}}, metadata={op_name="XLA_Retvals"}
  get-tuple-element.8169 = f32[2]{0:T(128)} get-tuple-element(tuple.8058), index=110, metadata={op_type="While" op_name="LoopCond" source_file="dummy_file_name" source_line=10}
  reshape.8379 = f32[2]{0:T(128)} reshape(get-tuple-element.8169), metadata={op_name="XLA_Retvals"}
  copy.8380 = f32[2]{0:T(128)} copy(reshape.8379), sharding={maximal device=0 metadata={op_type="_TPUReplicate" op_name="cluster"}}, metadata={op_name="XLA_Retvals"}
  get-tuple-element.8156 = f32[2,128]{1,0:T(2,128)} get-tuple-element(tuple.8058), index=97, metadata={op_type="While" op_name="LoopCond" source_file="dummy_file_name" source_line=10}
  reshape.8381 = f32[2,128]{1,0:T(2,128)} reshape(get-tuple-element.8156), metadata={op_name="XLA_Retvals"}
  copy.8382 = f32[2,128]{1,0:T(2,128)} copy(reshape.8381), sharding={maximal device=0 metadata={op_type="_TPUReplicate" op_name="cluster"}}, metadata={op_name="XLA_Retvals"}
  get-tuple-element.8157 = f32[2,128]{1,0:T(2,128)} get-tuple-element(tuple.8058), index=98, metadata={op_type="While" op_name="LoopCond" source_file="dummy_file_name" source_line=10}
  reshape.8383 = f32[2,128]{1,0:T(2,128)} reshape(get-tuple-element.8157), metadata={op_name="XLA_Retvals"}
  copy.8384 = f32[2,128]{1,0:T(2,128)} copy(reshape.8383), sharding={maximal device=0 metadata={op_type="_TPUReplicate" op_name="cluster"}}, metadata={op_name="XLA_Retvals"}
  get-tuple-element.8170 = f32[2,128]{1,0:T(2,128)} get-tuple-element(tuple.8058), index=111, metadata={op_type="While" op_name="LoopCond" source_file="dummy_file_name" source_line=10}
  reshape.8385 = f32[2,128]{1,0:T(2,128)} reshape(get-tuple-element.8170), metadata={op_name="XLA_Retvals"}
  copy.8386 = f32[2,128]{1,0:T(2,128)} copy(reshape.8385), sharding={maximal device=0 metadata={op_type="_TPUReplicate" op_name="cluster"}}, metadata={op_name="XLA_Retvals"}
  get-tuple-element.8158 = s64[]{:T(128)} get-tuple-element(tuple.8058), index=99, metadata={op_type="While" op_name="LoopCond" source_file="dummy_file_name" source_line=10}
  reshape.8387 = s64[]{:T(128)} reshape(get-tuple-element.8158), metadata={op_name="XLA_Retvals"}
  copy.8388 = s64[]{:T(128)} copy(reshape.8387), sharding={maximal device=0 metadata={op_type="_TPUReplicate" op_name="cluster"}}, metadata={op_name="XLA_Retvals"}
  get-tuple-element.8094 = f32[]{:T(128)} get-tuple-element(tuple.8058), index=35, metadata={op_type="While" op_name="LoopCond" source_file="dummy_file_name" source_line=10}
  reshape.8389 = f32[]{:T(128)} reshape(get-tuple-element.8094), metadata={op_name="XLA_Retvals"}
  copy.8390 = f32[]{:T(128)} copy(reshape.8389), sharding={maximal device=0 metadata={op_type="_TPUReplicate" op_name="cluster"}}, metadata={op_name="XLA_Retvals"}
  get-tuple-element.8095 = f32[]{:T(128)} get-tuple-element(tuple.8058), index=36, metadata={op_type="While" op_name="LoopCond" source_file="dummy_file_name" source_line=10}
  reshape.8391 = f32[]{:T(128)} reshape(get-tuple-element.8095), metadata={op_name="XLA_Retvals"}
  copy.8392 = f32[]{:T(128)} copy(reshape.8391), sharding={maximal device=0 metadata={op_type="_TPUReplicate" op_name="cluster"}}, metadata={op_name="XLA_Retvals"}
  ROOT tuple.8393 = (f32[128]{0:T(128)}, f32[128]{0:T(128)}, f32[128]{0:T(128)}, f32[128]{0:T(128)}, f32[128]{0:T(128)}, /*index=5*/f32[128]{0:T(128)}, f32[512,128]{1,0:T(8,128)}, f32[512,128]{1,0:T(8,128)}, f32[512,128]{1,0:T(8,128)}, f32[2,128]{1,0:T(2,128)}, /*index=10*/f32[2,128]{1,0:T(2,128)}, f32[2,128]{1,0:T(2,128)}, f32[30522,128]{1,0:T(8,128)}, f32[30522,128]{1,0:T(8,128)}, f32[30522,128]{1,0:T(8,128)}, /*index=15*/f32[2,128]{1,0:T(2,128)}, f32[2,128]{1,0:T(2,128)}, f32[2,128]{1,0:T(2,128)}, f32[2,128]{1,0:T(2,128)}, f32[2,128]{1,0:T(2,128)}, /*index=20*/f32[2,128]{1,0:T(2,128)}, f32[2,128]{1,0:T(2,128)}, f32[2,128]{1,0:T(2,128)}, f32[2,128]{1,0:T(2,128)}, f32[2,64,128]{2,1,0:T(8,128)}, /*index=25*/f32[2,64,128]{2,1,0:T(8,128)}, f32[2,64,128]{2,1,0:T(8,128)}, f32[2,64,128]{2,1,0:T(8,128)}, f32[2,64,128]{2,1,0:T(8,128)}, f32[2,64,128]{2,1,0:T(8,128)}, /*index=30*/f32[2,2,64]{2,1,0:T(2,128)}, f32[2,2,64]{2,1,0:T(2,128)}, f32[2,2,64]{2,1,0:T(2,128)}, f32[128,2,64]{0,2,1:T(8,128)}, f32[128,2,64]{0,2,1:T(8,128)}, /*index=35*/f32[128,2,64]{0,2,1:T(8,128)}, f32[128,2,64]{0,2,1:T(8,128)}, f32[128,2,64]{0,2,1:T(8,128)}, f32[128,2,64]{0,2,1:T(8,128)}, f32[2,2,64]{2,1,0:T(2,128)}, /*index=40*/f32[2,2,64]{2,1,0:T(2,128)}, f32[2,2,64]{2,1,0:T(2,128)}, f32[128,2,64]{0,2,1:T(8,128)}, f32[128,2,64]{0,2,1:T(8,128)}, f32[128,2,64]{0,2,1:T(8,128)}, /*index=45*/f32[128,2,64]{0,2,1:T(8,128)}, f32[128,2,64]{0,2,1:T(8,128)}, f32[128,2,64]{0,2,1:T(8,128)}, f32[2,2,64]{2,1,0:T(2,128)}, f32[2,2,64]{2,1,0:T(2,128)}, /*index=50*/f32[2,2,64]{2,1,0:T(2,128)}, f32[128,2,64]{0,2,1:T(8,128)}, f32[128,2,64]{0,2,1:T(8,128)}, f32[128,2,64]{0,2,1:T(8,128)}, f32[128,2,64]{0,2,1:T(8,128)}, /*index=55*/f32[128,2,64]{0,2,1:T(8,128)}, f32[128,2,64]{0,2,1:T(8,128)}, f32[2,512]{1,0:T(2,128)}, f32[2,512]{1,0:T(2,128)}, f32[2,512]{1,0:T(2,128)}, /*index=60*/f32[128,512]{1,0:T(8,128)}, f32[128,512]{1,0:T(8,128)}, f32[128,512]{1,0:T(8,128)}, f32[128,512]{1,0:T(8,128)}, f32[128,512]{1,0:T(8,128)}, /*index=65*/f32[128,512]{1,0:T(8,128)}, f32[2,128]{1,0:T(2,128)}, f32[2,128]{1,0:T(2,128)}, f32[2,128]{1,0:T(2,128)}, f32[2,128]{1,0:T(2,128)}, /*index=70*/f32[2,128]{1,0:T(2,128)}, f32[2,128]{1,0:T(2,128)}, f32[2,128]{1,0:T(2,128)}, f32[2,128]{1,0:T(2,128)}, f32[2,128]{1,0:T(2,128)}, /*index=75*/f32[512,128]{1,0:T(8,128)}, f32[512,128]{1,0:T(8,128)}, f32[512,128]{1,0:T(8,128)}, f32[512,128]{1,0:T(8,128)}, f32[512,128]{1,0:T(8,128)}, /*index=80*/f32[512,128]{1,0:T(8,128)}, f32[128]{0:T(128)}, f32[128]{0:T(128)}, f32[128]{0:T(128)}, f32[128,128]{1,0:T(8,128)}, /*index=85*/f32[128,128]{1,0:T(8,128)}, f32[128,128]{1,0:T(8,128)}, f32[30522]{0:T(1024)}, f32[30522]{0:T(1024)}, f32[30522]{0:T(1024)}, /*index=90*/f32[128]{0:T(128)}, f32[128]{0:T(128)}, f32[128]{0:T(128)}, f32[128]{0:T(128)}, f32[128]{0:T(128)}, /*index=95*/f32[128]{0:T(128)}, f32[128]{0:T(128)}, f32[128]{0:T(128)}, f32[128]{0:T(128)}, f32[128,128]{1,0:T(8,128)}, /*index=100*/f32[128,128]{1,0:T(8,128)}, f32[128,128]{1,0:T(8,128)}, f32[2]{0:T(128)}, f32[2]{0:T(128)}, f32[2]{0:T(128)}, /*index=105*/f32[2,128]{1,0:T(2,128)}, f32[2,128]{1,0:T(2,128)}, f32[2,128]{1,0:T(2,128)}, s64[]{:T(128)}, f32[]{:T(128)}, /*index=110*/f32[]{:T(128)}) tuple(copy.8172, copy.8174, copy.8176, copy.8178, copy.8180, /*index=5*/copy.8182, copy.8184, copy.8186, copy.8188, copy.8190, /*index=10*/copy.8192, copy.8194, copy.8196, copy.8198, copy.8200, /*index=15*/copy.8202, copy.8204, copy.8206, copy.8208, copy.8210, /*index=20*/copy.8212, copy.8214, copy.8216, copy.8218, copy.8220, /*index=25*/copy.8222, copy.8224, copy.8226, copy.8228, copy.8230, /*index=30*/copy.8232, copy.8234, copy.8236, copy.8238, copy.8240, /*index=35*/copy.8242, copy.8244, copy.8246, copy.8248, copy.8250, /*index=40*/copy.8252, copy.8254, copy.8256, copy.8258, copy.8260, /*index=45*/copy.8262, copy.8264, copy.8266, copy.8268, copy.8270, /*index=50*/copy.8272, copy.8274, copy.8276, copy.8278, copy.8280, /*index=55*/copy.8282, copy.8284, copy.8286, copy.8288, copy.8290, /*index=60*/copy.8292, copy.8294, copy.8296, copy.8298, copy.8300, /*index=65*/copy.8302, copy.8304, copy.8306, copy.8308, copy.8310, /*index=70*/copy.8312, copy.8314, copy.8316, copy.8318, copy.8320, /*index=75*/copy.8322, copy.8324, copy.8326, copy.8328, copy.8330, /*index=80*/copy.8332, copy.8334, copy.8336, copy.8338, copy.8340, /*index=85*/copy.8342, copy.8344, copy.8346, copy.8348, copy.8350, /*index=90*/copy.8352, copy.8354, copy.8356, copy.8358, copy.8360, /*index=95*/copy.8362, copy.8364, copy.8366, copy.8368, copy.8370, /*index=100*/copy.8372, copy.8374, copy.8376, copy.8378, copy.8380, /*index=105*/copy.8382, copy.8384, copy.8386, copy.8388, copy.8390, /*index=110*/copy.8392), sharding={{maximal device=0 metadata={op_type="_TPUReplicate" op_name="cluster"}}, {maximal device=0 metadata={op_type="_TPUReplicate" op_name="cluster"}}, {maximal device=0 metadata={op_type="_TPUReplicate" op_name="cluster"}}, {maximal device=0 metadata={op_type="_TPUReplicate" op_name="cluster"}}, {maximal device=0 metadata={op_type="_TPUReplicate" op_name="cluster"}}, /*index=5*/{maximal device=0 metadata={op_type="_TPUReplicate" op_name="cluster"}}, {maximal device=0 metadata={op_type="_TPUReplicate" op_name="cluster"}}, {maximal device=0 metadata={op_type="_TPUReplicate" op_name="cluster"}}, {maximal device=0 metadata={op_type="_TPUReplicate" op_name="cluster"}}, {maximal device=0 metadata={op_type="_TPUReplicate" op_name="cluster"}}, /*index=10*/{maximal device=0 metadata={op_type="_TPUReplicate" op_name="cluster"}}, {maximal device=0 metadata={op_type="_TPUReplicate" op_name="cluster"}}, {maximal device=0 metadata={op_type="_TPUReplicate" op_name="cluster"}}, {maximal device=0 metadata={op_type="_TPUReplicate" op_name="cluster"}}, {maximal device=0 metadata={op_type="_TPUReplicate" op_name="cluster"}}, /*index=15*/{maximal device=0 metadata={op_type="_TPUReplicate" op_name="cluster"}}, {maximal device=0 metadata={op_type="_TPUReplicate" op_name="cluster"}}, {maximal device=0 metadata={op_type="_TPUReplicate" op_name="cluster"}}, {maximal device=0 metadata={op_type="_TPUReplicate" op_name="cluster"}}, {maximal device=0 metadata={op_type="_TPUReplicate" op_name="cluster"}}, /*index=20*/{maximal device=0 metadata={op_type="_TPUReplicate" op_name="cluster"}}, {maximal device=0 metadata={op_type="_TPUReplicate" op_name="cluster"}}, {maximal device=0 metadata={op_type="_TPUReplicate" op_name="cluster"}}, {maximal device=0 metadata={op_type="_TPUReplicate" op_name="cluster"}}, {maximal device=0 metadata={op_type="_TPUReplicate" op_name="cluster"}}, /*index=25*/{maximal device=0 metadata={op_type="_TPUReplicate" op_name="cluster"}}, {maximal device=0 metadata={op_type="_TPUReplicate" op_name="cluster"}}, {maximal device=0 metadata={op_type="_TPUReplicate" op_name="cluster"}}, {maximal device=0 metadata={op_type="_TPUReplicate" op_name="cluster"}}, {maximal device=0 metadata={op_type="_TPUReplicate" op_name="cluster"}}, /*index=30*/{maximal device=0 metadata={op_type="_TPUReplicate" op_name="cluster"}}, {maximal device=0 metadata={op_type="_TPUReplicate" op_name="cluster"}}, {maximal device=0 metadata={op_type="_TPUReplicate" op_name="cluster"}}, {maximal device=0 metadata={op_type="_TPUReplicate" op_name="cluster"}}, {maximal device=0 metadata={op_type="_TPUReplicate" op_name="cluster"}}, /*index=35*/{maximal device=0 metadata={op_type="_TPUReplicate" op_name="cluster"}}, {maximal device=0 metadata={op_type="_TPUReplicate" op_name="cluster"}}, {maximal device=0 metadata={op_type="_TPUReplicate" op_name="cluster"}}, {maximal device=0 metadata={op_type="_TPUReplicate" op_name="cluster"}}, {maximal device=0 metadata={op_type="_TPUReplicate" op_name="cluster"}}, /*index=40*/{maximal device=0 metadata={op_type="_TPUReplicate" op_name="cluster"}}, {maximal device=0 metadata={op_type="_TPUReplicate" op_name="cluster"}}, {maximal device=0 metadata={op_type="_TPUReplicate" op_name="cluster"}}, {maximal device=0 metadata={op_type="_TPUReplicate" op_name="cluster"}}, {maximal device=0 metadata={op_type="_TPUReplicate" op_name="cluster"}}, /*index=45*/{maximal device=0 metadata={op_type="_TPUReplicate" op_name="cluster"}}, {maximal device=0 metadata={op_type="_TPUReplicate" op_name="cluster"}}, {maximal device=0 metadata={op_type="_TPUReplicate" op_name="cluster"}}, {maximal device=0 metadata={op_type="_TPUReplicate" op_name="cluster"}}, {maximal device=0 metadata={op_type="_TPUReplicate" op_name="cluster"}}, /*index=50*/{maximal device=0 metadata={op_type="_TPUReplicate" op_name="cluster"}}, {maximal device=0 metadata={op_type="_TPUReplicate" op_name="cluster"}}, {maximal device=0 metadata={op_type="_TPUReplicate" op_name="cluster"}}, {maximal device=0 metadata={op_type="_TPUReplicate" op_name="cluster"}}, {maximal device=0 metadata={op_type="_TPUReplicate" op_name="cluster"}}, /*index=55*/{maximal device=0 metadata={op_type="_TPUReplicate" op_name="cluster"}}, {maximal device=0 metadata={op_type="_TPUReplicate" op_name="cluster"}}, {maximal device=0 metadata={op_type="_TPUReplicate" op_name="cluster"}}, {maximal device=0 metadata={op_type="_TPUReplicate" op_name="cluster"}}, {maximal device=0 metadata={op_type="_TPUReplicate" op_name="cluster"}}, /*index=60*/{maximal device=0 metadata={op_type="_TPUReplicate" op_name="cluster"}}, {maximal device=0 metadata={op_type="_TPUReplicate" op_name="cluster"}}, {maximal device=0 metadata={op_type="_TPUReplicate" op_name="cluster"}}, {maximal device=0 metadata={op_type="_TPUReplicate" op_name="cluster"}}, {maximal device=0 metadata={op_type="_TPUReplicate" op_name="cluster"}}, /*index=65*/{maximal device=0 metadata={op_type="_TPUReplicate" op_name="cluster"}}, {maximal device=0 metadata={op_type="_TPUReplicate" op_name="cluster"}}, {maximal device=0 metadata={op_type="_TPUReplicate" op_name="cluster"}}, {maximal device=0 metadata={op_type="_TPUReplicate" op_name="cluster"}}, {maximal device=0 metadata={op_type="_TPUReplicate" op_name="cluster"}}, /*index=70*/{maximal device=0 metadata={op_type="_TPUReplicate" op_name="cluster"}}, {maximal device=0 metadata={op_type="_TPUReplicate" op_name="cluster"}}, {maximal device=0 metadata={op_type="_TPUReplicate" op_name="cluster"}}, {maximal device=0 metadata={op_type="_TPUReplicate" op_name="cluster"}}, {maximal device=0 metadata={op_type="_TPUReplicate" op_name="cluster"}}, /*index=75*/{maximal device=0 metadata={op_type="_TPUReplicate" op_name="cluster"}}, {maximal device=0 metadata={op_type="_TPUReplicate" op_name="cluster"}}, {maximal device=0 metadata={op_type="_TPUReplicate" op_name="cluster"}}, {maximal device=0 metadata={op_type="_TPUReplicate" op_name="cluster"}}, {maximal device=0 metadata={op_type="_TPUReplicate" op_name="cluster"}}, /*index=80*/{maximal device=0 metadata={op_type="_TPUReplicate" op_name="cluster"}}, {maximal device=0 metadata={op_type="_TPUReplicate" op_name="cluster"}}, {maximal device=0 metadata={op_type="_TPUReplicate" op_name="cluster"}}, {maximal device=0 metadata={op_type="_TPUReplicate" op_name="cluster"}}, {maximal device=0 metadata={op_type="_TPUReplicate" op_name="cluster"}}, /*index=85*/{maximal device=0 metadata={op_type="_TPUReplicate" op_name="cluster"}}, {maximal device=0 metadata={op_type="_TPUReplicate" op_name="cluster"}}, {maximal device=0 metadata={op_type="_TPUReplicate" op_name="cluster"}}, {maximal device=0 metadata={op_type="_TPUReplicate" op_name="cluster"}}, {maximal device=0 metadata={op_type="_TPUReplicate" op_name="cluster"}}, /*index=90*/{maximal device=0 metadata={op_type="_TPUReplicate" op_name="cluster"}}, {maximal device=0 metadata={op_type="_TPUReplicate" op_name="cluster"}}, {maximal device=0 metadata={op_type="_TPUReplicate" op_name="cluster"}}, {maximal device=0 metadata={op_type="_TPUReplicate" op_name="cluster"}}, {maximal device=0 metadata={op_type="_TPUReplicate" op_name="cluster"}}, /*index=95*/{maximal device=0 metadata={op_type="_TPUReplicate" op_name="cluster"}}, {maximal device=0 metadata={op_type="_TPUReplicate" op_name="cluster"}}, {maximal device=0 metadata={op_type="_TPUReplicate" op_name="cluster"}}, {maximal device=0 metadata={op_type="_TPUReplicate" op_name="cluster"}}, {maximal device=0 metadata={op_type="_TPUReplicate" op_name="cluster"}}, /*index=100*/{maximal device=0 metadata={op_type="_TPUReplicate" op_name="cluster"}}, {maximal device=0 metadata={op_type="_TPUReplicate" op_name="cluster"}}, {maximal device=0 metadata={op_type="_TPUReplicate" op_name="cluster"}}, {maximal device=0 metadata={op_type="_TPUReplicate" op_name="cluster"}}, {maximal device=0 metadata={op_type="_TPUReplicate" op_name="cluster"}}, /*index=105*/{maximal device=0 metadata={op_type="_TPUReplicate" op_name="cluster"}}, {maximal device=0 metadata={op_type="_TPUReplicate" op_name="cluster"}}, {maximal device=0 metadata={op_type="_TPUReplicate" op_name="cluster"}}, {maximal device=0 metadata={op_type="_TPUReplicate" op_name="cluster"}}, {maximal device=0 metadata={op_type="_TPUReplicate" op_name="cluster"}}, /*index=110*/{maximal device=0 metadata={op_type="_TPUReplicate" op_name="cluster"}}}, metadata={op_name="XLA_Retvals"}
}

