diff --git a/shardy/dialect/sdy/transforms/import/BUILD b/shardy/dialect/sdy/transforms/import/BUILD
index 487bcf3..8c18e7d 100644
--- a/shardy/dialect/sdy/transforms/import/BUILD
+++ b/shardy/dialect/sdy/transforms/import/BUILD
@@ -41,7 +41,6 @@ cc_library(
         "inline_meshes.cc",
         "lift_inlined_meshes.cc",
         "manual_axes_cleanup.cc",
-        "propagate_sharding_from_func_to_call.cc",
         "remove_size_one_axes.cc",
         "sharding_group_import.cc",
     ],
diff --git a/shardy/dialect/sdy/transforms/import/constant_or_scalar_splitter.cc b/shardy/dialect/sdy/transforms/import/constant_or_scalar_splitter.cc
index b59ffbf..d9c3642 100644
--- a/shardy/dialect/sdy/transforms/import/constant_or_scalar_splitter.cc
+++ b/shardy/dialect/sdy/transforms/import/constant_or_scalar_splitter.cc
@@ -26,7 +26,6 @@ limitations under the License.
 #include "mlir/IR/OpDefinition.h"
 #include "mlir/IR/Operation.h"
 #include "mlir/IR/PatternMatch.h"
-#include "mlir/IR/SymbolTable.h"
 #include "mlir/IR/Value.h"
 #include "mlir/IR/Visitors.h"
 #include "mlir/Interfaces/SideEffectInterfaces.h"
@@ -49,7 +48,6 @@ namespace sdy {
 
 namespace {
 
-using func::CallOp;
 using func::FuncOp;
 
 void cloneShardingGroupUsers(OpResult opResult, IRMapping& mapping,
@@ -68,16 +66,10 @@ void cloneShardingGroupUsers(OpResult opResult, IRMapping& mapping,
 // - A broadcast, reshape or slice op.
 // - An elementwise op.
 // - A named computation all operations are constant preserving.
-// - A call to a func that all operations are constant preserving.
 // Assumes the op is not constant or iota.
 bool isConstantPreserving(
     Operation* op,
-    const llvm::SmallDenseSet<StringRef>& nonConstantNamedComputationOps,
-    const llvm::SmallDenseSet<StringRef>& nonConstFuncOps,
-    const SymbolTable& symbolTable) {
-  if (CallOp callOp = dyn_cast<CallOp>(op)) {
-    return !nonConstFuncOps.contains(getOriginalFuncName(callOp, symbolTable));
-  }
+    const llvm::SmallDenseSet<StringRef>& nonConstantNamedComputationOps) {
   if (auto namedComputationOp = dyn_cast<NamedComputationOp>(op)) {
     return !nonConstantNamedComputationOps.contains(
         namedComputationOp.getName());
@@ -101,14 +93,11 @@ bool isConstantPreserving(
 // constants, that is, exist in `constantOps`.
 bool isConstantExpression(
     Operation* op, const llvm::SetVector<Operation*>& constantOps,
-    const llvm::SmallDenseSet<StringRef>& nonConstantNamedComputationOps,
-    const llvm::SmallDenseSet<StringRef>& nonConstFuncOps,
-    const SymbolTable& symbolTable) {
+    const llvm::SmallDenseSet<StringRef>& nonConstantNamedComputationOps) {
   if (isa<ConstantOp, stablehlo::IotaOp>(op)) {
     return true;
   }
-  return isConstantPreserving(op, nonConstantNamedComputationOps,
-                              nonConstFuncOps, symbolTable) &&
+  return isConstantPreserving(op, nonConstantNamedComputationOps) &&
          llvm::all_of(op->getOperands(), [&](Value operand) {
            return operand.getDefiningOp() &&
                   constantOps.contains(operand.getDefiningOp());
@@ -128,26 +117,20 @@ bool isScalarExpansion(Operation* op) {
 // Recursively clones all operands of the given op, that are not already mapped
 // in `mapping`, and finally clones the op itself. We do not clone scalars as
 // they do not get sharded.
-void cloneSubComputation(OpResult opResult, IRMapping& mapping,
-                         SymbolTable& symbolTable) {
+void cloneSubComputation(OpResult opResult, IRMapping& mapping) {
   if (isScalar(opResult) || mapping.lookupOrNull(opResult)) {
     return;
   }
   Operation* op = opResult.getOwner();
   for (Value operand : op->getOperands()) {
     if (auto defOpResult = dyn_cast<OpResult>(operand)) {
-      cloneSubComputation(defOpResult, mapping, symbolTable);
+      cloneSubComputation(defOpResult, mapping);
     }
   }
 
   // This will insert the cloned op right before the original op.
   OpBuilder builder(op);
-  Operation* clonedOp = builder.clone(*op, mapping);
-  if (CallOp callOp = dyn_cast<CallOp>(clonedOp)) {
-    FuncOp funcOp = symbolTable.lookup<FuncOp>(callOp.getCallee());
-    callOp.setCallee(
-        symbolTable.insert(cloneFuncRecursively(funcOp, symbolTable)));
-  }
+  builder.clone(*op, mapping);
   cloneShardingGroupUsers(opResult, mapping, builder);
 }
 
@@ -156,19 +139,18 @@ void cloneSubComputation(OpResult opResult, IRMapping& mapping,
 // sharded.
 //
 // Returns the cloned op result.
-Value cloneSubComputation(OpResult opResult, SymbolTable& symbolTable) {
+Value cloneSubComputation(OpResult opResult) {
   if (isScalar(opResult)) {
     return opResult;
   }
   IRMapping mapping;
-  cloneSubComputation(opResult, mapping, symbolTable);
+  cloneSubComputation(opResult, mapping);
   return mapping.lookup(opResult);
 }
 
 void cloneSubComputationOnOperands(
     Operation* op, const llvm::SetVector<Operation*>& constantOps,
-    const llvm::SetVector<Operation*>& scalarExpansionOps,
-    SymbolTable& symbolTable) {
+    const llvm::SetVector<Operation*>& scalarExpansionOps) {
   for (OpOperand& operand : op->getOpOperands()) {
     if (auto defOpResult = dyn_cast<OpResult>(operand.get());
         defOpResult && (constantOps.contains(defOpResult.getOwner()) ||
@@ -178,45 +160,38 @@ void cloneSubComputationOnOperands(
       // `defOpResult`, and replace the `operand` with the cloned defining
       // op. The cloned constant sub-computation has only one user `op`,
       // so that it is isolated from the rest of the computation.
-      operand.set(cloneSubComputation(defOpResult, symbolTable));
+      operand.set(cloneSubComputation(defOpResult));
     }
   }
 }
 
-void processOp(Operation* op, FuncOp funcOp,
-               llvm::SetVector<Operation*>& constantOps,
+void processOp(Operation* op, llvm::SetVector<Operation*>& constantOps,
                llvm::SetVector<Operation*>& scalarExpansionOps,
-               llvm::SmallDenseSet<StringRef>& nonConstantNamedComputationOps,
-               llvm::SmallDenseSet<StringRef>& nonConstFuncOps,
-               SymbolTable& symbolTable) {
-  if (isa<FuncOp, ShardingGroupOp>(op)) {
+               llvm::SmallDenseSet<StringRef>& nonConstantNamedComputationOps) {
+  if (isa<ShardingGroupOp>(op)) {
     return;
   }
-  if (isConstantExpression(op, constantOps, nonConstantNamedComputationOps,
-                           nonConstFuncOps, symbolTable)) {
+  if (isConstantExpression(op, constantOps, nonConstantNamedComputationOps)) {
     constantOps.insert(op);
     return;
   }
   // NOTE: There are cases that op is an constant expression but may not pass
   // the following check such as constant and iota ops. That is fine because if
   // the op is a constant expression it is a stronger condition than being just
-  // constant preserving and it does not make the parent named computation or
-  // the `funcOp` non-const, and at this point, it is guaranteed that the op is
-  // not constant expression.
-  if (!isConstantPreserving(op, nonConstantNamedComputationOps, nonConstFuncOps,
-                            symbolTable) &&
+  // constant preserving and it does not make the parent named computation
+  // non-const, and at this point, it is guaranteed that the op is not constant
+  // expression.
+  if (!isConstantPreserving(op, nonConstantNamedComputationOps) &&
       !op->hasTrait<OpTrait::IsTerminator>()) {
     if (auto namedCompuationOp = op->getParentOfType<NamedComputationOp>()) {
       nonConstantNamedComputationOps.insert(namedCompuationOp.getName());
     }
-    nonConstFuncOps.insert(getOriginalFuncName(funcOp));
   }
   if (isScalarExpansion(op)) {
     scalarExpansionOps.insert(op);
     return;
   }
-  cloneSubComputationOnOperands(op, constantOps, scalarExpansionOps,
-                                symbolTable);
+  cloneSubComputationOnOperands(op, constantOps, scalarExpansionOps);
 }
 
 // Converts stablehlo::ConstantOp to sdy::ConstantOp.
@@ -265,16 +240,16 @@ struct ConstantOrScalarSplitterPass
     }
   }
 
+  // Assumes that the `NamedComputationOp` of the region are already walked, and
+  // skips walking on them.
   void walkOnRegion(
-      mlir::Region& region, FuncOp funcOp,
-      llvm::SmallDenseSet<StringRef>& nonConstantNamedComputationOps,
-      llvm::SmallDenseSet<StringRef>& nonConstFuncOps,
-      SymbolTable& symbolTable) {
+      mlir::Region& region,
+      llvm::SmallDenseSet<StringRef>& nonConstantNamedComputationOps) {
     llvm::SetVector<Operation*> constantOps;
     llvm::SetVector<Operation*> scalarExpansionOps;
     region.walk<WalkOrder::PreOrder>([&](Operation* op) {
-      processOp(op, funcOp, constantOps, scalarExpansionOps,
-                nonConstantNamedComputationOps, nonConstFuncOps, symbolTable);
+      processOp(op, constantOps, scalarExpansionOps,
+                nonConstantNamedComputationOps);
       // Skip walking on the `NamedComputationOp`.
       if (isa<NamedComputationOp>(op)) {
         return WalkResult::skip();
@@ -292,7 +267,6 @@ struct ConstantOrScalarSplitterPass
 
   void runOnOperation() final {
     ModuleOp moduleOp = getOperation();
-    SymbolTable symbolTable(moduleOp);
 
     // We first convert any `stablehlo::ConstantOp` to an `sdy::ConstantOp`, so
     // that constants won't be deduped via folding.
@@ -302,15 +276,15 @@ struct ConstantOrScalarSplitterPass
 
     // Then we split constant sub-computations for each non-constant user.
     llvm::SmallDenseSet<StringRef> nonConstantNamedComputationOps;
-    llvm::SmallDenseSet<StringRef> nonConstFuncOps;
-    iterateFuncs(moduleOp, [&](FuncOp funcOp) {
-      funcOp.walk([&](NamedComputationOp namedComputationOp) {
-        walkOnRegion(namedComputationOp.getBody(), funcOp,
-                     nonConstantNamedComputationOps, nonConstFuncOps,
-                     symbolTable);
-      });
-      walkOnRegion(funcOp.getBody(), funcOp, nonConstantNamedComputationOps,
-                   nonConstFuncOps, symbolTable);
+    // Iterate on a post-order of NamedComputationOp blocks.
+    moduleOp.walk([&](NamedComputationOp namedComputationOp) {
+      walkOnRegion(namedComputationOp.getBody(),
+                   nonConstantNamedComputationOps);
+    });
+    // Iterate order does not matter. Funcs do not call each other. The calls
+    // are inlined to NamedComputationOps.
+    moduleOp.walk([&](FuncOp funcOp) {
+      walkOnRegion(funcOp.getBody(), nonConstantNamedComputationOps);
     });
   }
 
diff --git a/shardy/dialect/sdy/transforms/import/import_func_calls.cc b/shardy/dialect/sdy/transforms/import/import_func_calls.cc
index 94f2aa3..0579df9 100644
--- a/shardy/dialect/sdy/transforms/import/import_func_calls.cc
+++ b/shardy/dialect/sdy/transforms/import/import_func_calls.cc
@@ -63,13 +63,17 @@ void importCallOp(
   SDY_CHECK(funcOp) << "Failed to lookup function: " << calleeName.str();
 
   rewriter.setInsertionPoint(callOp);
+  TensorShardingPerValueAttr callOpResultShardings =
+      getShardingPerValue(callOp);
   auto namedCompOp = NamedComputationOp::create(
       rewriter, callOp->getLoc(), callOp->getResultTypes(),
       getOriginalFuncName(funcOp), callOp.getOperands(),
       /*inShardings=*/getFuncArgShardings(funcOp, symbolTable),
       // TODO(b/439018088): Take func result shardings if call op result
       // shardings are empty.
-      /*outShardings=*/getShardingPerValue(callOp));
+      /*outShardings=*/
+      callOpResultShardings ? callOpResultShardings
+                            : getFuncResultShardings(funcOp, symbolTable));
   namedCompOp->setAttrs(namedCompAttrs);
 
   Region& namedCompRegion = namedCompOp.getRegion();
diff --git a/shardy/dialect/sdy/transforms/import/import_pipeline.cc b/shardy/dialect/sdy/transforms/import/import_pipeline.cc
index 1a0bb43..7768a7c 100644
--- a/shardy/dialect/sdy/transforms/import/import_pipeline.cc
+++ b/shardy/dialect/sdy/transforms/import/import_pipeline.cc
@@ -30,7 +30,6 @@ void addImportPipeline(OpPassManager& pm, int& dumpIndex,
   pm.addPass(createSymbolDCEPass());
   pm.addPass(createLiftInlinedMeshesPass());
   pm.addPass(createRemoveSizeOneAxesPass());
-  pm.addPass(createPropagateShardingFromFuncToCallPass());
   pm.addPass(createImportFuncCallsPass());
   // Keep SymbolDCEPass after ImportFuncCallsPass.
   pm.addPass(createSymbolDCEPass());
diff --git a/shardy/dialect/sdy/transforms/import/passes.td b/shardy/dialect/sdy/transforms/import/passes.td
index 13b9c7d..b3e2ed1 100644
--- a/shardy/dialect/sdy/transforms/import/passes.td
+++ b/shardy/dialect/sdy/transforms/import/passes.td
@@ -28,17 +28,6 @@ def ImportFuncCallsPass : Pass<"sdy-import-func-calls", "ModuleOp"> {
   let dependentDialects = ["mlir::sdy::SdyDialect"];
 }
 
-def PropagateShardingFromFuncToCallPass : Pass<"sdy-propagate-sharding-from-func-to-call", "ModuleOp"> {
-  let summary = "Set call result shardings as the func result shardings, if empty.";
-  let description = [{
-     Creates a pass to propagate func result sharding to call result sharding if
-     call does not have them and func does. Notably, it keeps call result
-     sharding if the call already has result shardings, even if all individual
-     result shardings are empty.
-  }];
-  let dependentDialects = ["mlir::sdy::SdyDialect"];
-}
-
 def LiftInlinedMeshesPass : Pass<"sdy-lift-inlined-meshes", "ModuleOp"> {
   let summary = "Lifts inlined `MeshAttr`s in shardings as symbol `MeshOp`s.";
   let description = [{
diff --git a/shardy/dialect/sdy/transforms/import/propagate_sharding_from_func_to_call.cc b/shardy/dialect/sdy/transforms/import/propagate_sharding_from_func_to_call.cc
deleted file mode 100644
index 8ded4b2..0000000
--- a/shardy/dialect/sdy/transforms/import/propagate_sharding_from_func_to_call.cc
+++ /dev/null
@@ -1,61 +0,0 @@
-/* Copyright 2026 The OpenXLA Authors.
-
-Licensed under the Apache License, Version 2.0 (the "License");
-you may not use this file except in compliance with the License.
-You may obtain a copy of the License at
-
-    http://www.apache.org/licenses/LICENSE-2.0
-
-Unless required by applicable law or agreed to in writing, software
-distributed under the License is distributed on an "AS IS" BASIS,
-WITHOUT WARRANTIES OR CONDITIONS OF ANY KIND, either express or implied.
-See the License for the specific language governing permissions and
-limitations under the License.
-==============================================================================*/
-#include "mlir/Dialect/Func/IR/FuncOps.h"
-#include "mlir/IR/BuiltinOps.h"
-#include "mlir/IR/SymbolTable.h"
-#include "shardy/dialect/sdy/ir/dialect.h"
-#include "shardy/dialect/sdy/ir/utils.h"
-#include "shardy/dialect/sdy/transforms/import/passes.h"  // IWYU pragma: keep
-
-namespace mlir {
-namespace sdy {
-
-#define GEN_PASS_DEF_PROPAGATESHARDINGFROMFUNCTOCALLPASS
-#include "shardy/dialect/sdy/transforms/import/passes.h.inc"
-
-namespace {
-
-using func::CallOp;
-using func::FuncOp;
-
-struct PropagateShardingFromFuncToCallPass
-    : public impl::PropagateShardingFromFuncToCallPassBase<
-          PropagateShardingFromFuncToCallPass> {
-  using PropagateShardingFromFuncToCallPassBase::
-      PropagateShardingFromFuncToCallPassBase;
-
-  void runOnOperation() override {
-    ModuleOp moduleOp = getOperation();
-    SymbolTable symbolTable(moduleOp);
-
-    // Propagate shardings from func results to call results if call does not
-    // have them and func does.
-    moduleOp.walk([&](CallOp callOp) {
-      FuncOp funcOp = getFuncOpOrDie(callOp.getCallee(), symbolTable);
-      if (!getShardingPerValue(callOp)) {
-        if (TensorShardingPerValueAttr funcResultShardings =
-                getFuncResultShardings(funcOp, symbolTable);
-            funcResultShardings) {
-          setShardings(callOp, funcResultShardings);
-        }
-      }
-    });
-  }
-};
-
-}  // namespace
-
-}  // namespace sdy
-}  // namespace mlir
diff --git a/shardy/dialect/sdy/transforms/import/test/constant_or_scalar_splitter.mlir b/shardy/dialect/sdy/transforms/import/test/constant_or_scalar_splitter.mlir
index 2174ddd..850dd95 100644
--- a/shardy/dialect/sdy/transforms/import/test/constant_or_scalar_splitter.mlir
+++ b/shardy/dialect/sdy/transforms/import/test/constant_or_scalar_splitter.mlir
@@ -217,210 +217,6 @@ func.func @constant_multiple_users_one_to_named_computation_with_one_argument_an
   return %0, %4, %5 : tensor<8x16xf32>, tensor<8x16xf32>, tensor<8x16xf32>
 }
 
-// -----
-
-// CHECK-LABEL: func @constant_multiple_users_within_call
-func.func @constant_multiple_users_within_call(%arg0: tensor<16x16xf32>) -> tensor<8x16xf32> {
-  // CHECK-NEXT: %[[NC:.*]]:2 = call @foo(%arg0) : (tensor<16x16xf32>) -> (tensor<8x16xf32>, tensor<8x16xf32>)
-  // CHECK-NEXT: %[[MULTIPLY:.*]] = stablehlo.multiply %[[NC]]#0, %[[NC]]#1
-  // CHECK-NEXT: return %[[MULTIPLY]]
-  %0:2 = call @foo(%arg0) : (tensor<16x16xf32>) -> (tensor<8x16xf32>, tensor<8x16xf32>)
-  %4 = stablehlo.multiply %0#0, %0#1 : tensor<8x16xf32>
-  return %4 : tensor<8x16xf32>
-}
-
-// CHECK-LABEL: func.func private @foo
-// CHECK-SAME: (%[[ARG:.*]]: tensor<16x16xf32>)
-// CHECK-NEXT:   %[[CONST_0:.*]] = sdy.constant dense<1.000000e+00>
-// CHECK-NEXT:   %[[CONST_1:.*]] = sdy.constant dense<1.000000e+00>
-// CHECK-NEXT:   %[[CONST_2:.*]] = sdy.constant dense<1.000000e+00>
-// CHECK-NEXT:   %[[DOT_GENERAL:.*]] = stablehlo.dot_general %[[CONST_0]], %[[ARG]]
-// CHECK-NEXT:   %[[ADD:.*]] = stablehlo.add %[[CONST_1]], %[[DOT_GENERAL]]
-// CHECK-NEXT:   return %[[CONST_2]], %[[ADD]]
-func.func private @foo(%arg1: tensor<16x16xf32>) -> (tensor<8x16xf32>, tensor<8x16xf32>) {
-  %1 = stablehlo.constant dense<1.000000e+00> : tensor<8x16xf32>
-  %2 = stablehlo.dot_general %1, %arg1, contracting_dims = [1] x [0] : (tensor<8x16xf32>, tensor<16x16xf32>) -> tensor<8x16xf32>
-  %3 = stablehlo.add %1, %2 : tensor<8x16xf32>
-  return %1, %3 : tensor<8x16xf32>, tensor<8x16xf32>
-}
-
-// -----
-
-// CHECK-LABEL: func @constant_multiple_users_within_call_with_only_constant_ops
-func.func @constant_multiple_users_within_call_with_only_constant_ops(%arg0: tensor<8x16xf32>) -> tensor<8x16xf32> {
-  // CHECK-NEXT: %[[ABS:.*]] = stablehlo.abs %arg0
-  // CHECK-NEXT: %[[NC:.*]] = call @foo(%[[ABS]]) : (tensor<8x16xf32>) -> tensor<8x16xf32>
-  // CHECK-NEXT: %[[NEGATE_2:.*]] = stablehlo.negate %[[NC]]
-  // CHECK-NEXT: return %[[NEGATE_2]]
-  %0 = stablehlo.abs %arg0 : tensor<8x16xf32>
-  %1 = call @foo(%0) : (tensor<8x16xf32>) -> tensor<8x16xf32>
-  %6 = stablehlo.negate %1 : tensor<8x16xf32>
-  return %6 : tensor<8x16xf32>
-}
-
-// CHECK-LABEL: func.func private @foo
-// CHECK-SAME: (%[[ARG:.*]]: tensor<8x16xf32>)
-// CHECK-NEXT:   %[[CONST_0:.*]] = sdy.constant dense<1.000000e+00>
-// CHECK-NEXT:   %[[CONST_1:.*]] = sdy.constant dense<1.000000e+00>
-// CHECK-NEXT:   %[[NEGATE_0:.*]] = stablehlo.negate %[[CONST_0]]
-// CHECK-NEXT:   %[[NEGATE_1:.*]] = stablehlo.negate %[[CONST_1]]
-// CHECK-NEXT:   %[[ADD:.*]] = stablehlo.add %[[NEGATE_0]], %[[ARG]]
-// CHECK-NEXT:   %[[MULTIPLY:.*]] = stablehlo.multiply %[[NEGATE_1]], %[[ADD]]
-// CHECK-NEXT:   return %[[MULTIPLY]]
-// CHECK-NEXT: }
-func.func private @foo(%arg1: tensor<8x16xf32>) -> tensor<8x16xf32> {
-  %2 = stablehlo.constant dense<1.000000e+00> : tensor<8x16xf32>
-  %3 = stablehlo.negate %2 : tensor<8x16xf32>
-  %4 = stablehlo.add %3, %arg1 : tensor<8x16xf32>
-  %5 = stablehlo.multiply %3, %4 : tensor<8x16xf32>
-  return %5 : tensor<8x16xf32>
-}
-
-// -----
-
-// CHECK-LABEL: func @constant_to_call_with_only_constant_ops
-func.func @constant_to_call_with_only_constant_ops(%arg0: tensor<8x16xf32>) -> (tensor<8x16xf32>, tensor<8x16xf32>) {
-  // CHECK-NEXT: %[[CONST:.*]] = sdy.constant dense<1.000000e+00>
-  // CHECK-NEXT: %[[NC:.*]] = call @foo(%[[CONST]], %arg0) : (tensor<8x16xf32>, tensor<8x16xf32>) -> tensor<8x16xf32>
-  // CHECK-NEXT: %[[ABS_0:.*]] = stablehlo.abs %[[NC]]
-  // CHECK-NEXT: %[[ABS_1:.*]] = stablehlo.abs %[[NC]]
-  // CHECK-NEXT: return %[[ABS_0]], %[[ABS_1]]
-  %0 = stablehlo.constant dense<1.000000e+00> : tensor<8x16xf32>
-  %1 = call @foo(%0, %arg0) : (tensor<8x16xf32>, tensor<8x16xf32>) -> tensor<8x16xf32>
-  %5 = stablehlo.abs %1 : tensor<8x16xf32>
-  %6 = stablehlo.abs %1 : tensor<8x16xf32>
-  return %5, %6 : tensor<8x16xf32>, tensor<8x16xf32>
-}
-
-// CHECK-LABEL: func.func private @foo
-// CHECK-SAME: (%[[ARG1:.*]]: tensor<8x16xf32>, %[[ARG2:.*]]: tensor<8x16xf32>)
-// CHECK-NEXT:   %[[NEGATE:.*]] = stablehlo.negate %[[ARG1]]
-// CHECK-NEXT:   %[[ADD:.*]] = stablehlo.add %[[NEGATE]], %[[ARG2]]
-// CHECK-NEXT:   %[[MULTIPLY:.*]] = stablehlo.multiply %[[NEGATE]], %[[ADD]]
-// CHECK-NEXT:   return %[[MULTIPLY]]
-// CHECK-NEXT: }
-func.func private @foo(%arg1: tensor<8x16xf32>, %arg2: tensor<8x16xf32>) -> tensor<8x16xf32> {
-  %2 = stablehlo.negate %arg1 : tensor<8x16xf32>
-  %3 = stablehlo.add %2, %arg2 : tensor<8x16xf32>
-  %4 = stablehlo.multiply %2, %3 : tensor<8x16xf32>
-  return %4 : tensor<8x16xf32>
-}
-
-// -----
-
-// CHECK-LABEL: func @constant_multiple_users_within_call_with_no_arguments_and_with_only_constant_ops
-func.func @constant_multiple_users_within_call_with_no_arguments_and_with_only_constant_ops() -> (tensor<8x16xf32>, tensor<8x16xf32>) {
-  // CHECK-NEXT: %0 = call @foo_0() : () -> tensor<8x16xf32>
-  // CHECK-NEXT: %1 = call @foo_1() : () -> tensor<8x16xf32>
-  // CHECK-NEXT: %2 = stablehlo.abs %0 : tensor<8x16xf32>
-  // CHECK-NEXT: %3 = stablehlo.abs %1 : tensor<8x16xf32>
-  // CHECK-NEXT: return %2, %3 : tensor<8x16xf32>, tensor<8x16xf32>
-  %0 = call @foo() : () -> (tensor<8x16xf32>)
-  %1 = stablehlo.abs %0 : tensor<8x16xf32>
-  %2 = stablehlo.abs %0 : tensor<8x16xf32>
-  return %1, %2 : tensor<8x16xf32>, tensor<8x16xf32>
-}
-
-// CHECK-LABEL: func.func private @foo() -> tensor<8x16xf32> {
-func.func private @foo() -> tensor<8x16xf32> {
-  %0 = stablehlo.constant dense<1.000000e+00> : tensor<8x16xf32>
-  %1 = stablehlo.negate %0 : tensor<8x16xf32>
-  return %1 : tensor<8x16xf32>
-}
-
-// CHECK-LABEL: func.func private @foo_0() -> tensor<8x16xf32> attributes {sdy.original_func_name = "foo"} {
-// CHECK-NEXT:    %0 = sdy.constant dense<1.000000e+00> : tensor<8x16xf32>
-// CHECK-NEXT:    %1 = stablehlo.negate %0 : tensor<8x16xf32>
-// CHECK-NEXT:    return %1 : tensor<8x16xf32>
-// CHECK-NEXT:  }
-
-// CHECK-LABEL: func.func private @foo_1() -> tensor<8x16xf32> attributes {sdy.original_func_name = "foo"} {
-// CHECK-NEXT:    %0 = sdy.constant dense<1.000000e+00> : tensor<8x16xf32>
-// CHECK-NEXT:    %1 = stablehlo.negate %0 : tensor<8x16xf32>
-// CHECK-NEXT:    return %1 : tensor<8x16xf32>
-// CHECK-NEXT:  }
-
-// -----
-
-// CHECK-LABEL: func @constant_to_call_with_one_argument_and_with_only_constant_ops
-func.func @constant_to_call_with_one_argument_and_with_only_constant_ops() -> (tensor<8x16xf32>, tensor<8x16xf32>) {
-  // CHECK-NEXT: %[[CONST0:.*]] = sdy.constant dense<1.000000e+00>
-  // CHECK-NEXT: %[[CONST1:.*]] = sdy.constant dense<1.000000e+00>
-  // CHECK-NEXT: %[[NC0:.*]] = call @foo_0(%[[CONST0]]) : (tensor<8x16xf32>) -> tensor<8x16xf32>
-  // CHECK-NEXT: %[[NC1:.*]] = call @foo_1(%[[CONST1]]) : (tensor<8x16xf32>) -> tensor<8x16xf32>
-  // CHECK-NEXT: %[[ABS_0:.*]] = stablehlo.abs %[[NC0]]
-  // CHECK-NEXT: %[[ABS_1:.*]] = stablehlo.abs %[[NC1]]
-  // CHECK-NEXT: return %[[ABS_0]], %[[ABS_1]]
-  %0 = stablehlo.constant dense<1.000000e+00> : tensor<8x16xf32>
-  %1 = call @foo(%0) : (tensor<8x16xf32>) -> tensor<8x16xf32>
-  %4 = stablehlo.abs %1 : tensor<8x16xf32>
-  %5 = stablehlo.abs %1 : tensor<8x16xf32>
-  return %4, %5 : tensor<8x16xf32>, tensor<8x16xf32>
-}
-
-// CHECK-LABEL: func.func private @foo
-func.func private @foo(%arg0: tensor<8x16xf32>) -> tensor<8x16xf32> {
-  %2 = stablehlo.negate %arg0 : tensor<8x16xf32>
-  %3 = stablehlo.add %arg0, %2: tensor<8x16xf32>
-  return %3 : tensor<8x16xf32>
-}
-
-// CHECK-LABEL: func.func private @foo_0
-// CHECK-SAME: (%[[ARG:.*]]: tensor<8x16xf32>)
-// CHECK-NEXT:   %[[NEGATE:.*]] = stablehlo.negate %[[ARG]]
-// CHECK-NEXT:   %[[ADD:.*]] = stablehlo.add %[[ARG]], %[[NEGATE]]
-// CHECK-NEXT:   return %[[ADD]]
-// CHECK-NEXT: }
-
-// CHECK-LABEL: func.func private @foo_1
-// CHECK-SAME: (%[[ARG:.*]]: tensor<8x16xf32>)
-// CHECK-NEXT:   %[[NEGATE:.*]] = stablehlo.negate %[[ARG]]
-// CHECK-NEXT:   %[[ADD:.*]] = stablehlo.add %[[ARG]], %[[NEGATE]]
-// CHECK-NEXT:   return %[[ADD]]
-// CHECK-NEXT: }
-
-
-// -----
-
-// CHECK-LABEL: func @constant_multiple_users_one_to_call_with_one_argument_and_with_only_constant_ops
-func.func @constant_multiple_users_one_to_call_with_one_argument_and_with_only_constant_ops() -> (tensor<8x16xf32>, tensor<8x16xf32>, tensor<8x16xf32>) {
-  // CHECK-NEXT: %[[CONST_0:.*]] = sdy.constant dense<1.000000e+00>
-  // CHECK-NEXT: %[[CONST_1:.*]] = sdy.constant dense<1.000000e+00>
-  // CHECK-NEXT: %[[CONST_2:.*]] = sdy.constant dense<1.000000e+00>
-  // CHECK-NEXT: %[[NC0:.*]] = call @foo_0(%[[CONST_1]]) : (tensor<8x16xf32>) -> tensor<8x16xf32>
-  // CHECK-NEXT: %[[NC1:.*]] = call @foo_1(%[[CONST_2]]) : (tensor<8x16xf32>) -> tensor<8x16xf32>
-  // CHECK-NEXT: %[[ABS_0:.*]] = stablehlo.abs %[[NC0]]
-  // CHECK-NEXT: %[[ABS_1:.*]] = stablehlo.abs %[[NC1]]
-  // CHECK-NEXT: return %[[CONST_0]], %[[ABS_0]], %[[ABS_1]]
-  %0 = stablehlo.constant dense<1.000000e+00> : tensor<8x16xf32>
-  %1 = call @foo(%0) : (tensor<8x16xf32>) -> tensor<8x16xf32>
-  %4 = stablehlo.abs %1 : tensor<8x16xf32>
-  %5 = stablehlo.abs %1 : tensor<8x16xf32>
-  return %0, %4, %5 : tensor<8x16xf32>, tensor<8x16xf32>, tensor<8x16xf32>
-}
-
-// CHECK-LABEL: func.func private @foo
-func.func private @foo(%arg0: tensor<8x16xf32>) -> tensor<8x16xf32> {
-  %2 = stablehlo.negate %arg0 : tensor<8x16xf32>
-  %3 = stablehlo.add %arg0, %2: tensor<8x16xf32>
-  return %3 : tensor<8x16xf32>
-}
-
-// CHECK-LABEL: func.func private @foo_0
-// CHECK-SAME: (%[[ARG:.*]]: tensor<8x16xf32>)
-// CHECK-NEXT:   %[[NEGATE:.*]] = stablehlo.negate %[[ARG]]
-// CHECK-NEXT:   %[[ADD:.*]] = stablehlo.add %[[ARG]], %[[NEGATE]]
-// CHECK-NEXT:   return %[[ADD]]
-// CHECK-NEXT: }
-
-// CHECK-LABEL: func.func private @foo_1
-// CHECK-SAME: (%[[ARG:.*]]: tensor<8x16xf32>)
-// CHECK-NEXT:   %[[NEGATE:.*]] = stablehlo.negate %[[ARG]]
-// CHECK-NEXT:   %[[ADD:.*]] = stablehlo.add %[[ARG]], %[[NEGATE]]
-// CHECK-NEXT:   return %[[ADD]]
-// CHECK-NEXT: }
-
-
 // -----
 
 // CHECK-LABEL: func @scalar_constant_multiple_users_simple
@@ -953,7 +749,6 @@ func.func @broadcast_on_scalar_non_constant_does_not_propagate_constant_expansio
   return %2, %2 : tensor<2x64xf32>, tensor<2x64xf32>
 }
 
-
 // -----
 
 // CHECK-LABEL: func @constant_both_to_named_computation_and_inside_named_computation_and_named_computation_is_not_constant
@@ -1043,110 +838,6 @@ func.func @constant_to_named_computation_that_is_partially_constant_from_start()
 
 // -----
 
-// CHECK-LABEL: func @constant_both_to_call_and_inside_call_and_call_is_not_constant
-func.func @constant_both_to_call_and_inside_call_and_call_is_not_constant() -> (tensor<8x16xf32>, tensor<8x16xf32>, tensor<8x16xf32>) {
-  // CHECK-NEXT: %[[CONST0:.*]] = sdy.constant dense<1.000000e+00> : tensor<8x16xf32>
-  // CHECK-NEXT: %[[CONST1:.*]] = sdy.constant dense<1.000000e+00> : tensor<8x16xf32>
-  // CHECK-NEXT: %[[NC:.*]] = call @foo(%[[CONST0]]) : (tensor<8x16xf32>) -> tensor<8x16xf32>
-  // CHECK-NEXT: %[[NEGATE:.*]] = stablehlo.negate %[[NC]] : tensor<8x16xf32>
-  // CHECK-NEXT: return %[[CONST1]], %[[NC]], %[[NEGATE]] : tensor<8x16xf32>, tensor<8x16xf32>, tensor<8x16xf32>
-  %0 = stablehlo.constant dense<1.000000e+00> : tensor<8x16xf32>
-  %1 = call @foo(%0) : (tensor<8x16xf32>) -> tensor<8x16xf32>
-  %6 = stablehlo.negate %1: tensor<8x16xf32>
-  return %0, %1, %6 : tensor<8x16xf32>, tensor<8x16xf32>, tensor<8x16xf32>
-}
-
-// CHECK-LABEL: func.func private @foo
-// CHECK-SAME: (%[[ARG0:.*]]: tensor<8x16xf32>)
-// CHECK-NEXT:   %[[CONST2:.*]] = sdy.constant dense<1.000000e+00> : tensor<16x16xf32>
-// CHECK-NEXT:   %[[CONST3:.*]] = sdy.constant dense<1.000000e+00> : tensor<16x16xf32>
-// CHECK-NEXT:   %[[DOT0:.*]] = stablehlo.dot %[[ARG0]], %[[CONST2]] : (tensor<8x16xf32>, tensor<16x16xf32>) -> tensor<8x16xf32>
-// CHECK-NEXT:   %[[DOT1:.*]] = stablehlo.dot %[[ARG0]], %[[CONST3]] : (tensor<8x16xf32>, tensor<16x16xf32>) -> tensor<8x16xf32>
-// CHECK-NEXT:   %[[MULTIPLY:.*]] = stablehlo.multiply %[[DOT0]], %[[DOT1]] : tensor<8x16xf32>
-// CHECK-NEXT:   return %[[MULTIPLY]] : tensor<8x16xf32>
-// CHECK-NEXT: }
-func.func private @foo(%arg0: tensor<8x16xf32>) -> tensor<8x16xf32> {
-  %2 = stablehlo.constant dense<1.000000e+00> : tensor<16x16xf32>
-  %3 = stablehlo.dot %arg0, %2 : (tensor<8x16xf32>, tensor<16x16xf32>) -> tensor<8x16xf32>
-  %4 = stablehlo.dot %arg0, %2 : (tensor<8x16xf32>, tensor<16x16xf32>) -> tensor<8x16xf32>
-  %5 = stablehlo.multiply %3, %4 : tensor<8x16xf32>
-  return %5 : tensor<8x16xf32>
-}
-
-// -----
-
-// CHECK-LABEL: func @constant_both_to_call_and_inside_call_and_call_is_constant
-func.func @constant_both_to_call_and_inside_call_and_call_is_constant() -> (tensor<8x16xf32>, tensor<8x16xf32>, tensor<8x16xf32>) {
-  // CHECK-NEXT: %[[CONST0:.*]] = sdy.constant dense<1.000000e+00> : tensor<8x16xf32>
-  // CHECK-NEXT: %[[CONST1:.*]] = sdy.constant dense<1.000000e+00> : tensor<8x16xf32>
-  // CHECK-NEXT: %[[CONST2:.*]] = sdy.constant dense<1.000000e+00> : tensor<8x16xf32>
-  // CHECK-NEXT: %[[NC0:.*]] = call @foo_0(%[[CONST1]]) : (tensor<8x16xf32>) -> tensor<8x16xf32>
-  // CHECK-NEXT: %[[NC1:.*]] = call @foo_1(%[[CONST2]]) : (tensor<8x16xf32>) -> tensor<8x16xf32>
-  // CHECK-NEXT: %[[NEGATE:.*]] = stablehlo.negate %[[NC1]] : tensor<8x16xf32>
-  // CHECK-NEXT: return %[[CONST0]], %[[NC0]], %[[NEGATE]] : tensor<8x16xf32>, tensor<8x16xf32>, tensor<8x16xf32>
-  %0 = stablehlo.constant dense<1.000000e+00> : tensor<8x16xf32>
-  %1 = call @foo(%0) : (tensor<8x16xf32>) -> tensor<8x16xf32>
-  %6 = stablehlo.negate %1: tensor<8x16xf32>
-  return %0, %1, %6 : tensor<8x16xf32>, tensor<8x16xf32>, tensor<8x16xf32>
-}
-
-// CHECK-LABEL: func.func private @foo
-func.func private @foo(%arg0: tensor<8x16xf32>) -> tensor<8x16xf32> {
-  %2 = stablehlo.constant dense<1.000000e+00> : tensor<8x16xf32>
-  %3 = stablehlo.add %arg0, %2 : tensor<8x16xf32>
-  %4 = stablehlo.add %arg0, %2 : tensor<8x16xf32>
-  %5 = stablehlo.multiply %3, %4 : tensor<8x16xf32>
-  return %5 : tensor<8x16xf32>
-}
-
-// CHECK-LABEL: func.func private @foo_0
-// CHECK-SAME: (%[[ARG0:.*]]: tensor<8x16xf32>)
-// CHECK-NEXT:   %[[CONST2:.*]] = sdy.constant dense<1.000000e+00> : tensor<8x16xf32>
-// CHECK-NEXT:   %[[CONST3:.*]] = sdy.constant dense<1.000000e+00> : tensor<8x16xf32>
-// CHECK-NEXT:   %[[ADD0:.*]] = stablehlo.add %[[ARG0]], %[[CONST2]] : tensor<8x16xf32>
-// CHECK-NEXT:   %[[ADD1:.*]] = stablehlo.add %[[ARG0]], %[[CONST3]] : tensor<8x16xf32>
-// CHECK-NEXT:   %[[MULTIPLY:.*]] = stablehlo.multiply %[[ADD0]], %[[ADD1]] : tensor<8x16xf32>
-// CHECK-NEXT:   return %[[MULTIPLY]] : tensor<8x16xf32>
-// CHECK-NEXT: }
-
-// CHECK-LABEL: func.func private @foo_1
-// CHECK-SAME: (%[[ARG0:.*]]: tensor<8x16xf32>)
-// CHECK-NEXT:   %[[CONST2:.*]] = sdy.constant dense<1.000000e+00> : tensor<8x16xf32>
-// CHECK-NEXT:   %[[CONST3:.*]] = sdy.constant dense<1.000000e+00> : tensor<8x16xf32>
-// CHECK-NEXT:   %[[ADD0:.*]] = stablehlo.add %[[ARG0]], %[[CONST2]] : tensor<8x16xf32>
-// CHECK-NEXT:   %[[ADD1:.*]] = stablehlo.add %[[ARG0]], %[[CONST3]] : tensor<8x16xf32>
-// CHECK-NEXT:   %[[MULTIPLY:.*]] = stablehlo.multiply %[[ADD0]], %[[ADD1]] : tensor<8x16xf32>
-// CHECK-NEXT:   return %[[MULTIPLY]] : tensor<8x16xf32>
-// CHECK-NEXT: }
-
-// -----
-
-// CHECK-LABEL: func @constant_to_call_that_is_partially_constant_from_start
-func.func @constant_to_call_that_is_partially_constant_from_start() -> (tensor<8x8xf32>, tensor<8x8xf32>) {
-  // CHECK-NEXT: %[[CONST0:.*]] = sdy.constant dense<1.000000e+00>
-  // CHECK-NEXT: %[[NC:.*]] = call @foo(%[[CONST0]]) : (tensor<8x8xf32>) -> tensor<8x8xf32>
-  // CHECK-NEXT: return %[[NC]], %[[NC]]
-  %0 = stablehlo.constant dense<1.000000e+00> : tensor<8x8xf32>
-  %1 = call @foo(%0) : (tensor<8x8xf32>) -> tensor<8x8xf32>
-  return %1, %1 : tensor<8x8xf32>, tensor<8x8xf32>
-}
-
-// CHECK-LABEL: func.func private @foo
-// CHECK-SAME: (%[[ARG0:.*]]: tensor<8x8xf32>)
-// CHECK-NEXT:   %[[NEGATE0:.*]] = stablehlo.negate %[[ARG0]]
-// CHECK-NEXT:   %[[NEGATE1:.*]] = stablehlo.negate %[[ARG0]]
-// CHECK-NEXT:   %[[DOT:.*]] = stablehlo.dot %[[NEGATE0]], %[[NEGATE1]]
-// CHECK-NEXT:   return %[[DOT]]
-// CHECK-NEXT: }
-func.func private @foo(%arg0: tensor<8x8xf32>) -> tensor<8x8xf32> {
-  %2 = stablehlo.negate %arg0 : tensor<8x8xf32>
-  %3 = stablehlo.negate %arg0 : tensor<8x8xf32>
-  %4 = stablehlo.dot %2, %3 : (tensor<8x8xf32>, tensor<8x8xf32>) -> tensor<8x8xf32>
-  return %4 : tensor<8x8xf32>
-}
-
-// -----
-
 // CHECK-LABEL: func @constant_to_while
 func.func @constant_to_while(%arg0: tensor<8x16xf32>) -> tensor<8x16xf32> {
   // CHECK-NEXT: %[[CONST0:.*]] = sdy.constant dense<0> : tensor<i32>
@@ -1180,7 +871,6 @@ func.func @constant_to_while(%arg0: tensor<8x16xf32>) -> tensor<8x16xf32> {
   return %1#0 : tensor<8x16xf32>
 }
 
-
 // -----
 
 // CHECK-LABEL: func @constant_completely_inside_named_computation_and_has_sharding_groups
@@ -1250,7 +940,6 @@ func.func @constant_to_and_inside_nested_named_computations() -> (tensor<8x16xf3
   return %1, %5 : tensor<8x16xf32>, tensor<8x16xf32>
 }
 
-
 // -----
 
 // CHECK-LABEL: func @constant_to_multi_result_named_computation
@@ -1369,249 +1058,6 @@ func.func @constant_to_named_computation_with_multiple_arguments_and_with_only_c
 
 // -----
 
-// CHECK-LABEL: func @constant_completely_inside_call_and_has_sharding_groups
-func.func @constant_completely_inside_call_and_has_sharding_groups(%arg0: tensor<8x16xf32>) -> tensor<8x16xf32> {
-  // CHECK: %[[NC:.*]] = call @foo(%arg0)
-  %0 = call @foo(%arg0) : (tensor<8x16xf32>) -> tensor<8x16xf32>
-  // CHECK: %[[NEGATE:.*]] = stablehlo.negate %[[NC]]
-  // CHECK-NEXT: return %[[NEGATE]]
-  %8 = stablehlo.negate %0: tensor<8x16xf32>
-  return %8 : tensor<8x16xf32>
-}
-
-// CHECK-LABEL: func.func private @foo
-// CHECK-SAME: (%[[ARG1:.*]]: tensor<8x16xf32>)
-// CHECK-NEXT:   %[[ABS:.*]] = stablehlo.abs
-// CHECK-NEXT:   %[[CONST0:.*]] = sdy.constant
-// CHECK-NEXT:   sdy.sharding_group %[[CONST0]] group_id=0
-// CHECK-NEXT:   %[[CONST1:.*]] = sdy.constant
-// CHECK-NEXT:   sdy.sharding_group %[[CONST1]] group_id=0
-// CHECK-NEXT:   %[[DOT0:.*]] = stablehlo.dot %[[ABS]], %[[CONST0]]
-// CHECK-NEXT:   %[[DOT1:.*]] = stablehlo.dot %[[DOT0]], %[[CONST1]]
-// CHECK-NEXT:   sdy.sharding_group %[[DOT1]] group_id=0
-// CHECK-NEXT:   stablehlo.add %[[DOT0]], %[[DOT1]]
-func.func private @foo(%arg1: tensor<8x16xf32>) -> tensor<8x16xf32> {
-  %1 = stablehlo.abs %arg1 : tensor<8x16xf32>
-  %2 = stablehlo.constant dense<1.000000e+00> : tensor<16x16xf32>
-  sdy.sharding_group %2 group_id=0 : tensor<16x16xf32>
-  %4 = stablehlo.dot %1, %2 : (tensor<8x16xf32>, tensor<16x16xf32>) -> tensor<8x16xf32>
-  %5 = stablehlo.dot %4, %2 : (tensor<8x16xf32>, tensor<16x16xf32>) -> tensor<8x16xf32>
-  sdy.sharding_group %5 group_id=0 : tensor<8x16xf32>
-  %6 = stablehlo.add %4, %5 : tensor<8x16xf32>
-  %7 = stablehlo.abs %6 : tensor<8x16xf32>
-  return %7 : tensor<8x16xf32>
-}
-
-// -----
-
-// CHECK-LABEL: func @constant_to_and_inside_nested_calls
-func.func @constant_to_and_inside_nested_calls() -> (tensor<8x16xf32>, tensor<8x16xf32>) {
-  // CHECK-NEXT: %[[CONST0:.*]] = sdy.constant
-  // CHECK-NEXT: %[[CONST1:.*]] = sdy.constant
-  // CHECK-NEXT: %[[NC_OUTER0:.*]] = call @foo_1(%[[CONST0]]) : (tensor<8x16xf32>) -> tensor<8x16xf32>
-  // CHECK-NEXT: %[[NC_OUTER1:.*]] = call @foo_3(%[[CONST1]]) : (tensor<8x16xf32>) -> tensor<8x16xf32>
-  // CHECK-NEXT: %[[ADD:.*]] = stablehlo.add %[[CONST1]], %[[NC_OUTER1]]
-  // CHECK-NEXT: return %[[NC_OUTER0]], %[[ADD]]
-  %0 = stablehlo.constant dense<1.000000e+00> : tensor<8x16xf32>
-  %1 = call @foo(%0) : (tensor<8x16xf32>) -> tensor<8x16xf32>
-  %5 = stablehlo.add %0, %1: tensor<8x16xf32>
-  return %1, %5 : tensor<8x16xf32>, tensor<8x16xf32>
-}
-
-// CHECK-LABEL: func.func private @foo
-func.func private @foo(%arg0: tensor<8x16xf32>) -> tensor<8x16xf32> {
-  %2:2 = call @bar(%arg0) : (tensor<8x16xf32>) -> (tensor<8x16xf32>, tensor<8x16xf32>)
-  %4 = stablehlo.multiply %2#0, %2#1 : tensor<8x16xf32>
-  return %4 : tensor<8x16xf32>
-}
-
-// CHECK-LABEL: func.func private @bar
-func.func private @bar(%arg1: tensor<8x16xf32>) -> (tensor<8x16xf32>, tensor<8x16xf32>) {
-  %3 = stablehlo.constant dense<1.000000e+00> : tensor<8x16xf32>
-  return %3, %3 : tensor<8x16xf32>, tensor<8x16xf32>
-}
-
-// CHECK-LABEL: func.func private @bar_0
-// CHECK-SAME: (%[[ARG1:.*]]: tensor<8x16xf32>) -> (tensor<8x16xf32>, tensor<8x16xf32>) attributes {sdy.original_func_name = "bar"}
-// CHECK-NEXT:   %[[CONST21:.*]] = sdy.constant
-// CHECK-NEXT:   %[[CONST31:.*]] = sdy.constant
-// CHECK-NEXT:   return %[[CONST21]], %[[CONST31]]
-// CHECK-NEXT: }
-
-// CHECK-LABEL: func.func private @foo_1
-// CHECK-SAME: (%[[ARG0:.*]]: tensor<8x16xf32>) -> tensor<8x16xf32> attributes {sdy.original_func_name = "foo"}
-// CHECK-NEXT:   %[[NC_INNER1:.*]]:2 = call @bar_0(%[[ARG0]]) : (tensor<8x16xf32>) -> (tensor<8x16xf32>, tensor<8x16xf32>)
-// CHECK-NEXT:   %[[MULTIPLY1:.*]] = stablehlo.multiply %[[NC_INNER1]]#0, %[[NC_INNER1]]#1
-// CHECK-NEXT:   return %[[MULTIPLY1]]
-// CHECK-NEXT: }
-
-// CHECK-LABEL: func.func private @bar_2
-// CHECK-SAME: (%[[ARG1:.*]]: tensor<8x16xf32>) -> (tensor<8x16xf32>, tensor<8x16xf32>) attributes {sdy.original_func_name = "bar"}
-// CHECK-NEXT:   %[[CONST21:.*]] = sdy.constant
-// CHECK-NEXT:   %[[CONST31:.*]] = sdy.constant
-// CHECK-NEXT:   return %[[CONST21]], %[[CONST31]]
-// CHECK-NEXT: }
-
-// CHECK-LABEL: func.func private @foo_3
-// CHECK-SAME: (%[[ARG0:.*]]: tensor<8x16xf32>) -> tensor<8x16xf32> attributes {sdy.original_func_name = "foo"}
-// CHECK-NEXT:   %[[NC_INNER1:.*]]:2 = call @bar_2(%[[ARG0]]) : (tensor<8x16xf32>) -> (tensor<8x16xf32>, tensor<8x16xf32>)
-// CHECK-NEXT:   %[[MULTIPLY1:.*]] = stablehlo.multiply %[[NC_INNER1]]#0, %[[NC_INNER1]]#1
-// CHECK-NEXT:   return %[[MULTIPLY1]]
-// CHECK-NEXT: }
-
-// -----
-
-// CHECK-LABEL: func @constant_to_multi_result_call
-func.func @constant_to_multi_result_call() -> (tensor<8x16xf32>, tensor<8x16xf32>) {
-  // CHECK-NEXT: %[[CONST0:.*]] = sdy.constant
-  // CHECK-NEXT: %[[CONST1:.*]] = sdy.constant
-  // CHECK-NEXT: %[[NC0:.*]]:2 = call @foo_0(%[[CONST0]]) : (tensor<8x16xf32>) -> (tensor<8x16xf32>, tensor<8x16xf32>)
-  // CHECK-NEXT: %[[NC1:.*]]:2 = call @foo_1(%[[CONST1]]) : (tensor<8x16xf32>) -> (tensor<8x16xf32>, tensor<8x16xf32>)
-  // CHECK-NEXT: return %[[NC0]]#0, %[[NC1]]#1
-  %0 = stablehlo.constant dense<1.000000e+00> : tensor<8x16xf32>
-  %1:2 = call @foo(%0) : (tensor<8x16xf32>) -> (tensor<8x16xf32>, tensor<8x16xf32>)
-  return %1#0, %1#1 : tensor<8x16xf32>, tensor<8x16xf32>
-}
-
-// CHECK-LABEL: func.func private @foo
-func.func private @foo(%arg0: tensor<8x16xf32>) -> (tensor<8x16xf32>, tensor<8x16xf32>) {
-  %2 = stablehlo.negate %arg0 : tensor<8x16xf32>
-  return %arg0, %2 : tensor<8x16xf32>, tensor<8x16xf32>
-}
-
-// CHECK-LABEL: func.func private @foo_0
-// CHECK-SAME: (%[[ARG0:.*]]: tensor<8x16xf32>) -> (tensor<8x16xf32>, tensor<8x16xf32>) attributes {sdy.original_func_name = "foo"}
-// CHECK-NEXT:   %[[NEGATE1:.*]] = stablehlo.negate %[[ARG0]]
-// CHECK-NEXT:   return %[[ARG0]], %[[NEGATE1]]
-// CHECK-NEXT: }
-
-// CHECK-LABEL: func.func private @foo_1
-// CHECK-SAME: (%[[ARG0:.*]]: tensor<8x16xf32>) -> (tensor<8x16xf32>, tensor<8x16xf32>) attributes {sdy.original_func_name = "foo"}
-// CHECK-NEXT:   %[[NEGATE1:.*]] = stablehlo.negate %[[ARG0]]
-// CHECK-NEXT:   return %[[ARG0]], %[[NEGATE1]]
-// CHECK-NEXT: }
-
-// -----
-
-// CHECK-LABEL: func @constant_to_inner_call_that_is_constant_expression
-func.func @constant_to_inner_call_that_is_constant_expression() -> tensor<8x8xf32> {
-  // CHECK-NEXT: %[[NC_OUTER:.*]] = call @foo() : () -> tensor<8x8xf32>
-  // CHECK-NEXT: return %[[NC_OUTER]]
-  %0 = call @foo() : () -> tensor<8x8xf32>
-  return %0 : tensor<8x8xf32>
-}
-
-// CHECK-LABEL: func.func private @foo
-// CHECK-SAME: ()
-// CHECK-NEXT:   %[[CONST0:.*]] = sdy.constant
-// CHECK-NEXT:   %[[CONST1:.*]] = sdy.constant
-// CHECK-NEXT:   %[[NC_INNER0:.*]]:2 = call @bar_0(%[[CONST0]]) : (tensor<8x8xf32>) -> (tensor<8x8xf32>, tensor<8x8xf32>)
-// CHECK-NEXT:   %[[NC_INNER1:.*]]:2 = call @bar_1(%[[CONST1]]) : (tensor<8x8xf32>) -> (tensor<8x8xf32>, tensor<8x8xf32>)
-// CHECK-NEXT:   %[[DOT:.*]] = stablehlo.dot %[[NC_INNER0]]#0, %[[NC_INNER1]]#1
-// CHECK-NEXT:   return %[[DOT]]
-// CHECK-NEXT: }
-func.func private @foo() -> tensor<8x8xf32> {
-  %1 = stablehlo.constant dense<1.000000e+00> : tensor<8x8xf32>
-  %2:2 = call @bar(%1) : (tensor<8x8xf32>) -> (tensor<8x8xf32>, tensor<8x8xf32>)
-  %4 = stablehlo.dot %2#0, %2#1 : (tensor<8x8xf32>, tensor<8x8xf32>) -> tensor<8x8xf32>
-  return %4 : tensor<8x8xf32>
-}
-
-// CHECK-LABEL: func.func private @bar
-func.func private @bar(%arg0: tensor<8x8xf32>) -> (tensor<8x8xf32>, tensor<8x8xf32>) {
-  %3 = stablehlo.constant dense<1.000000e+00> : tensor<8x8xf32>
-  return %3, %3 : tensor<8x8xf32>, tensor<8x8xf32>
-}
-
-// CHECK-LABEL: func.func private @bar_0
-// CHECK-SAME: (%[[ARG0:.*]]: tensor<8x8xf32>) -> (tensor<8x8xf32>, tensor<8x8xf32>) attributes {sdy.original_func_name = "bar"}
-// CHECK-NEXT:   %[[CONST4:.*]] = sdy.constant
-// CHECK-NEXT:   %[[CONST5:.*]] = sdy.constant
-// CHECK-NEXT:   return %[[CONST4]], %[[CONST5]]
-// CHECK-NEXT: }
-
-// CHECK-LABEL: func.func private @bar_1
-// CHECK-SAME: (%[[ARG0:.*]]: tensor<8x8xf32>) -> (tensor<8x8xf32>, tensor<8x8xf32>) attributes {sdy.original_func_name = "bar"}
-// CHECK-NEXT:   %[[CONST4:.*]] = sdy.constant
-// CHECK-NEXT:   %[[CONST5:.*]] = sdy.constant
-// CHECK-NEXT:   return %[[CONST4]], %[[CONST5]]
-// CHECK-NEXT: }
-
-// -----
-
-// CHECK-LABEL: func @constant_to_call_with_multiple_arguments_and_with_only_constant_ops_all_arguments_are_constants
-func.func @constant_to_call_with_multiple_arguments_and_with_only_constant_ops_all_arguments_are_constants(%arg0: tensor<8x16xf32>) -> (tensor<8x16xf32>, tensor<8x16xf32>) {
-  // CHECK-NEXT: %[[CONST0:.*]] = sdy.constant
-  // CHECK-NEXT: %[[CONST1:.*]] = sdy.constant
-  // CHECK-NEXT: %[[NC0:.*]] = call @foo_0(%[[CONST0]], %[[CONST0]]) : (tensor<8x16xf32>, tensor<8x16xf32>) -> tensor<8x16xf32>
-  // CHECK-NEXT: %[[NC1:.*]] = call @foo_1(%[[CONST1]], %[[CONST1]]) : (tensor<8x16xf32>, tensor<8x16xf32>) -> tensor<8x16xf32>
-  // CHECK-NEXT: %[[ABS_0:.*]] = stablehlo.abs %[[NC0]]
-  // CHECK-NEXT: %[[ABS_1:.*]] = stablehlo.abs %[[NC1]]
-  // CHECK-NEXT: return %[[ABS_0]], %[[ABS_1]]
-  %0 = stablehlo.constant dense<1.000000e+00> : tensor<8x16xf32>
-  %1 = call @foo(%0, %0) : (tensor<8x16xf32>, tensor<8x16xf32>) -> tensor<8x16xf32>
-  %5 = stablehlo.abs %1 : tensor<8x16xf32>
-  %6 = stablehlo.abs %1 : tensor<8x16xf32>
-  return %5, %6 : tensor<8x16xf32>, tensor<8x16xf32>
-}
-
-// CHECK-LABEL: func.func private @foo
-func.func private @foo(%arg1: tensor<8x16xf32>, %arg2: tensor<8x16xf32>) -> tensor<8x16xf32> {
-  %2 = stablehlo.negate %arg1 : tensor<8x16xf32>
-  %3 = stablehlo.add %2, %arg2 : tensor<8x16xf32>
-  %4 = stablehlo.multiply %2, %3 : tensor<8x16xf32>
-  return %4 : tensor<8x16xf32>
-}
-
-// CHECK-LABEL: func.func private @foo_0
-// CHECK-SAME: (%[[ARG1:.*]]: tensor<8x16xf32>, %[[ARG2:.*]]: tensor<8x16xf32>) -> tensor<8x16xf32> attributes {sdy.original_func_name = "foo"}
-// CHECK-NEXT:   %[[NEGATE:.*]] = stablehlo.negate %[[ARG1]]
-// CHECK-NEXT:   %[[ADD:.*]] = stablehlo.add %[[NEGATE]], %[[ARG2]]
-// CHECK-NEXT:   %[[MULTIPLY:.*]] = stablehlo.multiply %[[NEGATE]], %[[ADD]]
-// CHECK-NEXT:   return %[[MULTIPLY]]
-// CHECK-NEXT: }
-
-// CHECK-LABEL: func.func private @foo_1
-// CHECK-SAME: (%[[ARG1:.*]]: tensor<8x16xf32>, %[[ARG2:.*]]: tensor<8x16xf32>) -> tensor<8x16xf32> attributes {sdy.original_func_name = "foo"}
-// CHECK-NEXT:   %[[NEGATE:.*]] = stablehlo.negate %[[ARG1]]
-// CHECK-NEXT:   %[[ADD:.*]] = stablehlo.add %[[NEGATE]], %[[ARG2]]
-// CHECK-NEXT:   %[[MULTIPLY:.*]] = stablehlo.multiply %[[NEGATE]], %[[ADD]]
-// CHECK-NEXT:   return %[[MULTIPLY]]
-// CHECK-NEXT: }
-
-// -----
-
-// CHECK-LABEL: func @constant_to_call_with_multiple_arguments_and_with_only_constant_ops_some_arguments_are_constants_some_not
-func.func @constant_to_call_with_multiple_arguments_and_with_only_constant_ops_some_arguments_are_constants_some_not(%arg0: tensor<8x16xf32>) -> (tensor<8x16xf32>, tensor<8x16xf32>) {
-  // CHECK-NEXT: %[[CONST0:.*]] = sdy.constant
-  // CHECK-NEXT: %[[CONST1:.*]] = sdy.constant
-  // CHECK-NEXT: %[[NC:.*]] = call @foo(%[[CONST0]], %[[CONST1]], %arg0) : (tensor<8x16xf32>, tensor<8x16xf32>, tensor<8x16xf32>) -> tensor<8x16xf32>
-  // CHECK-NEXT: %[[ABS_0:.*]] = stablehlo.abs %[[NC]]
-  // CHECK-NEXT: %[[ABS_1:.*]] = stablehlo.abs %[[NC]]
-  // CHECK-NEXT: return %[[ABS_0]], %[[ABS_1]]
-  %0 = stablehlo.constant dense<1.000000e+00> : tensor<8x16xf32>
-  %1 = call @foo(%0, %0, %arg0) : (tensor<8x16xf32>, tensor<8x16xf32>, tensor<8x16xf32>) -> tensor<8x16xf32>
-  %5 = stablehlo.abs %1 : tensor<8x16xf32>
-  %6 = stablehlo.abs %1 : tensor<8x16xf32>
-  return %5, %6 : tensor<8x16xf32>, tensor<8x16xf32>
-}
-
-// CHECK-LABEL: func.func private @foo
-// CHECK-SAME: (%[[ARG1:.*]]: tensor<8x16xf32>, %[[ARG2:.*]]: tensor<8x16xf32>, %[[ARG3:.*]]: tensor<8x16xf32>)
-// CHECK-NEXT:   %[[NEGATE:.*]] = stablehlo.negate %[[ARG1]]
-// CHECK-NEXT:   %[[ADD:.*]] = stablehlo.add %[[NEGATE]], %[[ARG2]]
-// CHECK-NEXT:   %[[MULTIPLY:.*]] = stablehlo.multiply %[[NEGATE]], %[[ADD]]
-// CHECK-NEXT:   return %[[MULTIPLY]]
-// CHECK-NEXT: }
-func.func private @foo(%arg1: tensor<8x16xf32>, %arg2: tensor<8x16xf32>, %arg3: tensor<8x16xf32>) -> tensor<8x16xf32> {
-  %2 = stablehlo.negate %arg1 : tensor<8x16xf32>
-  %3 = stablehlo.add %2, %arg2 : tensor<8x16xf32>
-  %4 = stablehlo.multiply %2, %3 : tensor<8x16xf32>
-  return %4 : tensor<8x16xf32>
-}
-
-// -----
-
 // CHECK-LABEL: func @single_call
 func.func @single_call(%arg0: tensor<8xf32>) -> tensor<8xf32> {
   // CHECK-NEXT: %0 = call @foo(%arg0)
@@ -1624,131 +1070,3 @@ func.func @single_call(%arg0: tensor<8xf32>) -> tensor<8xf32> {
 func.func private @foo(%arg0: tensor<8xf32>) -> tensor<8xf32> {
   return %arg0 : tensor<8xf32>
 }
-
-// -----
-
-sdy.mesh @mesh = <["a"=2]>
-
-// CHECK-LABEL: func @constant_multiple_users_within_call_with_no_arguments_and_with_only_constant_ops_with_sharding
-func.func @constant_multiple_users_within_call_with_no_arguments_and_with_only_constant_ops_with_sharding() -> (tensor<8x16xf32>, tensor<8x16xf32>) {
-  // CHECK-NEXT: %[[NC0:.*]] = call @foo_0() {sdy.sharding = #sdy.sharding_per_value<[<@mesh, [{"a"}, {}]>]>} : () -> tensor<8x16xf32>
-  // CHECK-NEXT: %[[NC1:.*]] = call @foo_1() {sdy.sharding = #sdy.sharding_per_value<[<@mesh, [{"a"}, {}]>]>} : () -> tensor<8x16xf32>
-  // CHECK-NEXT: %[[ABS_0:.*]] = stablehlo.abs %[[NC0]]
-  // CHECK-NEXT: %[[ABS_1:.*]] = stablehlo.abs %[[NC1]]
-  // CHECK-NEXT: return %[[ABS_0]], %[[ABS_1]]
-  %0 = call @foo() {sdy.sharding = #sdy.sharding_per_value<[<@mesh, [{"a"}, {}]>]>} : () -> (tensor<8x16xf32>)
-  %1 = stablehlo.abs %0 : tensor<8x16xf32>
-  %2 = stablehlo.abs %0 : tensor<8x16xf32>
-  return %1, %2 : tensor<8x16xf32>, tensor<8x16xf32>
-}
-
-// CHECK-LABEL: func.func private @foo
-func.func private @foo() -> tensor<8x16xf32> {
-  %0 = stablehlo.constant dense<1.000000e+00> : tensor<8x16xf32>
-  %1 = stablehlo.negate %0 : tensor<8x16xf32>
-  return %1 : tensor<8x16xf32>
-}
-
-// CHECK-LABEL: func.func private @foo_0
-// CHECK-SAME: () -> tensor<8x16xf32> attributes {sdy.original_func_name = "foo"}
-// CHECK-NEXT:    %[[CONST1:.*]] = sdy.constant
-// CHECK-NEXT:    %[[NEGATE1:.*]] = stablehlo.negate %[[CONST1]]
-// CHECK-NEXT:    return %[[NEGATE1]]
-// CHECK-NEXT: }
-
-// CHECK-LABEL: func.func private @foo_1
-// CHECK-SAME: () -> tensor<8x16xf32> attributes {sdy.original_func_name = "foo"}
-// CHECK-NEXT:    %[[CONST1:.*]] = sdy.constant
-// CHECK-NEXT:    %[[NEGATE1:.*]] = stablehlo.negate %[[CONST1]]
-// CHECK-NEXT:    return %[[NEGATE1]]
-// CHECK-NEXT: }
-
-// -----
-
-// CHECK-LABEL: func @constant_multiple_users_within_call_with_no_arguments_and_with_only_constant_ops_foo_calls_bar
-func.func @constant_multiple_users_within_call_with_no_arguments_and_with_only_constant_ops_foo_calls_bar() -> (tensor<8x16xf32>, tensor<8x16xf32>) {
-  // CHECK-NEXT: %0 = call @foo_2() : () -> tensor<8x16xf32>
-  // CHECK-NEXT: %1 = call @foo_4() : () -> tensor<8x16xf32>
-  // CHECK-NEXT: %2 = stablehlo.abs %0 : tensor<8x16xf32>
-  // CHECK-NEXT: %3 = stablehlo.abs %1 : tensor<8x16xf32>
-  // CHECK-NEXT: return %2, %3 : tensor<8x16xf32>, tensor<8x16xf32>
-  %0 = call @foo() : () -> (tensor<8x16xf32>)
-  %1 = stablehlo.abs %0 : tensor<8x16xf32>
-  %2 = stablehlo.abs %0 : tensor<8x16xf32>
-  return %1, %2 : tensor<8x16xf32>, tensor<8x16xf32>
-}
-
-// CHECK-LABEL: func.func private @foo() -> tensor<8x16xf32> {
-func.func private @foo() -> tensor<8x16xf32> {
-  %0 = stablehlo.constant dense<1.000000e+00> : tensor<8x16xf32>
-  %1 = call @bar(%0) : (tensor<8x16xf32>) -> (tensor<8x16xf32>)
-  return %1 : tensor<8x16xf32>
-}
-
-// CHECK-LABEL: func.func private @bar(%arg0: tensor<8x16xf32>) -> tensor<8x16xf32> {
-func.func private @bar(%arg0: tensor<8x16xf32>) -> tensor<8x16xf32> {
-  %0 = stablehlo.negate %arg0 : tensor<8x16xf32>
-  return %0 : tensor<8x16xf32>
-}
-
-// CHECK-LABEL: func.func private @bar_0_1(%arg0: tensor<8x16xf32>) -> tensor<8x16xf32> attributes {sdy.original_func_name = "bar"} {
-
-// CHECK-LABEL: func.func private @foo_2() -> tensor<8x16xf32> attributes {sdy.original_func_name = "foo"} {
-// CHECK-NEXT:    %0 = sdy.constant dense<1.000000e+00> : tensor<8x16xf32>
-// CHECK-NEXT:    %1 = call @bar_0_1(%0) : (tensor<8x16xf32>) -> tensor<8x16xf32>
-// CHECK-NEXT:    return %1 : tensor<8x16xf32>
-// CHECK-NEXT:  }
-
-// CHECK-LABEL: func.func private @bar_0_3(%arg0: tensor<8x16xf32>) -> tensor<8x16xf32> attributes {sdy.original_func_name = "bar"} {
-
-// CHECK-LABEL: func.func private @foo_4() -> tensor<8x16xf32> attributes {sdy.original_func_name = "foo"} {
-// CHECK-NEXT:    %0 = sdy.constant dense<1.000000e+00> : tensor<8x16xf32>
-// CHECK-NEXT:    %1 = call @bar_0_3(%0) : (tensor<8x16xf32>) -> tensor<8x16xf32>
-// CHECK-NEXT:    return %1 : tensor<8x16xf32>
-// CHECK-NEXT:  }
-
-// -----
-
-// CHECK-LABEL: func @constant_multiple_users_within_call_with_no_arguments_and_with_only_constant_ops_foo_calls_bar_not_constant
-func.func @constant_multiple_users_within_call_with_no_arguments_and_with_only_constant_ops_foo_calls_bar_not_constant() -> (tensor<8x8xf32>, tensor<8x8xf32>) {
-  // CHECK-NEXT: %0 = call @foo() : () -> tensor<8x8xf32>
-  // CHECK-NEXT: %1 = stablehlo.abs %0 : tensor<8x8xf32>
-  // CHECK-NEXT: %2 = stablehlo.abs %0 : tensor<8x8xf32>
-  // CHECK-NEXT: return %1, %2 : tensor<8x8xf32>, tensor<8x8xf32>
-  %0 = call @foo() : () -> (tensor<8x8xf32>)
-  %1 = stablehlo.abs %0 : tensor<8x8xf32>
-  %2 = stablehlo.abs %0 : tensor<8x8xf32>
-  return %1, %2 : tensor<8x8xf32>, tensor<8x8xf32>
-}
-
-// CHECK-LABEL: func.func private @foo() -> tensor<8x8xf32> {
-func.func private @foo() -> tensor<8x8xf32> {
-  %0 = stablehlo.constant dense<1.000000e+00> : tensor<8x8xf32>
-  %1 = call @bar(%0) : (tensor<8x8xf32>) -> (tensor<8x8xf32>)
-  return %1 : tensor<8x8xf32>
-}
-
-// CHECK-LABEL: func.func private @bar(%arg0: tensor<8x8xf32>) -> tensor<8x8xf32> {
-func.func private @bar(%arg0: tensor<8x8xf32>) -> tensor<8x8xf32> {
-  %0 = stablehlo.dot %arg0, %arg0 : (tensor<8x8xf32>, tensor<8x8xf32>) -> tensor<8x8xf32>
-  return %0 : tensor<8x8xf32>
-}
-
-// -----
-sdy.mesh @mesh = <["a"=2, "b"=2, "c"=2]>
-
-// CHECK-LABEL: func @split_constants_different_sharding
-func.func @split_constants_different_sharding(
-    %arg0: tensor<8x8xf32> {sdy.sharding = #sdy.sharding<@mesh, [{"a"}, {"b"}]>})
-    -> (tensor<8x16xf32>, tensor<8x8xf32>) {
-  // CHECK-NEXT: %[[CONST_0:.*]] = sdy.constant dense<1.000000e+00>
-  // CHECK-NEXT: %[[CONST_1:.*]] = sdy.constant dense<1.000000e+00>
-  // CHECK-NEXT: %[[CONST_2:.*]] = sdy.constant dense<1.000000e+00>
-  // CHECK-NEXT: %[[DOT_GENERAL:.*]] = stablehlo.dot_general %[[CONST_0]], %[[CONST_1]], contracting_dims = [1] x [1]
-  // CHECK-NEXT: %[[ADD:.*]] = stablehlo.add %[[DOT_GENERAL]], %arg0
-  // CHECK-NEXT: return %[[CONST_2]], %[[ADD]]
-  %0 = stablehlo.constant dense<1.000000e+00> : tensor<8x16xf32>
-  %1 = stablehlo.dot_general %0, %0, contracting_dims = [1] x [1] : (tensor<8x16xf32>, tensor<8x16xf32>) -> tensor<8x8xf32>
-  %2 = stablehlo.add %1, %arg0 : tensor<8x8xf32>
-  return %0, %2 : tensor<8x16xf32>, tensor<8x8xf32>
-}
diff --git a/shardy/dialect/sdy/transforms/import/test/import_func_calls.mlir b/shardy/dialect/sdy/transforms/import/test/import_func_calls.mlir
index 55fb106..344c3af 100644
--- a/shardy/dialect/sdy/transforms/import/test/import_func_calls.mlir
+++ b/shardy/dialect/sdy/transforms/import/test/import_func_calls.mlir
@@ -433,7 +433,7 @@ sdy.mesh @mesh = #sdy.mesh<["x"=2, "y"=2]>
 
 // CHECK-LABEL: func @func_has_out_sharding_call_no_out_sharding
 func.func @func_has_out_sharding_call_no_out_sharding(%arg0: tensor<8x2xi32> {sdy.sharding = #sdy.sharding<@mesh, [{"x"}, {"y"}]>}) -> tensor<8x2xi32> {
-  // CHECK-NEXT: %[[NC:.*]] = sdy.named_computation<"foo">(%arg0, %arg0) (%arg1: tensor<8x2xi32>, %arg2: tensor<8x2xi32>) {
+  // CHECK-NEXT: %[[NC:.*]] = sdy.named_computation<"foo">(%arg0, %arg0) out_shardings=[<@mesh, [{"x", "y"}, {}]>] (%arg1: tensor<8x2xi32>, %arg2: tensor<8x2xi32>) {
   // CHECK-NEXT:   %[[MULTIPLY:.*]] = stablehlo.multiply %arg1, %arg2 : tensor<8x2xi32>
   // CHECK-NEXT:   sdy.return %[[MULTIPLY]] : tensor<8x2xi32>
   // CHECK-NEXT: } {mhlo.frontend_attributes = {inlineable = "false"}} : (tensor<8x2xi32>, tensor<8x2xi32>) -> tensor<8x2xi32>
@@ -529,7 +529,7 @@ sdy.mesh @mesh = #sdy.mesh<["x"=2, "y"=2]>
 
 // CHECK-LABEL: func @func_has_out_sharding_on_one_result_call_has_no_out_sharding
 func.func @func_has_out_sharding_on_one_result_call_has_no_out_sharding(%arg0: tensor<8x2xi32> {sdy.sharding = #sdy.sharding<@mesh, [{"x"}, {"y"}]>}) -> tensor<8x2xi32> {
-  // CHECK-NEXT: %[[NC:.*]]:2 = sdy.named_computation<"foo">(%arg0, %arg0) (%arg1: tensor<8x2xi32>, %arg2: tensor<8x2xi32>) {
+  // CHECK-NEXT: %[[NC:.*]]:2 = sdy.named_computation<"foo">(%arg0, %arg0) out_shardings=[<@mesh, [{?}, {?}]>, <@mesh, [{"y"}, {}]>] (%arg1: tensor<8x2xi32>, %arg2: tensor<8x2xi32>) {
   // CHECK-NEXT:   %[[MULTIPLY:.*]] = stablehlo.multiply %arg1, %arg2 : tensor<8x2xi32>
   // CHECK-NEXT:   %[[TRANSPOSE:.*]] = stablehlo.transpose %arg1, dims = [1, 0] : (tensor<8x2xi32>) -> tensor<2x8xi32>
   // CHECK-NEXT:   %[[DOT_1:.*]] = stablehlo.dot %[[TRANSPOSE]], %arg1 : (tensor<2x8xi32>, tensor<8x2xi32>) -> tensor<2x2xi32>
diff --git a/shardy/dialect/sdy/transforms/import/test/propagate_sharding_from_func_to_call.mlir b/shardy/dialect/sdy/transforms/import/test/propagate_sharding_from_func_to_call.mlir
deleted file mode 100644
index cccce8f..0000000
--- a/shardy/dialect/sdy/transforms/import/test/propagate_sharding_from_func_to_call.mlir
+++ /dev/null
@@ -1,119 +0,0 @@
-// RUN: sdy_opt %s -sdy-propagate-sharding-from-func-to-call -split-input-file | FileCheck %s
-
-sdy.mesh @mesh = #sdy.mesh<["x"=2, "y"=2]>
-
-// CHECK-LABEL: func @propagate_func_to_call
-func.func @propagate_func_to_call(%arg0: tensor<8x2xi32>) -> tensor<8x2xi32> {
-  // CHECK-NEXT: %0 = call @foo(%arg0) {sdy.sharding = #sdy.sharding_per_value<[<@mesh, [{"x"}, {"y"}]>]>} : (tensor<8x2xi32>) -> tensor<8x2xi32>
-  %0 = call @foo(%arg0) : (tensor<8x2xi32>) -> tensor<8x2xi32>
-  return %0 : tensor<8x2xi32>
-}
-
-func.func private @foo(%arg0: tensor<8x2xi32>) -> (tensor<8x2xi32> {sdy.sharding = #sdy.sharding<@mesh, [{"x"}, {"y"}]>}) {
-  return %arg0 : tensor<8x2xi32>
-}
-
-// -----
-
-sdy.mesh @mesh = #sdy.mesh<["x"=2, "y"=2]>
-
-// CHECK-LABEL: func @do_not_overwrite_call_sharding
-func.func @do_not_overwrite_call_sharding(%arg0: tensor<8x2xi32>) -> tensor<8x2xi32> {
-  // CHECK-NEXT: %0 = call @foo(%arg0) {sdy.sharding = #sdy.sharding_per_value<[<@mesh, [{"y"}, {"x"}]>]>} : (tensor<8x2xi32>) -> tensor<8x2xi32>
-  %0 = call @foo(%arg0) {sdy.sharding = #sdy.sharding_per_value<[<@mesh, [{"y"}, {"x"}]>]>} : (tensor<8x2xi32>) -> tensor<8x2xi32>
-  return %0 : tensor<8x2xi32>
-}
-
-func.func private @foo(%arg0: tensor<8x2xi32>) -> (tensor<8x2xi32> {sdy.sharding = #sdy.sharding<@mesh, [{"x"}, {"y"}]>}) {
-  return %arg0 : tensor<8x2xi32>
-}
-
-// -----
-
-sdy.mesh @mesh = #sdy.mesh<["x"=2, "y"=2]>
-
-// CHECK-LABEL: func @both_call_and_func_has_empty_result_shardings
-func.func @both_call_and_func_has_empty_result_shardings(%arg0: tensor<8x2xi32>) -> tensor<8x2xi32> {
-  // CHECK-NEXT: %0 = call @foo(%arg0) : (tensor<8x2xi32>) -> tensor<8x2xi32>
-  %0 = call @foo(%arg0) : (tensor<8x2xi32>) -> tensor<8x2xi32>
-  return %0 : tensor<8x2xi32>
-}
-
-func.func private @foo(%arg0: tensor<8x2xi32>) -> tensor<8x2xi32> {
-  return %arg0 : tensor<8x2xi32>
-}
-
-// -----
-
-sdy.mesh @mesh = #sdy.mesh<["x"=2, "y"=2]>
-
-// CHECK-LABEL: func @multiple_results
-func.func @multiple_results(%arg0: tensor<8x2xi32>, %arg1: tensor<4x2xi32>) -> (tensor<8x2xi32>, tensor<4x2xi32>) {
-  // CHECK-NEXT: %0:2 = call @foo(%arg0, %arg1) {sdy.sharding = #sdy.sharding_per_value<[<@mesh, [{"x"}, {"y"}]>, <@mesh, [{"y"}, {}]>]>} : (tensor<8x2xi32>, tensor<4x2xi32>) -> (tensor<8x2xi32>, tensor<4x2xi32>)
-  %0:2 = call @foo(%arg0, %arg1) : (tensor<8x2xi32>, tensor<4x2xi32>) -> (tensor<8x2xi32>, tensor<4x2xi32>)
-  return %0#0, %0#1 : tensor<8x2xi32>, tensor<4x2xi32>
-}
-
-func.func private @foo(%arg0: tensor<8x2xi32>, %arg1: tensor<4x2xi32>) -> (tensor<8x2xi32> {sdy.sharding = #sdy.sharding<@mesh, [{"x"}, {"y"}]>}, tensor<4x2xi32> {sdy.sharding = #sdy.sharding<@mesh, [{"y"}, {}]>}) {
-  return %arg0, %arg1 : tensor<8x2xi32>, tensor<4x2xi32>
-}
-
-// -----
-
-sdy.mesh @mesh = #sdy.mesh<["x"=2, "y"=2]>
-
-// CHECK-LABEL: func @keep_empty_call_sharding
-func.func @keep_empty_call_sharding(%arg0: tensor<8x2xi32>) -> tensor<8x2xi32> {
-  // CHECK-NEXT: %0 = call @foo(%arg0) {sdy.sharding = #sdy.sharding_per_value<[<@mesh, [{}, {}]>]>} : (tensor<8x2xi32>) -> tensor<8x2xi32>
-  %0 = call @foo(%arg0) {sdy.sharding = #sdy.sharding_per_value<[<@mesh, [{}, {}]>]>} : (tensor<8x2xi32>) -> tensor<8x2xi32>
-  return %0 : tensor<8x2xi32>
-}
-
-func.func private @foo(%arg0: tensor<8x2xi32>) -> (tensor<8x2xi32> {sdy.sharding = #sdy.sharding<@mesh, [{"x"}, {"y"}]>}) {
-  return %arg0 : tensor<8x2xi32>
-}
-
-// -----
-
-sdy.mesh @mesh = #sdy.mesh<["x"=2, "y"=2]>
-
-// CHECK-LABEL: func @multiple_results_one_same_one_is_empty
-func.func @multiple_results_one_same_one_is_empty(%arg0: tensor<8x2xi32>, %arg1: tensor<4x2xi32>) -> (tensor<8x2xi32>, tensor<4x2xi32>) {
-  // CHECK-NEXT: %0:2 = call @foo(%arg0, %arg1) {sdy.sharding = #sdy.sharding_per_value<[<@mesh, [{"x"}, {"y"}]>, <@mesh, [{}, {}]>]>} : (tensor<8x2xi32>, tensor<4x2xi32>) -> (tensor<8x2xi32>, tensor<4x2xi32>)
-  %0:2 = call @foo(%arg0, %arg1) {sdy.sharding = #sdy.sharding_per_value<[<@mesh, [{"x"}, {"y"}]>, <@mesh, [{}, {}]>]>} : (tensor<8x2xi32>, tensor<4x2xi32>) -> (tensor<8x2xi32>, tensor<4x2xi32>)
-  return %0#0, %0#1 : tensor<8x2xi32>, tensor<4x2xi32>
-}
-
-func.func private @foo(%arg0: tensor<8x2xi32>, %arg1: tensor<4x2xi32>) -> (tensor<8x2xi32> {sdy.sharding = #sdy.sharding<@mesh, [{"x"}, {"y"}]>}, tensor<4x2xi32> {sdy.sharding = #sdy.sharding<@mesh, [{"y"}, {}]>}) {
-  return %arg0, %arg1 : tensor<8x2xi32>, tensor<4x2xi32>
-}
-
-// -----
-
-sdy.mesh @mesh = #sdy.mesh<["x"=2, "y"=2]>
-
-// CHECK-LABEL: func @multiple_results_one_different_one_is_empty
-func.func @multiple_results_one_different_one_is_empty(%arg0: tensor<8x2xi32>, %arg1: tensor<4x2xi32>) -> (tensor<8x2xi32>, tensor<4x2xi32>) {
-  // CHECK-NEXT: %0:2 = call @foo(%arg0, %arg1) {sdy.sharding = #sdy.sharding_per_value<[<@mesh, [{"y"}, {"x"}]>, <@mesh, [{}, {}]>]>} : (tensor<8x2xi32>, tensor<4x2xi32>) -> (tensor<8x2xi32>, tensor<4x2xi32>)
-  %0:2 = call @foo(%arg0, %arg1) {sdy.sharding = #sdy.sharding_per_value<[<@mesh, [{"y"}, {"x"}]>, <@mesh, [{}, {}]>]>} : (tensor<8x2xi32>, tensor<4x2xi32>) -> (tensor<8x2xi32>, tensor<4x2xi32>)
-  return %0#0, %0#1 : tensor<8x2xi32>, tensor<4x2xi32>
-}
-
-func.func private @foo(%arg0: tensor<8x2xi32>, %arg1: tensor<4x2xi32>) -> (tensor<8x2xi32> {sdy.sharding = #sdy.sharding<@mesh, [{"x"}, {"y"}]>}, tensor<4x2xi32> {sdy.sharding = #sdy.sharding<@mesh, [{"y"}, {}]>}) {
-  return %arg0, %arg1 : tensor<8x2xi32>, tensor<4x2xi32>
-}
-
-// -----
-
-sdy.mesh @mesh = #sdy.mesh<["x"=2, "y"=2]>
-
-// CHECK-LABEL: func @multiple_results_call_no_sharding_func_has_sharding_on_one_no_sharding_on_the_other
-func.func @multiple_results_call_no_sharding_func_has_sharding_on_one_no_sharding_on_the_other(%arg0: tensor<8x2xi32>, %arg1: tensor<4x2xi32>) -> (tensor<8x2xi32>, tensor<4x2xi32>) {
-  // CHECK-NEXT: %0:2 = call @foo(%arg0, %arg1) {sdy.sharding = #sdy.sharding_per_value<[<@mesh, [{"x"}, {"y"}]>, <@mesh, [{?}, {?}]>]>} : (tensor<8x2xi32>, tensor<4x2xi32>) -> (tensor<8x2xi32>, tensor<4x2xi32>)
-  %0:2 = call @foo(%arg0, %arg1) : (tensor<8x2xi32>, tensor<4x2xi32>) -> (tensor<8x2xi32>, tensor<4x2xi32>)
-  return %0#0, %0#1 : tensor<8x2xi32>, tensor<4x2xi32>
-}
-
-func.func private @foo(%arg0: tensor<8x2xi32>, %arg1: tensor<4x2xi32>) -> (tensor<8x2xi32> {sdy.sharding = #sdy.sharding<@mesh, [{"x"}, {"y"}]>}, tensor<4x2xi32>) {
-  return %arg0, %arg1 : tensor<8x2xi32>, tensor<4x2xi32>
-}
diff --git a/third_party/llvm/generated.patch b/third_party/llvm/generated.patch
index 509398d..c6a2aaa 100644
--- a/third_party/llvm/generated.patch
+++ b/third_party/llvm/generated.patch
@@ -1 +1,293 @@
 Auto generated patch. Do not edit or delete it, even if empty.
+diff -ruN --strip-trailing-cr a/llvm/lib/Transforms/Vectorize/VPlanTransforms.cpp b/llvm/lib/Transforms/Vectorize/VPlanTransforms.cpp
+--- a/llvm/lib/Transforms/Vectorize/VPlanTransforms.cpp
++++ b/llvm/lib/Transforms/Vectorize/VPlanTransforms.cpp
+@@ -5882,21 +5882,26 @@
+         BackedgeVal,
+         match_fn(m_VPInstruction<VPInstruction::ComputeReductionResult>())));
+ 
+-    // If IV is an expression to sink, create a new select that tracks the
+-    // underlying IV directly and update the backedge value.
+-    if (IVOfExpressionToSink) {
+-      auto *OrigFindLastSelectR = FindLastSelect->getDefiningRecipe();
+-      VPBuilder LoopBuilder(OrigFindLastSelectR);
+-      DebugLoc DL = OrigFindLastSelectR->getDebugLoc();
+-      VPValue *SelectCond = OrigFindLastSelectR->getOperand(0);
+-      if (OrigFindLastSelectR->getOperand(1) == PhiR) {
+-        FindLastSelect = LoopBuilder.createSelect(SelectCond, PhiR,
+-                                                  IVOfExpressionToSink, DL);
+-      } else {
+-        assert(OrigFindLastSelectR->getOperand(2) == PhiR &&
+-               "PhiR expected as operand 1 or 2");
+-        FindLastSelect = LoopBuilder.createSelect(
+-            SelectCond, IVOfExpressionToSink, PhiR, DL);
++    VPValue *NewFindLastSelect = BackedgeVal;
++    VPValue *SelectCond = Cond;
++    if (!SentinelVal || IVOfExpressionToSink) {
++      // When we need to create a new select, normalize the condition so that
++      // PhiR is the last operand and include the header mask if needed.
++      DebugLoc DL = FindLastSelect->getDefiningRecipe()->getDebugLoc();
++      VPBuilder LoopBuilder(FindLastSelect->getDefiningRecipe());
++      if (FindLastSelect->getDefiningRecipe()->getOperand(1) == PhiR)
++        SelectCond = LoopBuilder.createNot(SelectCond);
++
++      // When tail folding, mask the condition with the header mask to prevent
++      // propagating poison from inactive lanes in the last vector iteration.
++      if (HeaderMask)
++        SelectCond = LoopBuilder.createLogicalAnd(HeaderMask, SelectCond);
++
++      if (SelectCond != Cond || IVOfExpressionToSink) {
++        NewFindLastSelect = LoopBuilder.createSelect(
++            SelectCond,
++            IVOfExpressionToSink ? IVOfExpressionToSink : FindLastExpression,
++            PhiR, DL);
+       }
+     }
+ 
+@@ -5908,8 +5913,9 @@
+                     FastMathFlags());
+     DebugLoc ExitDL = RdxResult->getDebugLoc();
+     VPBuilder MiddleBuilder(RdxResult);
+-    VPValue *ReducedIV = MiddleBuilder.createNaryOp(
+-        VPInstruction::ComputeReductionResult, FindLastSelect, Flags, ExitDL);
++    VPValue *ReducedIV =
++        MiddleBuilder.createNaryOp(VPInstruction::ComputeReductionResult,
++                                   NewFindLastSelect, Flags, ExitDL);
+ 
+     // If IVOfExpressionToSink is an expression to sink, sink it now.
+     VPValue *VectorRegionExitingVal = ReducedIV;
+@@ -5939,10 +5945,7 @@
+       AnyOfPhi->insertAfter(PhiR);
+ 
+       VPBuilder LoopBuilder(BackedgeVal->getDefiningRecipe());
+-      VPValue *AnyOfCond = Cond;
+-      if (FindLastSelect->getOperand(1) == PhiR)
+-        AnyOfCond = LoopBuilder.createNot(Cond);
+-      VPValue *OrVal = LoopBuilder.createOr(AnyOfPhi, AnyOfCond);
++      VPValue *OrVal = LoopBuilder.createOr(AnyOfPhi, SelectCond);
+       AnyOfPhi->setOperand(1, OrVal);
+ 
+       VPIRFlags OrFlags(RecurKind::Or, /*IsOrdered=*/false,
+@@ -5963,7 +5966,7 @@
+ 
+     auto *NewPhiR = new VPReductionPHIRecipe(
+         cast<PHINode>(PhiR->getUnderlyingInstr()), RecurKind::FindIV, *StartVPV,
+-        *FindLastSelect, RdxUnordered{1}, {},
++        *NewFindLastSelect, RdxUnordered{1}, {},
+         PhiR->hasUsesOutsideReductionChain());
+     NewPhiR->insertBefore(PhiR);
+     PhiR->replaceAllUsesWith(NewPhiR);
+diff -ruN --strip-trailing-cr a/llvm/test/Transforms/LoopVectorize/find-last-iv-sinkable-expr.ll b/llvm/test/Transforms/LoopVectorize/find-last-iv-sinkable-expr.ll
+--- a/llvm/test/Transforms/LoopVectorize/find-last-iv-sinkable-expr.ll
++++ b/llvm/test/Transforms/LoopVectorize/find-last-iv-sinkable-expr.ll
+@@ -73,7 +73,8 @@
+ ; TF-NEXT:    [[TMP1:%.*]] = getelementptr inbounds i64, ptr [[A]], i64 [[INDEX]]
+ ; TF-NEXT:    [[WIDE_MASKED_LOAD:%.*]] = call <4 x i64> @llvm.masked.load.v4i64.p0(ptr align 8 [[TMP1]], <4 x i1> [[TMP0]], <4 x i64> poison)
+ ; TF-NEXT:    [[TMP2:%.*]] = icmp eq <4 x i64> [[WIDE_MASKED_LOAD]], splat (i64 42)
+-; TF-NEXT:    [[TMP3]] = select <4 x i1> [[TMP2]], <4 x i64> [[VEC_IND]], <4 x i64> [[VEC_PHI]]
++; TF-NEXT:    [[TMP9:%.*]] = select <4 x i1> [[TMP0]], <4 x i1> [[TMP2]], <4 x i1> zeroinitializer
++; TF-NEXT:    [[TMP3]] = select <4 x i1> [[TMP9]], <4 x i64> [[VEC_IND]], <4 x i64> [[VEC_PHI]]
+ ; TF-NEXT:    [[INDEX_NEXT]] = add i64 [[INDEX]], 4
+ ; TF-NEXT:    [[VEC_IND_NEXT]] = add <4 x i64> [[VEC_IND]], splat (i64 4)
+ ; TF-NEXT:    [[TMP4:%.*]] = icmp eq i64 [[INDEX_NEXT]], [[N_VEC]]
+@@ -174,7 +175,8 @@
+ ; TF-NEXT:    [[TMP1:%.*]] = getelementptr inbounds i64, ptr [[A]], i64 [[INDEX]]
+ ; TF-NEXT:    [[WIDE_MASKED_LOAD:%.*]] = call <4 x i64> @llvm.masked.load.v4i64.p0(ptr align 8 [[TMP1]], <4 x i1> [[TMP0]], <4 x i64> poison)
+ ; TF-NEXT:    [[TMP2:%.*]] = icmp eq <4 x i64> [[WIDE_MASKED_LOAD]], splat (i64 42)
+-; TF-NEXT:    [[TMP3]] = select <4 x i1> [[TMP2]], <4 x i64> [[VEC_IND]], <4 x i64> [[VEC_PHI]]
++; TF-NEXT:    [[TMP9:%.*]] = select <4 x i1> [[TMP0]], <4 x i1> [[TMP2]], <4 x i1> zeroinitializer
++; TF-NEXT:    [[TMP3]] = select <4 x i1> [[TMP9]], <4 x i64> [[VEC_IND]], <4 x i64> [[VEC_PHI]]
+ ; TF-NEXT:    [[INDEX_NEXT]] = add i64 [[INDEX]], 4
+ ; TF-NEXT:    [[VEC_IND_NEXT]] = add <4 x i64> [[VEC_IND]], splat (i64 4)
+ ; TF-NEXT:    [[TMP4:%.*]] = icmp eq i64 [[INDEX_NEXT]], [[N_VEC]]
+@@ -392,7 +394,8 @@
+ ; TF-NEXT:    [[TMP1:%.*]] = getelementptr inbounds i64, ptr [[A]], i64 [[INDEX]]
+ ; TF-NEXT:    [[WIDE_MASKED_LOAD:%.*]] = call <4 x i64> @llvm.masked.load.v4i64.p0(ptr align 8 [[TMP1]], <4 x i1> [[TMP0]], <4 x i64> poison)
+ ; TF-NEXT:    [[TMP2:%.*]] = icmp eq <4 x i64> [[WIDE_MASKED_LOAD]], splat (i64 42)
+-; TF-NEXT:    [[TMP3]] = select <4 x i1> [[TMP2]], <4 x i64> [[VEC_IND]], <4 x i64> [[VEC_PHI]]
++; TF-NEXT:    [[TMP9:%.*]] = select <4 x i1> [[TMP0]], <4 x i1> [[TMP2]], <4 x i1> zeroinitializer
++; TF-NEXT:    [[TMP3]] = select <4 x i1> [[TMP9]], <4 x i64> [[VEC_IND]], <4 x i64> [[VEC_PHI]]
+ ; TF-NEXT:    [[INDEX_NEXT]] = add i64 [[INDEX]], 4
+ ; TF-NEXT:    [[VEC_IND_NEXT]] = add <4 x i64> [[VEC_IND]], splat (i64 4)
+ ; TF-NEXT:    [[TMP4:%.*]] = icmp eq i64 [[INDEX_NEXT]], [[N_VEC]]
+@@ -513,7 +516,7 @@
+ ; TF:       [[VECTOR_BODY]]:
+ ; TF-NEXT:    [[INDEX:%.*]] = phi i64 [ 0, %[[VECTOR_PH]] ], [ [[INDEX_NEXT:%.*]], %[[PRED_LOAD_CONTINUE8:.*]] ]
+ ; TF-NEXT:    [[VEC_IND:%.*]] = phi <4 x i64> [ <i64 10, i64 12, i64 14, i64 16>, %[[VECTOR_PH]] ], [ [[VEC_IND_NEXT:%.*]], %[[PRED_LOAD_CONTINUE8]] ]
+-; TF-NEXT:    [[VEC_PHI:%.*]] = phi <4 x i64> [ zeroinitializer, %[[VECTOR_PH]] ], [ [[TMP31:%.*]], %[[PRED_LOAD_CONTINUE8]] ]
++; TF-NEXT:    [[VEC_PHI:%.*]] = phi <4 x i64> [ zeroinitializer, %[[VECTOR_PH]] ], [ [[TMP36:%.*]], %[[PRED_LOAD_CONTINUE8]] ]
+ ; TF-NEXT:    [[TMP3:%.*]] = mul i64 [[INDEX]], 2
+ ; TF-NEXT:    [[OFFSET_IDX:%.*]] = add i64 10, [[TMP3]]
+ ; TF-NEXT:    [[BROADCAST_SPLATINSERT1:%.*]] = insertelement <4 x i64> poison, i64 [[INDEX]], i64 0
+@@ -562,13 +565,14 @@
+ ; TF-NEXT:    [[TMP28:%.*]] = phi <4 x i64> [ [[TMP22]], %[[PRED_LOAD_CONTINUE6]] ], [ [[TMP27]], %[[PRED_LOAD_IF7]] ]
+ ; TF-NEXT:    [[TMP29:%.*]] = icmp eq <4 x i64> [[TMP28]], splat (i64 42)
+ ; TF-NEXT:    [[TMP30:%.*]] = add <4 x i64> [[VEC_IND]], splat (i64 100)
+-; TF-NEXT:    [[TMP31]] = select <4 x i1> [[TMP29]], <4 x i64> [[TMP30]], <4 x i64> [[VEC_PHI]]
++; TF-NEXT:    [[TMP31:%.*]] = select <4 x i1> [[TMP29]], <4 x i64> [[TMP30]], <4 x i64> [[VEC_PHI]]
++; TF-NEXT:    [[TMP36]] = select <4 x i1> [[TMP4]], <4 x i64> [[TMP31]], <4 x i64> [[VEC_PHI]]
+ ; TF-NEXT:    [[INDEX_NEXT]] = add i64 [[INDEX]], 4
+ ; TF-NEXT:    [[VEC_IND_NEXT]] = add nuw nsw <4 x i64> [[VEC_IND]], splat (i64 8)
+ ; TF-NEXT:    [[TMP32:%.*]] = icmp eq i64 [[INDEX_NEXT]], [[N_VEC]]
+ ; TF-NEXT:    br i1 [[TMP32]], label %[[MIDDLE_BLOCK:.*]], label %[[VECTOR_BODY]], !llvm.loop [[LOOP6:![0-9]+]]
+ ; TF:       [[MIDDLE_BLOCK]]:
+-; TF-NEXT:    [[TMP33:%.*]] = call i64 @llvm.vector.reduce.umax.v4i64(<4 x i64> [[TMP31]])
++; TF-NEXT:    [[TMP33:%.*]] = call i64 @llvm.vector.reduce.umax.v4i64(<4 x i64> [[TMP36]])
+ ; TF-NEXT:    [[TMP34:%.*]] = icmp ne i64 [[TMP33]], 0
+ ; TF-NEXT:    [[TMP35:%.*]] = select i1 [[TMP34]], i64 [[TMP33]], i64 -1
+ ; TF-NEXT:    br label %[[DONE:.*]]
+@@ -1213,7 +1217,8 @@
+ ; TF-NEXT:    [[TMP7:%.*]] = getelementptr i64, ptr [[TMP6]], i64 -3
+ ; TF-NEXT:    [[WIDE_MASKED_LOAD8:%.*]] = call <4 x i64> @llvm.masked.load.v4i64.p0(ptr align 8 [[TMP7]], <4 x i1> [[REVERSE]], <4 x i64> poison)
+ ; TF-NEXT:    [[REVERSE9:%.*]] = shufflevector <4 x i64> [[WIDE_MASKED_LOAD8]], <4 x i64> poison, <4 x i32> <i32 3, i32 2, i32 1, i32 0>
+-; TF-NEXT:    [[TMP8:%.*]] = icmp sle <4 x i64> [[REVERSE6]], [[REVERSE9]]
++; TF-NEXT:    [[TMP16:%.*]] = icmp sle <4 x i64> [[REVERSE6]], [[REVERSE9]]
++; TF-NEXT:    [[TMP8:%.*]] = select <4 x i1> [[TMP2]], <4 x i1> [[TMP16]], <4 x i1> zeroinitializer
+ ; TF-NEXT:    [[TMP9]] = select <4 x i1> [[TMP8]], <4 x i64> [[VEC_IND]], <4 x i64> [[VEC_PHI]]
+ ; TF-NEXT:    [[TMP10]] = or <4 x i1> [[VEC_PHI3]], [[TMP8]]
+ ; TF-NEXT:    [[INDEX_NEXT]] = add i64 [[INDEX]], 4
+@@ -1321,7 +1326,8 @@
+ ; TF-NEXT:    [[TMP1:%.*]] = getelementptr inbounds i64, ptr [[A]], i64 [[INDEX]]
+ ; TF-NEXT:    [[WIDE_MASKED_LOAD:%.*]] = call <4 x i64> @llvm.masked.load.v4i64.p0(ptr align 8 [[TMP1]], <4 x i1> [[TMP0]], <4 x i64> poison)
+ ; TF-NEXT:    [[TMP2:%.*]] = icmp eq <4 x i64> [[WIDE_MASKED_LOAD]], splat (i64 42)
+-; TF-NEXT:    [[TMP3]] = select <4 x i1> [[TMP2]], <4 x i64> [[VEC_IND]], <4 x i64> [[VEC_PHI]]
++; TF-NEXT:    [[TMP9:%.*]] = select <4 x i1> [[TMP0]], <4 x i1> [[TMP2]], <4 x i1> zeroinitializer
++; TF-NEXT:    [[TMP3]] = select <4 x i1> [[TMP9]], <4 x i64> [[VEC_IND]], <4 x i64> [[VEC_PHI]]
+ ; TF-NEXT:    [[INDEX_NEXT]] = add i64 [[INDEX]], 4
+ ; TF-NEXT:    [[VEC_IND_NEXT]] = add <4 x i64> [[VEC_IND]], splat (i64 4)
+ ; TF-NEXT:    [[TMP4:%.*]] = icmp eq i64 [[INDEX_NEXT]], [[N_VEC]]
+@@ -1424,7 +1430,8 @@
+ ; TF-NEXT:    [[TMP1:%.*]] = getelementptr inbounds i64, ptr [[A]], i64 [[INDEX]]
+ ; TF-NEXT:    [[WIDE_MASKED_LOAD:%.*]] = call <4 x i64> @llvm.masked.load.v4i64.p0(ptr align 8 [[TMP1]], <4 x i1> [[TMP0]], <4 x i64> poison)
+ ; TF-NEXT:    [[TMP2:%.*]] = icmp eq <4 x i64> [[WIDE_MASKED_LOAD]], splat (i64 42)
+-; TF-NEXT:    [[TMP3]] = select <4 x i1> [[TMP2]], <4 x i64> [[VEC_IND]], <4 x i64> [[VEC_PHI]]
++; TF-NEXT:    [[TMP9:%.*]] = select <4 x i1> [[TMP0]], <4 x i1> [[TMP2]], <4 x i1> zeroinitializer
++; TF-NEXT:    [[TMP3]] = select <4 x i1> [[TMP9]], <4 x i64> [[VEC_IND]], <4 x i64> [[VEC_PHI]]
+ ; TF-NEXT:    [[INDEX_NEXT]] = add i64 [[INDEX]], 4
+ ; TF-NEXT:    [[VEC_IND_NEXT]] = add <4 x i64> [[VEC_IND]], splat (i64 4)
+ ; TF-NEXT:    [[TMP4:%.*]] = icmp eq i64 [[INDEX_NEXT]], [[N_VEC]]
+diff -ruN --strip-trailing-cr a/llvm/test/Transforms/LoopVectorize/iv-select-cmp-decreasing.ll b/llvm/test/Transforms/LoopVectorize/iv-select-cmp-decreasing.ll
+--- a/llvm/test/Transforms/LoopVectorize/iv-select-cmp-decreasing.ll
++++ b/llvm/test/Transforms/LoopVectorize/iv-select-cmp-decreasing.ll
+@@ -330,11 +330,15 @@
+ ; IC4VF4-NEXT:    [[TMP77:%.*]] = select <4 x i1> [[TMP101]], <4 x i16> <i16 7, i16 6, i16 5, i16 4>, <4 x i16> splat (i16 32767)
+ ; IC4VF4-NEXT:    [[TMP70:%.*]] = select <4 x i1> [[TMP102]], <4 x i16> <i16 3, i16 2, i16 1, i16 0>, <4 x i16> splat (i16 32767)
+ ; IC4VF4-NEXT:    [[TMP71:%.*]] = select <4 x i1> [[TMP103]], <4 x i16> <i16 -1, i16 -2, i16 -3, i16 -4>, <4 x i16> splat (i16 32767)
++; IC4VF4-NEXT:    [[TMP82:%.*]] = select <4 x i1> splat (i1 true), <4 x i16> [[TMP76]], <4 x i16> splat (i16 32767)
++; IC4VF4-NEXT:    [[TMP83:%.*]] = select <4 x i1> splat (i1 true), <4 x i16> [[TMP77]], <4 x i16> splat (i16 32767)
++; IC4VF4-NEXT:    [[TMP88:%.*]] = select <4 x i1> splat (i1 true), <4 x i16> [[TMP70]], <4 x i16> splat (i16 32767)
++; IC4VF4-NEXT:    [[TMP89:%.*]] = select <4 x i1> zeroinitializer, <4 x i16> [[TMP71]], <4 x i16> splat (i16 32767)
+ ; IC4VF4-NEXT:    br label %[[MIDDLE_BLOCK:.*]]
+ ; IC4VF4:       [[MIDDLE_BLOCK]]:
+-; IC4VF4-NEXT:    [[RDX_MINMAX:%.*]] = call <4 x i16> @llvm.smin.v4i16(<4 x i16> [[TMP76]], <4 x i16> [[TMP77]])
+-; IC4VF4-NEXT:    [[RDX_MINMAX45:%.*]] = call <4 x i16> @llvm.smin.v4i16(<4 x i16> [[RDX_MINMAX]], <4 x i16> [[TMP70]])
+-; IC4VF4-NEXT:    [[RDX_MINMAX46:%.*]] = call <4 x i16> @llvm.smin.v4i16(<4 x i16> [[RDX_MINMAX45]], <4 x i16> [[TMP71]])
++; IC4VF4-NEXT:    [[RDX_MINMAX:%.*]] = call <4 x i16> @llvm.smin.v4i16(<4 x i16> [[TMP82]], <4 x i16> [[TMP83]])
++; IC4VF4-NEXT:    [[RDX_MINMAX31:%.*]] = call <4 x i16> @llvm.smin.v4i16(<4 x i16> [[RDX_MINMAX]], <4 x i16> [[TMP88]])
++; IC4VF4-NEXT:    [[RDX_MINMAX46:%.*]] = call <4 x i16> @llvm.smin.v4i16(<4 x i16> [[RDX_MINMAX31]], <4 x i16> [[TMP89]])
+ ; IC4VF4-NEXT:    [[TMP116:%.*]] = call i16 @llvm.vector.reduce.smin.v4i16(<4 x i16> [[RDX_MINMAX46]])
+ ; IC4VF4-NEXT:    [[RDX_SELECT_CMP:%.*]] = icmp ne i16 [[TMP116]], 32767
+ ; IC4VF4-NEXT:    [[RDX_SELECT:%.*]] = select i1 [[RDX_SELECT_CMP]], i16 [[TMP116]], i16 0
+@@ -592,11 +596,15 @@
+ ; IC4VF4-NEXT:    [[TMP77:%.*]] = select <4 x i1> [[TMP101]], <4 x i16> <i16 7, i16 6, i16 5, i16 4>, <4 x i16> splat (i16 32767)
+ ; IC4VF4-NEXT:    [[TMP70:%.*]] = select <4 x i1> [[TMP102]], <4 x i16> <i16 3, i16 2, i16 1, i16 0>, <4 x i16> splat (i16 32767)
+ ; IC4VF4-NEXT:    [[TMP71:%.*]] = select <4 x i1> [[TMP103]], <4 x i16> <i16 -1, i16 -2, i16 -3, i16 -4>, <4 x i16> splat (i16 32767)
++; IC4VF4-NEXT:    [[TMP82:%.*]] = select <4 x i1> splat (i1 true), <4 x i16> [[TMP76]], <4 x i16> splat (i16 32767)
++; IC4VF4-NEXT:    [[TMP83:%.*]] = select <4 x i1> splat (i1 true), <4 x i16> [[TMP77]], <4 x i16> splat (i16 32767)
++; IC4VF4-NEXT:    [[TMP88:%.*]] = select <4 x i1> splat (i1 true), <4 x i16> [[TMP70]], <4 x i16> splat (i16 32767)
++; IC4VF4-NEXT:    [[TMP89:%.*]] = select <4 x i1> zeroinitializer, <4 x i16> [[TMP71]], <4 x i16> splat (i16 32767)
+ ; IC4VF4-NEXT:    br label %[[MIDDLE_BLOCK:.*]]
+ ; IC4VF4:       [[MIDDLE_BLOCK]]:
+-; IC4VF4-NEXT:    [[RDX_MINMAX:%.*]] = call <4 x i16> @llvm.smin.v4i16(<4 x i16> [[TMP76]], <4 x i16> [[TMP77]])
+-; IC4VF4-NEXT:    [[RDX_MINMAX45:%.*]] = call <4 x i16> @llvm.smin.v4i16(<4 x i16> [[RDX_MINMAX]], <4 x i16> [[TMP70]])
+-; IC4VF4-NEXT:    [[RDX_MINMAX46:%.*]] = call <4 x i16> @llvm.smin.v4i16(<4 x i16> [[RDX_MINMAX45]], <4 x i16> [[TMP71]])
++; IC4VF4-NEXT:    [[RDX_MINMAX:%.*]] = call <4 x i16> @llvm.smin.v4i16(<4 x i16> [[TMP82]], <4 x i16> [[TMP83]])
++; IC4VF4-NEXT:    [[RDX_MINMAX31:%.*]] = call <4 x i16> @llvm.smin.v4i16(<4 x i16> [[RDX_MINMAX]], <4 x i16> [[TMP88]])
++; IC4VF4-NEXT:    [[RDX_MINMAX46:%.*]] = call <4 x i16> @llvm.smin.v4i16(<4 x i16> [[RDX_MINMAX31]], <4 x i16> [[TMP89]])
+ ; IC4VF4-NEXT:    [[TMP116:%.*]] = call i16 @llvm.vector.reduce.smin.v4i16(<4 x i16> [[RDX_MINMAX46]])
+ ; IC4VF4-NEXT:    [[RDX_SELECT_CMP:%.*]] = icmp ne i16 [[TMP116]], 32767
+ ; IC4VF4-NEXT:    [[RDX_SELECT:%.*]] = select i1 [[RDX_SELECT_CMP]], i16 [[TMP116]], i16 0
+diff -ruN --strip-trailing-cr a/llvm/test/Transforms/LoopVectorize/iv-select-cmp-fold-tail.ll b/llvm/test/Transforms/LoopVectorize/iv-select-cmp-fold-tail.ll
+--- a/llvm/test/Transforms/LoopVectorize/iv-select-cmp-fold-tail.ll
++++ b/llvm/test/Transforms/LoopVectorize/iv-select-cmp-fold-tail.ll
+@@ -59,3 +59,80 @@
+ exit:
+   ret i32 %rdx.next
+ }
++
++define i64 @select_decreasing_induction_icmp_non_const_start(ptr %a, ptr %b, i64 %rdx.start, i64 %n) {
++; CHECK-LABEL: define i64 @select_decreasing_induction_icmp_non_const_start(
++; CHECK-SAME: ptr [[A:%.*]], ptr [[B:%.*]], i64 [[RDX_START:%.*]], i64 [[N:%.*]]) {
++; CHECK-NEXT:  [[ENTRY:.*:]]
++; CHECK-NEXT:    [[TMP0:%.*]] = add i64 [[N]], 1
++; CHECK-NEXT:    [[UMIN:%.*]] = call i64 @llvm.umin.i64(i64 [[N]], i64 1)
++; CHECK-NEXT:    [[TMP1:%.*]] = sub i64 [[TMP0]], [[UMIN]]
++; CHECK-NEXT:    br label %[[VECTOR_PH:.*]]
++; CHECK:       [[VECTOR_PH]]:
++; CHECK-NEXT:    [[N_RND_UP:%.*]] = add i64 [[TMP1]], 3
++; CHECK-NEXT:    [[N_MOD_VF:%.*]] = urem i64 [[N_RND_UP]], 4
++; CHECK-NEXT:    [[N_VEC:%.*]] = sub i64 [[N_RND_UP]], [[N_MOD_VF]]
++; CHECK-NEXT:    [[TRIP_COUNT_MINUS_1:%.*]] = sub i64 [[TMP1]], 1
++; CHECK-NEXT:    [[BROADCAST_SPLATINSERT:%.*]] = insertelement <4 x i64> poison, i64 [[TRIP_COUNT_MINUS_1]], i64 0
++; CHECK-NEXT:    [[BROADCAST_SPLAT:%.*]] = shufflevector <4 x i64> [[BROADCAST_SPLATINSERT]], <4 x i64> poison, <4 x i32> zeroinitializer
++; CHECK-NEXT:    [[BROADCAST_SPLATINSERT1:%.*]] = insertelement <4 x i64> poison, i64 [[N]], i64 0
++; CHECK-NEXT:    [[BROADCAST_SPLAT2:%.*]] = shufflevector <4 x i64> [[BROADCAST_SPLATINSERT1]], <4 x i64> poison, <4 x i32> zeroinitializer
++; CHECK-NEXT:    [[INDUCTION:%.*]] = add nsw <4 x i64> [[BROADCAST_SPLAT2]], <i64 0, i64 -1, i64 -2, i64 -3>
++; CHECK-NEXT:    br label %[[VECTOR_BODY:.*]]
++; CHECK:       [[VECTOR_BODY]]:
++; CHECK-NEXT:    [[INDEX:%.*]] = phi i64 [ 0, %[[VECTOR_PH]] ], [ [[INDEX_NEXT:%.*]], %[[VECTOR_BODY]] ]
++; CHECK-NEXT:    [[VEC_IND:%.*]] = phi <4 x i64> [ [[INDUCTION]], %[[VECTOR_PH]] ], [ [[VEC_IND_NEXT:%.*]], %[[VECTOR_BODY]] ]
++; CHECK-NEXT:    [[VEC_PHI:%.*]] = phi <4 x i64> [ splat (i64 9223372036854775807), %[[VECTOR_PH]] ], [ [[TMP52:%.*]], %[[VECTOR_BODY]] ]
++; CHECK-NEXT:    [[VEC_PHI3:%.*]] = phi <4 x i1> [ zeroinitializer, %[[VECTOR_PH]] ], [ [[TMP50:%.*]], %[[VECTOR_BODY]] ]
++; CHECK-NEXT:    [[OFFSET_IDX:%.*]] = sub i64 [[N]], [[INDEX]]
++; CHECK-NEXT:    [[BROADCAST_SPLATINSERT4:%.*]] = insertelement <4 x i64> poison, i64 [[INDEX]], i64 0
++; CHECK-NEXT:    [[BROADCAST_SPLAT5:%.*]] = shufflevector <4 x i64> [[BROADCAST_SPLATINSERT4]], <4 x i64> poison, <4 x i32> zeroinitializer
++; CHECK-NEXT:    [[VEC_IV:%.*]] = add <4 x i64> [[BROADCAST_SPLAT5]], <i64 0, i64 1, i64 2, i64 3>
++; CHECK-NEXT:    [[TMP2:%.*]] = icmp ule <4 x i64> [[VEC_IV]], [[BROADCAST_SPLAT]]
++; CHECK-NEXT:    [[TMP38:%.*]] = add nsw i64 [[OFFSET_IDX]], -1
++; CHECK-NEXT:    [[TMP39:%.*]] = getelementptr inbounds i64, ptr [[A]], i64 [[TMP38]]
++; CHECK-NEXT:    [[TMP5:%.*]] = getelementptr i64, ptr [[TMP39]], i64 -3
++; CHECK-NEXT:    [[REVERSE:%.*]] = shufflevector <4 x i1> [[TMP2]], <4 x i1> poison, <4 x i32> <i32 3, i32 2, i32 1, i32 0>
++; CHECK-NEXT:    [[WIDE_MASKED_LOAD:%.*]] = call <4 x i64> @llvm.masked.load.v4i64.p0(ptr align 8 [[TMP5]], <4 x i1> [[REVERSE]], <4 x i64> poison)
++; CHECK-NEXT:    [[TMP46:%.*]] = shufflevector <4 x i64> [[WIDE_MASKED_LOAD]], <4 x i64> poison, <4 x i32> <i32 3, i32 2, i32 1, i32 0>
++; CHECK-NEXT:    [[TMP6:%.*]] = getelementptr inbounds i64, ptr [[B]], i64 [[TMP38]]
++; CHECK-NEXT:    [[TMP7:%.*]] = getelementptr i64, ptr [[TMP6]], i64 -3
++; CHECK-NEXT:    [[WIDE_MASKED_LOAD8:%.*]] = call <4 x i64> @llvm.masked.load.v4i64.p0(ptr align 8 [[TMP7]], <4 x i1> [[REVERSE]], <4 x i64> poison)
++; CHECK-NEXT:    [[TMP47:%.*]] = shufflevector <4 x i64> [[WIDE_MASKED_LOAD8]], <4 x i64> poison, <4 x i32> <i32 3, i32 2, i32 1, i32 0>
++; CHECK-NEXT:    [[TMP48:%.*]] = icmp sgt <4 x i64> [[TMP46]], [[TMP47]]
++; CHECK-NEXT:    [[TMP49:%.*]] = select <4 x i1> [[TMP2]], <4 x i1> [[TMP48]], <4 x i1> zeroinitializer
++; CHECK-NEXT:    [[TMP52]] = select <4 x i1> [[TMP49]], <4 x i64> [[VEC_IND]], <4 x i64> [[VEC_PHI]]
++; CHECK-NEXT:    [[TMP50]] = or <4 x i1> [[VEC_PHI3]], [[TMP49]]
++; CHECK-NEXT:    [[INDEX_NEXT]] = add i64 [[INDEX]], 4
++; CHECK-NEXT:    [[VEC_IND_NEXT]] = add nsw <4 x i64> [[VEC_IND]], splat (i64 -4)
++; CHECK-NEXT:    [[TMP51:%.*]] = icmp eq i64 [[INDEX_NEXT]], [[N_VEC]]
++; CHECK-NEXT:    br i1 [[TMP51]], label %[[MIDDLE_BLOCK:.*]], label %[[VECTOR_BODY]], !llvm.loop [[LOOP3:![0-9]+]]
++; CHECK:       [[MIDDLE_BLOCK]]:
++; CHECK-NEXT:    [[TMP53:%.*]] = call i64 @llvm.vector.reduce.smin.v4i64(<4 x i64> [[TMP52]])
++; CHECK-NEXT:    [[TMP54:%.*]] = add nsw i64 [[TMP53]], -1
++; CHECK-NEXT:    [[TMP56:%.*]] = call i1 @llvm.vector.reduce.or.v4i1(<4 x i1> [[TMP50]])
++; CHECK-NEXT:    [[TMP57:%.*]] = freeze i1 [[TMP56]]
++; CHECK-NEXT:    [[RDX_SELECT:%.*]] = select i1 [[TMP57]], i64 [[TMP54]], i64 [[RDX_START]]
++; CHECK-NEXT:    br label %[[EXIT:.*]]
++; CHECK:       [[EXIT]]:
++; CHECK-NEXT:    ret i64 [[RDX_SELECT]]
++;
++entry:
++  br label %loop
++
++loop:
++  %iv = phi i64 [ %iv.next, %loop ], [ %n, %entry ]
++  %rdx = phi i64 [ %cond, %loop ], [ %rdx.start, %entry ]
++  %iv.next = add nsw i64 %iv, -1
++  %gep.a.iv = getelementptr inbounds i64, ptr %a, i64 %iv.next
++  %ld.a = load i64, ptr %gep.a.iv, align 8
++  %gep.b.iv = getelementptr inbounds i64, ptr %b, i64 %iv.next
++  %ld.b = load i64, ptr %gep.b.iv, align 8
++  %cmp.a.b = icmp sgt i64 %ld.a, %ld.b
++  %cond = select i1 %cmp.a.b, i64 %iv.next, i64 %rdx
++  %exit.cond = icmp ugt i64 %iv, 1
++  br i1 %exit.cond, label %loop, label %exit
++
++exit:
++  ret i64 %cond
++}
diff --git a/third_party/llvm/workspace.bzl b/third_party/llvm/workspace.bzl
index 1d2327c..f220caa 100644
--- a/third_party/llvm/workspace.bzl
+++ b/third_party/llvm/workspace.bzl
@@ -4,8 +4,8 @@ load("//third_party:repo.bzl", "tf_http_archive")
 
 def repo(name):
     """Imports LLVM."""
-    LLVM_COMMIT = "815edc3ff646392bfee2b381d37dd35e4b04f9c5"
-    LLVM_SHA256 = "bbc6fa4993162bdc7dd39b53927906a455940b87c782d0a37e00127f8bf8c696"
+    LLVM_COMMIT = "2cf353b5e8560723409f3f9164bddec76f499963"
+    LLVM_SHA256 = "3a9b33b701b9ebd4110ef795d23be54fb5d762ca4e190480c4a06d71b7aa8064"
 
     tf_http_archive(
         name = name,
